neuralsat-pt201/example/onnx/fnn_sigmoid.onnx (onnx, 17223 bytes, 6 tensors)

layer.1.weight f4 [5, 784]
000000 a5 dc 34 3b 4a 69 c5 bb 13 c1 d3 bc b7 48 05 bb
       0.0027597335 -0.0060245143 -0.0258489 -0.002033753
000010 9a 57 a2 bc a6 ab 08 3d ca 37 c8 3b 4a b9 0e 3b
       -0.019817162 0.03336682 0.006110166 0.0021777921
000020 dc 59 d6 bc 27 99 d8 bc b7 4c 27 bb 4a 5a 60 b9
       -0.026165895 -0.026440216 -0.0025527903 -0.0002139594
000030 41 27 57 3c 65 74 8b bb 8e 8d 7b 3c 6e 4a 79 bb
       0.013131917 -0.0042558187 0.0153535735 -0.0038038748
000040 ea d1 c3 bc 90 2d 01 bd 13 0e ae 3c 5c a7 1e 3b
       -0.023903806 -0.031537592 0.021246945 0.002420864
000050 4c 84 f8 3c 36 13 04 bd 80 7c 88 3b d1 a2 ff 3c
       0.030336522 -0.032244883 0.004165232 0.031205567
000060 13 e5 d4 3c 61 a5 f1 3c ca b6 04 bb ea 97 14 3c
       0.025988137 0.029497804 -0.0020250552 0.009069422
000070 05 3f 1e 3c 73 8b 94 bc 1a e0 9e 3c dc bb b3 bc
       0.00965858 -0.0181329 0.01939397 -0.021940164
000080 01 d9 f0 3b 25 21 8c 3c 77 92 a1 3c 2c 29 ae 3c
       0.0073500876 0.017105648 0.01972316 0.021259867
000090 4a 6b f0 bb d3 a8 33 3c d0 00 99 3c fb 53 11 3d
       -0.0073370086 0.010965544 0.018677145 0.03548048
0000a0 be 97 87 bc cc 78 ec bc 7a 9c ca 3c 51 ff de bc
       -0.016551849 -0.028866194 0.024732817 -0.027221354
0000b0 e5 3f 0c bd a1 63 69 3c 13 96 01 3b 80 13 8a bb
       -0.034240622 0.014244945 0.001977329 -0.0042137504
0000c0 8c d4 ee 3c 13 40 fc 3c 5c a7 bc 3c 0c 7b e5 bc
       0.029154085 0.030792272 0.023029022 -0.028012775
0000d0 25 3f 99 bb 20 40 97 bc f1 ed fd 3c 6f 09 05 3d
       -0.004676717 -0.018463194 0.030997248 0.0324797
0000e0 03 bc 08 bd dc a8 69 3b f3 eb 20 bc 27 91 88 3c
       -0.033382427 0.0035653627 -0.00982188 0.016670777
0000f0 bb b4 0e bd f8 c0 7f bc 35 7f c4 bc dc 0f ad 3c
       -0.034840327 -0.015609972 -0.023986438 0.021125726
000100 98 18 f9 bc 83 12 c7 3c 77 32 22 bc cc 4c b0 bc
       -0.030407235 0.02430082 -0.009899727 -0.021520995
000110 c3 69 e4 bc 47 a3 93 3c fc 3d 08 3d b8 b3 78 ba
       -0.027882462 0.018022193 0.033262238 -0.00094872294
000120 18 e1 e3 3c ca e6 06 bd 71 2a e6 3c 97 55 59 bc
       0.027817294 -0.03293494 0.02809641 -0.013265035
000130 25 98 94 3b fa 1b ef bc ae 2d 13 3c 2a e2 27 bc
       0.0045347386 -0.029188145 0.008983059 -0.010246793
000140 d7 c9 a9 bc 4a b3 a2 3b c7 64 8a bc cf 6f 10 3d
       -0.020726128 0.0049652206 -0.016893758 0.03526288
000150 45 4c fa bc 3b c8 11 bd d8 e1 f5 3c f3 a6 3e bc
       -0.030553946 -0.035591345 0.030014917 -0.0116364835
000160 21 33 c6 bc 81 2b f4 bc 07 b2 9b bc 4a bf 40 3b
       -0.024194302 -0.0298059 -0.019005788 0.0029410892
000170 05 be f9 bc 2a 51 37 3c 13 85 61 bc 8a 68 9e bb
       -0.030486116 0.011188785 -0.0137646375 -0.0048342394
000180 2a 05 45 3c 83 55 c3 3c 8d 1a 0f 3d 90 2f 11 3d
       0.012025157 0.023844486 0.03493743 0.03544575
000190 fa a9 95 bc 36 f6 0a 3d 6a 8e 23 3c 93 55 cc ba
       -0.018269528 0.03392621 0.009982685 -0.0015589468
0001a0 38 47 60 bc a5 f4 c9 bc 0a 26 b7 3c 17 75 cf bc
       -0.013688855 -0.024652788 0.022357006 -0.025324387
0001b0 4a 23 99 bb 87 7f aa 3c 7c 8c ea 3c 9b 35 10 3d
       -0.0046733962 0.020812763 0.028631441 0.035207372
0001c0 1c f2 ae 3c 93 60 f9 3b f3 23 ac 3c 7c 50 ce bc
       0.021355681 0.0076103895 0.021013236 -0.025184862
0001d0 65 f1 90 3b 07 31 03 bd ec 86 8c 3c 23 4f 11 3d
       0.0044233077 -0.032029178 0.01715418 0.03547586
0001e0 35 25 e2 3c 41 5b 7a bc 25 6a c3 3c 53 09 eb 3b
       0.027605632 -0.015280546 0.023854325 0.0071727424
0001f0 65 ee f2 bc e5 1e f9 3b ba 83 a8 3c 9a df d2 bc
       -0.029654691 0.00760256 0.020570625 -0.025741387
000200 21 e8 3d bc a5 37 dc 3b a3 46 d4 bc fc 46 fe bc
       -0.011590988 0.0067205005 -0.025912588 -0.031039707
000210 97 8c 90 3c dc 96 21 bc 35 34 ef 3c 93 7e e5 3b
       0.017645163 -0.009862628 0.029199699 0.007003614
000220 41 74 f0 bc 5a a8 d3 3c 80 85 04 bd 00 1f 99 3a
       -0.02935231 0.025837112 -0.032353878 0.0011682212
000230 73 7b aa 3c b0 50 8e bc ae 17 8b bb ef 07 0a bd
       0.020810818 -0.01737246 -0.004244766 -0.033698972
000240 7e 0c 90 3c 2e 67 ec bb f3 ef 98 3c 5c 12 36 bc
       0.017584082 -0.0072144484 0.018669104 -0.011112776
000250 41 83 39 bc fe 64 8e bc 20 05 87 3c 33 05 2f bc
       -0.011322797 -0.017382141 0.016481936 -0.010682392
000260 b8 b0 77 3c 3c 7d 23 3c 7e 42 a6 bc a5 4f 38 bc
       0.015117817 0.009978589 -0.020295378 -0.0112494575
000270 73 b1 f5 3c 93 6c 7f bb 6e 40 c2 ba 93 dc ac bc
       0.029991841 -0.0038974627 -0.0014820227 -0.021101272
000280 ea 91 6c bc 9a a3 e3 bc 24 5e 0d bd 8a 9a 6d 3c
       -0.0144390855 -0.027787972 -0.034513608 0.014502177
000290 e1 f8 72 bc 0a 02 10 bc 33 6e 02 3d 60 2b a1 bc
       -0.014829845 -0.008789549 0.031843375 -0.019674003
0002a0 95 c3 9b bc a1 15 b7 3c f8 39 e3 3b b0 bb 03 bd
       -0.01901416 0.02234918 0.0069344006 -0.032161415
0002b0 b5 ee 8f bc ca 65 58 3c eb ea 11 bd b3 8d d7 bc
       -0.01756988 0.013207862 -0.035624426 -0.026312685
0002c0 38 d5 79 3b 33 7d 78 bc 35 6e c9 bc 81 32 70 bb
       0.0038121473 -0.015166569 -0.024588684 -0.0036651196
0002d0 f7 29 b7 3b 25 80 9d 3a f3 c3 96 bc 87 c3 91 bc
       0.0055897194 0.001201634 -0.018403983 -0.01779343
0002e0 77 21 9b bb 00 e6 27 bc 8b 19 0b 3d b3 db 0f bc
       -0.004734214 -0.010247707 0.033959907 -0.008780408
0002f0 25 2e 5e 3c 4a f2 bc bc 1e dc cd bc ae c4 f1 bb
       0.013560806 -0.023064751 -0.025129374 -0.0073781824
000300 ec d9 ab bc 05 5b b9 bc 4c bb b8 bc d3 3c fa bc
       -0.020977937 -0.02262641 -0.022550248 -0.030546581
000310 fa ca a8 3c 21 a2 cd bc 33 fa 80 bc 51 09 fe bc
       0.0206046 -0.025101723 -0.015744304 -0.031010302
000320 81 ee ea bb 80 65 8c 3c dc 8d 76 bc 2a be 74 3c
       -0.007169545 0.017138243 -0.01504847 0.014937917
000330 1e 49 10 3d 67 32 c4 bc 4a 34 f3 3a 58 54 06 3d
       0.03522598 -0.023949815 0.0018555012 0.03279528
000340 53 cc 99 bc 0a 37 de 3c a7 e2 a1 bc 25 ff 01 bd
       -0.018774187 0.027125854 -0.019761397 -0.031737465
000350 15 2d 9e bc e7 52 b1 3c c7 c8 ca bc a5 59 3e bb
       -0.019308606 0.021645976 -0.024753941 -0.0029045132
000360 b8 00 ff bc 23 74 d8 3c 25 58 e5 bc 77 86 13 bc
       -0.031128272 0.026422566 -0.027996132 -0.009004227
000370 ce 74 46 bc e5 2b 0c 3d a5 f4 3c bc 17 68 41 bc
       -0.012112809 0.03422155 -0.011532937 -0.011804602
000380 dc 15 a7 3a e1 ea 43 bc 5a d4 fc bc 93 64 e2 3c
       0.0012747603 -0.011957855 -0.030862976 0.027635848
000390 85 45 14 bc 4e 87 73 bc b7 8f 8a bc 9c 7d e8 bc
       -0.009049778 -0.014863802 -0.016914232 -0.028380208
0003a0 4a 44 ab bc 25 54 cd bb c5 bb eb bc b8 f5 ea bc
       -0.020906586 -0.0062661343 -0.028776059 -0.028681621
0003b0 dc 40 93 3c 01 df ac bb d8 34 f7 3c 6e 19 79 ba
       0.017975263 -0.0052756076 0.030176565 -0.00095023855
0003c0 ec 96 a8 3c 8e f7 c7 3c 01 05 49 bb 65 72 c2 bc
       0.020579778 0.024410035 -0.0030673149 -0.023736188
0003d0 40 b0 84 bc 33 73 f6 bc fa 72 f9 bc ba 29 b1 3c
       -0.016197324 -0.030084228 -0.030450333 0.021626342
0003e0 81 93 4d 3c 48 f5 e4 3c 18 58 ee 3c 05 0e 07 bc
       0.012547375 0.02794899 0.02909474 -0.008243089
0003f0 13 34 27 3c 23 10 cf 3c b7 38 23 3b 0a b7 6a 3c
       0.010205287 0.02527625 0.002490563 0.0143258665

layer.1.bias f4 [5]
000000 a6 34 0a bd 93 a3 d0 bc a5 c0 1f bb 3a 88 9d 3c
       -0.033741616 -0.025468623 -0.00243763 0.019229997
000010 c1 b4 3d bc
       -0.01157874

layer.3.weight f4 [7, 5]
000000 1d 6a 91 3e 24 9a 33 3e 9e e6 7a 3e 6f 40 b3 3e
       0.2840127 0.17539269 0.24502036 0.35010096
000010 78 96 8e 3e 79 68 95 bd 00 df cb bd 13 68 d6 be
       0.27849174 -0.07295317 -0.09954643 -0.41876277
000020 b6 91 c8 bd ca 28 25 be dd 14 fa 3c 2a ad 8f be
       -0.09793417 -0.16128841 0.030527527 -0.280618
000030 8a 6b 65 3e 2d 4d c1 be 9f ea db be 73 7c fc 3d
       0.22404304 -0.37754193 -0.4295244 0.12328424
000040 1d d9 ff bb d3 30 da 3e bd 8d 6d 3e be 88 a1 be
       -0.0078078643 0.42615375 0.231986 -0.31549639
000050 1a 2e c0 3e d5 17 42 bd 25 a4 cd 3e 58 6a a2 3a
       0.37535173 -0.04738601 0.40164295 0.0012391312
000060 e2 35 79 3e ca f2 e2 be 5e af 13 3e cf d0 bd 3e
       0.24336961 -0.44325858 0.14422366 0.3707337
000070 c0 45 b2 3e 2d 4b 9e 3e 5a a9 f2 3d 42 41 95 3c
       0.3481884 0.3091673 0.118487075 0.018219594
000080 e5 df 5b 3e 26 f1 83 bd e2 fe 7c 3e
       0.21472128 -0.0644248 0.24706605

layer.3.bias f4 [7]
000000 10 36 95 be fb 2b cb be e4 64 5f 3d 9b d5 a6 be
       -0.2914281 -0.39681992 0.054539576 -0.32584843
000010 3b b4 d7 bd 25 78 e0 be c3 57 b5 bd
       -0.10532423 -0.43841663 -0.0885463

layer.5.weight f4 [10, 7]
000000 4a c1 8e bc c9 6d 9a 3e 05 04 9d be 49 c2 54 3e
       -0.017426152 0.30161884 -0.3066713 0.20777239
000010 75 7c 74 3c 4f 8a 25 3e 61 39 52 3e dc 92 8e be
       0.014922251 0.16166042 0.20529701 -0.2784642
000020 d3 47 54 be 7a 8c a8 3e 7c 7d 82 3e 85 68 d3 3d
       -0.20730524 0.32919675 0.25486362 0.1032267
000030 9c 4a 81 bd b3 87 3a 3d 4a 40 4f bd 5a 4e 89 be
       -0.06313059 0.04553957 -0.05059842 -0.2681759
000040 0b c6 ed 3c f2 78 92 be a3 09 46 3e 07 ba b3 be
       0.029025098 -0.286079 0.19339614 -0.35102865
000050 7c f1 52 be ed 2c 8f 3e 76 a3 98 be f2 23 63 3d
       -0.20599931 0.27963963 -0.2981221 0.055454202
000060 00 ba 01 3e db df 08 3d ab 68 89 be 33 6d f5 3d
       0.1266861 0.03341661 -0.26837668 0.11983719
000070 5e 57 c6 3d a5 70 5b be 60 87 b1 3e 8a 6b 22 be
       0.09684633 -0.21429689 0.34673595 -0.15861335
000080 20 af 09 3e 89 25 1b be 3d a0 aa 3e 6c ea 42 be
       0.13445711 -0.15151037 0.33325377 -0.19034737
000090 21 dc 5d be ac 7f 87 3e 22 f3 08 3e 72 e1 85 be
       -0.21666004 0.26464593 0.13373998 -0.26148564
0000a0 be 20 75 be 54 c0 7f be 1b 5e 8f be ce f2 af bd
       -0.23938271 -0.24975711 -0.28001484 -0.08591233
0000b0 04 6d 10 3e 21 51 ae 3d b5 16 a8 be 43 d6 68 be
       0.14104086 0.08511568 -0.32829824 -0.22737984
0000c0 0f 7b a1 3d 42 3f 1b be 7e ed c9 3d 93 e2 00 be
       0.078848 -0.1516085 0.09859751 -0.12586431
0000d0 ca 38 4f 3e 13 07 49 bd f1 6a 8c be f3 73 27 3e
       0.20236507 -0.049079012 -0.2742534 0.16352825
0000e0 66 0e e2 bd 3d 22 84 be f1 67 78 be 5b 9e d9 bd
       -0.110379025 -0.25807372 -0.242584 -0.10625907
0000f0 80 5a 73 be 0c af 7b 3e 69 70 73 be 7c bc 47 3e
       -0.23764992 0.24578494 -0.2377335 0.19505495
000100 55 9a 9c be 03 17 94 be a3 5f 58 3e 95 a8 aa be
       -0.30586496 -0.28923807 0.21130233 -0.33331743
000110 fc 55 bb 3e 0e 7c d1 bc
       0.36589038 -0.02557185

layer.5.bias f4 [10]
000000 c8 c3 95 be d8 c9 27 3e 44 95 bf be e8 eb a9 3d
       -0.29250932 0.16385591 -0.37418568 0.08296949
000010 1e b0 25 be c8 84 a5 3e d1 8e c0 3e ef d9 f5 bd
       -0.16180465 0.32327867 0.3760896 -0.12004458
000020 8e df 35 be 41 1a 9b be
       -0.1776106 -0.30293468
