neuralsat/example/fnn.onnx (onnx, 794 bytes, 6 tensors)

1.weight f4 [3, 2]
00000000: 8479 97be cedd 303f 2bc6 7c3b 9050 30bf
00000010: fc12 333f 7afa 013e
-0.29584897 0.6908845 0.0038570266 -0.6887293 0.6995084 0.12693205

1.bias f4 [3]
00000000: c1ed 91be 6b26 1b3f 9d57 213f
-0.28501704 0.60605496 0.6302431

3.weight f4 [4, 3]
00000000: c761 95be 4535 c8be e37a 113f 9f9e d13e
00000010: facf 9f3d 1186 c33d edb2 e4bc 43f6 9ebe
00000020: f4b8 cd3d 00ae 4bbe eb4f fcbe 9e8d c53e
-0.2917616 -0.3910314 0.56828135 0.4094133 0.0780334 0.095470555 -0.02791735 -0.31047258
0.10045043 -0.19890594 -0.49279723 0.38584608

3.bias f4 [4]
00000000: 8e14 123f 504e 8c3e 0afb b1bc e514 ce3e
0.57062614 0.27403498 -0.02172615 0.40250316

5.weight f4 [2, 4]
00000000: e290 fdbe 1eab 8dbe fcbb 94be 78ef e8be
00000010: 043b e63e 6043 cdbc c821 a83e 887a cd3e
-0.495246 -0.27669615 -0.2904967 -0.454952 0.449669 -0.025056541 0.32838273 0.40132546

5.bias f4 [2]
00000000: 760d 8cbe 4088 273c
-0.2735402 0.010225356
