neuralsat/example/relu2.onnx (onnx, 487 bytes, 4 tensors)

linear1.weight f4 [3, 2]
1.0 2.0 3.0 4.0 -5.0 -6.0
00000000: 0000 803f 0000 0040 0000 4040 0000 8040
00000010: 0000 a0c0 0000 c0c0

linear1.bias f4 [3]
1.0 2.0 3.0
00000000: 0000 803f 0000 0040 0000 4040

linear2.weight f4 [2, 3]
-1.0 -2.0 -3.0 4.0 5.0 6.0
00000000: 0000 80bf 0000 00c0 0000 40c0 0000 8040
00000010: 0000 a040 0000 c040

linear2.bias f4 [2]
2.0 3.0
00000000: 0000 0040 0000 4040
