benchmark/ablation_mnistfc_medium/onnx/mnistfc-medium-net-117.onnx (onnx, 739219 bytes, 14 tensors)

layers.2.sequential.0.weight f4 [128, 784]
-0.035406973 0.016666828 -0.030238543 -0.008972134 0.009346244 0.020786002 0.019818716 -0.011484185
0.021691509 0.02757602 0.0017663841 -0.017320488 0.005252757 -0.03489003 0.0052514235 0.026173834
-0.0031568229 -0.0075041307 -0.027986405 -0.009886567 -0.029401857 -0.034352988 0.0022925583 0.0051263096
-0.008451502 -0.03878704 0.009303937 -0.03302831 0.021436015 -0.022495095 -0.041985698 -0.009570603
-0.03228546 -0.023090348 0.013416197 -0.02826059 -0.024574675 0.025459407 -0.0021518117 0.016611066
-0.027079778 0.02739744 -0.028937675 0.02921046 0.00018424384 -0.0077874996 -0.033080596 0.003765622
0.026706943 -0.011735384 -0.013387648 0.028048182 -0.0035423401 0.0061143613 0.02706551 0.014921929
0.02442256 0.023584152 -0.033519275 0.024676558 -0.0023907546 -0.021153018 -0.004797308 0.0075397124
0.02319147 0.017123196 -0.019210383 0.014395884 0.008439572 0.039424036 0.06971967 0.04118514
0.01029283 0.0071485755 0.033368796 -0.014335834 0.017196892 0.04499813 0.031494096 0.00026143988
0.018776875 -0.027538715 -0.013593819 -0.03169326 0.011960192 -0.016752774 -0.03218656 -0.013624775
0.024298733 0.02701919 -0.004599011 -0.0023297335 -0.014473937 0.03333092 0.021767152 -0.0012651288
0.040851858 -0.00461062 0.036692217 0.025518844 0.045373734 0.025678527 0.049373258 0.011540856
0.024891451 -0.0115430085 0.034289986 0.00070041465 0.024087517 0.008658316 0.008883022 -0.034447975
-0.041635875 -0.001652099 0.025414942 0.008357432 -0.033726186 -0.039234016 0.0054702256 -0.0041756677
-0.03134694 -0.01158577 -0.046786144 -0.03915077 -0.047491178 0.02096436 -0.032231774 -0.018307922
0.0050859945 -0.01222686 0.028282005 0.027968965 0.014981643 0.0062516006 0.014998734 0.014623532
-0.03580925 -0.041742843 -0.0048780534 0.010436165 -0.025867946 -0.017874453 -0.016207805 -0.0060454817
-0.009168799 0.011975399 -0.013177429 -0.034199346 -0.04471757 0.01040489 -0.016557394 -0.0080407355
-0.04646295 -0.008556798 0.033419162 -0.02683374 -0.014198838 -0.010558052 -0.019736813 0.027551567
0.029074023 -0.022099549 -0.010073557 -0.0005709573 0.025468722 0.022718206 0.009508115 0.027481984
0.0020678989 0.0043385085 -0.038652603 -0.033895694 -0.048405204 -0.02781299 -0.023902684 -0.05668506
-0.005508228 -0.039468333 -0.054182474 -0.050928447 0.0008019309 -0.029537559 -0.0021387676 0.02225616
0.009803487 -0.03212341 0.007319855 0.023659183 -0.04217689 -0.03700478 -0.023499439 0.01480197
0.009733929 0.0037682608 -0.027460752 -0.028466823 -0.0077992463 -0.019913768 -0.034066647 0.010441201
0.009285284 -0.052457374 -0.036605302 0.009713204 -0.0039577885 -0.024319626 -0.0277042 -0.011069529
-0.0068119317 -0.030033657 -0.0040524774 -0.009341024 -0.04319376 -0.03772663 -0.036873512 -0.035919536
-0.014095657 0.02089203 -0.014884457 0.023450462 -0.031810716 -0.02070281 0.0062948465 0.0026670725
-0.034704607 -0.005529763 0.016062815 -0.01502047 -0.01297168 -0.00020370288 -0.057178393 -0.0531331
-0.056873463 -0.0076148505 -0.021071244 0.017407404 0.002794771 0.024015695 0.0030485832 0.004079102
0.011607735 -0.006152675 -0.041403137 -0.012757737 -0.04458335 -0.010845441 -0.042878415 -0.014587238
-0.031608313 -0.0023928864 0.025202444 -0.019402826 0.011654631 -0.013703681 -0.043854166 -0.011560763
00000000: e706 11bd df88 883c d2b6 f7bc dcff 12bc
00000010: fd20 193c 6847 aa3c dc5a a23c 2a28 3cbc
00000020: 64b2 b13c 1be7 e13c 0486 e73a b2e3 8dbc
00000030: 521f ac3b d9e8 0ebd 2214 ac3b 826a d63c
00000040: b3e2 4ebb 36e5 f5bb bf43 e5bc 44fb 21bc
00000050: 2adc f0bc b8b5 0cbd bf3e 163b 9afa a73b
00000060: 2b78 0abc 29df 1ebd 8a6f 183c b148 07bd
00000070: 959a af3c a247 b8bc 32f9 2bbd 05ce 1cbc
00000080: c23d 04bd f827 bdbc 9ccf 5b3c c182 e7bc
00000090: d450 c9bc 3f90 d03c 6905 0dbb ee13 883c
000000a0: 69d6 ddbc 9970 e03c b40e edbc c64a ef3c
000000b0: 9431 4139 482e ffbb 857f 07bd a7c8 763b
000000c0: 85c8 da3c c545 40bc de57 5bbc 4dc5 e53c
000000d0: 9b26 68bb fb5a c83b 7db8 dd3c 1b7b 743c
000000e0: d211 c83c 8d33 c13c 824b 09bd 7e26 ca3c
000000f0: 35ae 1cbb 1849 adbc bc32 9dbb b10f f73b
00000100: 0afc bd3c f245 8c3c 185f 9dbc b7dc 6b3c
00000110: 2146 0a3c 197b 213d 30c9 8e3d c0b1 283d
00000120: 42a3 283c 993e ea3b b8ad 083d d9e0 6abc
00000130: 7fe0 8c3c f64f 383d f4ff 003d de11 8939
00000140: f6d1 993c df98 e1bc 9cb8 5ebc cbd0 01bd
00000150: aef4 433c 1d3d 89bc 0ed6 03bd 733a 5fbc
00000160: 230e c73c 5957 dd3c 4db3 96bb 71ae 18bb
00000170: 1824 6dbc 0186 083d 0751 b23c aed2 a5ba
00000180: 4754 273d af14 97bb 944a 163d e50c d13c
00000190: cfd9 393d c65b d23c 9d3b 4a3d dc15 3d3c
000001a0: 28e9 cb3c e31e 3dbc a873 0c3d 089c 373a
000001b0: 2f53 c53c 9cdb 0d3c 188a 113c 5219 0dbd
000001c0: 618a 2abd 3e8b d8ba ff32 d03c 9ced 083c
000001d0: 7824 0abd d9b3 20bd 943f b33b 0ad4 88bb
000001e0: a665 00bd 3ed2 3dbc d4a2 3fbd 8f5c 20bd
000001f0: 1c86 42bd 73bd ab3c 7705 04bd 7ffa 95bc
00000200: 6aa8 a63b 2b53 48bc aaaf e73c 2c1f e53c
00000210: 9175 753c 3ada cc3b 40bd 753c 8a97 6f3c
00000220: b8ac 12bd 8bfa 2abd 14d8 9fbb 73fc 2a3c
00000230: 04e9 d3bc 726d 92bc 3bc6 84bc 2d19 c6bb
00000240: bb38 16bc 7734 443c 25e6 57bc 9d14 0cbd
00000250: c529 37bd 4679 2a3c 5fa3 87bc 4abd 03bc
00000260: ef4f 3ebd d031 0cbc 88e2 083d 6ed2 dbbc
00000270: 3ea2 68bc aefb 2cbc 19af a1bc d3b3 e13c
00000280: a52c ee3c 1d0a b5bc 8f0b 25bc 4cac 15ba
00000290: c8a3 d03c 881b ba3c edc7 1b3c e621 e13c
000002a0: 9685 073b 0c2a 8e3b 3152 1ebd 36d6 0abd
000002b0: 8944 46bd 11d8 e3bc 90cf c3bc 982e 68bd
000002c0: 5e7e b4bb 8ca9 21bd 71ee 5dbd 599a 50bd
000002d0: ac38 523a c0f8 f1bc 912a 0cbb 8d52 b63c
000002e0: ce9e 203c d693 03bd 65db ef3b e7d0 c13c
000002f0: adc1 2cbd 5392 17bd e581 c0bc f683 723c
00000300: 0f7b 1f3c edf4 763b 5ff5 e0bc 4133 e9bc
00000310: d290 ffbb 3322 a3bc 7889 0bbd 9211 2b3c
00000320: 4e21 183c 8bdd 56bd 71ef 15bd 2124 1f3c
00000330: 56b0 81bb f439 c7bc ebf3 e2bc f85c 35bc
00000340: a036 dfbb 2509 f6bc a5ca 84bb 180b 19bc
00000350: f1eb 30bd 3d87 1abd ae08 17bd 5d20 13bd
00000360: 78f1 66bc c325 ab3c f0dd 73bc 2f1b c03c
00000370: f44b 02bd f098 a9bc 0045 ce3b 0dca 2e3b
00000380: 6b26 0ebd 0433 b5bb 2a96 833c 6b18 76bc
00000390: 2b87 54bc 1399 55b9 e433 6abd 18a2 59bd
000003a0: 26f4 68bd ff85 f9bb 9a9d acbc f999 8e3c
000003b0: 7a28 373b 90bc c43c bdca 473b fda9 853b
000003c0: 5f2e 3e3c 619c c9bb 5696 29bd d405 51bc
000003d0: 089d 36bd 14b1 31bc 47a1 2fbd 50ff 6ebc
000003e0: b877 01bd f9d1 1cbb 5b75 ce3c adf2 9ebc
000003f0: 11f3 3e3c 6785 60bc 6da0 33bd 5b69 3dbc

layers.2.sequential.0.bias f4 [128]
-0.027734734 -0.01187369 -0.020534448 0.036077574 -0.010640837 -0.015218735 -0.016219052 0.049453665
-0.017153231 0.0030354154 -0.004601955 0.041279882 -0.009570349 0.021307217 0.016968615 0.018019475
0.012018198 0.04620617 -0.0069366503 0.030200195 0.046935692 0.004505131 0.051679958 -0.010291402
0.042654157 -0.021859534 0.00081384194 0.00052024215 -0.0010024419 0.017018486 0.04962691 0.019906713
-0.021290177 -0.013933062 -0.021495283 0.00338186 0.006593432 -0.022921855 0.002699582 0.041069686
0.03091759 0.043954812 0.025283687 -0.006383718 -0.008515648 0.028747017 -0.020006139 0.036346026
-0.010452085 0.0017694116 0.01763571 0.008343701 0.005152906 -0.022433424 -0.0026352645 0.029174253
0.02188531 0.02208777 0.003652363 0.038695496 0.035868496 0.028589528 -0.012542904 0.013046316
0.008467792 0.026129454 -0.0056524747 0.03575472 0.018924125 0.027069775 0.03943765 0.0045960047
0.02694086 -0.0092603285 0.019453622 0.0058118673 0.02466215 0.0221169 0.02253431 -0.0133894775
0.025585247 0.020344414 0.01375991 0.02923879 -0.004855357 0.0029517442 0.025868528 -0.011844432
-0.026193075 -0.009616966 -0.016967196 0.031462044 -0.0053001624 0.030080685 0.008889797 0.03958774
0.0043220664 0.03279665 -0.009991269 0.01784241 0.0058774375 0.032802053 -0.009549552 0.00092594797
-0.019591026 0.020278439 0.017260062 -0.0012639958 0.016959328 -0.017144851 -0.01785938 0.008239883
0.01868861 0.030025888 0.009089951 0.0094020255 0.004113921 0.0005467448 0.046129987 0.03113825
-0.002903759 0.0344803 -0.0049524535 0.025390035 0.021770705 0.017645335 0.0011313738 0.051448274
00000000: f433 e3bc de89 42bc dc37 a8bc 14c6 133d
00000010: e856 2ebc 0058 79bc d1dd 84bc ed8f 4a3d
00000020: ef84 8cbc d2ed 463b ffcb 96bb 1815 293d
00000030: f4cc 1cbc 798c ae3c c401 8b3c 949d 933c
00000040: fae7 443c ae42 3d3d d74c e3bb 6666 f73c
00000050: a43f 403d c79f 933b 5dae 533d 459d 28bc
00000060: 20b6 2e3d c412 b3bc 0258 553a dc60 083a
00000070: 5e64 83ba 5a6a 8b3c 9645 4b3d 6713 a33c
00000080: bd68 aebc 7f47 64bc e016 b0bc 32a2 5d3b
00000090: b70d d83b 9dc6 bbbc 78eb 303b b038 283d
000000a0: e346 fd3c f609 343d bc1f cf3c 822e d1bb
000000b0: 3785 0bbc dd7e eb3c eae3 a3bc 92df 143d
000000c0: 393f 2bbc 9aeb e73a c478 903c 05b4 083c
000000d0: b5d9 a83b 4dc6 b7bc 67b4 2cbb d8fe ee3c
000000e0: d248 b33c 69f1 b43c 7c5c 6f3b 2b7f 1e3d
000000f0: d8ea 123d 9634 ea3c c180 4dbc 37c0 553c
00000100: 7ebc 0a3c 700d d63c 6538 b9bb 8b73 123d
00000110: c406 9b3c 6fc1 dd3c 6089 213d 159a 963b
00000120: 14b3 dc3c a2b8 17bc 345d 9f3c 7a71 be3b
00000130: 4708 ca3c 802e b53c e099 b83c 8a5f 5bbc
00000140: 2798 d13c 54a9 a63c 3f71 613c 3086 ef3c
00000150: b019 9fbb 0d72 413b 3cea d33c 260f 42bc
00000160: dc92 d6bc 7b90 1dbc cafe 8abc 58de 003d
00000170: fcac adbb c56b f63c 83a6 113c c126 223d
00000180: 1fa0 8d3b c855 063d 6bb2 23bc 3f2a 923c
00000190: 8597 c03b 725b 063d b975 1cbc 51bb 723a
000001a0: 5c7d a0bc f81e a63c f964 8d3c a9ac a5ba
000001b0: 4aee 8a3c 5c73 8cbc d64d 92bc 9300 073c
000001c0: db18 993c daf8 f53c 05ee 143c f40a 1a3c
000001d0: 12ce 863b 6c53 0f3a ccf2 3c3d a515 ff3c
000001e0: fe4c 3ebb 373b 0d3d 3148 a2bb c3fe cf3c
000001f0: 7a58 b23c f38c 903c 9b4a 943a 6dbb 523d

layers.3.sequential.0.weight f4 [128, 128]
-0.014991817 -0.09107916 -0.047315292 -0.088018514 -0.03991385 0.044948768 0.020044573 -0.0791561
-0.08435292 -0.034786362 0.05523053 -0.034655638 -0.06200001 -0.049735628 0.025702272 0.022719251
0.07757677 -0.0095102675 -0.039500114 -0.03740189 -0.010756771 0.039699357 -0.042880036 0.078000456
0.03967264 -0.014228706 -0.09059823 0.0005324735 -0.02530988 -0.042077165 0.023964098 -0.07052495
-0.04061553 0.05662738 0.045083996 0.034881335 -0.07622591 -0.05092124 0.07985942 0.01519855
-0.08249826 0.05093308 -0.08134189 -0.0048284717 0.023283295 0.03203971 0.026665423 -0.067811
-0.050096016 -0.06320663 0.07316314 0.04309535 -0.06299747 -0.003227483 -0.02097214 -0.052156452
-0.036334693 -0.066273645 0.03197003 0.040950313 0.0009804001 0.012976305 -0.060684726 -0.026279928
-0.04409472 -0.07803691 0.020958643 0.049987447 0.08010488 -0.073874414 0.018969461 -0.07816625
0.053444546 0.07326077 0.05538634 -0.013487839 0.051815372 -0.019197077 -0.0646101 0.075669006
-0.09252318 -0.024106588 -0.064722285 0.025885196 -0.03274777 -0.039221294 -0.07297757 0.07840929
-0.053439785 0.057643827 -0.007497686 -0.03729863 0.046992064 0.005789218 -0.041545082 0.060989924
-0.08331609 -0.03357734 -0.005326862 -0.07516798 -0.0785977 0.08152254 0.038223047 -0.039480772
0.0072887386 0.0322899 -0.0029276146 0.042398434 -0.023956606 0.052040074 0.036979146 0.0756311
0.03703525 -0.09403093 0.050896715 0.025711784 -0.020687683 -0.035033572 0.05351218 -0.057122994
0.0753752 -0.056223135 0.06124334 -0.063963056 -0.08809647 -0.038312882 -0.04137853 -0.032954752
-0.0015416609 0.016502492 -0.026622243 0.065165326 -0.051629543 -0.04473524 0.09021662 0.08549695
-0.0038908683 -0.16239017 0.013991426 0.028625067 0.12161509 -0.030390877 -0.05665511 -0.048153423
0.078673 0.059945002 0.040933777 0.11299948 -0.05029837 0.044964794 0.07540496 0.00715414
-0.119498074 -0.036619224 -0.026166815 0.073588565 0.08452998 -0.15997761 0.06789298 -0.0530095
0.10538185 0.06775311 -0.069627576 0.06975902 0.03489329 0.007765047 -0.025824778 0.053245682
-0.012587297 0.089348376 -0.034119334 -0.046626087 -0.031009339 -0.021906037 -0.038666688 0.05607174
-0.038099248 -0.011678179 -0.052105565 -0.045016468 0.13135844 0.09533984 -0.0870283 0.016759895
-0.11193798 0.077653244 0.08064149 0.041035373 -0.047850017 0.01920374 0.02203048 -0.08028305
0.08820169 0.054397102 -0.041787714 -0.0580704 0.11626346 -0.02568992 0.018745067 0.009823666
-0.015502174 0.0062265247 0.06408094 0.062127274 0.08530978 -0.08101771 -0.04973374 0.014657557
-0.031498443 -0.063842595 0.10459219 -0.030601887 0.033322934 -0.057276208 -0.05263523 -0.055700567
-0.10387155 -0.06131137 0.060337495 -0.03860953 0.044721384 0.09482953 -0.0237287 -0.025146144
0.013384292 0.053641297 -0.004825432 -0.019962953 0.13431868 0.017171288 0.030855602 -0.010582721
0.07511796 -0.08651161 0.09354248 -0.085259624 0.08501604 -0.04496026 0.041925043 0.016427025
0.050244305 0.037779402 0.061198447 0.111357056 -0.06270132 -0.0074998555 -0.01747688 -0.064890355
0.07704089 -0.035886362 0.12088761 0.032105867 0.0112811485 0.0853242 0.109080516 0.10062314
00000000: 3da0 75bc b687 babd aecd 41bd 0d43 b4bd
00000010: b57c 23bd 331c 383d 8434 a43c 981c a2bd
00000020: 39c1 acbd 257c 0ebd 6939 623d 12f3 0dbd
00000030: b9f3 7dbd 96b7 4bbd 928d d23c b91d ba3c
00000040: 92e0 9e3d f4d0 1bbc dfca 21bd b932 19bd
00000050: 2b3d 30bc cb9b 223d faa2 2fbd b4be 9f3d
00000060: c77f 223d 851f 69bc 918b b9bd b195 0b3a
00000070: aa56 cfbc 1b59 2cbd 5b50 c43c 636f 90bd
00000080: 785c 26bd 1df2 673d ffa9 383d bbdf 0e3d
00000090: 541c 9cbd ca92 50bd 568d a33d 5703 793c
000000a0: d9f4 a8bd 359f 503d 9496 a6bd 2838 9ebb
000000b0: 9cbc be3c 123c 033d 7271 da3c 7ee0 8abd
000000c0: 7b31 4dbd 7a72 81bd 8ed6 953d c084 303d
000000d0: d104 81bd 2e84 53bb c4cd abbc 01a2 55bd
000000e0: b0d3 14bd 7aba 87bd 02f3 023d 84bb 273d
000000f0: c580 803a 919a 543c 8c90 78bd 0149 d7bc
00000100: aa9c 34bd d1d1 9fbd 76b1 ab3c a3bf 4c3d
00000110: 070e a43d 784b 97bd d865 9b3c a015 a0bd
00000120: abe8 5a3d be09 963d c9dc 623d 19fc 5cbc
00000130: 5b3c 543d 3043 9dbc 4d52 84bd 5af8 9a3d
00000140: cb7c bdbd 2e7b c5bc 1e8d 84bd 310d d43c
00000150: 8722 06bd 82a6 20bd 4475 95bd 0d95 a03d
00000160: ade3 5abd ef1b 6c3d 26af f5bb 73c6 18bd
00000170: c07a 403d 7bb3 bd3b 2d2b 2abd 92d0 793d
00000180: a0a1 aabd 6588 09bd f58c aebb abf1 99bd
00000190: d5f7 a0bd 4af5 a63d c58f 1c3d 97b6 21bd
000001a0: 5fd6 ee3b 6a42 043d 39dd 3fbb fba9 2d3d
000001b0: a540 c4bc f927 553d 7277 173d 7ae4 9a3d
000001c0: 46b2 173d 4a93 c0bd 1379 503d 85a1 d23c
000001d0: 3779 a9bc 5d7f 0fbd 962f 5b3d cdf9 69bd
000001e0: 505e 9a3d 3b4a 66bd 4cda 7a3d 10ff 82bd
000001f0: ec6b b4bd f8ed 1cbd 897c 29bd 90fb 06bd
00000200: 8e11 caba 3c30 873c e416 dabc 6675 853d
00000210: 8079 53bd 4d3c 37bd 7ec3 b83d 0619 af3d
00000220: f0fd 7ebb 9c49 26be 4b3c 653c 1e7f ea3c
00000230: 5511 f93d 4af6 f8bc 300f 68bd 863c 45bd
00000240: 4f1f a13d e488 753d 2daa 273d 456c e73d
00000250: aa05 4ebd 012d 383d ea6d 9a3d 476d ea3b
00000260: 68bb f4bd 0afe 15bd ca5b d6bc 9ab5 963d
00000270: 0e1e ad3d 2cd1 23be 7a0b 8b3d 7d20 59bd
00000280: 70d2 d73d 24c2 8a3d e798 8ebd d1dd 8e3d
00000290: 44ec 0e3d ef71 fe3b 7c8e d3bc 2518 5a3d
000002a0: f33a 4ebc 48fc b63d b7c0 0bbd fffa 3ebd
000002b0: 4c07 febc 4a74 b3bc f660 1ebd 7bab 653d
000002c0: f50d 1cbd d555 3fbc a56c 55bd 3063 38bd
000002d0: d482 063e 8941 c33d e53b b2bd 0c4c 893c
000002e0: bd3f e5bd aa08 9f3d 5e27 a53d b514 283d
000002f0: 61fe 43bd 2951 9d3c 4479 b43c 716b a4bd
00000300: 16a3 b43d 7fcf 5e3d 9829 2bbd 3adb 6dbd
00000310: 891b ee3d ab73 d2bc 418f 993c 71f3 203c
00000320: d5fc 7dbc e007 cc3b de3c 833d 2b79 7e3d
00000330: e5b6 ae3d 9dec a5bd 9bb5 4bbd 4026 703c
00000340: 8304 01bd e8bf 82bd 6e34 d63d cfb0 fabc
00000350: a17d 083d 759a 6abd 0a98 57bd 4726 64bd
00000360: 9bba d4bd a221 7bbd 7324 773d 0725 1ebd
00000370: c52d 373d fc35 c23d b162 c2bc 49ff cdbc
00000380: ca49 5b3c fab6 5b3d a81e 9ebb 5989 a3bc
00000390: d68a 093e cdaa 8c3c e3c4 fc3c 2663 2dbc
000003a0: 72d7 993d 002d b1bd 3393 bf3d 999c aebd
000003b0: e41c ae3d 4028 38bd 98b9 2b3d f891 863c
000003c0: f9cc 4d3d 93be 1a3d 39ab 7a3d 2b0f e43d
000003d0: 8d69 80bd 59c1 f5bb ad2b 8fbc 3ce5 84bd
000003e0: 9dc7 9d3d 94fd 12bd ec93 f73d 7181 033d
000003f0: 91d4 383c 74be ae3d 9b65 df3d 8113 ce3d

layers.3.sequential.0.bias f4 [128]
-0.09261775 -0.028628364 0.077043496 -0.04763568 0.09436534 -0.05085161 0.093120605 0.05707434
-0.07251105 -0.0658995 0.03303819 -0.047019254 -0.015049032 0.010235706 -0.07834361 0.04551995
0.08883831 0.06650906 -0.03929336 -0.057185926 0.037253823 -0.06794967 0.068338394 -0.057257902
0.008042414 0.09684468 0.06921478 0.042357575 0.054100826 -0.011550652 -0.08713384 0.06899242
0.057373058 0.060034107 0.04544709 0.058060333 0.009520322 0.094331376 -0.032168157 -0.06504078
0.09293855 -0.008655715 -0.070834324 0.045666255 0.007601909 0.060533855 0.01676864 -0.06691931
-0.046993654 -0.078202076 -0.041747104 -0.028186543 -0.06152848 -0.07086118 0.08834026 0.06395449
0.044466443 -0.038298137 -0.020281889 0.06855187 0.059831552 -0.01883873 -0.012077563 0.056331217
-0.027518302 0.02484583 -0.067146376 -0.056367874 0.003587956 0.044733547 0.01069178 -0.052052546
0.06565273 0.072069146 -0.03744135 -0.06626142 -0.020255076 -0.009996286 0.06912207 -0.04973946
-0.04016115 0.0015943665 0.005673429 -0.054471504 0.05895796 0.092444174 -0.015447208 0.106296085
0.05899177 -0.02895319 0.07616982 0.045392483 0.0036169402 -0.05376929 -0.023856165 -0.029005053
-0.023873942 0.069817774 -0.0698865 -0.04226866 0.005500812 0.07263214 0.022368675 0.010573397
0.08802546 0.038016085 0.06617737 0.10678394 -0.008367797 -0.020620735 0.034375336 0.025440712
0.05183153 0.014990846 0.030922655 0.08983448 -0.03541449 -0.028503079 0.06908818 0.056519378
0.095102884 -0.054752745 0.03195727 0.06702314 -0.017219134 -0.011682857 -0.0028620977 0.065109506
00000000: 60ae bdbd 0886 eabc fbc8 9d3d a11d 43bd
00000010: 9e42 c13d c749 50bd 04b6 be3d c8c6 693d
00000020: ac80 94bd 51f6 86bd 0e53 073d 4397 40bd
00000030: 3790 76bc aab3 273c 9d72 a0bd 2173 3a3d
00000040: dcf0 b53d e735 883d 13f2 20bd ca3b 6abd
00000050: 7797 183d 3229 8bbd 00f5 8b3d 4387 6abd
00000060: 54c4 033c 8156 c63d 7bc0 8d3d 237f 2d3d
00000070: d498 5d3d f23e 3dbc 3a73 b2bd e64b 8d3d
00000080: 0300 6b3d 53e6 753d ba26 3a3d acd0 6d3d
00000090: 20fb 1b3c cf30 c13d c2c2 03bd 1a34 85bd
000000a0: 9156 be3d b3d0 0dbc 9611 91bd 8a0c 3b3d
000000b0: 6f19 f93b 59f2 773d 635e 893c fe0c 89bd
000000c0: 6b7c 40bd 6928 a0bd 03ff 2abd 77e7 e6bc
000000d0: 4a05 7cbd ab1f 91bd bdeb b43d 92fa 823d
000000e0: 7222 363d 82de 1cbd 3426 a6bc ec64 8c3d
000000f0: ee11 753d ae53 9abc f9e0 45bc 90bb 663d
00000100: 106e e1bc 7b89 cb3c 0a84 89bd 00e2 66bd
00000110: ea23 6b3b 863a 373d 932c 2f3c 0d35 55bd
00000120: f074 863d fd98 933d 1a5c 19bd 11b4 87bd
00000130: f9ed a5bc 76c7 23bc df8f 8d3d 9bbb 4bbd
00000140: 0580 24bd 10fa d03a 2ce8 b93b 831d 5fbd
00000150: e77d 713d 5f53 bd3d 4916 7dbc c3b1 d93d
00000160: 5ba1 713d 3e2f edbc ecfe 9b3d 78ed 393d
00000170: 300a 6d3b 303d 5cbd 016e c3bc 019c edbc
00000180: 4993 c3bc 9ffc 8e3d a720 8fbd e721 2dbd
00000190: 2840 b43b 29c0 943d 833e b73c 0b3c 2d3c
000001a0: b146 b43d c1b6 1b3d 0088 873d 8ab1 da3d
000001b0: 1619 09bc d1ec a8bc 27cd 0c3d 0a69 d03c
000001c0: 4c4d 543d 2a9c 753c 8251 fd3c 24fb b73d
000001d0: c90e 11bd 4a7f e9bc 1b7e 8d3d dd80 673d
000001e0: 4dc5 c23d 6a44 60bd a0e5 023d 6e43 893d
000001f0: 240f 8dbc 7469 3fbc 0892 3bbb 2258 853d

layers.4.sequential.0.weight f4 [128, 128]
0.043270063 0.083244726 -0.0010550562 0.054202963 0.028231962 -0.060921032 -0.006485309 -0.029427674
-0.009929877 0.043442857 0.009265967 -0.066204086 -0.009744003 -0.006072373 0.094507225 -0.032211263
-0.013075956 0.011050376 -0.014203489 -0.07124854 -0.029324954 -0.04367529 -0.09943305 0.11665796
0.013721094 0.015527423 -0.040344995 -0.050815552 0.033833943 0.007306194 -0.06699003 -0.0011341742
0.05324792 0.007744523 -0.012236234 0.11293962 -0.034725506 0.0144143365 -0.057139423 -0.07055047
-0.023114566 0.06902101 0.0020352434 0.018907595 0.09426809 -0.060712572 -0.06625873 0.102259584
-0.009262223 0.034217115 -0.066364415 0.015490266 0.025732568 0.0547608 0.0046566464 0.05387408
0.041335937 0.045715846 -0.06647462 -0.06577351 0.034672126 0.045937996 0.056761105 -0.09188792
-0.0046059517 0.102877386 0.028242128 0.082640074 -0.037567534 0.003188434 -0.06057633 0.07252334
-0.0022449486 0.058351897 0.058976155 -0.007958696 0.10498888 -0.008493893 0.0096898135 0.043256663
0.043950908 0.08465849 -0.054564863 0.0718156 0.064406745 -0.040656388 -0.016802443 0.0579373
0.037666894 -0.017795948 0.08900399 -0.050447684 0.09060992 -0.0009152851 -0.048746686 0.015789185
-0.046002332 0.059482753 0.04245539 0.003261551 0.031167237 0.08630193 0.015626445 -0.051536594
0.038818613 0.030388048 0.019337919 0.016888777 -0.04575108 -0.066507556 -0.06580704 0.03346763
-0.07451591 -0.055385537 -0.08243457 0.109560825 -0.055128694 0.07926873 0.052939385 0.023959804
-0.08960783 0.065854706 0.056674477 0.0030754097 -0.03312258 0.10296424 0.07620306 0.07374573
-0.026155585 0.094939634 0.03506384 0.09580299 0.029823696 0.0048069158 0.033335496 -0.03056831
-0.073110975 -0.03712632 -0.04632853 0.08988989 0.03650182 0.10374741 0.0769061 0.016401768
0.02343608 -0.01996926 -0.021439949 -0.03894016 -0.038613472 0.059306953 0.04695998 0.12501927
0.0900146 -0.0244367 0.034892943 0.015747346 0.03111264 -0.010720958 -0.03090627 0.04541767
0.05979422 0.06273683 0.021037882 0.045804292 -0.057100594 0.017115181 -0.016145432 -0.04775449
0.04039916 0.023537748 0.056263834 0.0014956131 0.034274872 0.072695695 0.009858677 -0.028575305
0.02532984 0.03204289 0.027445095 0.0888145 -0.016817 0.0045472756 0.007479007 -0.08750163
0.101162955 0.042620134 -0.054861866 0.011274079 0.06849201 0.047334284 0.084617905 0.00215705
0.024837354 0.114507936 -0.06055594 0.00796829 -0.016180454 0.07115285 0.060441412 -0.038572207
-0.07670134 -0.0012971308 -0.05260688 -0.00045714385 0.096468024 0.06422441 -0.035274856 0.092382416
0.0879997 0.12259034 0.08292477 -0.0029923688 -0.020049406 0.028992679 0.07661952 0.01728647
0.003876871 -0.055919282 -0.059460938 -0.07681486 0.07189197 -0.08446717 0.0022643728 0.027802132
0.05411009 0.0011105702 -0.041243397 0.03192151 -0.04301639 -0.0016721843 0.047028616 -0.05089397
-0.05112754 0.07093578 -0.07702493 0.057962395 -0.042255167 -0.056453485 -0.029181056 0.079775736
-0.08977081 -0.060623962 0.0030937323 0.025849542 -0.050779723 -0.055800978 -0.051666677 0.016744308
-0.03863741 -0.08264146 -0.0734194 0.0542571 -0.065686464 0.0071554263 -0.061254136 0.028349806
00000000: f33b 313d 367c aa3d d049 8aba ed03 5e3d
00000010: b746 e73c 5588 79bd b782 d4bb 4e12 f1bc
00000020: ecb0 22bc 23f1 313d 48d0 173c 0296 87bd
00000030: 50a5 1fbc c2fa c6bb 018d c13d f5ef 03bd
00000040: 893c 56bc a30c 353c c0b5 68bc c1ea 91bd
00000050: e33a f0bc dce4 32bd 8ea3 cbbd 5eea ee3d
00000060: 70ce 603c bb66 7e3c cb40 25bd f823 50bd
00000070: 7695 0a3d cc68 ef3b 1232 89bd 92a8 94ba
00000080: 7e1a 5a3d c5c5 fd3b 7c7a 48bc e34c e73d
00000090: 553c 0ebd 1c2a 6c3c 070b 6abd c47c 90bd
000000a0: c25a bdbc e35a 8d3d b861 053b 1ae4 9a3c
000000b0: a10f c13d bfad 78bd a8b2 87bd 796d d13d
000000c0: 94c0 17bc 3f27 0c3d 11ea 87bd e2ca 7d3c
000000d0: 1bcd d23c dc4c 603d c896 983b 11ab 5c3d
000000e0: df4f 293d 8a40 3b3d d823 88bd 43b4 86bd
000000f0: 5c04 0e3d 7b29 3c3d 557e 683d bc2f bcbd
00000100: 86ed 96bb 61b1 d23d 095c e73c 333f a93d
00000110: 6ae0 19bd 0cf5 503b e31e 78bd 1e87 943d
00000120: fd1f 13bb 6602 6f3d fb90 713d 3165 02bc
00000130: 6904 d73d f829 0bbc 06c2 1e3c e62d 313d
00000140: de05 343d 6e61 ad3d 687f 5fbd 0f14 933d
00000150: afe7 833d 5087 26bd 47a5 89bc aa4f 6d3d
00000160: 9a48 1a3d cfc8 91bc b947 b63d 3ba2 4ebd
00000170: b291 b93d beef 6fba 9baa 47bd 5258 813c
00000180: f16c 3cbd 30a4 733d b4e5 2d3d bfbf 553b
00000190: 6f52 ff3c 11bf b03d 0803 803c 0918 53bd
000001a0: 4400 1f3d 5bf0 f83c 8e6a 9e3c 555a 8a3c
000001b0: 7c65 3bbd 1d35 88bd d7c5 86bd 5b15 093d
000001c0: cc9b 98bd f2db 62bd 75d3 a8bd 6d61 e03d
000001d0: a0ce 61bd a557 a23d f8d6 583d 5a47 c43c
000001e0: 4f84 b7bd d5de 863d 7f23 683d d08c 493b
000001f0: 8bab 07bd eade d23d 5a10 9c3d 0008 973d
00000200: 3d44 d6bc b66f c23d 1a9f 0f3d 5c34 c43d
00000210: d350 f43c 5583 9d3b cd8a 083d 646a fabc
00000220: 35bb 95bd c511 18bd fcc2 3dbd 3118 b83d
00000230: ef82 153d 8679 d43d f280 9d3d 005d 863c
00000240: 06fd bf3c 9396 a3bc d5a2 afbc b87f 1fbd
00000250: 2929 1ebd d9eb 723d 1c59 403d 0d05 003e
00000260: 9359 b83d 792f c8bc e7eb 0e3d 9400 813c
00000270: efdf fe3c f5a6 2fbc 252f fdbc e107 3a3d
00000280: c9ea 743d 2b7c 803d a357 ac3c 489d 3b3d
00000290: 50e2 69bd 2335 8c3c 6d43 84bc 369a 43bd
000002a0: 9779 253d 3cd2 c03c e874 663d 7308 c43a
000002b0: cf63 0c3d 7be1 943d 4a86 213c c216 eabc
000002c0: 8680 cf3c 683f 033d 89d4 e03c 60e4 b53d
000002d0: cec3 89bc 5001 953b 7512 f53b 0e34 b3bd
000002e0: 862e cf3d 7392 2e3d d6b6 60bd eab6 383c
000002f0: 8a45 8c3d 98e1 413d 274c ad3d 4b5d 0d3b
00000300: b577 cb3c 2383 ea3d 8109 78bd 6e8d 023c
00000310: df8c 84bc 96b8 913d 6a91 773d e4fd 1dbd
00000320: 9815 9dbd 7d04 aaba 507a 57bd cfac efb9
00000330: 0791 c53d 1688 833d 5e7c 10bd fe32 bd3d
00000340: 3039 b43d a510 fb3d 76d4 a93d 9e1b 44bb
00000350: a73e a4bc 0e82 ed3c b2ea 9c3d 5b9c 8d3c
00000360: 1a13 7e3b 9e0b 65bd 508d 73bd 1c51 9dbd
00000370: 193c 933d 20fd acbd df65 143b 4cc1 e33c
00000380: 8ba2 5d3d 8d90 913a d6ee 28bd 21c0 023d
00000390: f431 30bd 322d dbba 14a1 403d 3276 50bd
000003a0: 1d6b 51bd c746 913d 3fbf 9dbd fa69 6d3d
000003b0: c113 2dbd c53b 67bd 1c0d efbc 7661 a33d
000003c0: c2d9 b7bd d550 78bd 37c0 4a3b 6bc2 d33c
000003d0: 66fe 4fbd 918f 64bd 70a0 53bd 5c2b 893c
000003e0: 4342 1ebd ed3f a9bd e95c 96bd b13c 5e3d
000003f0: a086 86bd 1178 ea3b 9ee5 7abd da3d e83c

layers.4.sequential.0.bias f4 [128]
0.10281553 0.0066235657 -0.07998592 -0.036155555 0.01319713 0.027259098 -0.04727613 -0.006552897
0.04399461 0.08957801 0.03424847 -0.05952601 0.031582125 -0.02215267 0.019005142 0.08378797
-0.067357056 0.023858167 0.018140825 0.05088601 0.09422768 0.008478055 -0.009992989 0.012666587
0.06991507 0.012236482 0.016590707 0.008325163 -0.017972212 0.06792358 0.09219964 -0.009779481
-0.040572166 -0.063980386 0.030033704 0.016203366 0.061562553 0.029893905 -0.017805561 0.05271054
0.029669914 -0.06343732 5.1276773e-05 -0.016367488 -0.06681041 0.06575686 0.009436312 -0.056370713
0.091835365 -0.009308329 0.06474906 0.062308963 0.05790439 0.010520991 0.028972203 0.011036902
-0.0713627 -0.016599346 -0.08469392 0.059088096 0.04378006 0.064118214 -0.024112852 -0.05089423
-0.017301919 0.09331304 0.034135114 -0.017632592 -0.07677047 0.057879217 -0.01211259 0.06388344
-0.07011224 -0.04292218 0.07829752 -0.028922593 -0.01503587 0.012796864 0.038818147 0.016565274
-0.062693246 -0.015841713 -0.03479159 0.091170564 -0.044475786 -0.060031243 0.041663647 -0.0069271154
-0.013920411 -0.008979485 0.05945761 -0.04076697 0.10689133 -0.07113549 1.2301995e-05 0.07492118
0.0006022287 -0.09169328 0.0067470064 -0.045828044 -0.053333595 0.011431193 0.02860556 -0.009621791
-0.042089377 -0.028062286 -0.03593383 0.056259528 0.05716717 -0.04308782 -0.011643556 0.05506971
0.04252476 0.045583513 -0.0030410176 0.01887999 0.01275001 -0.060964365 0.04323412 -0.03976813
-0.03231488 0.061314095 0.04059611 -0.024921989 0.069808714 -0.058956873 0.02232253 0.062130928
00000000: f390 d23d 7f0a d93b a8cf a3bd d917 14bd
00000010: c638 583c 794e df3c 9ea4 41bd afb9 d6bb
00000020: b133 343d ad74 b73d 2048 0c3d 8cd1 73bd
00000030: 425c 013d 8479 b5bc acb0 9b3c 0799 ab3d
00000040: 7ff2 89bd 3472 c33c 119c 943c d96d 503d
00000050: 71fa c03d 8ae7 0a3c a2b9 23bc 8487 4f3c
00000060: a22f 8f3d 877b 483c 3ce9 873c 4466 083c
00000070: 763a 93bc 851b 8b3d 2ad3 bc3d 1e3a 20bc
00000080: 002f 26bd 2608 83bd 3e09 f63c ecbc 843c
00000090: 0429 7c3d 10e4 f43c f8dc 91bc 02e7 573d
000000a0: 520e f33c 6deb 81bd 0412 5738 1c15 86bc
000000b0: e5d3 88bd 88ab 863d c39a 1a3c fae4 66bd
000000c0: 2e14 bc3d f681 18bc 289b 843d af37 7f3d
000000d0: 272d 6d3d 3c60 2c3c 1d57 ed3c 1fd4 343c
000000e0: 9b26 92bd 5afb 87bc 0274 adbd 5c06 723d
000000f0: b852 333d 6950 833d 5188 c5bc 7876 50bd
00000100: c1bc 8dbc e81a bf3d 43d1 0b3d 3a72 90bc
00000110: d639 9dbd c212 6d3d e273 46bc 52d5 823d
00000120: 0297 8fbd 2bcf 2fbd 735a a03d 13ef ecbc
00000130: 0259 76bc f0a9 513c c7ff 1e3d e6b3 873c
00000140: 5165 80bd 7bc6 81bc a081 0ebd a2b7 ba3d
00000150: 3e2c 36bd 52e3 75bd 80a7 2a3d dbfc e2bb
00000160: 6f12 64bc b11e 13bc d389 733d 44fb 26bd
00000170: d7e9 da3d 7caf 91bd ab64 4e37 4770 993d
00000180: e2de 1d3a b0c9 bbbd fe15 dd3b 30b6 3bbd
00000190: 5474 5abd e649 3b3c 3556 ea3c b7a4 1dbc
000001a0: e965 2cbd e1e2 e5bc 5a2f 13bd 6470 663d
000001b0: 1f28 6a3d db7c 30bd 9dc4 3ebc c790 613d
000001c0: 712e 2e3d c7b5 3a3d cf4b 47bb 35aa 9a3c
000001d0: 6be5 503c c5b5 79bd 4316 313d e8e3 22bd
000001e0: 9c5c 04bd 7d24 7b3d 1b48 263d 3329 ccbc
000001f0: dff7 8e3d c37c 71bd bddd b63c 007d 7e3d

layers.5.sequential.0.weight f4 [128, 128]
-0.04704162 -0.022759302 -0.06623353 0.016563442 0.0006453363 0.06324817 0.038921367 0.1103512
-0.028711086 0.04689786 -0.06009081 -0.01668728 0.08263664 0.10207717 0.06693315 -0.014715751
-0.027140388 -0.07925616 -0.003906006 0.056362294 0.045140658 -0.086586915 -0.005635785 0.041610558
0.041656237 -0.09786712 0.018090649 0.027625447 0.032398485 0.07972482 0.016142769 -0.037862413
-0.0084396 -0.065462284 0.06161219 0.05148424 0.025665032 -0.08507882 0.11273435 0.0131404465
0.09882961 0.027104465 -0.03233846 0.013158389 -0.009295763 0.05001451 0.045356486 0.036421694
-0.04488539 -0.00081680156 -0.06715059 0.06137387 0.11081348 -0.012716487 0.029527862 -0.07257287
-0.08734949 0.00024203211 -0.057752866 0.07488927 -0.028453486 0.035515267 -0.027214956 0.002937187
0.07237321 0.11513696 0.021445015 -0.0108116055 -0.03378717 0.039833765 0.065766096 -0.017090999
0.042519085 0.043458328 0.04449908 -0.004508161 -0.0013085741 -0.028634692 0.037648775 -0.023704268
-0.016034301 0.08893431 0.0904291 0.07289589 0.094213314 0.010905462 -0.022481078 -0.023691375
0.027962942 0.07183574 0.07551416 -0.023300309 0.055282302 -0.00863023 0.10566197 -0.0640222
0.06980873 -0.093706556 0.045129515 -0.019761765 0.028068181 0.07419027 0.050703827 -0.070811145
-0.086541235 0.048405685 0.041550096 -0.047438946 0.10390169 0.08685179 0.06283149 -0.00437833
0.06533157 -0.007750495 -0.07784261 -0.067452386 -0.040363394 0.07327433 -0.043022 0.086117454
-0.105551474 -0.017635377 -0.02447493 -0.020129386 -0.027778612 0.017762888 0.06164233 -0.018703587
0.059752725 0.08076494 0.048182014 0.076965064 -0.04242237 0.069502756 -0.039535627 0.01938884
-0.082057506 0.051625133 0.034315612 -0.054095995 0.07891352 0.051335905 0.038798038 0.12634534
0.044286255 -0.08926596 -0.04412065 -0.05359848 -0.11042983 -0.006504664 0.05598382 -0.056669656
-0.035405636 -0.02455554 -0.028216993 0.018810326 -0.07852681 -0.00096436555 -0.05593823 -0.0016360275
-0.054627348 0.026540305 0.018666787 -0.07225653 -0.092640094 -0.03293906 -0.054261845 0.00655371
0.08405512 0.03992534 0.08020164 0.082231626 -0.038462006 -0.03697539 0.08322628 -0.037053112
-0.080403596 -0.014530528 0.058125835 -0.028897129 -0.050036058 -0.062027078 0.095845476 -0.069596246
-0.031017512 -0.04192487 -0.0572024 0.07268447 0.07845826 0.10262765 -0.08659602 0.07621053
0.0019698383 -0.052396744 -0.093919136 -0.06857898 0.00091970427 0.023330921 -0.061995786 -0.022027899
-0.05728695 0.027191354 0.058911778 0.043476716 0.08215584 0.04129594 -0.032125015 0.04794972
-0.03438583 -0.056191146 -0.038632125 0.090335034 -0.030707669 0.042623375 0.041380823 -0.00864593
-0.10979085 -0.0140559 0.0487532 0.047689106 0.011018639 -0.081494056 -0.013208955 0.024950845
0.073132396 -0.06539198 -0.016807612 0.045743156 -0.06512453 0.049775477 0.0035206373 -0.019475635
0.073606655 0.03668046 -0.04499495 0.049411718 0.040987793 -0.00061057624 -0.01257278 0.070274666
0.0029849354 0.1233325 0.017039517 0.02825095 0.09480744 -0.09016873 -0.020022016 -0.04842411
-0.010848724 -0.05320907 0.0062322104 0.060472094 -0.03541928 -0.044298608 0.0098578995 0.074066095
00000000: b7ae 40bd b771 babc 72a5 87bd 0eb0 873c
00000010: c92b 293a 4288 813d 036c 1f3d cfff e13d
00000020: 8333 ebbc f817 403d c821 76bd c3b3 88bc
00000030: 663d a93d d60d d13d 3f14 893d 551a 71bc
00000040: 8555 debc 0e51 a2bd e8fb 7fbb 26dc 663d
00000050: 69e5 383d 7b54 b1bd 64ac b8bb d56f 2a3d
00000060: bb9f 2a3d 8e6e c8bd d732 943c c34e e23c
00000070: 46b4 043d c446 a33d d73d 843c 9e15 1bbd
00000080: 3f46 0abc 1711 86bd 105d 7c3d 23e1 523d
00000090: 793f d23c ce3d aebd 44e1 e63d 074b 573c
000000a0: 2e67 ca3d 2f0a de3c 5575 04bd 4996 573c
000000b0: 424d 18bc 04dc 4c3d b9c7 393d ea2e 153d
000000c0: bed9 37bd a01e 56ba 4086 89bd 2b63 7b3d
000000d0: 2ef2 e23d d058 50bc 6ae4 f13c 16a1 94bd
000000e0: 4ae4 b2bd 00ca 7d39 458e 6cbd 8c5f 993d
000000f0: 4917 e9bc 7578 113d e6f1 debc d27d 403b
00000100: 6838 943d edcc eb3d 75ad af3c 2923 31bc
00000110: 6a64 0abd bb28 233d 60b0 863d 6c02 8cbc
00000120: 7e28 2e3d 5c01 323d ab44 363d 32b9 93bb
00000130: 7684 abba 4d93 eabc 9a35 1a3d 742f c2bc
00000140: 5e5a 83bc 3123 b63d e432 b93d 714a 953d
00000150: e9f2 c03d d3ac 323c 3d2a b8bc 6a14 c2bc
00000160: 8a12 e53c 9e1e 933d 2ba7 9a3d 4ae0 bebc
00000170: b26f 623d cf65 0dbc 4e65 d83d 121e 83bd
00000180: e1f7 8e3d 39e9 bfbd bad9 383d 6de3 a1bc
00000190: 3eef e53c 11f1 973d d1ae 4f3d 6f05 91bd
000001a0: 883c b1bd 0a45 463d 6f30 2a3d 574f 42bd
000001b0: 69ca d43d 5adf b13d ccad 803d 1878 8fbb
000001c0: 8fcc 853d ddf7 fdbb f26b 9fbd 7a24 8abd
000001d0: 1654 25bd da10 963d d637 30bd 595e b03d
000001e0: 5f2b d8bd 1178 90bc a67f c8bc 62e6 a4bc
000001f0: f98f e3bc 7a83 913c ab7c 7c3d 4438 99bc
00000200: 46bf 743d 1768 a53d 815a 453d dc9f 9d3d
00000210: 14c3 2dbd 7657 8e3d 1cf0 21bd 58d5 9e3c
00000220: c40d a8bd e074 533d 878e 0c3d c393 5dbd
00000230: 699d a13d 9945 523d b1ea 1e3d ac60 013e
00000240: 8165 353d 12d1 b6bd dbb7 34bd 148a 5bbd
00000250: 0929 e2bd 1425 d5bb 4a4f 653d 711e 68bd
00000260: 8005 11bd b328 c9bc 5327 e7bc 1d18 9a3c
00000270: aad2 a0bd 7acd 7cba 7c1f 65bd f96f d6ba
00000280: edc0 5fbd 0e6b d93c 17eb 983c 3bfb 93bd
00000290: 17ba bdbd 1ceb 06bd ab41 5ebd 81c0 d63b
000002a0: 1725 ac3d c188 233d c240 a43d 0e69 a83d
000002b0: 568a 1dbd 8273 17bd 8a72 aa3d 01c5 17bd
000002c0: a4aa a4bd 7411 6ebc 5b15 6e3d acb9 ecbc
000002d0: 9cf2 4cbd 1b10 7ebd a24a c43d 7a88 8ebd
000002e0: 7018 febc 6ab9 2bbd 104d 6abd 98db 943d
000002f0: b9ae a03d 722e d23d 4159 b1bd 4414 9c3d
00000300: 6718 013b f89d 56bd ad58 c0bd 2373 8cbd
00000310: 4f18 713a 7d20 bf3c 4bef 7dbd da73 b4bc
00000320: b9a5 6abd 67c0 de3c 7a4d 713d a414 323d
00000330: 5241 a83d ee25 293d 8595 03bd ed66 443d
00000340: 28d8 0cbd b028 66bd b83c 1ebd 9301 b93d
00000350: a68e fbbc d995 2e3d f07e 293d a9a7 0dbc
00000360: 06da e0bd b84a 66bc 6fb1 473d a755 433d
00000370: 8687 343c 5be6 a6bd 5f6a 58bc b765 cc3c
00000380: 70c6 953d 3bec 85bd 1eb0 89bc 2d5d 3b3d
00000390: 0260 85bd 5fe1 4b3d 7eba 663b 5e8b 9fbc
000003a0: 16bf 963d 403e 163d a04c 38bd f163 4a3d
000003b0: d1e2 273d 140f 20ba 10fe 4dbc 2aec 8f3d
000003c0: e89e 433b c095 fc3d 7596 8b3c 896e e73c
000003d0: 672a c23d 62aa b8bd 3605 a4bc 5c58 46bd
000003e0: d9be 31bc c1f1 59bd 9237 cc3b 96b1 773d
000003f0: cf13 11bd 7572 35bd 0783 213c f7af 973d

layers.5.sequential.0.bias f4 [128]
-0.044023156 -0.0710398 -0.04313355 0.035072457 -0.02198128 0.071853265 0.09273515 -0.017027698
4.9119204e-05 0.13503121 0.066805445 0.04577588 0.0080330735 -0.012593058 0.04163863 -0.07292948
-0.012292038 0.039274465 -0.01943479 0.069311365 0.0117198 0.031441074 0.08056219 0.07145338
-0.11757727 -0.05379015 0.016373418 -0.0643298 -0.08755289 -0.04335827 0.01924375 -0.044166464
-0.00985914 0.019506354 0.077492386 0.121194735 0.07423887 0.020933013 0.088189855 0.0017650175
-0.051120233 0.1007957 -0.07070183 -0.05107134 0.028643804 0.04661968 -0.022812672 -0.084034525
0.05453846 -0.06158576 0.055645723 0.04845915 0.08622385 -0.002679116 -0.00088178006 0.025721313
0.05139289 -0.048568044 0.0940918 0.012297532 -0.0462485 0.06297533 -0.025437048 0.018525245
-0.06439532 -0.025689382 0.026234161 0.030996755 0.11155914 -0.045868922 0.055177383 0.033926092
0.029865183 -0.033576034 -0.014493952 -0.011035879 0.046232246 0.086760506 0.081745304 0.044205032
-0.04292131 0.009175449 0.08478115 -0.056225717 0.05806786 -0.03178264 0.05056115 0.017308146
0.106160745 0.03554615 0.050339893 0.016852882 0.0031136777 -0.06449785 0.044525772 -0.026147969
0.05134486 -0.011060609 0.10645595 0.0012068042 -0.02267285 0.07658953 0.05227088 0.027089152
-0.028875139 0.02435915 -0.01299179 0.021903701 0.03955139 -0.013445715 -0.03212683 -0.024633257
0.070527345 0.027289033 0.026009396 -0.014428618 0.029579842 0.071133554 0.06319536 -0.048812594
0.014913629 -0.009837733 0.020092227 -0.07780933 -0.011623477 0.0042515076 -0.037936028 0.04281473
00000000: a051 34bd 517d 91bd ceac 30bd 23a8 0f3d
00000010: 1612 b4bc ce27 933d edeb bd3d ac7d 8bbc
00000020: 5805 4e38 9f45 0a3e 4bd1 883d 7d7f 3b3d
00000030: 279d 033c 1d53 4ebc 458d 2a3d 0d5c 95bd
00000040: 8b64 49bc 43de 203d b535 9fbc 1ef3 8d3d
00000050: 6704 403c 5bc8 003d cafd a43d 2656 923d
00000060: 5acc f0bd 0f53 5cbd 8c21 863c 58bf 83bd
00000070: ee4e b3bd 7198 31bd 12a5 9d3c e5e7 34bd
00000080: 3b88 21bc cacb 9f3c 54b4 9e3d f234 f83d
00000090: 8c0a 983d b67b ab3c e29c b43d 2958 e73a
000000a0: 7363 51bd fa6d ce3d 1fcc 90bd 2e30 51bd
000000b0: 69a6 ea3c 47f4 3e3d a4e1 babc 4b1a acbd
000000c0: b863 5f3d 5a41 7cbd c5ec 633d 1a7d 463d
000000d0: 2196 b03d 1c94 2fbb 4227 67ba 81b5 d23c
000000e0: 5a81 523d 49ef 46bd 34b3 c03d 967b 493c
000000f0: 116f 3dbd 36f9 803d 5b61 d0bc 41c2 973c
00000100: b2e1 83bd 8a72 d2bc 06e9 d63c e8ec fd3c
00000110: 1e79 e43d 0de1 3bbd ae01 623d 16f6 0a3d
00000120: d4a7 f43c 0687 09bd 0a78 6dbc d5cf 34bc
00000130: 065e 3d3d 7eaf b13d 156a a73d 5610 353d
00000140: 41ce 2fbd 9f54 163c bda1 ad3d f04c 66bd
00000150: 90d8 6d3d 832e 02bd 3519 4f3d d0c9 8d3c
00000160: ce6a d93d d798 113d 3431 4e3d 0e0f 8a3c
00000170: d80e 4c3b 7317 84bd a860 363d 4434 d6bc
00000180: fd4e 523d 8e37 35bc 9405 da3d a12d 9e3a
00000190: 6abc b9bc f9da 9c3d fe19 563d 12ea dd3c
000001a0: 8e8b ecbc d78c c73c 84db 54bc 646f b33c
000001b0: a300 223d 6b4b 5cbc 6c97 03bd afcb c9bc
000001c0: a470 903d 408d df3c a811 d53c 0366 6cbc
000001d0: 6d51 f23c 78ae 913d 926c 813d b7ef 47bd
000001e0: 4b58 743c 712e 21bc 7498 a43c 7f5a 9fbd
000001f0: 6570 3ebc 3b50 8b3b cf62 1bbd 805e 2f3d

layers.6.sequential.0.weight f4 [128, 128]
0.048696723 0.09490816 0.04280684 -0.033693906 -0.04964892 -0.09022592 -0.028307322 -0.11975119
0.059513193 0.06423936 -0.0399333 0.09441303 -0.009374781 0.032342445 -0.047588285 0.061920267
0.057285167 -0.036033418 -0.058595505 -0.015367917 0.08388927 0.09549225 0.104779646 -0.010329238
0.033672404 -0.0029191647 -0.03212355 0.0061851344 -0.07747279 0.03847203 -0.06123445 0.09663585
-0.084446 0.095365636 0.089385055 -0.005265529 -0.018092856 -0.07273375 -0.07627428 0.060290646
0.06558939 -0.026082395 0.025498468 -0.0045365654 -0.04420938 -0.031524785 0.033398602 0.062194396
-0.012372722 0.08835375 0.035474837 0.09432672 0.10616076 0.105231866 0.026738103 0.042376664
-0.046260674 0.09180276 -0.11289797 -0.017668203 0.08263706 0.09129511 -0.010498206 0.070783235
-0.0057024206 0.04710753 -0.060101572 0.03986418 0.021534268 0.032712348 -0.029360676 0.09843052
-0.009369269 -0.038474858 0.04388152 0.055673633 0.06399877 0.0020460628 -0.03191108 0.023246659
-0.011495474 -0.10305348 0.1051367 -0.057296745 0.022345798 0.0238807 0.019131964 0.068889104
0.08352331 0.08452896 -0.0023914725 0.027856573 -0.035361327 -0.017876858 0.1093659 -0.07129807
0.016300961 0.086075775 -0.036989544 0.034088515 -0.039273787 0.04168174 0.10307235 -0.0007661911
0.010897856 0.016102515 0.08420547 -0.054135304 0.10407479 0.05684859 -0.060905688 -0.08360211
-0.014607779 0.027647894 -8.261892e-05 0.070597686 0.047013883 -0.011507673 0.054164782 -0.08384591
0.06914582 0.009096296 0.10437959 -0.041900285 0.030655742 0.020515766 -0.00843097 -0.026416635
-0.078131266 -0.051076017 0.032690186 -0.02365643 -0.023315078 -0.037632946 0.060901508 -0.05215182
0.00012278542 -0.06342982 0.078164145 0.04902225 0.07644729 -0.05237606 -0.013096534 0.08330414
-0.08231033 0.071610436 0.099336624 -0.019166268 0.038607277 -0.059928413 -0.06458781 0.08408481
0.10509257 -0.044915788 0.08928613 -0.04998067 -0.0102219395 0.061444856 -0.068179734 0.020899704
0.06558276 0.03847803 0.017245686 0.11797144 -0.00479183 -0.06299679 -0.0675014 -0.07650798
0.006034112 -0.048407424 -0.0026706583 0.06817456 -0.06524541 0.067655824 -0.07673122 0.036403675
0.013035028 0.11851656 0.10378381 0.08187453 0.075504504 0.054686554 -0.03354704 0.061089054
-0.026684072 0.055647157 -0.04205002 0.005403311 0.06274431 0.03942746 0.08978933 0.014619933
-0.032362625 -0.0116118705 -0.009725709 -0.004992919 0.06514707 -0.0269253 0.031094674 0.034610625
0.022870664 0.0019286558 -0.017905606 0.067632064 0.06454889 -0.05172838 -0.049112312 0.07230766
-0.03422348 -0.11257777 0.08804579 -0.014779803 0.041631076 -0.02015631 -0.07187875 0.08173524
-0.035652015 0.058829524 0.011385716 0.002562246 -0.02212222 -0.013574981 0.10104438 -0.051705096
0.015563328 0.086075805 -0.051013205 -0.052763328 -0.052351948 0.031586923 0.0016193147 -0.07602384
0.051791083 0.12706988 0.020515068 -0.02633927 0.087365225 0.016322544 -0.01597666 -0.110617004
-0.050773844 -0.047837418 0.08667159 0.023584982 0.04664247 0.13087785 0.0749411 -0.020889092
0.047550365 -0.08247349 -0.058042414 -0.024836523 -0.05512574 0.07448813 -0.03243129 0.10173497
00000000: 3776 473d 365f c23d 3a56 2f3d 9f02 0abd
00000010: aa5c 4bbd 5ec8 b8bd c2e4 e7bc 1d40 f5bd
00000020: 1bc4 733d ed8f 833d 1a91 23bd 9e5b c13d
00000030: ae98 19bc 8379 043d efeb 42bd 1ba0 7d3d
00000040: daa3 6a3d c797 13bd d701 70bd b7c9 7bbc
00000050: 23ce ab3d 7191 c33d b696 d63d f73b 29bc
00000060: 13ec 093d 754f 3fbb fc93 03bd abac ca3b
00000070: 0eaa 9ebd d994 1d3d fad0 7abd 04e9 c53d
00000080: 06f2 acbd 0f4f c33d 830f b73d 758a acbb
00000090: 7837 94bc 6ff5 94bd b135 9cbd 53f3 763d
000000a0: bb53 863d bfaa d5bc 2ae2 d03c 78a7 94bb
000000b0: e514 35bd 2220 01bd f9cc 083d 8dbf 7e3d
000000c0: f5b6 4abc d0f2 b43d 104e 113d 5e2e c13d
000000d0: d06a d93d ce83 d73d de09 db3c 2793 2d3d
000000e0: d57b 3dbd 1603 bc3d 0d37 e7bd e8bc 90bc
000000f0: 9e3d a93d eef8 ba3d ab00 2cbc cdf6 903d
00000100: 5fdb babb d3f3 403d 112d 76bd 9f48 233d
00000110: a268 b03c 62fd 053d cd85 f0bc f195 c93d
00000120: 9081 19bc d097 1dbd 1cbd 333d 090a 643d
00000130: ca11 833d 3d17 063b 31b5 02bd c76f be3c
00000140: 8357 3cbc b40d d3bd e951 d73d feaf 6abd
00000150: 890e b73c 75a1 c33c a3ba 9c3c bb15 8d3d
00000160: 450e ab3d 851d ad3d 40ba 1cbb 7833 e43c
00000170: 0ad7 10bd 7d72 92bc 3bfb df3d b904 92bd
00000180: 9889 853c 7f48 b03d 5982 17bd 66a0 0b3d
00000190: 8ddd 20bd 79ba 2a3d 9917 d33d 37da 48ba
000001a0: ec8c 323c 6ce9 833c eb73 ac3d fbbc 5dbd
000001b0: 2a25 d53d 11da 683d 3e78 79bd 9537 abbd
000001c0: 7755 6fbc d67d e23c b243 adb8 8595 903d
000001d0: a191 403d ae8a 3cbc e4db 5d3d 68b7 abbd
000001e0: 539c 8d3d a108 153c f7c4 d53d a29f 2bbd
000001f0: c021 fb3c ae10 a83c 0d22 0abc b367 d8bc
00000200: 4903 a0bd 1635 51bd 25e6 053d 21cb c1bc
00000210: 43ff bebc 0125 1abd dc73 793d 269d 55bd
00000220: f6bf 0039 7ee7 81bd 8614 a03d 8ecb 483d
00000230: 6690 9c3d 4888 56bd d892 56bc 5c9b aa3d
00000240: 5192 a8bd 7ea8 923d 0071 cb3d 9402 9dbc
00000250: aa22 1e3d 7f77 75bd 9d46 84bd a834 ac3d
00000260: c63a d73d 9ef9 37bd a6db b63d 88b8 4cbd
00000270: ec79 27bc 9aad 7b3d d1a1 8bbd db35 ab3c
00000280: 4150 863d 249b 1d3d d346 8d3c 039b f13d
00000290: c904 9dbb 7604 81bd 2d3e 8abd 37b0 9cbd
000002a0: cdb9 c53b dd46 46bd 3606 2fbb 1b9f 8b3d
000002b0: 639f 85bd 238f 8a3d 4225 9dbd 051c 153d
000002c0: df90 553c cfb8 f23d 9b8c d43d d5ad a73d
000002d0: 1ba2 9a3d 02ff 5f3d 9f68 09bd 8438 7a3d
000002e0: 8e98 dabc 46ee 633d a43c 2cbd 420e b13b
000002f0: 1780 803d b07e 213d 78e3 b73d 7288 6f3c
00000300: ac8e 04bd b73f 3ebc 9558 1fbc a49b a3bb
00000310: d46b 853d 7292 dcbc 42ba fe3c dfc3 0d3d
00000320: 425b bb3c f3ca fc3a c7ae 92bc ae82 8a3d
00000330: 3532 843d 23e1 53bd fe29 49bd 0a16 943d
00000340: eb2d 0cbd 2d8f e6bd 5a51 b43d fd26 72bc
00000350: 5985 2a3d d91e a5bc 2b35 93bd ce64 a73d
00000360: d907 12bd 3af7 703d 278b 3a3c 5beb 273b
00000370: a839 b5bc 9969 5ebc 5bf0 ce3d b9c8 53bd
00000380: 54fd 7e3c 8348 b03d 39f3 50bd 5c1e 58bd
00000390: ff6e 56bd 4a61 013d 2f3f d43a 63b2 9bbd
000003a0: e322 543d 9b1e 023e 370f a83c 74c5 d7bc
000003b0: 8aec b23d dbb6 853c 7ce1 82bc 2b8b e2bd
000003c0: 3cf8 4fbd 2bf1 43bd e080 b13d 4b35 c13c
000003d0: 2d0c 3f3d d804 063e b87a 993d 9a1f abbc
000003e0: 2cc4 423d dce7 a8bd e2bd 6dbd f775 cbbc
000003f0: 87cb 61bd 3c8d 983d acd6 04bd 6d5a d03d

layers.6.sequential.0.bias f4 [128]
0.093562484 0.07011089 0.07178739 0.023158602 0.028754588 0.0003379519 0.008229122 -0.025218235
-0.024768328 0.05128593 -0.039815214 0.09756173 0.062152587 -0.016043754 0.104707085 -0.0041028294
-0.07590134 0.05938483 -0.07350566 0.051431663 -0.027557006 -0.019853545 0.02346582 -0.04607659
0.021973103 -0.052190766 0.090957075 0.0013227862 0.059590857 0.062453248 0.09977186 -0.07535636
-0.08164098 0.06063805 -0.00576735 -0.04784132 -0.04363605 0.05043141 -0.06520046 -0.0024742477
0.015334379 0.02372619 -0.004451965 -0.021722538 0.048090283 -0.076947734 0.045419745 -0.059295584
-0.060254317 0.08213965 -0.014423569 0.05470505 -0.0030205129 0.0060473476 -0.055385012 -0.021497386
0.06792542 -0.07060127 0.09425675 -0.018966882 -0.08345645 0.050697688 0.048564915 0.019974586
0.007654004 0.04546793 0.041382656 0.07750725 0.07427338 0.071366735 0.09680891 0.04393784
0.06276938 0.040978353 0.012580705 0.047049988 -0.020183608 0.051739797 0.011612159 -0.08579563
-0.06671413 -0.082735956 -0.026004523 0.064585574 -0.06302504 -0.04031492 -0.030411731 -0.007003235
0.023127481 0.050911102 -0.04326479 0.114743866 -0.06913901 0.075933754 0.046076577 0.06958822
0.033671997 -0.011503645 -0.02146293 0.04087523 -0.027622392 0.039953362 -0.03901602 -0.082913056
-0.064883634 -0.029520964 0.03380406 0.07602773 -0.05091734 0.08089042 -0.035812315 -0.061968975
0.07417464 0.10764771 0.09931119 -0.016084934 -0.027148092 0.065066904 0.08895876 0.04140324
0.07406798 -0.0069408407 -0.021968327 -0.011972781 0.031948265 -0.027574604 0.107462674 0.0023671312
00000000: b09d bf3d 4c96 8f3d 4405 933d 1cb7 bd3c
00000010: be8e eb3c 232f b139 70d3 063c 7996 cebc
00000020: f3e6 cabc 3211 523d 4715 23bd 72ce c73d
00000030: b693 7e3d 316e 83bc ab70 d63d 0771 86bb
00000040: 2972 9bbd 823d 733d 238a 96bd 02aa 523d
00000050: 3bbf e1bc e7a3 a2bc 643b c03c ceba 3cbd
00000060: f000 b43c fcc5 55bd b447 ba3d 5761 ad3a
00000070: 8b15 743d face 7f3d 3055 cc3d 6f54 9abd
00000080: 6333 a7bd 9b5f 783d 0afc bcbb 43f5 43bd
00000090: b7bb 32bd 2b91 4e3d d287 85bd fd26 22bb
000000a0: 0c3d 7b3c 6d5d c23c cae1 91bb 77f3 b1bc
000000b0: 51fa 443d c696 9dbd 0e0a 3a3d eddf 72bd
000000c0: 3bcd 76bd d538 a83d d550 6cbc 6712 603d
000000d0: ccf3 45bb d428 c63b 65db 62bd 491b b0bc
000000e0: 7c1c 8b3d 6697 90bd af09 c13d 6f60 9bbc
000000f0: 37eb aabd 61a8 4f3d 01ec 463d bea1 a33c
00000100: 70ce fa3b 953c 3a3d dc80 293d 1fbc 9e3d
00000110: a41c 983d b928 923d c043 c63d 2af8 333d
00000120: 3c8d 803d ebd8 273d 4d1f 4e3c 7db7 403d
00000130: 1858 a5bc 1ced 533d ed40 3e3c 9fb5 afbd
00000140: 6ba1 88bd 7871 a9bd 7007 d5bc 7145 843d
00000150: 4613 81bd 4221 25bd 0622 f9bc 657b e5bb
00000160: d875 bd3c 2988 503d 6c36 31bd d5fe ea3d
00000170: c198 8dbd 2883 9b3d cbba 3c3d 4584 8e3d
00000180: a6eb 093d c979 3cbc 07d3 afbc c96c 273d
00000190: 5b48 e2bc 23a6 233d 43cf 1fbd 52ce a9bd
000001a0: b6e1 84bd f3d5 f1bc 2076 0a3d 6db4 9b3d
000001b0: b38e 50bd e0a9 a53d efaf 12bd 2ed3 7dbd
000001c0: e0e8 973d 6776 dc3d aa63 cb3d 8dc4 83bc
000001d0: ad65 debc cc41 853d 0330 b63d 7296 293d
000001e0: f4b0 973d fe6f e3bb ecf6 b3bc 7c29 44bc
000001f0: 2fdc 023d 23e4 e1bc 6415 dc3d df21 1b3b
