benchmark/ablation_mnistfc_medium/onnx/mnistfc-medium-net-213.onnx (onnx, 774210 bytes, 20 tensors)

layers.2.sequential.0.weight f4 [113, 784]
0	0xbb86de09	-0.004115824
1	0xbcb5802d	-0.022155846
2	0xbcdd27cc	-0.026996516
3	0xbb6a99f8	-0.003579734
4	0x3c08b461	0.008343787
5	0x3c86fe45	0.016478667
6	0x3ce22004	0.027603157
7	0xbc5d2ff7	-0.013500205
8	0xbcf9573a	-0.0304371
9	0x3c284253	0.010269719
10	0xbcf7c415	-0.030244866
11	0xba4fd845	-0.000792865
12	0xbcb8443d	-0.022493476
13	0xbce98968	-0.028507903
14	0x3cd368ba	0.025806773
15	0x3cf4149e	0.029794987
16	0xbab98b63	-0.001415592
17	0xbca4e354	-0.02012793
18	0xbbe16ea7	-0.006879646
19	0xbc8bd981	-0.017071487
20	0xbce20e6a	-0.027594764
21	0xbcf5d2e1	-0.030007781
22	0xbcded8cf	-0.027202992
23	0xbceee89a	-0.029163647
24	0xbca9bbaa	-0.020719368
25	0x3cf2c519	0.029635
26	0x3b9d93f0	0.0048088953
27	0xbb9d64d3	-0.004803279
28	0x3c544648	0.0129562095
29	0x3cde7180	0.02715373
30	0x3bbaca24	0.0057003666
31	0x3a782945	0.0009466599
32	0xbd0229ac	-0.031778023
33	0xbcd63f5d	-0.02615326
34	0x3cc9c281	0.02462888
35	0xbb817dcb	-0.0039517633
36	0xbc059b9b	-0.008154775
37	0xbd03ba0f	-0.03215986
38	0xbc07eecb	-0.008296679
39	0x3c8c2124	0.017105646
40	0xbb733f40	-0.0037116557
41	0xb90b7ffa	-0.00013303748
42	0x3cf110e2	0.029426996
43	0x3c05a1b0	0.008156225
44	0x3cfb433c	0.030671708
45	0x3c62a8f5	0.013834228
46	0xbcf02a1d	-0.029316956
47	0xbcbe75f2	-0.0232496
48	0x3c7a6fd4	0.015285451
49	0x3c6a9e6d	0.014319998
50	0xbd0aac5b	-0.033855777
51	0xbc9d3f1b	-0.01919513
52	0xbd00d70c	-0.031455085
53	0xbcea585f	-0.028606592
54	0x3b929bf7	0.004474159
55	0x3c844010	0.016143829
56	0xbb9e1ac1	-0.0048249667
57	0xbd103297	-0.035204496
58	0x3cb04895	0.021518985
59	0x3c9dccae	0.019262638
60	0x3c9b2682	0.01893926
61	0x3bc85d4d	0.006114638
62	0x3c857140	0.016289353
63	0xbcecfc77	-0.028928978
64	0x3a8ae4d8	0.0010596765
65	0xbcce6c87	-0.025198234
66	0xbc51c138	-0.012802415
67	0x3cf2d163	0.029640859
68	0x3c8ea92c	0.017414652
69	0xbc7d0f66	-0.015445566
70	0x3aa90b53	0.0012897052
71	0xbada9dfb	-0.0016679162
72	0xbc920660	-0.017825305
73	0xbce9cfea	-0.028541524
74	0x3d03985d	0.032127727
75	0x3cd38624	0.0258208
76	0x3c98a5a1	0.018633666
77	0xbb3d8fcb	-0.0028924819
78	0xbcb12f03	-0.021628862
79	0x3c2fd416	0.010731718
80	0xbc025dd1	-0.007956938
81	0x3b501c2a	0.0031755068
82	0x3c83bd7e	0.016081568
83	0xbcfebf3c	-0.031097047
84	0x3c021588	0.007939704
85	0x3cbea101	0.023270132
86	0x3c226085	0.009910707
87	0x3c1cb43f	0.009564458
88	0xbc710c92	-0.01471247
89	0xbab6e15b	-0.0013952659
90	0xbc921ca8	-0.01783593
91	0x3c9559f3	0.018231368
92	0x3ce37a50	0.027768284
93	0x3d945cbc	0.0724425
94	0x3c7ccf5b	0.015430297
95	0x3db4110d	0.08792315
96	0x3db482d3	0.08814015
97	0x3da553fa	0.08072658
98	0x3d6f95dc	0.058492526
99	0x3d8015f6	0.06254189
100	0x3d0fa4b4	0.035069183
101	0xbabfa566	-0.0014621436
102	0x3cef9e5a	0.029250313
103	0xbc64df65	-0.013969277
104	0xbcd5466f	-0.026034562
105	0x3bf0964c	0.0073421355
106	0x38ae6da1	8.3173865e-05
107	0x3ca0a803	0.019611364
108	0x3d00fa22	0.031488545
109	0x3bb29b09	0.0054506105
110	0x3c857c95	0.016294757
111	0xbd1d45f9	-0.03839681
112	0x3bdc07b1	0.006714784
113	0xbd0a2f6d	-0.033736635
114	0xbd043795	-0.03227957
115	0x3c062174	0.008186687
116	0xbcf18941	-0.029484393
117	0x3c9731ca	0.018456358
118	0x3d5d9b5c	0.05410324
119	0x3d801180	0.06253338
120	0x3d7e83e7	0.06213751
121	0x3dcd62c7	0.10028606
122	0x3db58dc6	0.08864932
123	0x3d832be4	0.06404856
124	0x3d780eaf	0.06056088
125	0x3d487a7c	0.048944935
126	0x3d3feb2e	0.046855144
127	0x3d912a32	0.07088126
128	0x3d3df66a	0.046377577
129	0x3cfc75b4	0.030817844
130	0xbb27f2bd	-0.002562686
131	0xbb6bee50	-0.00360002
132	0xbc155711	-0.0091149965
133	0x3b052066	0.00203135
134	0x3c098aeb	0.008394937
135	0x3b5ab5b2	0.003337246
136	0x3c9e3efd	0.019317145
137	0x3cba6172	0.022751544
138	0xbc731353	-0.01483615
139	0x3c9e667e	0.019335981
140	0x3b8a483c	0.004220037
141	0x3cd96de3	0.026541656
142	0x3cb4b580	0.022059202
143	0x3b38008e	0.0028076502
144	0x3c272d05	0.010203605
145	0x3cc131f4	0.02358339
146	0x3d3e4d82	0.046460636
147	0x3d8b0d51	0.06789649
148	0x3d233625	0.039846558
149	0x3d340bc4	0.043956533
150	0x3b971a7f	0.004611313
151	0x3d188467	0.037235644
152	0x3d4e4ee9	0.050368223
153	0x3d2281de	0.039674632
154	0x3d1a73f7	0.03770825
155	0x3db01ed7	0.08599632
156	0x3d83b32f	0.06430661
157	0xbacda69e	-0.0015689915
158	0x3c022620	0.00794366
159	0x3cae9e9a	0.021315861
160	0xbcd061eb	-0.025437316
161	0xbd80e350	-0.062933564
162	0xbcb25a37	-0.021771533
163	0xbc4cd71e	-0.01250246
164	0x3c0a3741	0.008436025
165	0xbc5a0a86	-0.013308173
166	0xbcae3f3b	-0.021270385
167	0x3c32be72	0.0109096635
168	0xbc99c55b	-0.018770864
169	0xbcff3367	-0.03115244
170	0xbc13fcf0	-0.009032473
171	0x3b66a427	0.0035193057
172	0x3ae0b793	0.0017144553
173	0x3cecbcb4	0.028898574
174	0x3d013a72	0.03154988
175	0x3cdb60e2	0.026779596
176	0xbceb30f2	-0.028709862
177	0x3c23f86b	0.010007958
178	0x3a13ff82	0.00056456786
179	0x3d1007dd	0.03516375
180	0x3d895311	0.06705297
181	0x3bcea6b4	0.0063064937
182	0x3bd9955c	0.0066401195
183	0x3c961045	0.018318305
184	0x3cefc772	0.029269908
185	0x3c6954fb	0.014241452
186	0xbc9508e0	-0.018192708
187	0xbd014d91	-0.031568114
188	0xbcb2948a	-0.021799345
189	0xbd5c8243	-0.053835165
190	0xbc9f2c4a	-0.019430298
191	0x3ca216a6	0.01978619
192	0xbc172bbf	-0.0092267385
193	0xbc42cd69	-0.011889794
194	0xbc547390	-0.012967005
195	0xbc98188c	-0.018566392
196	0x3c4c90f9	0.012485736
197	0xbcdfb462	-0.027307693
198	0xbc4bc735	-0.012437631
199	0x3c3cbce1	0.011519642
200	0x3d59232a	0.05301205
201	0x3c273559	0.01020559
202	0xbd330b84	-0.043712154
203	0xbbb2a7ac	-0.005452117
204	0xbb47c297	-0.0030480975
205	0xbb14015c	-0.0022583818
206	0xbc6e26be	-0.014535604
207	0x3bb4a8af	0.0055132727
208	0xbcfa3403	-0.03054238
209	0x3c6bea11	0.0143990675
210	0xbd18126f	-0.037126955
211	0x3baa18de	0.0051909527
212	0x3cf70e62	0.030158225
213	0x3bafb047	0.00536159
214	0xbc8e375b	-0.01736038
215	0xbca4ad87	-0.020102276
216	0x3aa1daa9	0.0012348491
217	0xbc9d6c86	-0.019216787
218	0xbc2e7781	-0.010648609
219	0xbc9953db	-0.018716743
220	0x3d1b1298	0.03785953
221	0x3d010eb6	0.03150817
222	0xbc4e70b8	-0.012600116
223	0xbcf9b13f	-0.030480025
224	0xbcaf16d9	-0.0213732
225	0xbcd7c2e8	-0.026338056
226	0x3cb72bbc	0.022359721
227	0x3bd68d54	0.0065476093
228	0x3d309830	0.043113887
229	0x3c284c50	0.010272101
230	0xbd47fc63	-0.04882468
231	0xbd9dff50	-0.077147126
232	0xbd9bb143	-0.07602169
233	0xbd895047	-0.06704765
234	0xbd6027de	-0.05472552
235	0xbd5f00b4	-0.05444403
236	0xbd0d6842	-0.034523256
237	0xbcf4d87b	-0.029888382
238	0xbcd61924	-0.026135035
239	0xbc880e56	-0.016608398
240	0xbcf68330	-0.030091852
241	0x3cb5439c	0.022126965
242	0xbd071b90	-0.03298527
243	0x3bb90b9d	0.0056471364
244	0xba0e068e	-0.0005417847
245	0x3c07cb09	0.008288153
246	0x3bab2944	0.005223425
247	0xbcaa1d40	-0.0207659
248	0x3d7cc0c3	0.06170727
249	0x3ca9473c	0.02066385
250	0x3cb0dd74	0.021589972
251	0x396ebcea	0.00022767825
252	0xbd11aa14	-0.03556259
253	0x3cf49b0f	0.029859094
254	0xba259b24	-0.0006317368
255	0xbca19711	-0.019725354

layers.2.sequential.0.bias f4 [113]
0	0xbc310af4	-0.010805834
1	0xbd031c29	-0.032009277
2	0x3cf3b33b	0.02974855
3	0x3c808b8a	0.015691537
4	0x3c492fd6	0.012279471
5	0xbb0d7114	-0.0021582292
6	0x3d214faa	0.039382614
7	0xbd0ac63a	-0.03388045
8	0xbc4633ce	-0.012097312
9	0x3c91162a	0.017710764
10	0x3c03ca4e	0.008043839
11	0x3d3f8cbe	0.04676508
12	0xbcdc409a	-0.026886273
13	0x3d30c23e	0.043153994
14	0xbc61940a	-0.013768205
15	0x3cd4a865	0.025959203
16	0xbc07ff86	-0.008300668
17	0xbc40c5d0	-0.011765912
18	0x3c70fc4c	0.01470859
19	0xbcd67420	-0.02617842
20	0x3bfad251	0.007654466
21	0xbc54b211	-0.012981907
22	0xbbe8df16	-0.007106672
23	0x3cab8b15	0.020940343
24	0x3ccb672d	0.024829471
25	0x3bfe069d	0.007752253
26	0x3c21ff13	0.009887475
27	0x3cded442	0.027200822
28	0x3c86c2fe	0.016450401
29	0x3cffb6b3	0.031215047
30	0x3ba893db	0.005144579
31	0xb995ddbc	-0.000285847
32	0xbd31c272	-0.043398328
33	0x3c350cc2	0.011050405
34	0x3cf09bd2	0.029371176
35	0xbca613e6	-0.02027316
36	0x3cae94f8	0.021311268
37	0xbc3a163f	-0.011357843
38	0x3b45bab0	0.003017109
39	0xbbb4a1e8	-0.005512465
40	0xbc88aff9	-0.016685473
41	0x3cc3c1ac	0.02389606
42	0x3d178b5d	0.03699814
43	0x3c45e031	0.012077377
44	0xbbf22401	-0.007389546
45	0xbc38862e	-0.01126246
46	0x3cb12064	0.02162189
47	0xbc97a56f	-0.018511502
48	0x3d03d582	0.03218604
49	0xbcca1bab	-0.024671396
50	0x3d0d06e5	0.034430403
51	0x3ba3d4e0	0.004999742
52	0x3cb01ee9	0.021499114
53	0x3bcfb786	0.0063390164
54	0x3c5a1c35	0.013312389
55	0x3c66ebd0	0.014094308
56	0x3ca1b3fd	0.019739145
57	0xbba85570	-0.005137138
58	0xbc98caac	-0.018651329
59	0xbca084ce	-0.019594576
60	0x3d1cae5f	0.03825223
61	0xbc3bca95	-0.011461874
62	0xb8cbc8d4	-9.7172015e-05
63	0x3cd3ceb4	0.0258554
64	0x3cd1c934	0.025608636
65	0x3c51dd4e	0.012809111
66	0xbbe24acf	-0.0069058905
67	0x3c6ee094	0.014579911
68	0xbbbfc42c	-0.005852243
69	0x3cf26a67	0.029591752
70	0x3c558a61	0.01303348
71	0xbc8b6e56	-0.017020386
72	0x3c95b95d	0.018276865
73	0xbc91421c	-0.017731719
74	0x3cb134d3	0.021631634
75	0x3ca62c0f	0.02028468
76	0x3d05d426	0.032673024
77	0x3cd42df0	0.025900811
78	0x3cda1884	0.026623018
79	0xbc0df4e9	-0.008664348
80	0xbcb16367	-0.021653844
81	0x3cd0dc93	0.025495803
82	0xbc1af63a	-0.009458119
83	0x3ccfcba0	0.02536565
84	0x3c797924	0.015226636
85	0x3cc28d01	0.023748877
86	0xbc053638	-0.008130603
87	0x3cc8b2d1	0.024499329
88	0x3cb84f7c	0.022498839
89	0x3d020a93	0.031748366
90	0xbc7859a7	-0.015158094
91	0x3cbbba2c	0.022915922
92	0xbc8b263a	-0.016986001
93	0x3d1f6c55	0.038921673
94	0xbb5b6046	-0.0033474131
95	0x3cde8ff7	0.027168257
96	0x3c24273e	0.010019122
97	0x3d4ca464	0.049961463
98	0x3c8fba11	0.017544778
99	0xbce05577	-0.027384503
100	0xbc065755	-0.0081995325
101	0x3c4253d0	0.011860803
102	0xbceb193e	-0.02869856
103	0xbb204f39	-0.0024461283
104	0x3d3c0790	0.04590565
105	0xbcdf6d11	-0.027273687
106	0x3d003a26	0.031305455
107	0xbc14ea6b	-0.009089093
108	0x3d0c5c90	0.034267962
109	0xbc3832fa	-0.0112426225
110	0xbc7c68ba	-0.015405828
111	0x3ba3a37d	0.0049938546
112	0x3c5fa6df	0.013650625

layers.3.sequential.0.weight f4 [113, 113]
0	0xbd55ef3d	-0.05223011
1	0x3d93055b	0.07178756
2	0x3da25e72	0.0792817
3	0xbd9c07cf	-0.07618677
4	0x3de08302	0.10962488
5	0xbd30d81a	-0.04317484
6	0xbd3aa33a	-0.04556582
7	0xbe0efff6	-0.13964829
8	0xbd873629	-0.06602127
9	0x3ca913ca	0.020639319
10	0xbdacfbcf	-0.08446466
11	0xbd86cb81	-0.06581784
12	0x3d98079f	0.074233286
13	0x3d0b233a	0.03396914
14	0x3d0ab232	0.033861347
15	0x3d80b43a	0.062843755
16	0x3d7e647e	0.062107556
17	0x3dd3dd2b	0.10344919
18	0x3dcbbcf7	0.099481516
19	0x3d328a96	0.043589197
20	0xbd316f16	-0.04331883
21	0x3b961304	0.0045799036
22	0xbd812952	-0.06306709
23	0x3c0734fa	0.008252377
24	0x3d992b8e	0.074790105
25	0x3c82ecd4	0.01598207
26	0xbd8e6910	-0.06953633
27	0x3d8834bb	0.066506825
28	0x3cb6fcb2	0.022337291
29	0x3bfc7ef1	0.0077055623
30	0xbdac4fc5	-0.08413652
31	0xbc4c7fbf	-0.012481629
32	0xbd7b5826	-0.06136336
33	0x3d612357	0.054965343
34	0xbc6a5f89	-0.014305004
35	0xbc736eaa	-0.014857927
36	0xbd46a229	-0.04849449
37	0x3d8fa60e	0.07014094
38	0xbd7ad1e1	-0.061235312
39	0xbc7186f0	-0.014741644
40	0x3c25fc27	0.010130919
41	0x3d6fe42b	0.058567207
42	0xbc601a8d	-0.013678205
43	0xbd7b748c	-0.061390445
44	0x3ddcd883	0.10783484
45	0x3cd344e5	0.025789687
46	0xbd2defee	-0.042465143
47	0xbd1134cc	-0.03545074
48	0xbcc1a54a	-0.023638386
49	0x3db0e09d	0.086365916
50	0x3c13a14b	0.009010623
51	0x3dde4fd7	0.10855072
52	0x3c7b8889	0.015352377
53	0xbd8a4fbb	-0.06753489
54	0xbcacfb1e	-0.021115836
55	0x3d8d01a7	0.06885081
56	0xbd10a85a	-0.035316803
57	0x3d48185b	0.048851352
58	0xbd606ed3	-0.05479319
59	0x3d75442a	0.05987946
60	0xbc4bb2fd	-0.012432811
61	0x3dcf570d	0.101240255
62	0xbd01e27a	-0.031710126
63	0xbd8fa6d0	-0.07014239
64	0x3d7d2940	0.061806917
65	0xbd1680e4	-0.036744013
66	0x3ce59736	0.028026205
67	0x3d42dc1b	0.04757319
68	0xbcc09122	-0.023506705
69	0x3d35da6c	0.044397756
70	0xbd8acc87	-0.06777292
71	0x3d1a5dc9	0.037687097
72	0xbacfd3ab	-0.0015855929
73	0x3dae9f6c	0.08526501
74	0xb9e75807	-0.0004412534
75	0x3c4f522d	0.01265387
76	0xbdc27cb0	-0.094964385
77	0x3da2d8e1	0.079515226
78	0xbd82042e	-0.063484535
79	0x3c1ce624	0.009576354
80	0x3d56c75e	0.052436225
81	0xb8954914	-7.1184855e-05
82	0x3d896e25	0.067104615
83	0x3de18cc0	0.11013174
84	0x3d5b358d	0.053517867
85	0xbac1edc6	-0.0014795593
86	0xbc8f33a3	-0.017480677
87	0x3ca141b8	0.019684657
88	0xbcbab126	-0.02278955
89	0xbc50d19f	-0.01274529
90	0x3d8917ad	0.06693969
91	0xbcde91bd	-0.027169103
92	0x3d1f9c38	0.03896734
93	0xbd011f0b	-0.031523746
94	0x3ce369b9	0.027760373
95	0xbd7784ae	-0.060429268
96	0x3b7cfbf9	0.0038602336
97	0x3b8943f2	0.004189008
98	0xbd81afd6	-0.06332366
99	0x3e0dab0e	0.13834783
100	0x3dd35d4c	0.10320529
101	0xbd1e4749	-0.0386422
102	0x3ca65e46	0.020308625
103	0xbdc8b207	-0.09799581
104	0x3d5c8d94	0.053845957
105	0xbe01d0dc	-0.1267733
106	0x3c8ff92d	0.017574871
107	0x3d9b6d32	0.07589187
108	0xbd5f92d5	-0.05458339
109	0x3dabff8c	0.08398351
110	0x3d254808	0.040351897
111	0x3d72dc61	0.0592922
112	0xbd998d08	-0.07497603
113	0x3e04e950	0.12979627
114	0xbda0eeaf	-0.07858025
115	0xbaaee1d6	-0.0013342451
116	0xbd8deabf	-0.0692954
117	0xbd7e6630	-0.062109172
118	0x3da6bc1f	0.0814135
119	0xbce01813	-0.02735523
120	0x3c40b90a	0.011762867
121	0x3d6b5d66	0.05746212
122	0xbd08c994	-0.033395365
123	0xbd929f65	-0.07159308
124	0xba5a03cc	-0.0008316606
125	0x3da217de	0.079147086
126	0xbd87740a	-0.066139296
127	0xbd3eeb97	-0.046611395
128	0x3da78d06	0.08181195
129	0xbd27169c	-0.040793046
130	0x3cb4a267	0.022050096
131	0x3d98a1bc	0.074527234
132	0xbd0948b8	-0.033516616
133	0xbd8a71ff	-0.06760024
134	0xbc4fb14b	-0.012676547
135	0x3cbb147d	0.022836918
136	0xbc7e6d4e	-0.01552899
137	0xbd72d48c	-0.05928473
138	0x3da54ab0	0.08070886
139	0x3dc79eda	0.097470954
140	0xbdb79c74	-0.08965388
141	0x3d0116e6	0.03151598
142	0xbd5b9c4a	-0.053615846
143	0x3d40e098	0.04708919
144	0x3d6c9700	0.057761192
145	0xbc6cba7b	-0.014448757
146	0x3ceabb6a	0.02865382
147	0x3ca68319	0.020326184
148	0xbd65e665	-0.056127924
149	0xbdb9f033	-0.090790175
150	0xbd246e36	-0.040144168
151	0x3d730a52	0.059336014
152	0xbd313a36	-0.043268405
153	0x3d6c975c	0.057761535
154	0xbc9820a2	-0.018570248
155	0xbd4772fb	-0.04869364
156	0xbd193833	-0.03740711
157	0x3d0944b0	0.03351277
158	0x3d902055	0.07037417
159	0x3d3b8303	0.04577924
160	0x3d87c30a	0.066289976
161	0xbd2bd557	-0.041951504
162	0xbd80ad07	-0.06283002
163	0x3dbeb1a0	0.09311223
164	0xbd09e146	-0.033662103
165	0xbc8bf293	-0.017083442
166	0x3d13342c	0.035938427
167	0x3dd1b2ac	0.10239157
168	0x3c889ef1	0.016677352
169	0xbc542abc	-0.012949642
170	0xbdb5501f	-0.088531725
171	0x3dfd31ae	0.12362991
172	0xbdd34e26	-0.1031764
173	0xbc42f1da	-0.011898482
174	0xbc8fb123	-0.01754052
175	0x3db69a3e	0.08916138
176	0xbd85e4a9	-0.06537754
177	0xbd2f4955	-0.042794544
178	0x3dcdb5d6	0.10044448
179	0xbe159d43	-0.14610772
180	0x3d3dce60	0.046339393
181	0x3d9ffb18	0.07811564
182	0xbc925d2b	-0.017866692
183	0x3c73f466	0.014889812
184	0x3c11e2fd	0.008904216
185	0xbd210fd3	-0.03932173
186	0x3d21705f	0.039413806
187	0x3c4e3dc2	0.012587966
188	0xbd44fe6d	-0.0480942
189	0x3d814049	0.063110895
190	0x3d1f7093	0.03892572
191	0xbd40e770	-0.047095716
192	0xbd3e754e	-0.04649859
193	0xbc6ed61d	-0.014577416
194	0x3ca5c094	0.02023343
195	0x3dc7e93f	0.09761285
196	0xbc92b98b	-0.01791074
197	0x3d66ac59	0.056316707
198	0x3d98c22c	0.0745891
199	0xbc7957c3	-0.015218678
200	0xbd9e4fa2	-0.077300325
201	0x3d805deb	0.062679134
202	0x3d91aeac	0.07113394
203	0xbd95cfd9	-0.073150344
204	0xbd4a8248	-0.049440652
205	0xbcee675f	-0.029102026
206	0x3d0710f7	0.032975163
207	0xbdad937d	-0.08475397
208	0xbd927d76	-0.07152836
209	0x3cae1c36	0.021253686
210	0xbd5181dc	-0.051149234
211	0xbcc3befc	-0.02389478
212	0xbd74d27d	-0.05977105
213	0x3c8c0415	0.01709179
214	0x3d8cf2cb	0.068822466
215	0x3d77d726	0.060507916
216	0xbcfcf132	-0.03087673
217	0x3dc98b60	0.09841037
218	0x3e41f918	0.18942678
219	0xbd203288	-0.03911069
220	0xbbb9c076	-0.005668695
221	0xbc2ed62f	-0.010671183
222	0x3d1d6a30	0.038431346
223	0x3d3027d8	0.043006748
224	0x3db1493f	0.08656549
225	0xbd8bf812	-0.06834425
226	0x3dce2aba	0.10066743
227	0x3d365d37	0.04452249
228	0x3d80b329	0.06284172
229	0x3d0e11ac	0.034684822
230	0xbd63d6d0	-0.055624783
231	0x3e2b8bbf	0.16752528
232	0xbd1537f7	-0.036430325
233	0x3e0a382a	0.13497987
234	0x3d939809	0.07206733
235	0xbc6351d8	-0.013874494
236	0x3c720ccf	0.014773562
237	0xbd285ff7	-0.041107144
238	0xbda01a4e	-0.07817517
239	0xbde3a36c	-0.111151546
240	0x3b56b547	0.0032761858
241	0x3d5314ca	0.051533498
242	0x3d1b92a0	0.03798163
243	0x3d96b685	0.073590316
244	0x3d87f7e9	0.06639082
245	0x3d84a26a	0.064762905
246	0xbd744f63	-0.05964602
247	0xbbf12dd4	-0.0073601995
248	0x3c4de24f	0.012566163
249	0xbd8d5b63	-0.06902196
250	0xbd63b138	-0.05558893
251	0x3dcf6264	0.101261884
252	0x3dc80f1e	0.097685084
253	0xbd93c425	-0.07215146
254	0xbd7ff362	-0.062487967
255	0xbd9178e9	-0.0710314

layers.3.sequential.0.bias f4 [113]
0	0xbd072911	-0.03299815
1	0x3d829880	0.06376743
2	0x3c1a98ba	0.009435827
3	0xbd0f6230	-0.03500575
4	0xbb9b6729	-0.0047425223
5	0x3d65786b	0.056023043
6	0x3d98b852	0.07457031
7	0x3d9933b0	0.07480562
8	0x3d9884ad	0.07447181
9	0xbdb7eea2	-0.089810625
10	0x3d8eaecb	0.06966933
11	0x3dd3a056	0.10333316
12	0xbd0bea79	-0.034159157
13	0xbc24ed5d	-0.010066357
14	0x3c96e86a	0.01842137
15	0xbd112052	-0.035431214
16	0xbca37014	-0.019950904
17	0xbcd7e4ac	-0.026354156
18	0x3c52f9f6	0.012876978
19	0xbd6c4875	-0.057686288
20	0x3c6e054d	0.014527631
21	0xbc9b9cb4	-0.01899562
22	0x3d897d3b	0.06713339
23	0x3c9ab0b3	0.018883085
24	0x3d35c5aa	0.04437796
25	0x3cb2b022	0.021812502
26	0xbd782be8	-0.060588747
27	0x3dde0983	0.10841658
28	0x3dc4c709	0.096082754
29	0x3da6ff2d	0.0815414
30	0xbc9001eb	-0.01757904
31	0xbd1b5dc3	-0.037931215
32	0x3df52a9d	0.119710185
33	0x3d8aacd9	0.06771249
34	0x3d24755c	0.040150985
35	0x3ca5e0ac	0.020248733
36	0xbd2f2bf8	-0.04276654
37	0x3d2de5ee	0.042455606
38	0x3c429b8c	0.011877906
39	0x3cf11a36	0.029431444
40	0xbc36e052	-0.011161881
41	0x3d61930f	0.055071887
42	0x3d3c7b64	0.046016112
43	0x3d960f83	0.073271774
44	0x3d967c32	0.07347907
45	0x3c67bafb	0.014143701
46	0xbd50d8e1	-0.05098808
47	0x3b9f2c3a	0.004857567
48	0x3db3670b	0.08759888
49	0xbd6b7351	-0.05748302
50	0xbc967c02	-0.018369678
51	0xbd8b3677	-0.06797498
52	0x3d5ef960	0.05443704
53	0x3d09819f	0.033570882
54	0x3d621391	0.05519444
55	0xbc7a7d71	-0.015288697
56	0x3d5dc761	0.05414522
57	0xbc8e8ced	-0.017401183
58	0x3d84ee3a	0.064907506
59	0x3dcd4707	0.10023313
60	0xbd92daf5	-0.07170669
61	0xbd80b382	-0.062842384
62	0xbd8b2166	-0.067934796
63	0x3dc2f057	0.095184974
64	0xbcdb516d	-0.026772225
65	0x3cbbc580	0.022921324
66	0x3d06ea41	0.032938246
67	0x3cb42cf6	0.021994095
68	0xbd11f215	-0.035631258
69	0x3d66ad72	0.056317754
70	0xbce38669	-0.027774053
71	0x3dd423f1	0.10358418
72	0x3d01eb3b	0.031718474
73	0x3c99ab86	0.018758547
74	0x3d6119ee	0.05495637
75	0xbdb377a5	-0.08763055
76	0x3c8799d1	0.016552838
77	0xbda2219b	-0.07916566
78	0x3d33e080	0.04391527
79	0xbd83c554	-0.06434122
80	0xbda945d4	-0.08265272
81	0x3a55b822	0.0008152743
82	0xbc672c77	-0.014109722
83	0xbbc33198	-0.00595684
84	0xbd43625d	-0.04770123
85	0x3c5d1fc4	0.013496343
86	0x3cddfb6c	0.027097426
87	0xbd79c343	-0.06097723
88	0x3c065a31	0.008200214
89	0xbd3dd83a	-0.046348788
90	0xbd51403f	-0.05108666
91	0xbdc16354	-0.094427735
92	0xbd1d1fbb	-0.03836034
93	0x3da81649	0.082073756
94	0x3c448458	0.011994444
95	0xbb29fcbe	-0.0025938
96	0xbd3cb631	-0.04607219
97	0x3db48f63	0.08816411
98	0x3c57d776	0.0131739285
99	0x3d568c19	0.0523797
100	0x3d01a826	0.0316545
101	0xbd205d18	-0.03915128
102	0x3c4d0091	0.012512342
103	0xbb17fdce	-0.002319205
104	0xbd63307f	-0.05546617
105	0x3d3415b9	0.04396603
106	0x3de3c833	0.11122169
107	0x3d3ee060	0.0466007
108	0xbccbc549	-0.024874346
109	0xbceee9c6	-0.029164206
110	0x3d4aac35	0.049480636
111	0xbd20b455	-0.039234478
112	0x3dd1f081	0.102509506

layers.4.sequential.0.weight f4 [113, 113]
0	0xbd6a91b2	-0.057267852
1	0xbd72fa50	-0.059320748
2	0xbd8b6391	-0.068061
3	0xbc9a03bb	-0.018800607
4	0x3d4e7f0f	0.05041414
5	0x3d993cae	0.07482277
6	0x3c57b360	0.013165325
7	0x3db98108	0.09057814
8	0xbd295e91	-0.04134995
9	0xbd9a1f57	-0.07525509
10	0x3db45a72	0.088063136
11	0xbd87e3c5	-0.066352405
12	0xbd1a1b39	-0.037623618
13	0xbdb04793	-0.08607402
14	0x3d40414b	0.04693727
15	0x3d7675fc	0.060171112
16	0x3d4759b2	0.048669524
17	0x3d763aaf	0.06011456
18	0xbcdc914a	-0.026924748
19	0xbda54c36	-0.08071177
20	0xbd805129	-0.0626548
21	0x3d5ad60f	0.0534268
22	0xbdba7c7e	-0.09105776
23	0x3db26936	0.08711474
24	0xbdbc2f07	-0.09188657
25	0xbd6725c7	-0.05643251
26	0xbd12375b	-0.035697322
27	0xbda0e8dd	-0.07856915
28	0xbd08703a	-0.033310153
29	0x3ba43ea6	0.005012351
30	0x3d0796bb	0.033102732
31	0x3d178da5	0.037000317
32	0xbd657e08	-0.056028396
33	0x3dabdc90	0.08391678
34	0x3db5e9e6	0.08882503
35	0xbb872dec	-0.0041253474
36	0xbda2730f	-0.07932102
37	0xbcbb80d3	-0.022888577
38	0x3c02fc6b	0.007994751
39	0x3d7952d2	0.06087
40	0x3d44cb3a	0.048045374
41	0x3c05d314	0.008168001
42	0xbdaf2454	-0.08551851
43	0x3dba6824	0.091018945
44	0x3c8079e8	0.01568313
45	0x39c1e7f6	0.00036984653
46	0x3d96dda5	0.07366494
47	0x3d8dd033	0.069244765
48	0x3d4ae35a	0.049533226
49	0xbcd2bc34	-0.025724508
50	0xbdacec0e	-0.08443461
51	0xbd5dfb66	-0.05419483
52	0x3c99256a	0.018694598
53	0xbd04ab93	-0.03239019
54	0xbce4ba29	-0.0279208
55	0x3b6adb5a	0.003583631
56	0xbd151c86	-0.036404155
57	0xbd9fad8b	-0.077967726
58	0x3d60c3e0	0.0548743
59	0xbdb8cf16	-0.090238735
60	0xbd7d2482	-0.061802395
61	0x3c70b453	0.01469143
62	0xbc9e1aea	-0.019299943
63	0xbda7187f	-0.08158969
64	0xbcbce604	-0.023058899
65	0xbc126d24	-0.008937154
66	0xbd693353	-0.056933712
67	0x3dae2286	0.085026786
68	0x3c46c6ef	0.01213239
69	0x3d191b41	0.037379507
70	0xbc824f48	-0.015906945
71	0xbda73b77	-0.08165639
72	0xbd1c0f92	-0.038100787
73	0xbc79c999	-0.0152458185
74	0x3ae5a267	0.0017519713
75	0xbcefd43e	-0.02927601
76	0xbd2082dd	-0.0391873
77	0xbc87cb84	-0.016576536
78	0xbd4f5028	-0.050613552
79	0x3d913e9e	0.070920214
80	0x3d6d03aa	0.057864822
81	0xbd6c598b	-0.057702582
82	0xbd24307e	-0.04008531
83	0xbd1faeec	-0.038985178
84	0xbd8f327e	-0.069920525
85	0x3d8eccf1	0.06972683
86	0xbc89b9fc	-0.016812317
87	0xbd61cff2	-0.055129953
88	0x3d9d1045	0.07669119
89	0xbd21eb1a	-0.03953085
90	0xbc034795	-0.008012672
91	0xbd534e58	-0.051588386
92	0xbdb6456b	-0.08899959
93	0xbbc05ae2	-0.005870209
94	0xbc20f212	-0.009823339
95	0xbd66acdf	-0.056317206
96	0xbd57d877	-0.05269667
97	0xbc27e959	-0.0102485055
98	0x3c489165	0.012241696
99	0x3b8b14e0	0.004244432
100	0x3d9f7c6a	0.07787402
101	0x3d33f4cc	0.04393463
102	0xbd3f2b6b	-0.046672266
103	0xbcf4fbc5	-0.02990521
104	0x3d2f8e8d	0.042860556
105	0x3cc8132c	0.024423204
106	0xbd41600d	-0.04721074
107	0x3d17ce43	0.03706194
108	0xbd582c4b	-0.052776616
109	0xbd88e6e1	-0.06684662
110	0xbd8b9c34	-0.06816903
111	0xbd74f22f	-0.059801277
112	0x3d46fdb8	0.04858181
113	0x3ca57925	0.020199368
114	0xbd9a13cb	-0.075233065
115	0x3da6424c	0.08118114
116	0xbc4aa144	-0.01236755
117	0x3d7d059c	0.061772928
118	0xbdced314	-0.10098854
119	0xbd77d4f1	-0.06050581
120	0x3dee03a1	0.11621786
121	0xbd248a3e	-0.0401709
122	0xbd4ffb06	-0.050776504
123	0x3e2d7f09	0.16942991
124	0x3ac3d232	0.0014939962
125	0xbd8ff9ca	-0.07030065
126	0xbd1779ef	-0.03698152
127	0x3d8f88b1	0.07008494
128	0x3da60e1b	0.08108159
129	0x3d6e0d2b	0.058118027
130	0x3dafe196	0.08587949
131	0x3d55c503	0.05218984
132	0xbd35f63c	-0.04442428
133	0xbd30b44d	-0.0431407
134	0x3e040138	0.1289109
135	0x3d9eb9e2	0.07750298
136	0x3cb6bec2	0.022307757
137	0x3d3ce66a	0.046118177
138	0xbd6eef64	-0.05833377
139	0x3dbb397c	0.09141824
140	0xbcdd43b5	-0.027009824
141	0xbdd0c708	-0.10194212
142	0x3dc246f0	0.094861865
143	0xbd5a1ad1	-0.05324823
144	0xbc00b945	-0.007856672
145	0x3ccc05d9	0.024905132
146	0xbcb24e57	-0.021765871
147	0x3b86be5b	0.0041120476
148	0x3d041c03	0.032253277
149	0x3dadf4e2	0.08493973
150	0x3ce70937	0.028202636
151	0x3d77d312	0.060504027
152	0x3b37ca7a	0.002804427
153	0x3c8425dc	0.016131334
154	0xbb89b251	-0.004202165
155	0xbd39399c	-0.045220956
156	0xbcbda705	-0.02315093
157	0x3cb63c42	0.02224553
158	0xbcdde0de	-0.027084764
159	0xb9a7da4e	-0.00032015372
160	0xbcd8eeed	-0.026481116
161	0x3c6bd57e	0.014394162
162	0x3db7aa51	0.08968032
163	0x3db3a916	0.08772485
164	0x3dc70d35	0.09719316
165	0x3d7f8525	0.062382836
166	0x3dae5b75	0.08513538
167	0x3d9d3541	0.07676173
168	0x3e1b5fe7	0.15173303
169	0x3d4ce315	0.05002125
170	0xbe366969	-0.17813648
171	0xbbfebbbd	-0.007773845
172	0xbd949f7c	-0.07256982
173	0x3d4ab87f	0.049492355
174	0x3df4a7df	0.11946081
175	0x3e103f17	0.14086567
176	0x3bcad19b	0.0061895377
177	0x3d42482e	0.047432117
178	0x3d8276d4	0.06370321
179	0xbd04c8be	-0.032418005
180	0xbcb1e15b	-0.021713903
181	0xbcb8cd00	-0.02255869
182	0xbcf97067	-0.030449105
183	0xbd8149b4	-0.06312886
184	0xbd4cae62	-0.049970992
185	0x3dac6548	0.08417755
186	0xbd5bc29f	-0.053652402
187	0x3db6d9c3	0.089282535
188	0xbd522e8a	-0.051313914
189	0x3db3a924	0.087724954
190	0x3c83ebc3	0.01610363
191	0x3d82e928	0.06392127
192	0x3dcd82b9	0.10034699
193	0xbc998381	-0.018739464
194	0x3dae28e0	0.0850389
195	0x3da73e08	0.081661284
196	0xbdbaf716	-0.09129159
197	0x3c0ecadc	0.008715358
198	0x3dbc16fb	0.09184071
199	0x3db73aa6	0.08946733
200	0xbd8cd9a2	-0.06877448
201	0x3cf7bc6f	0.03024122
202	0xbda0c5f8	-0.078502595
203	0x3e0ffecb	0.1406204
204	0x3d22ce25	0.039747376
205	0x3ca74921	0.020420613
206	0x3d205753	0.03914578
207	0xbc5fb515	-0.013654013
208	0x3d7bc350	0.06146556
209	0x3de87d9a	0.113520816
210	0xbd377a2c	-0.044794247
211	0xbc6e37b2	-0.014539646
212	0xbc9c117b	-0.019051304
213	0x3e1069f3	0.14102916
214	0x3d928d88	0.07155901
215	0x3ce7a604	0.028277405
216	0xbbc10e65	-0.0058916085
217	0x3dce9397	0.10086744
218	0xbdb2b6db	-0.08726283
219	0xbe0d89d1	-0.13822104
220	0x3dea2542	0.114328876
221	0xbd7bb8a8	-0.0614554
222	0x3d11fefa	0.035643555
223	0x3d2d9ab0	0.04238385
224	0x3da6b355	0.081396736
225	0x3cf2ca55	0.029637495
226	0xbd4f03bb	-0.050540667
227	0x3caebcaf	0.021330206
228	0xbc7433a7	-0.014904893
229	0x3ccb64ce	0.02482834
230	0x3d7569eb	0.059915464
231	0x3dca6492	0.098824635
232	0x3d40cc2a	0.047069706
233	0xbe6c9495	-0.23103555
234	0xbd9eb0f0	-0.07748592
235	0x3d2feec4	0.042952314
236	0x3d54cdff	0.051954266
237	0xbd823157	-0.06357067
238	0x3cfbc399	0.030732917
239	0x3e0af05c	0.13568252
240	0x3b76134c	0.0037548123
241	0x3dab69c9	0.08369786
242	0xbd49a410	-0.049228728
243	0x3dc2e3cd	0.09516106
244	0x3d964899	0.07338066
245	0x3d9e553f	0.07731103
246	0x3b0fdfe0	0.0021953508
247	0x3cf92fc0	0.030418277
248	0xbc450fd8	-0.012027703
249	0xbdbf4ddd	-0.09341023
250	0x3da8ab23	0.08235767
251	0xbc20f71f	-0.009824543
252	0x3d4e8b0e	0.05042558
253	0x3df4c412	0.1195146
254	0x3c4ba5b6	0.012429645
255	0xbd51e032	-0.0512392

layers.4.sequential.0.bias f4 [113]
0	0xbd46af79	-0.048507188
1	0x3d7d472f	0.061835464
2	0x3bceaff6	0.0063075973
3	0xbd6a072a	-0.05713574
4	0x3de23cd9	0.11046762
5	0xbd72b356	-0.05925306
6	0x3dd8f9d3	0.10594525
7	0xbcdef561	-0.027216615
8	0x3c0dd836	0.008657506
9	0x3c0b68eb	0.008508901
10	0xbd7e0d03	-0.062024128
11	0x3c1aa1b4	0.009437967
12	0x3da5eea5	0.081021585
13	0x3d926e95	0.07149998
14	0xbd966b31	-0.07344664
15	0x3db2a545	0.08722929
16	0xbd9bf6b1	-0.07615412
17	0x3d75abee	0.059978418
18	0xbcee0c6a	-0.029058654
19	0xbccfbbaf	-0.02535805
20	0x3dc4b6da	0.09605189
21	0x3ac5a4fb	0.0015079075
22	0xbd815f39	-0.063169904
23	0x3c1a945c	0.009434786
24	0x3d88eddc	0.06685993
25	0x3d89f473	0.06736078
26	0x3dd3f279	0.10348982
27	0x3b39e81e	0.0028367112
28	0x3cdf1dcc	0.027235888
29	0xbca65cea	-0.020307977
30	0x3d453657	0.048147526
31	0x3dda7988	0.106677115
32	0x3da82ac6	0.082112834
33	0xbd09315e	-0.033494346
34	0xbd1dbc6f	-0.038509782
35	0xbd6b0a63	-0.057382952
36	0xbd999254	-0.07498613
37	0x3d388ffa	0.04505918
38	0xbd09015e	-0.03344857
39	0x3c3221d7	0.010872326
40	0x3cda1a88	0.02662398
41	0x3b42c017	0.0029716545
42	0x3d8166ae	0.06318413
43	0x3cb05fb6	0.021530014
44	0xbbfa8387	-0.007645074
45	0x3db6340a	0.088966444
46	0x3cc5ea4d	0.024159575
47	0x3d9d4a9d	0.07680247
48	0xbcaf7371	-0.021417351
49	0xbb3108fa	-0.0027013407
50	0x3ce76590	0.028246671
51	0xbcbaf5f8	-0.022822365
52	0x3d5757b7	0.052573886
53	0x3cdb6dcd	0.026785756
54	0x3d59d1e0	0.053178668
55	0xbd8a7df0	-0.06762302
56	0xb97e9419	-0.00024278498
57	0x3c380ece	0.011233998
58	0x3d8bad6d	0.06820188
59	0x3b49e84e	0.003080863
60	0xbd876cf2	-0.066125765
61	0x3d525f18	0.05136022
62	0xbc27c934	-0.010240842
63	0xbcd9dc14	-0.0265942
64	0xbba3d3f4	-0.004999632
65	0x3db15854	0.086594254
66	0x3daf92bf	0.085729115
67	0xbd4dc651	-0.050237957
68	0x3d6233bb	0.055225115
69	0xbcebf820	-0.028804839
70	0x3d86a468	0.06574327
71	0xbd689a1f	-0.056787606
72	0xbd40ea9e	-0.04709875
73	0x3cbdad33	0.023153877
74	0x3d9d8d36	0.076929495
75	0x3d54f48d	0.051991034
76	0xbcd78184	-0.026306875
77	0x3d77cc9b	0.06049786
78	0x3daec617	0.085338764
79	0x3cef2a39	0.029194938
80	0x3d11e46b	0.035618227
81	0x3d29aa63	0.04142226
82	0xbd54f045	-0.05198695
83	0x3cc27df1	0.023741694
84	0xbd8da4a7	-0.069161706
85	0xbd57f514	-0.05272396
86	0x3c90a8a4	0.01765854
87	0xbda9c5ad	-0.08289657
88	0xbac14ca8	-0.0014747577
89	0xbd8536d1	-0.06504596
90	0xbd82ff9e	-0.06396411
91	0xbd8000fa	-0.06250186
92	0x3d9a5e03	0.075374626
93	0x3cdc4932	0.026890371
94	0xbd382c8a	-0.04496435
95	0xbd991baa	-0.074759796
96	0xbd54b930	-0.05193442
97	0x3d2def0b	0.042464297
98	0xbd6cee6d	-0.057844568
99	0xbc2afb09	-0.010435828
100	0x3cfc79ba	0.030819762
101	0xbccd533a	-0.0250641
102	0xbd17c641	-0.037054304
103	0x3c977e3f	0.018492816
104	0xbd828201	-0.063724525
105	0xba8bb834	-0.0010659755
106	0xbd19eef1	-0.037581388
107	0x3ce68f35	0.028144458
108	0x3c32a1de	0.01090285
109	0xbd0e8fb4	-0.034805015
110	0xbcdcb4c2	-0.02694166
111	0x3cea546d	0.02860471
112	0x3d931dc1	0.071834095

layers.5.sequential.0.weight f4 [113, 113]
0	0xbd927729	-0.07151634
1	0x3d8a3ebd	0.06750248
2	0x3dd5d426	0.10440855
3	0x3db3df2d	0.08782802
4	0x3c677aa3	0.01412836
5	0xbd33f415	-0.043933947
6	0xbd423e14	-0.047422484
7	0x3d9bf80c	0.076156706
8	0xbd6edfde	-0.058318965
9	0xbd0fecfa	-0.035138108
10	0xbdfacab7	-0.12245696
11	0xbcfd9a87	-0.030957473
12	0x3d05e545	0.03268935
13	0x3d73d53b	0.059529524
14	0x3dbf05a7	0.0932725
15	0xbd985899	-0.07438774
16	0x3da73b3f	0.08165597
17	0x3db72703	0.08942988
18	0xbd39a76c	-0.04532568
19	0x3cbfd5e5	0.023417423
20	0x3c11ce89	0.0088993395
21	0x3dae2395	0.085028805
22	0xbd2a6080	-0.041595936
23	0xbdd73039	-0.105072446
24	0x3dac69ae	0.08418594
25	0xbd716498	-0.058933824
26	0x3d898f5d	0.067167975
27	0x3c88ccda	0.016699243
28	0x3d352c0a	0.044231452
29	0xbd1fe4b7	-0.03903648
30	0xbd4f9c84	-0.050686374
31	0x3c76b8d3	0.015058714
32	0xbd5a79ac	-0.05333869
33	0x3dcddf93	0.10052409
34	0xbd6296c3	-0.05531956
35	0xbc661d1e	-0.014045028
36	0x3c43a46a	0.011941055
37	0x3dbd8f69	0.09255869
38	0xbd53fac1	-0.05175281
39	0x3d596aab	0.053080242
40	0x3d76fead	0.06030147
41	0x3d69ac65	0.057049174
42	0xbd595d09	-0.05306724
43	0xbd4c587e	-0.04988908
44	0xbbd8d7f1	-0.006617539
45	0xbd0ae201	-0.03390694
46	0x3d110da2	0.035413392
47	0x3dd8925e	0.10574792
48	0xbc03c93a	-0.008043582
49	0xbbe281da	-0.006912452
50	0x3b971a5a	0.0046112956
51	0x3dd08589	0.1018172
52	0x3b6244e4	0.0034525925
53	0x3bcf018d	0.0063173235
54	0xbc1da857	-0.009622655
55	0xbbe2a8b6	-0.0069170846
56	0xbda0c6bb	-0.07850405
57	0x3d68d9f1	0.05684847
58	0xbcac37d8	-0.021022722
59	0x3c2028ec	0.009775382
60	0x3d95a24a	0.07306345
61	0x3d6f159b	0.058370214
62	0x3d1ff1ad	0.03904884
63	0xbc3e97e8	-0.011632897
64	0xbdca43ff	-0.098762505
65	0x3dbf32c3	0.09335854
66	0x3cae5b34	0.021283723
67	0x3cc2440d	0.02371409
68	0x3d9b19bc	0.07573268
69	0xbda0554c	-0.07828769
70	0xbc107d6a	-0.008818964
71	0x3d99be2e	0.07506977
72	0x3ccd713a	0.025078405
73	0xbc38f6be	-0.011289297
74	0x3da73562	0.08164479
75	0x3b0174e9	0.0019753522
76	0xbce10602	-0.027468685
77	0x3c11d02f	0.0088997325
78	0x38d15b45	9.982897e-05
79	0x3de619a3	0.112353586
80	0xbdc5f74c	-0.09666309
81	0xbd28f612	-0.041250296
82	0xbd1dcef3	-0.03852744
83	0x3d43a9c0	0.047769308
84	0x3d4a600b	0.049408
85	0x3db1d80e	0.08683787
86	0xbdd576fb	-0.10423084
87	0xbc91b545	-0.017786631
88	0x3c9e513d	0.019325847
89	0xbcce528b	-0.025185844
90	0xbc0bc04b	-0.008529733
91	0xbd2520d1	-0.0403145
92	0x3e5f7941	0.21823598
93	0x3cf0f6b3	0.02941451
94	0x3da20628	0.079113305
95	0xbd85bd01	-0.0653019
96	0xbdb46dc5	-0.088099994
97	0xbdb5aaa5	-0.088704385
98	0xbd8c9407	-0.068641715
99	0x3dae45e3	0.085094236
100	0x3a5c698c	0.00084080617
101	0x3d622b61	0.05521715
102	0xba919026	-0.0011105582
103	0xbce23096	-0.027611058
104	0xbb9349b7	-0.0044948715
105	0xbd8b6c50	-0.06807768
106	0xbcd360bb	-0.02580296
107	0xbdcb08ee	-0.099138126
108	0xbd78e0fd	-0.06076144
109	0x3d8e4e52	0.06948532
110	0x3c88fbaf	0.016721575
111	0x3daa2942	0.083086506
112	0xbdb4a530	-0.088205695
113	0xbdbd85bc	-0.092540234
114	0xbd6a220d	-0.05716138
115	0x3d59f2f3	0.05321021
116	0xbc974121	-0.018463673
117	0x3bf0f99a	0.0073539736
118	0x3c5731c9	0.013134428
119	0x3d9c2ef4	0.07626143
120	0xbdbe9e17	-0.09307497
121	0x3d834b0e	0.064108
122	0xbdb54387	-0.088507704
123	0xbd34389d	-0.043999303
124	0x3cfbf581	0.030756714
125	0x3d84b04c	0.064789385
126	0x3bedc826	0.0072565256
127	0xbc93d5bf	-0.018046258
128	0x3c637a17	0.013884089
129	0x3da18e43	0.078884624
130	0xbb116616	-0.0022186092
131	0xbcb60345	-0.022218356
132	0x3d51e7be	0.051246397
133	0x3d872afc	0.065999955
134	0xbcd00753	-0.025394117
135	0xbdb46c7d	-0.08809755
136	0x3d9b40fe	0.07580756
137	0xbdbb6398	-0.091498554
138	0x3db86640	0.09003878
139	0x3d930c83	0.07180121
140	0xbd86d8ae	-0.06584297
141	0xbd1f4d92	-0.038892336
142	0xbcff202e	-0.031143274
143	0x3da12442	0.07868244
144	0xbd3c41f9	-0.045961354
145	0x3d06eac2	0.032938726
146	0x3c7a0b98	0.015261553
147	0x3d07c6e9	0.03314868
148	0x3da5a5a8	0.08088237
149	0xbceda43b	-0.029008975
150	0xbc93fa23	-0.01806361
151	0x3d0a2a30	0.03373164
152	0xbd8f8fc0	-0.0700984
153	0xbd827f5b	-0.063719474
154	0xbd5fa929	-0.054604683
155	0x3c96f528	0.018427446
156	0x3c4f5d05	0.012656455
157	0xbd9ad516	-0.07560174
158	0xbd12f83a	-0.03588126
159	0xbc6a631d	-0.014305857
160	0xbd1c7eb9	-0.03820679
161	0xbd1a6ae5	-0.0376996
162	0x3d499276	0.04921194
163	0xbdab56c7	-0.08366161
164	0xbd87839a	-0.06616898
165	0x3dafb58e	0.08579551
166	0x3d153b77	0.036433663
167	0xbd095620	-0.0335294
168	0xbd9671ed	-0.07345948
169	0xbdbaf5c3	-0.091289066
170	0xbda71d83	-0.08159926
171	0xbd72926b	-0.059221666
172	0xbd23542b	-0.03987519
173	0x3c8f0a4f	0.01746097
174	0xbd1b2174	-0.0378737
175	0xbd99e578	-0.07514471
176	0x3da49b7f	0.08037471
177	0xbd07dd69	-0.033170138
178	0xbd4c03a3	-0.049808156
179	0xbd9658c7	-0.07341152
180	0xbdb01cb0	-0.08599222
181	0x3cd97402	0.026544575
182	0x3d5c4a8d	0.053782035
183	0xbd84b9db	-0.064807616
184	0x3daf095f	0.08546709
185	0x3d644b01	0.05573559
186	0x3c2d6420	0.010582954
187	0xbc08291c	-0.0083105825
188	0xbd4b0a94	-0.049570635
189	0xbd47cf89	-0.048781905
190	0xbd5b30b7	-0.053513255
191	0x3d3e80de	0.046509616
192	0xbda37453	-0.079811715
193	0x3cc2f9bc	0.023800723
194	0x3db7c5ce	0.08973275
195	0xbcd128dd	-0.02553218
196	0x3d6e350f	0.05815607
197	0xbbd32dc5	-0.006444665
198	0xbc9d4341	-0.019197108
199	0x3cbcac58	0.023031399
200	0xbdc2630a	-0.094915465
201	0xbd10ca8a	-0.035349406
202	0x3d9ba0e6	0.07599048
203	0x3d763041	0.060104612
204	0xbda037c4	-0.078231364
205	0xbd3bea16	-0.04587754
206	0xbca4d1cd	-0.020119572
207	0xb74078b4	-1.1472195e-05
208	0xbd167220	-0.03672993
209	0xbda19798	-0.07890242
210	0xbd30e508	-0.04318717
211	0x3b992564	0.0046736468
212	0x3c467c61	0.012114615
213	0xb9956bf8	-0.00028499938
214	0x3cc30a70	0.023808688
215	0xbda2b2df	-0.07944273
216	0xbd1a5754	-0.03768094
217	0x3d12abfa	0.03580854
218	0x3cfb5157	0.030678434
219	0x3c25946a	0.010106185
220	0x3d8cf99f	0.06883549
221	0x3d1d485a	0.038399078
222	0xbd1884ca	-0.037236013
223	0xbd1f3cb5	-0.038876254
224	0x3d9cc950	0.07655585
225	0x3d574e21	0.052564744
226	0x3d87605a	0.066101745
227	0xbd86264f	-0.065502755
228	0x3d00e4b7	0.03146812
229	0xbd0b43d4	-0.034000233
230	0x3dbb35fc	0.09141156
231	0x3dbe3249	0.09286935
232	0x3d7c631c	0.061617956
233	0xbd6da09f	-0.05801451
234	0xbcefb47f	-0.029260872
235	0xbd90b208	-0.07065207
236	0x3d8dd9a8	0.0692628
237	0x3d408bb3	0.047008228
238	0x3bb2302f	0.005437873
239	0xbdaa613f	-0.083193295
240	0x3daa5325	0.0831664
241	0xbd82f333	-0.06394043
242	0x3c920c99	0.017828273
243	0x3daed662	0.08536984
244	0x3d9d0883	0.07667639
245	0x3cf01d73	0.029310917
246	0xbd12c831	-0.03583545
247	0x3d02d9d8	0.031946033
248	0xbc985916	-0.018597167
249	0x3e5b7cac	0.21434277
250	0xbda5aaec	-0.080892414
251	0x3d7ab980	0.061212063
252	0xbc438a5b	-0.011934842
253	0xbd5a66cf	-0.053320702
254	0xbb1cc495	-0.0023920883
255	0x3e23523b	0.15949337

layers.5.sequential.0.bias f4 [113]
0	0x3d948940	0.07252741
1	0xbdb1947d	-0.086709
2	0x3cb94fc7	0.022621049
3	0x3cfe9df6	0.031081181
4	0x3d0d911b	0.03456221
5	0x3b3fa68d	0.002924356
6	0x3d388bcc	0.045055196
7	0xbbce4ed3	-0.0062960177
8	0x3ccad53f	0.024759887
9	0x3dab8365	0.08374671
10	0xbd89543f	-0.06705522
11	0xbdc83187	-0.097750716
12	0x3cba5132	0.022743795
13	0x3c3f9710	0.011693731
14	0x3bc790dd	0.006090267
15	0x3c98b424	0.018640585
16	0xbd6ff7ce	-0.058585934
17	0x3dadda09	0.084888525
18	0xbc703c92	-0.014662879
19	0x3d05b8fb	0.032647114
20	0xbca8bf2f	-0.020598976
21	0xbd482326	-0.048861645
22	0x3ca3143e	0.019907113
23	0x3dab2bfd	0.083579995
24	0x3dba3dd5	0.09093825
25	0x3dba5c5d	0.09099648
26	0x3ce16825	0.02751548
27	0xbc45d821	-0.012075455
28	0x3d9fea61	0.07808376
29	0x3e18c6a8	0.14919531
30	0x3cedf144	0.029045708
31	0xbd14d160	-0.036332488
32	0xbd82998f	-0.06376945
33	0x3cd16c3d	0.025564307
34	0xbd52036d	-0.0512728
35	0x3b4b2b5e	0.003100119
36	0xbd4af08b	-0.049545806
37	0x3d8c1405	0.06839756
38	0x3d4fc34b	0.050723355
39	0x3d7ad9e6	0.06124296
40	0x3dc5010b	0.096193396
41	0xbc6238d1	-0.013807491
42	0x3db292f0	0.08719432
43	0xbcbeb004	-0.02327729
44	0x3dee7e57	0.11645191
45	0x3c25d67a	0.010121936
46	0xbd8d0e94	-0.06887546
47	0x3cf06e6f	0.029349534
48	0x3d4c15f0	0.04982561
49	0xbccd3cfa	-0.02505349
50	0x3dd2c7d2	0.10292019
51	0x3e1c9422	0.15290883
52	0xbd227300	-0.039660454
53	0x3d86f5bd	0.065898396
54	0x3ca5f3c8	0.020257846
55	0xbd8c30a6	-0.068452165
56	0x3d6dc2cd	0.058047105
57	0x3d9d192b	0.07670816
58	0x3d605521	0.054768685
59	0x3c87a1b4	0.016556598
60	0x3c87fa0d	0.016598726
61	0x3c946bd1	0.018117817
62	0x3debefa2	0.11520316
63	0xbc624af1	-0.013811813
64	0xbbb66686	-0.005566421
65	0x3dc41089	0.09573466
66	0xbcedc1ff	-0.029023169
67	0xbd1a8fc4	-0.03773476
68	0xbdbad9e3	-0.0912359
69	0xbd1c1d94	-0.038114145
70	0x3c7e65db	0.015527214
71	0xbd873d99	-0.06603546
72	0x3d95fa76	0.07323162
73	0xbc47eb48	-0.0122020915
74	0xbc5eba08	-0.013594158
75	0xbc955355	-0.018228212
76	0x3d3081bb	0.04309247
77	0x3c86db5d	0.016462022
78	0xbd2f597a	-0.04280994
79	0xbdb0a286	-0.08624749
80	0x3dbb4821	0.09144617
81	0x3cf2780a	0.029598255
82	0xbd9955cf	-0.0748707
83	0x3e00f76e	0.12594387
84	0xbd3bc1d9	-0.045839164
85	0xbd021ae7	-0.031763937
86	0x3de32156	0.11090343
87	0xbd1d8f35	-0.03846665
88	0xbd42bf98	-0.047546
89	0x3daf04ac	0.08545813
90	0xbb9a305b	-0.0047054715
91	0xbd8dc652	-0.06922592
92	0xbb10649e	-0.0022032629
93	0xbc9c08f9	-0.019047247
94	0x3d73effe	0.059555046
95	0xbceb14cd	-0.028696442
96	0x3c8ae95c	0.016956978
97	0x3db50dc8	0.08840519
98	0x3ce8e7f3	0.028430915
99	0x3dd28e0e	0.10281001
100	0x3cbda6db	0.023150852
101	0x3d7dfc04	0.06200792
102	0x3be628f4	0.007023925
103	0xbd81b20a	-0.063327864
104	0x3da3840d	0.07984171
105	0x3d0d5225	0.034502167
106	0x3dbbabaf	0.091636054
107	0xbd633c0a	-0.05547718
108	0x3d86433c	0.06555793
109	0x3d99554c	0.07486972
110	0x3da492ff	0.0803585
111	0x3d64c40f	0.05585104
112	0xbbf5a3fe	-0.007496356

layers.6.sequential.0.weight f4 [113, 113]
0	0xbc4298df	-0.011877268
1	0xbd33b1a7	-0.043870594
2	0xbd5bcbf3	-0.053661298
3	0xbd5417ba	-0.05178044
4	0x3dd99039	0.106232114
5	0xbb85aa77	-0.004079159
6	0x3d90e77f	0.070754044
7	0x3df8326d	0.12118993
8	0xbd2370b9	-0.039902423
9	0xbce1c23a	-0.027558435
10	0x3d9bdeae	0.07610832
11	0xbbf4e74e	-0.0074738627
12	0xbba83c80	-0.0051341653
13	0x3d7fbd8c	0.062436625
14	0x3d9e39a3	0.07725837
15	0x3dd5182f	0.10405003
16	0x3e0c318b	0.13690774
17	0xbdc15e8f	-0.09441864
18	0x3e0630c3	0.13104539
19	0x3dd792b7	0.105260305
20	0x3af2bbce	0.0018519105
21	0x3d9fc51d	0.07801268
22	0xbde67777	-0.11253255
23	0x3c8b4d33	0.017004585
24	0xbd55007f	-0.052002426
25	0x3d142f6c	0.036178038
26	0x3d6ac3cc	0.057315633
27	0x3ddf7094	0.109101444
28	0x3d4459c4	0.04793717
29	0xbdd87fb7	-0.10571235
30	0xbdc409a4	-0.09572151
31	0xbdb42359	-0.087958045
32	0x3d21666e	0.039404325
33	0xbdb35a13	-0.08757415
34	0x3d060b0e	0.032725386
35	0xbd3b5268	-0.045732886
36	0x3d4a3c5a	0.049373962
37	0xbd38627f	-0.04501581
38	0x3dd60c89	0.1045161
39	0xbb3a7266	-0.0028449534
40	0xbd3dd7f2	-0.04634852
41	0xbbcd4554	-0.006264368
42	0xbc81cd32	-0.015844915
43	0x3d88b100	0.06674385
44	0x3d2c1424	0.042011395
45	0x3b3bd9fb	0.0028663862
46	0xbccf7720	-0.025325358
47	0x3df08e21	0.11745859
48	0xbce88552	-0.028383885
49	0x3d8ce1e6	0.06879024
50	0xbd4dead5	-0.05027278
51	0xbdc00646	-0.093761966
52	0xbd3e7f37	-0.04650804
53	0x3df0b939	0.117540784
54	0xbda83973	-0.082140826
55	0xbd68dd8e	-0.056851916
56	0xbd4ad0ba	-0.049515463
57	0x3de12abc	0.10994479
58	0x3cefae08	0.02925779
59	0xbd63a3df	-0.0555762
60	0x3d19ffd0	0.037597477
61	0x3dc947e4	0.09828165
62	0xbd42ecd1	-0.047589127
63	0x3d4c046e	0.049808912
64	0x3cfc9ec9	0.030837433
65	0xbd11d95b	-0.035607677
66	0xbcdb5c33	-0.026777362
67	0xbdabd6a6	-0.0839055
68	0xbd771700	-0.06032467
69	0x3c48a247	0.012245721
70	0x3da2bc14	0.07946029
71	0x3dd46b1a	0.103719905
72	0x3d1c066f	0.038092073
73	0xbca25e6c	-0.019820414
74	0x3d6182da	0.05505643
75	0x3dbdddec	0.09270844
76	0x3d0ff516	0.03514584
77	0xbe100ff6	-0.14068589
78	0xbd0351ad	-0.032060314
79	0x3e072865	0.13199003
80	0xba957810	-0.0011403579
81	0xbbdd6a5c	-0.006757064
82	0xbce8f277	-0.028435929
83	0x3dd9b7a6	0.10630731
84	0xbd80a2eb	-0.06281074
85	0x3d321d93	0.043485235
86	0xbce010d7	-0.02735178
87	0x3e03b8d2	0.12863472
88	0x3b781418	0.0037853774
89	0xbd2a5a95	-0.041590292
90	0x3d8244f2	0.063608065
91	0x3e104cf5	0.14091857
92	0x3de3ab5f	0.11116671
93	0xbb804395	-0.0039143064
94	0x3da502d2	0.080571786
95	0xbbff247d	-0.007786332
96	0x3c9fd320	0.019509852
97	0x3e0924cd	0.13392945
98	0x3daecc46	0.08535056
99	0xbd8336bf	-0.06406926
100	0xbe6710e3	-0.22565036
101	0x3d87072b	0.06593164
102	0x3d0a2925	0.033730645
103	0x3dc0cda7	0.09414225
104	0x3d8a144c	0.067421526
105	0xbda06081	-0.07830907
106	0x3dc09d52	0.094050065
107	0x3defe530	0.11713636
108	0x3d4f7c85	0.05065586
109	0x3deec035	0.11657754
110	0x3c24d49e	0.0100604575
111	0x3d30febe	0.04321169
112	0x3de87332	0.11350097
113	0x3c7b256e	0.015328748
114	0xbd8978ff	-0.06712531
115	0xbc7ab007	-0.015300757
116	0x3d95a87b	0.07307526
117	0xbc80c506	-0.015718948
118	0x3d094d94	0.03352125
119	0x3c860465	0.016359517
120	0xbd5792f5	-0.052630384
121	0xbd225c1e	-0.03963863
122	0xbdb92efd	-0.090421654
123	0x3d2df623	0.042471062
124	0x3d5e3bc4	0.054256216
125	0x3d0c43c9	0.034244332
126	0xbd0dcc3e	-0.03461861
127	0x3db4a4ab	0.088204704
128	0x3b546f73	0.0032415062
129	0xbc5f7a2d	-0.013639969
130	0xbc3374f3	-0.010953176
131	0xbd94150c	-0.07230577
132	0xbcd2dd9f	-0.025740443
133	0x3d66269b	0.05618916
134	0xbd69f4ec	-0.05711834
135	0x3d391b70	0.045192182
136	0x3c926b18	0.017873332
137	0xbd40bd12	-0.04705531
138	0x3baad756	0.0052136583
139	0x3db7a313	0.08966651
140	0x3bb94f25	0.0056551867
141	0xbd4553e0	-0.048175693
142	0x3d07adaf	0.033124622
143	0xbd89ef53	-0.067351006
144	0x3dbd76f8	0.09251207
145	0x3c6c0729	0.014406004
146	0x3da2b657	0.07944935
147	0x3c47129d	0.012150434
148	0xbc76c1e1	-0.015060873
149	0xbdb9f4c2	-0.09079887
150	0x3d847848	0.06468254
151	0xbc98ec50	-0.01866737
152	0xbd45fe56	-0.048338257
153	0xbd6f5aa8	-0.058436066
154	0x3bab7397	0.0052322852
155	0xbc01601a	-0.007896448
156	0x3bc71e47	0.0060766074
157	0x3ca8df46	0.020614278
158	0x3d8adfb9	0.06780953
159	0x3da0f2cf	0.07858812
160	0x3da86888	0.08223063
161	0xbd9e09b0	-0.077166915
162	0xbdac4374	-0.08411303
163	0xbd2e5618	-0.042562574
164	0xbc9aa82b	-0.018879017
165	0xbda8c05b	-0.08239814
166	0xbd2f0b70	-0.042735517
167	0x3d964a23	0.07338359
168	0xbd7a8484	-0.061161533
169	0xbd602f5f	-0.054732677
170	0xbd47688c	-0.048683688
171	0x3ce4df8e	0.02793863
172	0xbd145f53	-0.03622372
173	0xbcca0fcc	-0.024665736
174	0x3d70736d	0.05870383
175	0x3cfa84fd	0.030580992
176	0x3d893d11	0.067011006
177	0xbdbd9535	-0.092569746
178	0xbd4d0d55	-0.050061543
179	0x3da98d0d	0.082788564
180	0xbdb083ed	-0.08618913
181	0x3d130668	0.03589478
182	0x3d1d1598	0.03835067
183	0xbd81abb3	-0.06331577
184	0xbd61e510	-0.05515009
185	0xbd382955	-0.044961292
186	0x3c1efbba	0.009703571
187	0xbd83e2c6	-0.06439738
188	0xbda60b49	-0.08107621
189	0xbd5b17e5	-0.053489584
190	0xbd6049a7	-0.05475774
191	0x3d9f5733	0.07780304
192	0x3da31b7c	0.079642266
193	0xbd85523f	-0.06509828
194	0x3d976faf	0.07394349
195	0xbb29ef73	-0.0025930076
196	0xbd5f2183	-0.05447532
197	0xbdabf3e2	-0.08396126
198	0x3ca77168	0.020439819
199	0xbcd2eb97	-0.025747104
200	0xbcaae772	-0.020862315
201	0xbcfebe83	-0.031096702
202	0xbd979afe	-0.07402609
203	0xbd79ac4b	-0.060955327
204	0xbd17f08a	-0.03709463
205	0x3d1a45d7	0.03766426
206	0xbd8d99da	-0.069141105
207	0xbc9db793	-0.019252574
208	0x3dad9ebc	0.08477542
209	0x3d2d61d5	0.042329628
210	0xbd5d4364	-0.054019347
211	0x3d9baeee	0.076017246
212	0xbd066d04	-0.03281881
213	0xbdadd887	-0.08488565
214	0xbc96a020	-0.0183869
215	0xbcf14c52	-0.029455338
216	0xbdb24a3d	-0.08705566
217	0xbce26f20	-0.02764088
218	0xbd9d9a6e	-0.07695471
219	0xbb52cb83	-0.003216476
220	0x3d78fa3a	0.06078551
221	0xbd17687a	-0.03696487
222	0xbc20cb2c	-0.009814065
223	0x3dbf178a	0.093306616
224	0x3cbf43cb	0.023347756
225	0xbc98e19c	-0.018662266
226	0x3b263d44	0.0025366107
227	0xbd5e72f9	-0.054308865
228	0xbd913ff1	-0.07092274
229	0xbd688749	-0.056769643
230	0xbd81d630	-0.06339681
231	0x3dc85ac9	0.09782941
232	0x3d8996e5	0.06718234
233	0x3d82b9db	0.06383105
234	0x3c04a03d	0.008094844
235	0x3dc5d6b4	0.09660092
236	0x3ce393df	0.027780471
237	0x3c23d551	0.009999589
238	0x3db30325	0.08740834
239	0x3d6c2457	0.057651844
240	0xbc83a8ab	-0.016071638
241	0x3ce115e3	0.027476257
242	0x3d95eab4	0.07320157
243	0xbd17af09	-0.03703216
244	0x3c6f11be	0.014591632
245	0x3dd3873d	0.10328529
246	0x3dab6d21	0.08370424
247	0x3dd8bb2c	0.10582575
248	0x3dfe77e8	0.12425214
249	0xbb77b590	-0.0037797429
250	0x3dc0a191	0.09405816
251	0xbdd15aa9	-0.1022237
252	0x3dceed5c	0.101038665
253	0x3d5b69b4	0.053567603
254	0x3dd3ad81	0.103358276
255	0xbd813479	-0.063088365

layers.6.sequential.0.bias f4 [113]
0	0x3bf5b2c5	0.0074981176
1	0xbdb5f035	-0.088837065
2	0x3d27e3a7	0.04098859
3	0x393d3be3	0.00018046754
4	0xbbabf3f4	-0.0052475873
5	0xbc95dab0	-0.018292755
6	0xbd9a3e6e	-0.07531439
7	0x3c9f35f2	0.019434903
8	0x3dad00be	0.08447407
9	0x3c876950	0.01652971
10	0x3df183f3	0.117927454
11	0x3c985727	0.018596245
12	0xbd2a1f10	-0.04153353
13	0xbd8d497a	-0.0689878
14	0x3d910c5e	0.07082437
15	0x3dc282fe	0.09497641
16	0x3dc62193	0.096743725
17	0x3dedb818	0.11607379
18	0x3d87acd0	0.06624758
19	0xbd1faf99	-0.038985822
20	0xbd8fd0eb	-0.0702227
21	0xbd7202a4	-0.05908455
22	0x3d296aa8	0.04136148
23	0xbdac787c	-0.08421418
24	0x3dbc6780	0.091994286
25	0x3d8362a2	0.06415297
26	0x3d619404	0.0550728
27	0xbd4fb225	-0.050707
28	0x3dd1b559	0.102396674
29	0x3b7d13a6	0.0038616448
30	0xbc1a3a65	-0.009413336
31	0xbd55f96f	-0.05223983
32	0x3d96fa1c	0.07371923
33	0x3d600904	0.054696098
34	0x3db0457c	0.08607003
35	0x3cd79636	0.026316743
36	0xbada4bff	-0.0016654729
37	0x3db46510	0.08808339
38	0xbd7a776b	-0.061149042
39	0x3ce91d08	0.028456226
40	0xbd83cacf	-0.06435167
41	0x3db0e365	0.08637122
42	0xbd94072f	-0.07227933
43	0xbbc47a24	-0.0059960056
44	0xbdb8872a	-0.090101555
45	0x3d89c23e	0.06726502
46	0xbd19e1cb	-0.03756885
47	0xbd78b022	-0.06071485
48	0xbbc52725	-0.0060166293
49	0xbce6a9fa	-0.028157223
50	0x3c85c2bf	0.016328214
51	0x3d4b0aed	0.049570967
52	0xbd6e10b2	-0.05812139
53	0xbc0d79ac	-0.008634966
54	0xbcc6ec4e	-0.0242826
55	0xbcf667e1	-0.03007883
56	0xbd51ba81	-0.051203255
57	0x3cde0631	0.027102562
58	0x3df5fbc1	0.12010909
59	0xbd5a96d8	-0.053366512
60	0xbbdc0a10	-0.0067150667
61	0x3d60e682	0.05490733
62	0xbc7b24ba	-0.0153285805
63	0x3ced434d	0.028962756
64	0x3cd4de41	0.025984885
65	0x3d3558c8	0.04427412
66	0x3de964c4	0.11396173
67	0xbcac87f6	-0.021060925
68	0xbbd3fc93	-0.006469318
69	0x3d0b694d	0.03403597
70	0xbc9bad4a	-0.01900353
71	0x3ccd0797	0.025028033
72	0xbc331893	-0.010931152
73	0x3db7e345	0.08978895
74	0x3c4eeae9	0.012629249
75	0x3da36a2b	0.07979234
76	0xbd46c596	-0.048528276
77	0x3d90749b	0.07053491
78	0xbd27666a	-0.040869154
79	0x3bdd6cdc	0.006757362
80	0x3d3efd47	0.046628263
81	0xbd24c678	-0.040228337
82	0xbdb5ab19	-0.08870525
83	0xbda34ca6	-0.07973604
84	0x3ce4b680	0.027919054
85	0xbd716b7b	-0.058940392
86	0xbc88cc9f	-0.016699133
87	0x3c11147c	0.0088549815
88	0xbd75db9d	-0.060023893
89	0xbd86a339	-0.06574101
90	0xbc38d8f0	-0.011282191
91	0xbd45009e	-0.04809629
92	0xbb91df75	-0.004451687
93	0x3d9f17de	0.07768224
94	0x3d34b62e	0.044119053
95	0x3db27e50	0.087154984
96	0xbd877420	-0.06613946
97	0x3c94753d	0.01812231
98	0x3dd1a04c	0.10235652
99	0xbd296b16	-0.04136189
100	0xbcca04fc	-0.02466058
101	0xbd1aefd4	-0.037826374
102	0x3da0e51a	0.07856198
103	0x3d048f6e	0.032363348
104	0xbda76d53	-0.08175149
105	0x3e0b7cb0	0.13621783
106	0x3daefdf7	0.08544534
107	0x3d9ff811	0.07810987
108	0x3ce20eb8	0.02759491
109	0x3d9dfc27	0.0771411
110	0x3c8a8464	0.016908832
111	0xbd3b7374	-0.0457644
112	0xbd9a294a	-0.075274065
