benchmark/ablation_mnistfc_medium/onnx/mnistfc-medium-net-288.onnx (onnx, 739219 bytes, 14 tensors)

layers.2.sequential.0.weight f4 [128, 784]
0.0060523483 -0.030728044 0.011685738 -0.048035152 0.0019933444 -0.030539276 -0.046007376 -0.015597837
-0.03195949 0.014734084 -0.013449581 0.0066136317 -0.003846238 0.013347461 -0.039158758 -0.048413362
-0.04183802 -0.02901118 -0.026043288 0.011490401 -0.007454062 0.016636085 0.003749738 0.012300762
-0.008354244 0.0022133593 -0.04768307 -0.05286486 -0.017957864 -0.023803188 -0.049491286 -0.031949136
0.0028698572 -0.005570486 -0.0052397624 -0.015754886 -0.020341251 0.00038967017 0.01481939 0.017633023
-0.0023907227 -0.007307273 -0.039748635 -0.042950176 0.018959798 -0.019335954 0.018247128 0.0037051474
0.0032264637 0.00017065964 0.003311955 -0.0072131706 -0.003122837 -0.017342981 -0.011174478 -0.0334938
-0.029447595 -0.047627255 0.001796785 -0.013789142 -0.03724637 0.003973815 -0.043012135 -0.0057046902
-0.03418239 -0.029137144 0.015181236 0.023027908 -0.012162825 -0.01603418 -0.01726065 0.005785299
0.009117939 0.029781567 -0.014218113 -0.018823784 -0.018292973 -0.047461264 -0.022311123 -0.017707972
0.0013927023 -0.038386103 -0.009713205 -0.031554934 -0.0061227703 -0.044266544 0.012652637 0.008211987
-0.008747667 0.012122018 -0.036917802 0.018019754 0.010452579 0.028036913 0.03921963 0.07544624
0.010908643 0.054812796 0.03892062 0.045076415 0.0018871478 -0.02098964 0.024635013 0.004948129
-0.012002631 -0.009263139 -0.006687887 -0.05269871 -0.021911805 -0.007341213 -0.04163282 -0.026869243
-0.012754457 -0.029553873 -0.023736129 -0.028683903 -0.03127633 -0.01798542 -0.032353256 -0.020178827
-0.023190306 0.004498931 0.0045072823 0.044387225 0.058797475 0.051386267 0.0035413743 0.03949416
0.010206919 0.0023475555 0.007235428 -0.0059589217 -0.05064788 -0.05310877 -0.06975777 -0.05793346
-0.05998792 0.01091485 -0.049978238 -0.04984123 -0.039553706 -0.0073034163 -0.025769813 0.0022513438
-0.03179344 -0.0431785 -0.049790643 -0.027869234 0.013284262 0.015424917 0.0454616 -0.026936881
-0.019155392 0.013853606 0.029054118 0.041620035 0.04460267 0.061196025 -0.014004568 -0.006414351
-0.0059390166 0.006904849 -0.07717912 -0.058930226 -0.022782527 -0.030084033 -0.052517105 -0.04826648
0.0116952825 -0.03368095 -0.052875414 -0.007918358 -0.049073547 0.0023834114 -0.0031079894 -0.012333526
-0.007703582 0.02747321 0.007282384 0.01795559 0.032162886 0.050016172 -0.0015626971 0.044198252
0.023691308 0.014624995 0.033303622 0.027458793 -0.027804017 -0.049874794 -0.05461415 -0.056487206
-0.0050340234 -0.052316062 0.0038083459 -0.051912267 -0.016508665 -0.009365712 0.0052329474 0.0044332696
-0.05948258 -0.00738206 -0.006731628 0.030147081 -0.022990251 0.011569517 -0.010930593 -0.044913787
0.023782033 0.016789349 0.008661853 0.036798157 0.005512756 0.031705823 0.028871361 -0.030416323
-0.04549646 -0.031557444 -0.024642637 -0.04424825 -0.0137526365 -0.05951895 -0.030409362 -0.025556706
-0.04142672 -0.0332885 -0.032996416 -0.05169173 -0.07189551 -0.05903411 -0.0013735739 -0.04220931
-0.011596639 -0.03751433 -0.05903136 0.013586738 -0.010739607 0.01275873 0.013231985 0.04798852
0.047186706 -0.030347854 -0.039275207 -0.036215954 0.011028978 -0.02260967 -0.04497351 -0.015520167
0.01985231 0.00869419 -0.034553584 -0.005787663 -0.014871702 0.002550519 -0.02452961 -0.05207179
00000000: c752 c63b 61b9 fbbc 8a75 3f3c 82c0 44bd
00000010: c5a2 023b 812d fabc 3b72 3cbd 128e 7fbc
00000020: f4e7 02bd 3a67 713c a25b 5cbc 2ab7 d83b
00000030: 2a11 7cbb 4faf 5a3c ef64 20bd 174d 46bd
00000040: 585e 2bbd dba8 edbc bc58 d5bc 3c42 3c3c
00000050: 3441 f4bb 6648 883c 2abe 753b 2389 493c
00000060: 3de0 08bc 020e 113b 534f 43bd d388 58bd
00000070: 5f1c 93bc e7fe c2bc 60b7 4abd 19dd 02bd
00000080: 3714 3c3b a088 b6bb 50b2 abbb 6410 81bc
00000090: b2a2 a6bc a54c cc39 07cd 723c 2173 903c
000000a0: acad 1cbb d971 efbb 77cf 22bd 86ec 2fbd
000000b0: 9451 9b3c 6f66 9ebc 007b 953c 0fd2 723b
000000c0: 1473 533b 19f3 3239 620d 593b 765c ecbb
000000d0: 83a8 4cbb de12 8ebc 2815 37bc cb30 09bd
000000e0: 153c f1bc cc14 43bd 1a82 eb3a daeb 61bc
000000f0: a68f 18bd c736 823b 7e2d 30bd 69ee babb
00000100: d502 0cbd 05b1 eebc b8ba 783c 06a5 bc3c
00000110: 9646 47bc 1d5a 83bc 3566 8dbc 9b92 bd3b
00000120: 6863 153c 79f8 f33c 17f3 68bc 5634 9abc
00000130: 25db 95bc be66 42bd d1c5 b6bc 4f10 91bc
00000140: 568b b63a bf3a 1dbd 2224 1fbc bf3f 01bd
00000150: 85a1 c8bb d650 35bd 024d 4f3c 928b 063c
00000160: 6052 0fbc 6e9b 463c 1f37 17bd 2a9e 933c
00000170: 4b41 2b3c abad e53c c3a4 203d 8f83 9a3d
00000180: 2aba 323c 6283 603d 3a6b 1f3d 0ca2 383d
00000190: 2c5a f73a 77f2 abbc 5ecf c93c ea23 a23b
000001a0: afa6 44bc 6cc4 17bc 1026 dbbb 9ada 57bd
000001b0: 6380 b3bc 8f8e f0bb 2d87 2abd e31c dcbc
000001c0: 12f8 50bc f71a f2bc 4572 c2bc 81fa eabc
000001d0: 9c1b 00bd 2956 93bc d984 04bd 114e a5bc
000001e0: 99f9 bdbc c56b 933b d3b1 933b 61cf 353d
000001f0: 9fd5 703d 687a 523d 6716 683b a1c4 213d
00000200: ec3a 273c 72d9 193b 2b17 ed3b 0f43 c3bb
00000210: 2774 4fbd 9588 59bd 29dd 8ebd a34b 6dbd
00000220: e5b5 75bd 33d4 323c fbb5 4cbd 5126 4cbd
00000230: 1103 22bd 7f51 efbb 371b d3bc 488b 133b
00000240: d739 02bd f0db 30bd 46f1 4bbd 054e e4bc
00000250: 3ca6 593c cbb8 7c3c f135 3a3d bcaa dcbc
00000260: c5eb 9cbc 3cfa 623c e702 ee3c c579 2a3d
00000270: 4ab1 363d afa8 7a3d 6a73 65bc 7a2f d2bb
00000280: 159c c2bb 1242 e23b 1610 9ebd d260 71bd
00000290: 6ca2 babc ca72 f6bc 2d1c 57bd 13b3 45bd
000002a0: 929d 3f3c 09f5 09bd e493 58bd 00bc 01bc
000002b0: 5801 49bd 0233 1c3b 69af 4bbb 8f12 4abc
000002c0: 546e fcbb 7f0f e13c 11a1 ee3b 9a17 933c
000002d0: 3bbd 033d c2dd 4c3d 6ad3 ccba 3a09 353d
000002e0: 4614 c23c ad9d 6f3c 6169 083d 43f1 e03c
000002f0: 40c5 e3bc 8349 4cbd 16b3 5fbd 215f 67bd
00000300: 73f4 a4bb 5e49 56bd 7195 793b f5a1 54bd
00000310: 2e3d 87bc a572 19bc 2579 ab3b f644 913b
00000320: 01a4 73bd 35e5 f1bb fd94 dcbb 03f7 f63c
00000330: 0d56 bcbc 128e 3d3c 3b16 33bc 85f7 37bd
00000340: 8ad2 c23c d189 893c 72ea 0d3c aab9 163d
00000350: 59a4 b43b f7dd 013d a283 ec3c a72b f9bc
00000360: 7f5a 3abd 6142 01bd 5bdf c9bc a73d 35bd
00000370: bd52 61bc 24ca 73bd 0e1d f9bc 4c5c d1bc
00000380: 10af 29bd 8659 08bd 4027 07bd b5ba 53bd
00000390: f43d 93bd c0cd 71bd 7e09 b4ba abe3 2cbd
000003a0: d4ff 3dbc a0a8 19bd deca 71bd e99a 5e3c
000003b0: 2df5 2fbc fe09 513c f8ca 583c 9c8f 443d
000003c0: d946 413d 109c f8bc 0adf 20bd 2e57 14bd
000003d0: e3b2 343c ea37 b9bc 2536 38bd 4c48 7ebc
000003e0: 50a1 a23c 1372 0e3c 0f88 0dbd 70a6 bdbb
000003f0: 70a8 73bc 9c26 273b 52f2 c8bc 3b49 55bd

layers.2.sequential.0.bias f4 [128]
-0.00019935596 0.018949276 0.047245782 -0.0037825203 0.00022000525 -0.014926383 -0.006303172 -0.024977481
-0.0072427057 0.00581234 0.029278062 0.016847169 0.029674545 0.003862603 0.0042245137 0.0011951057
0.014441324 0.0134631675 0.00907289 0.022592891 -0.0070219287 0.024689157 -0.01387474 0.01650561
0.03974032 -0.024051838 0.037145447 0.047788776 -0.00033139775 -0.00029186456 -0.009161167 -0.015464726
0.028232126 0.008528099 -0.0070493496 0.00041353737 0.02580946 -0.016391873 -0.009531174 -0.009465213
0.0031753615 0.035296652 -0.016147796 -0.023944926 0.04025786 0.038102616 0.0027163327 -0.010193038
0.0116993245 -0.008550552 0.018055297 -0.026425367 0.04058384 0.020079678 0.023441091 0.023592258
0.017983334 0.009257303 -0.023449823 0.00999033 0.0014706269 -0.020789787 -0.019457085 0.03847558
-0.008801215 0.007058448 0.04570569 0.009868609 0.043582913 0.016854173 -0.008856486 -0.014766292
-0.007725662 0.00488626 0.04462661 0.025293244 0.04562225 0.024480581 0.0037043744 0.009642538
0.019719647 -0.0032407476 -0.0063485876 -0.010056154 0.051505193 -0.016829832 0.028785573 -0.037133366
-0.017143026 0.038654994 -0.030864976 0.01615655 -0.0031163045 0.009328583 -0.0015967247 -0.0055069523
-0.001305228 0.0058588786 -0.011519357 -0.01682797 0.010495463 0.021618387 0.043077875 -0.015234506
0.008403119 -0.036434464 0.022266345 0.04390516 0.006929265 0.052339002 0.009671477 0.009472561
0.033595834 0.030433051 -0.032861877 0.017950363 0.011112999 -0.0037184397 0.037394192 -0.012577719
0.003860224 0.021846145 0.005667772 0.020509487 -0.010260803 0.01283943 0.035233278 0.025311101
00000000: 350a 51b9 833b 9b3c cb84 413d 29e4 77bb
00000010: 36b1 6639 ca8d 74bc d78a cebb 939d ccbc
00000020: 3854 edbb 7175 be3b 8cd8 ef3c 1303 8a3c
00000030: 0818 f33c ba23 7d3b ca6d 8a3b 18a5 9c3a
00000040: 4e9b 6c3c 9e94 5c3c 75a6 143c ba14 b93c
00000050: 3518 e6bb ea40 ca3c e152 63bc c636 873c
00000060: bfc6 223d 5c08 c5bc d325 183d 2abe 433d
00000070: 74bf adb9 6605 99b9 b818 16bc c35f 7dbc
00000080: 0f47 e73c 71b9 0b3c 3bfe e6bb 0cd0 d839
00000090: 5c6e d33c 4048 86bc a428 1cbc fb13 1bbc
000000a0: ba19 503b 3993 103d 6248 84bc 2628 c4bc
000000b0: 6de5 243d 7d11 1c3d 8004 323b b300 27bc
000000c0: 86ae 3f3c 9d17 0cbc b4e8 933c 037a d8bc
000000d0: 3e3b 263d 237e a43c 8807 c03c 8d44 c13c
000000e0: c951 933c f1ab 173c d819 c0bc 7bae 233c
000000f0: 0dc2 c03a 584f aabc 7764 9fbc 9298 1d3d
00000100: f932 10bc 8e4a e73b e435 3b3d f2af 213c
00000110: ff83 323d c311 8a3c cb1a 11bc 51ee 71bc
00000120: 8d27 fdbb eb1c a03b 64ca 363d c733 cf3c
00000130: 65de 3a3d 808b c83c 17c5 723b bcfb 1d3c
00000140: 198b a13c b962 54bb d007 d0bb 91c2 24bc
00000150: 1cf7 523d b7de 89bc b9cf eb3c 2819 18bd
00000160: 886f 8cbc b354 1e3d 8cd8 fcbc be5a 843c
00000170: ea3a 4cbb ead6 183c 3149 d1ba aa73 b4bb
00000180: 2f14 abba d6fb bf3b afbb 3cbc d0da 89bc
00000190: 2af5 2b3c 0b19 b13c 6d72 303d 269a 79bc
000001a0: 3cad 093c 4e3c 15bd e967 b63c e6d5 333d
000001b0: e30e e33b 6c61 563d 1d75 1e3c cd32 1b3c
000001c0: c99b 093d bc4e f93c 2d9a 06bd a40c 933c
000001d0: 4c13 363c 11b1 73bb a72a 193d c712 4ebc
000001e0: d0fb 7c3b b0f6 b23c b8b8 b93b 8303 a83c
000001f0: ed1c 28bc 795c 523c c550 103d 3a59 cf3c

layers.3.sequential.0.weight f4 [128, 128]
0.046706397 0.0305324 -0.07504594 0.010605821 0.07861631 0.037008606 -0.0042998483 -0.0714151
-0.046742745 -0.022940394 0.0064180675 -0.025348995 -0.06931402 -0.01252615 0.065885775 -0.030142397
-0.01980164 -0.018250529 -0.04004849 0.062864944 -0.0012200881 -0.022817662 0.063804254 -0.005605412
0.024221275 -0.09856776 0.060327623 0.006126117 0.03452365 -0.07676225 -0.022476267 -0.0499884
0.0025383902 -0.031220077 0.1029891 -0.049794603 0.054208178 0.06757138 -0.0441083 -0.041016225
0.08343316 -0.04758145 0.16004112 -0.115674414 -0.04560502 0.07479056 -0.0054434766 0.04627097
-0.025526898 0.0633369 -0.07336595 0.0264448 0.08567433 0.056991342 -0.043549597 0.076634035
-0.06286574 0.10228027 0.11649935 0.05742015 0.053210758 0.00038772123 0.018351205 0.055898774
0.022015968 -0.023723036 0.08139903 0.0035079988 0.07321667 0.02770092 0.15569474 0.070840314
0.052144054 -0.00072512816 -0.005558415 0.006438465 0.07094654 -0.078235626 0.07831604 0.026713448
0.025227875 0.010286991 0.05436749 -0.041188944 -0.015065717 -0.04553069 -0.029911945 -0.06776845
-0.056266364 -0.0453806 0.04293681 0.04364287 0.027056748 -0.025963008 0.08158956 0.032714
-0.006804822 0.022032687 -0.011525546 -0.0020775942 -0.06267404 -0.0892272 -0.07468536 0.054155055
0.054699108 -0.16160528 -0.09060676 0.010132068 0.08267453 0.047065005 0.051696494 0.08862916
0.03546994 -0.08854622 -0.031904638 0.079594515 -0.088300936 -0.031075425 -0.0500596 -0.036603518
-0.067620896 0.09210769 -0.054380164 -0.06819522 0.019395284 -0.037283905 0.018633127 0.06889939
0.01809312 0.11298099 0.08108797 0.021175403 -0.07041741 0.15546875 -0.055302735 0.046593614
-0.07912791 0.010941464 0.03178486 0.028803786 0.13540368 -0.049550332 0.024430048 0.042802244
-0.015248114 0.0044910153 0.046097435 0.041929565 0.039090514 0.03521649 0.049351256 0.0025964992
-0.048624445 0.10893049 0.050700344 0.02946492 0.036881845 0.0012554871 0.004739618 0.039892003
0.061119363 0.10051741 -0.08260319 -0.05581148 -0.04553778 -0.051728334 -0.011705832 0.02835184
-0.04735838 0.055505272 -0.031783625 0.02484121 -0.0027637023 0.106663205 0.11925681 0.021940213
0.06413033 0.008582737 0.010706897 0.018482015 0.0046126186 0.035383176 -0.026048142 0.09474875
0.061480634 0.038065802 -0.060938 -0.055047985 -0.0034824589 0.068228416 0.11180814 0.0831634
0.1267921 -0.09046957 0.090037815 0.020960456 0.099852346 0.06542438 0.028255505 0.07492445
-0.09332236 0.04081781 -0.023146434 0.042895604 0.025032455 0.07358126 0.11162171 -0.026032621
-0.029941628 0.027646285 0.018539945 -0.034353103 0.02715406 0.0699459 -0.09732901 0.015424689
-0.035894014 0.028415017 -0.040132597 -0.07821235 0.03648941 -0.06650681 -0.10927548 0.04162024
0.0671517 0.04104817 -0.021238344 -0.03128054 0.006583406 0.048531633 0.06890831 0.032760017
0.0932113 0.05322475 0.033967853 0.04170199 0.11153158 -0.052499793 -0.008257715 0.015339258
0.035345547 -0.02631532 0.08103517 -0.051690836 0.021905985 0.043925893 0.17622223 0.052108
0.08716899 -0.060592365 -0.04856935 -0.004534433 0.1318809 0.05597439 0.107018605 -0.005051882
00000000: 354f 3f3d 151f fa3c b0b1 99bd 0ac4 2d3c
00000010: 9701 a13d 5696 173d bee5 8cbb 1442 92bd
00000020: 5275 3fbd 7eed bbbc a74e d23b b2a8 cfbc
00000030: 82f4 8dbd 7b3a 4dbc 1fef 863d 30ed f6bc
00000040: 0d37 a2bc 2282 95bc e309 24bd 56bf 803d
00000050: 5deb 9fba 1bec babc ceab 823d 9bad b7bb
00000060: b26b c63c e5dd c9bd 191a 773d 98bd c83b
00000070: ac68 0d3d 8735 9dbd 2620 b8bc a3c0 4cbd
00000080: 1f5b 263b 3fc1 ffbc f3eb d23d 6df5 4bbd
00000090: 6509 5e3d dd62 8a3d e8aa 34bd a100 28bd
000000a0: 01df aa3d c4e4 42bd d2e1 233e b5e6 ecbd
000000b0: 54cc 3abd cb2b 993d 315f b2bb a186 3d3d
000000c0: c91d d1bc c7b6 813d e340 96bd c4a2 d83c
000000d0: 0676 af3d c16f 693d 1061 32bd 4ef2 9c3d
000000e0: c1bf 80bd 5178 d13d 3697 ee3d 6431 6b3d
000000f0: 86f3 593d 1047 cb39 4455 963c 1df6 643d
00000100: d55a b43c d056 c2bc 89b4 a63d 74e6 653b
00000110: 9ff2 953d 0aed e23c 716e 1f3e ba14 913d
00000120: 0195 553d 8716 3eba 5d23 b6bb c2f9 d23b
00000130: 6b4c 913d 003a a0bd 2964 a03d 29d6 da3c
00000140: b0aa ce3c c48a 283c 72b0 5e3d bdb5 28bd
00000150: 32d6 76bc 647e 3abd e509 f5bc 2fca 8abd
00000160: 8f77 66bd 02e1 39bd 82de 2f3d dec2 323d
00000170: 1da6 dd3c 60b0 d4bc 6d18 a73d 1eff 053d
00000180: fcfa debb e57d b43c a5d5 3cbc 3f28 08bb
00000190: 3f5b 80bd c0bc b6bd a3f4 98bd b1d1 5d3d
000001a0: 2c0c 603d db7b 25be 0990 b9bd f900 263c
000001b0: 4451 a93d 3cc7 403d b4bf 533d 3483 b53d
000001c0: ee48 113d b857 b5bd 70ae 02bd 7302 a33d
000001d0: 1fd7 b4bd e491 febc 4c0b 4dbd 92ed 15bd
000001e0: d37c 8abd f5a2 bc3d bcbd 5ebd efa9 8bbd
000001f0: dce2 9e3c 02b7 18bd 80a4 983c 201b 8d3d
00000200: 0638 943c 9462 e73d 7311 a63d 0a78 ad3c
00000210: 0137 90bd 3333 1f3e 1f85 62bd f2d8 3e3d
00000220: d00d a2bd d443 333c d730 023d ebf5 eb3c
00000230: 43a7 0a3e 4af5 4abd 8621 c83c 6851 2f3d
00000240: 3ad3 79bc 5e29 933b aad0 3c3d 56be 2b3d
00000250: 601d 203d 2b3f 103d 8b24 4a3d 072a 2a3b
00000260: 6d2a 47bd f316 df3d 2aab 4f3d 6a60 f13c
00000270: 6b11 173d 288f a43a cc4e 9b3b cc65 233d
00000280: 4c58 7a3d 12dc cd3d dc2b a9bd 949a 64bd
00000290: d385 3abd 17e1 53bd d1c9 3fbc 1e42 e83c
000002a0: dcfa 41bd 7f59 633d 8c2f 02bd cb7f cb3c
000002b0: 3b1f 35bb 3d72 da3d ea3c f43d f6bb b33c
000002c0: c356 833d 9c9e 0c3c fb6b 2f3c 9867 973c
000002d0: 7325 973b f3ed 103d ea62 d5bc a20b c23d
000002e0: 1ed3 7b3d e3ea 1b3d 209a 79bd ff79 61bd
000002f0: f739 64bb 57bb 8b3d abfb e43d 9351 aa3d
00000300: cad5 013e 1c48 b9bd bf65 b83d 43b5 ab3c
00000310: 637f cc3d 38fd 853d 1778 e73c fd71 993d
00000320: cb1f bfbd 9330 273d 979d bdbc 4db3 2f3d
00000330: dd10 cd3c c6b1 963d ec99 e43d 5d42 d5bc
00000340: 2548 f5bc 767a e23c 15e1 973c d7b5 0cbd
00000350: 3172 de3c cc3f 8f3d 6f54 c7bd d6b7 7c3c
00000360: 9a05 13bd 9cc6 e83c 1462 24bd cc2d a0bd
00000370: eb75 153d b934 88bd d3cb dfbd fc79 2a3d
00000380: d586 893d 2022 283d 09fc adbc 0620 00bd
00000390: 9db9 d73b 1bc9 463d cd1f 8d3d 5e2f 063d
000003a0: 91e5 be3d 3202 5a3d e021 0b3d b5cf 2a3d
000003b0: ab6a e43d 060a 57bd 5e4b 07bc 8351 7b3c
000003c0: 7ec6 103d 3a93 d7bc c4f5 a53d c5b9 53bd
000003d0: 2e74 b33c a3eb 333d 9a73 343e 336f 553d
000003e0: a885 b23d b32f 78bd a8f0 46bd 9595 94bb
000003f0: c90b 073e 6745 653d 922c db3d 428a a5bb

layers.3.sequential.0.bias f4 [128]
0.008576788 0.027776051 0.0325647 0.00920047 0.04498956 -0.08017899 -0.02769326 0.008114491
0.034747694 0.032615956 0.055982407 0.032273892 0.07636929 0.09064549 0.09020623 0.05463284
-0.006904575 -0.06731918 -0.010193607 0.048600566 -0.04665302 -0.07326571 0.086091176 0.021580888
0.037993576 0.050030716 -0.017462712 -0.02327354 0.044338744 0.082496874 0.062013227 -0.043703098
-0.00071379665 0.05104436 -0.063425854 -0.05010437 -0.037349585 -0.03946213 -0.02556611 0.04223527
0.064842016 -0.06570754 0.01726418 0.026581222 0.07939321 -0.02572357 -0.09097144 0.020599669
-0.047917098 0.017936088 -0.024068052 0.10346999 0.10725093 0.09785776 0.06073594 0.077974334
0.0640022 0.06796408 -0.04806016 -0.005003121 -0.028098747 0.09688183 0.09340394 0.0830396
-0.036282033 -0.05814065 -0.074004084 0.079890326 -0.069679044 0.091350086 0.08713329 0.01843702
0.052493006 0.051436204 -0.051328085 0.082351506 -0.06900535 -0.025864517 0.03159842 -0.031949963
-0.019993402 0.057826877 0.06303076 0.062254 -0.05277355 0.012356051 -0.0054189945 0.008920334
0.01774392 0.03402788 -0.0632805 0.07613613 -0.0041327667 -0.05377174 0.061447524 0.021282727
0.03775724 -0.046074487 -0.0630513 0.07363728 0.06628853 -0.051828276 0.06797437 0.035378207
-0.015628552 0.09420308 0.07623058 -0.055523917 0.083383456 -0.054458313 0.033824198 -0.052025974
0.030225476 0.040245272 -0.0357096 -0.06626082 0.06575513 0.08826615 0.10780012 -0.035596248
0.08478967 0.007716645 0.07987154 -0.08242872 0.060490906 0.08860486 0.046907417 0.08279935
00000000: a885 0c3c 9a8a e33c 9062 053d 91bd 163c
00000010: f946 383d e234 a4bd fadc e2bc a4f2 043c
00000020: 9953 0e3d 4f98 053d cf4d 653d a131 043d
00000030: 8167 9c3d 58a4 b93d 0bbe b83d afc6 5f3d
00000040: c63f e2bb a3de 89bd 1603 27bc 6311 473d
00000050: 3d17 3fbd 550c 96bd 9250 b03d 67ca b03c
00000060: 279f 1b3d 02ed 4c3d f60d 8fbc 27a8 bebc
00000070: 8b9c 353d 1ff4 a83d 9501 7e3d 0502 33bd
00000080: 151e 3bba e413 513d 6ae5 81bd 3d3a 4dbd
00000090: e1fb 18bd 0ba3 21bd 0570 d1bc e4fe 2c3d
000000a0: e4cb 843d ad91 86bd 9c6d 8d3c ddc0 d93c
000000b0: e898 a23d 3cba d2bc 3c4f babd a3c0 a83c
000000c0: b844 44bd b4ee 923c 5d2a c5bc 13e8 d33d
000000d0: 60a6 db3d a669 c83d 40c6 783d 02b1 9f3d
000000e0: 9613 833d c030 8b3d bbda 44bd 39f1 a3bb
000000f0: 582f e6bc fb69 c63d 914a bf3d aa10 aa3d
00000100: 789c 14bd e424 6ebd 748f 97bd 8a9d a33d
00000110: e3b3 8ebd c115 bb3d f072 b23d 3c09 973c
00000120: e802 573d c5ae 523d 663d 52bd e8a7 a83d
00000130: ad52 8dbd d3e1 d3bc 586d 013d f7dd 02bd
00000140: 34c9 a3bc e0db 6c3d 4516 813d 0dfe 7e3d
00000150: 1429 58bd 0971 4a3c d291 b1bb 9826 123c
00000160: b35b 913c d160 0b3d 3599 81bd 42ed 9b3d
00000170: 296c 87bb c23f 5cbd 66b0 7b3d 1d59 ae3c
00000180: 56a7 1a3d 9ab8 3cbd 0a21 81bd 24cf 963d
00000190: 48c2 873d e349 54bd 2636 8b3d bde8 103d
000001a0: 7307 80bc 8bed c03d c71e 9c3d 0c6d 63bd
000001b0: f2c4 aa3d ae0f 5fbd 3e8b 0a3d 3019 55bd
000001c0: 6b9b f73c 3ad8 243d 3b44 12bd c1b3 87bd
000001d0: a0aa 863d e2c4 b43d 4fc6 dc3d 5fcd 11bd
000001e0: 35a6 ad3d e9db fc3b b193 a33d 64d0 a8bd
000001f0: 50c5 773d 7776 b53d fe21 403d b592 a93d

layers.4.sequential.0.weight f4 [128, 128]
0.025128398 0.09556628 0.042052392 0.08206275 -0.039484866 -0.025527818 -0.032048736 -0.017782412
-0.0292871 0.06939909 0.033894226 0.038405363 0.009639533 0.03784255 0.03971906 0.124331996
-0.0024788775 0.08350805 -0.06724298 0.0906902 0.016838757 0.01991483 0.0064380295 -0.055783805
-0.060308713 0.073136866 -0.072545044 -0.06022402 -0.0781713 -0.03434581 0.063378975 0.027428309
0.026632035 0.08930726 -0.025910757 0.17196313 0.00065799983 0.055025667 0.013648974 0.0058266344
-0.027422909 -0.090496875 0.059090365 0.041125458 -0.05592669 0.03907284 0.07598665 -0.057296798
-0.0613223 -0.06066388 0.08662163 0.053381957 -0.0251314 -0.023223894 -0.040628348 -0.06063356
0.063627884 0.101903945 -0.11988087 0.024489362 -0.063901976 -0.059991464 0.028458698 -0.043191623
0.01829783 0.0062588723 -0.045601506 0.08474422 0.058904663 0.0025136517 -0.031690165 0.07244366
0.01633847 0.025431922 0.071735606 -0.08745614 -0.016147625 0.12862825 0.05820255 -0.0719219
0.07799623 -0.037995946 -0.015316498 -0.02159278 0.06896935 0.10816134 0.004683974 0.106793314
0.019662175 0.015675744 -0.0060472735 0.09280416 0.02778383 -0.03076453 -0.0005063643 0.11846565
0.028012449 -0.012519205 0.03227152 0.09270401 0.063307874 0.024162816 0.006499068 0.043431755
0.13419314 -0.024459569 -0.13423613 -0.060289323 0.08460642 0.04137863 0.013961418 -0.054383103
0.101868406 -0.013187706 -0.039586857 0.11927127 0.05804709 0.12684037 -0.017392883 0.09082008
0.11148844 0.07636074 -0.05512604 0.10865045 -0.041811373 -0.05952266 0.08896852 0.0347496
-0.029840123 -0.021561215 -0.005461873 0.06812287 -0.065326676 -0.059715502 -0.06321641 -0.0073462604
0.09898129 0.0352531 0.007930507 -0.028748497 0.10445491 0.062165067 0.08642573 0.10005518
0.004240882 0.023241494 -0.07726303 0.05005725 0.014931357 0.0072743203 -0.03618543 -0.033491313
0.058983043 0.0661187 0.062378902 0.10643564 0.0494586 0.028946927 -0.045589156 -0.0130587835
0.05603868 0.1276516 -0.020612858 0.061261468 0.010367904 0.026005702 0.04190293 -0.072143234
0.031163516 0.0708415 0.06728484 0.11263438 -0.03365265 -0.0069791856 -0.018347112 0.024281595
0.013970789 -0.029340323 -0.05530525 -0.054755848 -0.09955306 0.10364117 0.09840296 0.022140319
-0.018324478 -0.018047132 0.033902496 0.017361239 0.097927235 0.07531643 0.07742053 0.05442617
0.058312166 -0.065416336 0.048113372 -0.021395756 -0.029004171 -0.027954243 0.07556127 0.11559402
0.046096552 0.11619437 0.06957378 -0.084334545 0.082636036 0.04581399 0.046438124 -0.021985168
0.02736492 -0.07714967 -0.05049409 -0.015765889 0.06973536 0.1073457 -0.031937294 0.031930313
0.044679902 0.09301101 -0.06508794 0.08505809 0.05764583 0.08415994 0.04345032 0.029876774
0.031806048 -0.0066080187 -0.00048628543 -0.036553282 0.068318285 -0.08275074 -0.06713307 0.09932893
0.11116838 -0.045966357 -0.044004273 0.06432811 0.06789083 0.048798382 0.069469035 -0.018267995
0.066287905 -0.07179503 0.07215886 0.021341752 -0.07671005 0.08806789 0.09499637 0.02280667
-0.03106446 0.032703854 0.051474016 -0.03385616 0.10812458 -0.010906391 0.027626649 0.072348654
00000000: 12da cd3c 41b8 c33d 213f 2c3d 8410 a83d
00000010: e2ba 21bd b71f d1bc 8945 03bd 6cac 91bc
00000020: 80eb efbc 1c21 8e3d acd4 0a3d f14e 1d3d
00000030: 22ef 1d3c ca00 1b3d 74b0 223d c6a1 fe3d
00000040: aa74 22bb 4506 ab3d b0b6 89bd c9bb b93d
00000050: 6ff1 893c 6d24 a33c 1bf6 d23b 8f7d 64bd
00000060: 4506 77bd c8c8 953d 7f92 94bd 76ad 76bd
00000070: 4618 a0bd 31ae 0cbd d6cc 813d 55b1 e03c
00000080: 6d2b da3c bae6 b63d cc42 d4bc 1a17 303e
00000090: 9f7d 2c3a 9862 613d f29f 5f3c 5aed be3b
000000a0: 02a6 e0bc 6d56 b9bd bd08 723d 2b73 283d
000000b0: 6313 65bd d80a 203d e49e 9b3d 0cb0 6abd
000000c0: 182d 7bbd b07a 78bd ae66 b13d 0aa7 5a3d
000000d0: 5ee0 cdbc 0940 bebc e969 26bd e55a 78bd
000000e0: 564f 823d 04b3 d03d 1a84 f5bd ea9d c83c
000000f0: 0adf 82bd 9cb9 75bd 3722 e93c b3e9 30bd
00000100: 55e5 953c 3a17 cd3b a5c8 3abd 618e ad3d
00000110: 0446 713d 14bc 243b 8ccd 01bd 575d 943d
00000120: 41d8 853c 9b56 d03c 1eea 923d 341c b3bd
00000130: 0648 84bc 20b7 033e cc65 6e3d ca4b 93bd
00000140: 7dbc 9f3d a3a1 1bbd 0cf2 7abc 57e3 b0bc
00000150: cd3f 8d3d b183 dd3d 067c 993b 74b6 da3d
00000160: 9212 a13c 6b6a 803c 3528 c6bb 1c10 be3d
00000170: ea9a e33c e505 fcbc 88bd 04ba 1e9e f23d
00000180: 5d7a e53c 5a1d 4dbc 242f 043d 9adb bd3d
00000190: 8fa7 813d 19f1 c53c 22f6 d43b 7fe5 313d
000001a0: ed69 093e 6f5f c8bc 3275 09be f0f1 76bd
000001b0: 2146 ad3d a37c 293d 6ebe 643c d1c0 5ebd
000001c0: 62a0 d03d 3f11 58bc d425 22bd 7f44 f43d
000001d0: c9c2 6d3d 71e2 013e 857b 8ebc e1ff b93d
000001e0: 0d54 e43d 0563 9c3d d8cb 61bd 2184 de3d
000001f0: 6742 2bbd 08ce 73bd 2135 b63d 9955 0e3d
00000200: 4673 f4bc 25a1 b0bc 83f9 b2bb 0184 8b3d
00000210: fec9 85bd 3e98 74bd 9b77 81bd e6b8 f0bb
00000220: b4b6 ca3d 8e65 103d f5ee 013c f881 ebbc
00000230: 75ec d53d cca0 7e3d f9ff b03d bbe9 cc3d
00000240: 19f7 8a3b f264 be3c 143c 9ebd d508 4d3d
00000250: a6a2 743c 6c5d ee3b 2c37 14bd 302e 09bd
00000260: 3498 713d 3e69 873d 0581 7f3d eefa d93d
00000270: 1a95 4a3d 1b22 ed3c b2bb 3abd 82f4 55bc
00000280: d188 653d 1ab7 023e 4cdc a8bc 4eed 7a3d
00000290: 24de 293c e909 d53c 68a2 2b3d d5bf 93bd
000002a0: a14a ff3c 5915 913d a2cc 893d dbac e63d
000002b0: 5cd7 09bd a7b1 e4bb af4c 96bc 32ea c63c
000002c0: bce5 643c 1e5b f0bc c287 62bd ab47 60bd
000002d0: 7ae2 cbbd d241 d43d 7e87 c93d 9d5f b53c
000002e0: 371d 96bc 94d7 93bc 58dd 0a3d 2839 8e3c
000002f0: 138e c83d 803f 9a3d a88e 9e3d faed 5e3d
00000300: bdd8 6e3d 00f9 85bd 8712 453d 2746 afbc
00000310: 289a edbc 4c00 e5bc debf 9a3d 8fbc ec3d
00000320: bdcf 3c3d 50f7 ed3d b37c 8e3d 97b7 acbd
00000330: 153d a93d 73a7 3b3d e735 3e3d 3d1a b4bc
00000340: 662c e03c a500 9ebd e4d2 4ebd 7727 81bc
00000350: 6ad1 8e3d 10d8 db3d aed0 02bd 5cc9 023d
00000360: 4602 373d 8e7c be3d d34c 85bd f032 ae3d
00000370: 091e 6c3d 0c5c ac3d f6f8 313d 23c0 f43c
00000380: 0f47 023d 1488 d8bb 20f4 feb9 e5b8 15bd
00000390: 75ea 8b3d 3879 a9bd 107d 89bd f76c cb3d
000003a0: 3fac e33d 3847 3cbd d33d 34bd 75be 833d
000003b0: 590a 8b3d d0e0 473d c845 8e3d c3a6 95bc
000003c0: f4c1 873d 4609 93bd 06c8 933d e6d4 ae3c
000003d0: 291a 9dbd f05c b43d 758d c23d 0ed5 ba3c
000003e0: e57a febc 7af4 053d 6bd6 523d c2ac 0abd
000003f0: 6b70 dd3d b8b0 32bc 4851 e23c 882b 943d

layers.4.sequential.0.bias f4 [128]
0.04424788 -0.005072435 0.08464197 0.078550614 0.06672659 0.060732942 0.10515073 0.008408228
0.032000173 -0.068741806 0.037176166 -0.06372744 0.064147614 -0.027548457 0.069182 0.013977882
-0.061362345 -0.03689198 0.02487318 0.032236226 -0.0021676244 -0.033701807 -0.00027800218 -0.01220769
-0.034641244 0.05616248 0.05293836 0.030758753 0.008363514 -0.05347626 -0.036641754 -0.060165163
-0.033024937 -0.024193084 0.028733604 0.06276796 0.069335714 0.010315714 -0.054755855 0.06452697
0.019710863 0.076996684 -0.051739912 -0.0022476353 0.08452082 -0.06081554 0.054623194 0.08164109
0.08518196 -0.022539426 0.022845216 0.07107038 -0.075612314 0.034568314 -0.07681895 0.07893562
-0.04455891 -0.05344662 0.015610197 0.06106862 0.03443701 0.05652015 0.02034627 0.047171943
0.036804903 -0.027612083 0.0588876 0.058389265 -0.08126706 -0.05668069 0.10309912 -0.00043086978
0.050845496 -0.01299874 0.0037853846 -0.03064992 -0.0003105884 -0.016233904 0.00724227 0.06949067
-0.050428677 0.041258793 0.06889898 -0.058100976 -0.0103178965 0.04144458 0.079185836 -0.0030382164
-0.04719797 -0.054891173 0.068392 0.11168338 -0.017147176 0.07231461 0.018698903 0.009313262
0.00570558 -0.053734012 -0.022171456 0.08793698 -0.034189187 -0.028173553 0.039722323 0.08115666
0.04046449 0.065138586 -0.0005825507 -0.050890934 0.0493807 0.0001474085 -0.038584795 0.103533335
-0.047600724 0.093058124 0.06981215 -0.0670701 0.054367833 0.0628463 -0.029654961 0.091366164
-0.05698777 -0.05481255 0.065542094 -0.00285459 -0.037019797 0.056353305 0.038940057 0.09541882
00000000: 443d 353d ab36 a6bb c558 ad3d 25df a03d
00000010: f3a7 883d 1bc3 783d 4459 d73d aac2 093c
00000020: 9d12 033d 81c8 8cbd 0946 183d 8883 82bd
00000030: d35f 833d 4dad e1bc 4baf 8d3d 7d03 653c
00000040: 1557 7bbd 0b1c 17bd d7c2 cb3c 220a 043d
00000050: b40e 0ebb e80a 0abd d2c0 91b9 c302 48bc
00000060: fae3 0dbd a10a 663d e5d5 583d c8f9 fb3c
00000070: 1f07 093c ec09 5bbd aa15 16bd bf6f 76bd
00000080: 2845 07bd 9330 c6bc bc62 eb3c 7d8c 803d
00000090: e2ff 8d3d 3e03 293c ad47 60bd b726 843d
000000a0: ad78 a13c 70b0 9d3d 3bed 53bd 104d 13bb
000000b0: 4019 ad3d b719 79bd 92bc 5f3d 7233 a73d
000000c0: e173 ae3d 9aa4 b8bc e425 bb3c 598d 913d
000000d0: a1da 9abd 8197 0d3d 4153 9dbd 00a9 a13d
000000e0: 6783 36bd d8ea 5abd e9c1 7f3c 1723 7a3d
000000f0: d20d 0d3d ac81 673d 39ad a63c 5e37 413d
00000100: bdc0 163d bc32 e2bc 2034 713d 9529 6f3d
00000110: 586f a6bd 032a 68bd a225 d33d 5de6 e1b9
00000120: 5e43 503d abf8 54bc 3714 783b 8b15 fbbc
00000130: 78d6 a2b9 f7fc 84bc 9050 ed3b 2051 8e3d
00000140: 4d8e 4ebd fbfe 283d e91a 8d3d 4afb 6dbd
00000150: 650c 29bc cbc1 293d 2f2c a23d d01c 47bb
00000160: a952 41bd 91d5 60bd 1b11 8c3d 42ba e43d
00000170: 3c78 8cbc af19 943d 712e 993c a796 183c
00000180: e0f5 ba3b 3218 5cbd eaa0 b5bc 4e18 b43d
00000190: f609 0cbd 39cc e6bc e0b3 223d 7735 a63d
000001a0: 18be 253d 6167 853d 51b6 18ba 0373 50bd
000001b0: 6b43 4a3d ab91 1a39 170b 1ebd 4909 d43d
000001c0: faf8 42bd 4295 be3d acf9 8e3d 0c5c 89bd
000001d0: ceb0 5e3d 90b5 803d f6ee f2bc 2f1e bb3d
000001e0: 026c 69bd 2083 60bd ef3a 863d 1314 3bbb
000001f0: 12a2 17bd b9d2 663d 9c7f 1f3d f16a c33d

layers.5.sequential.0.weight f4 [128, 128]
0.064127184 0.012241625 -0.015695343 0.0022620815 0.094289124 -0.004953328 0.10320321 -0.017658746
0.01821948 0.039827008 -0.019496137 -0.060124286 0.08723037 0.015461754 0.059825756 -0.05380038
-0.003121768 -0.0009093595 0.099717565 -0.0146224415 0.031790663 0.10657741 -0.0767864 -0.049413413
0.021812208 0.08046359 -0.0028176312 0.021097943 0.02148787 -0.08879575 0.10371294 -0.069209054
-0.03612535 0.08542526 -0.010098719 0.070734225 0.036355097 0.10996886 0.054299153 0.077814505
0.1336031 -0.02896514 0.031752005 -0.06555208 -0.045133658 0.025235701 0.017542623 0.026211344
-0.073828 -0.11590705 -0.07750825 0.048425317 -0.042555913 0.0707317 -0.02000313 0.08854025
0.062420134 0.0016123976 -0.013684339 0.0726175 0.06167035 0.06717078 0.01785249 0.053443417
-0.09314125 0.010154471 -0.059248436 -0.019630319 -0.07672486 0.08384928 0.038523577 0.018102556
0.03147097 -0.04215579 -0.05721375 -0.056312006 0.085232824 0.049012005 -0.023379164 0.09009674
-0.027429072 -0.066850886 0.0050499653 0.068734184 0.085750245 -0.019151846 -0.07624746 0.002721961
0.07484637 -0.01282105 -0.079984136 0.08377675 -0.06403556 0.05461676 0.0014990437 -0.0568158
0.016618682 -0.04161284 -0.01865599 -0.030643944 0.012697363 0.065755635 -0.050116144 0.042062256
0.05833638 0.067606755 0.015906423 0.06319686 -0.05365875 -0.0129106 0.103074506 0.0014366696
-0.02785135 0.0552762 0.025033575 -0.06945149 0.052955497 0.09538744 0.07693003 -0.057193343
-0.089254625 0.070864074 -0.054536916 0.009388098 -0.06078385 0.08654618 0.068243094 0.04578474
0.022931347 -0.015600633 -0.01818898 0.026509788 -0.06825503 0.04361938 -0.012476406 0.040376067
-0.07926545 0.0061364863 -0.01627622 0.02017761 -0.027339807 0.006405881 0.06290912 0.0037288952
-0.038582437 0.03612543 0.09445829 -0.045639258 0.06590106 -0.07211955 0.0027561893 0.05737186
0.0348695 -0.060011324 -0.025809743 -0.0051599154 -0.025675021 0.031239385 0.009748684 -0.04728792
-0.055554274 -0.04783451 0.016593132 0.08356927 0.07971338 -0.032231662 0.03454798 -0.038562167
0.05217616 0.0748916 0.07306604 0.008614301 -0.079493895 -0.029036423 -0.044416107 0.07998462
0.08558456 0.09933377 0.03141113 0.08807078 0.004066456 -0.04064981 -0.0814243 0.010167382
0.063980624 -0.009247363 0.08482053 -0.07178336 0.05209331 -0.06987569 -0.06030409 -0.019963836
-0.014417758 -0.041192327 -0.01688707 0.05921113 0.012285374 -0.054768365 0.026135467 0.019613735
0.06872565 0.041318107 0.063084066 0.069008455 -0.02259914 0.014909672 0.035156023 0.07443574
-0.025363175 0.013019441 0.006065905 -0.024207432 -0.06916738 0.07145586 -0.04148967 -0.011698131
0.03743563 0.06538711 0.014001864 0.06529932 -0.021323834 0.029228278 0.06746038 0.06158268
-0.076720424 -0.016116256 -0.011202604 -0.023790605 0.04743648 -0.043754686 0.0008344233 0.025098247
-0.023095366 0.071476325 0.01414898 0.00410132 0.027478304 -0.07827617 -0.04671991 0.07914194
-0.03998148 -0.04440224 0.056678303 0.072370805 -0.075985454 -0.062776916 -0.05509195 -0.064152814
0.084577076 -0.06419652 -0.009732567 -0.040941615 0.027554866 0.052638832 0.08958516 -0.028872041
00000000: 1d55 833d 1991 483c 8593 80bc 6e3f 143b
00000010: a81a c13d 874f a2bb 345c d33d 13a9 90bc
00000020: 0541 953c a521 233d 5db6 9fbc e244 76bd
00000030: d6a5 b23d 4c53 7d3c da0b 753d ca5d 5cbd
00000040: 9396 4cbb 1562 6eba b938 cc3d f792 6fbc
00000050: ed36 023d 4245 da3d 3042 9dbd b865 4abd
00000060: 84af b23c 18ca a43d 02a8 38bb 98d5 ac3c
00000070: 5407 b03c 8cda b5bd 7367 d43d 7abd 8dbd
00000080: 2df8 13bd 70f3 ae3d 1975 25bc 1bdd 903d
00000090: 15e9 143d 5b37 e13d ca68 5e3d 365d 9f3d
000000a0: 40cf 083e 4d48 edbc 640e 023d 2b40 86bd
000000b0: 12de 38bd 1abb ce3c 8cb5 8f3c 2cb9 d63c
000000c0: 2233 97bd ad60 edbd a5bc 9ebd a059 463d
000000d0: 1c4f 2ebd c8db 903d 9bdd a3bc 9754 b53d
000000e0: 41ac 7f3d 1657 d33a 4734 60bc 7cb8 943d
000000f0: 0d9a 7c3d d590 893d 633f 923c 7ce7 5a3d
00000100: d7c0 bebd f05e 263c 7dae 72bd c3cf a0bc
00000110: ec21 9dbd 2cb9 ab3d e6ca 1d3d d04b 943c
00000120: b4e7 003d 8dab 2cbd f758 6abd 6ba7 66bd
00000130: 8c8e ae3d d0c0 483d a985 bfbc a484 b83d
00000140: efb2 e0bc 1ee9 88bd 2e7a a53b 82c4 8c3d
00000150: d39d af3d 55e4 9cbc a127 9cbd ed62 323b
00000160: 0e49 993d 620f 52bc b9ce a3bd 2593 ab3d
00000170: 1325 83bd d3b5 5f3d 8f7b c43a afb7 68bd
00000180: e723 883c 3a72 2abd 72d4 98bc 0209 fbbc
00000190: 9a08 503c e4aa 863d 9646 4dbd 7949 2c3d
000001a0: 21f2 6e3d 6975 8a3d 304e 823c 5b6d 813d
000001b0: 47c9 5bbd fb86 53bc ba18 d33d a24e bc3a
000001c0: 8428 e4bc 4c69 623d 3613 cd3c 953c 8ebd
000001d0: dde7 583d 7d5a c33d 7e8d 9d3d 9143 6abd
000001e0: 21cb b6bd 2f21 913d 1a62 5fbd 89d0 193c
000001f0: 7cf8 78bd 203f b13d 09c3 8b3d c888 3b3d
00000200: 85da bb3c cc99 7fbc 0e01 95bc 0e2b d93c
00000210: 4bc9 8bbd 3caa 323d d769 4cbc 6061 253d
00000220: ed55 a2bd 9414 c93b b555 85bc 844b a53c
00000230: bbf7 dfbc 6de8 d13b 7fd6 803d 7b60 743b
00000240: 9e08 1ebd 42f8 133d 5973 c13d 3bf0 3abd
00000250: 23f7 863d 6ab3 93bd 2fa1 343b c1fe 6a3d
00000260: 52d3 0e3d 6fce 75bd f46e d3bc 8214 a9bb
00000270: 6c54 d2bc bde9 ff3c f2b8 1f3c fab0 41bd
00000280: e18c 63bd 1fee 43bd 52ee 873c 5e26 ab3d
00000290: c540 a33d 5905 04bd 2f82 0d3d 5df3 1dbd
000002a0: abb6 553d c460 993d a6a3 953d ff22 0d3c
000002b0: b2cd a2bd cbdd edbc aaed 35bd face a33d
000002c0: f546 af3d 816f cb3d f5a8 003d 745e b43d
000002d0: e83f 853b 6a80 26bd c9c1 a6bd 1795 263c
000002e0: 4608 833d 4082 17bc 63b6 ad3d 2703 93bd
000002f0: cb5f 553d fc1a 8fbd 6c01 77bd 338b a3bc
00000300: 7638 6cbc 49b9 28bd c156 8abc 5f87 723d
00000310: 9848 493c cb54 60bd 0c1a d63c fcac a03c
00000320: 09c0 8c3d 2d3d 293d 3832 813d 4e54 8d3d
00000330: d521 b9bc b247 743c c3ff 0f3d c471 983d
00000340: 6fc6 cfbc 7e4f 553c 80c4 c63b aa4e c6bc
00000350: a1a7 8dbd 7357 923d 12f1 29bd 85a9 3fbc
00000360: 1a56 193d ade9 853d 1368 653c a6bb 853d
00000370: 52af aebc 2470 ef3c ab28 8a3d 1f3e 7c3d
00000380: 991f 9dbd 3d06 84bc 208b 37bc 84e4 c2bc
00000390: c14c 423d 1d38 33bd 33bd 5a3a d79a cd3c
000003a0: 7e32 bdbc 2e62 923d 20d1 673c 5e64 863b
000003b0: 2e1a e13c 424f a0bd 605d 3fbd 2b15 a23d
000003c0: 9fc3 23bd 20df 35bd 8227 683d 2537 943d
000003d0: 439e 9bbd 2f91 80bd 19a8 61bd 8d62 83bd
000003e0: bf36 ad3d 7779 83bd 5875 1fbc 65b2 27bd
000003f0: beba e13c d19b 573d 6d78 b73d 0f85 ecbc

layers.5.sequential.0.bias f4 [128]
-0.04825781 0.020782143 0.09926761 0.036001667 0.047818135 -0.06691593 0.0005697582 -0.06497096
-0.05784933 0.0712303 0.110002026 -0.05124472 0.0019403703 -0.017866412 0.034250192 0.091377124
0.05408192 0.055736307 0.032877624 0.013958198 0.024338905 0.07951552 -0.045629192 0.053635612
0.041672032 -0.048597325 0.040167894 0.059150156 -0.051824223 0.07585518 0.049584314 0.019699952
0.09842094 -0.09114949 -0.015158319 -0.011813736 0.000759301 -0.04889236 0.104615286 -0.026147155
0.011733328 -0.03269021 0.11099283 -0.05711711 -0.05423985 -0.038663786 -0.002226302 -0.09554696
-0.07918256 0.03382109 -0.051566657 0.101220824 0.045038737 0.01635775 -0.035039563 -0.017171036
0.0018390631 -0.06840813 0.05294174 0.06192557 0.10908976 0.08993276 0.0005979845 -0.008550233
0.08178415 0.047609515 0.00091380003 -0.023999175 -0.00745623 0.04136823 0.082896516 -0.07700317
0.03303999 0.02831959 0.081643365 0.00015716466 -0.00940815 -0.081873044 -0.058496673 -0.07777895
-0.031057758 0.047024004 -0.0040922337 0.05680357 0.056185123 0.06785579 -0.06842622 0.027851101
0.022537144 0.074640535 -0.0738943 0.0051053893 0.03846167 -0.00441606 0.10814882 -0.035753835
-0.006074962 -0.08756366 -0.0019387868 0.0478449 0.030956488 -0.026136348 0.062589034 -0.037233952
-0.049834985 -8.9648594e-05 0.012271962 0.06263525 -0.026804548 0.038357053 -0.07455594 -0.099376455
0.06641061 0.00915873 0.09113227 0.019278642 0.054977417 0.019837424 -0.028831735 0.08638996
0.035472874 -0.011617774 -0.05515053 -0.017091902 0.07301933 -0.04359413 0.057303503 -0.032476924
00000000: fba9 45bd 503f aa3c d14c cb3d 7c76 133d
00000010: f3dc 433d 380b 89bd d35b 153a 7f0f 85bd
00000020: 6bf3 6cbd 31e1 913d be48 e13d fce5 51bd
00000030: 0654 fe3a 955c 92bc ee49 0c3d ee23 bb3d
00000040: 0185 5d3d c14b 643d b0aa 063d edb0 643c
00000050: 6262 c73c 08d9 a23d ade5 3abd 04b1 5b3d
00000060: 4bb0 2a3d fd0d 47bd 1787 243d 6f47 723d
00000070: a345 54bd f659 9b3d ec18 4b3d cb61 a13c
00000080: eb90 c93d 95ac babd 995a 78bc 668e 41bc
00000090: d40b 473a 5b43 48bd 8a40 d63d 8f32 d6bc
000000a0: 253d 403c 2be6 05bd 3550 e33d a1f3 69bd
000000b0: 9b2a 5ebd eb5d 1ebd 26e7 11bb 20ae c3bd
000000c0: 772a a2bd fc87 0a3d 8f37 53bd dd4c cf3d
000000d0: 8a7a 383d b000 863c a585 0fbd 46aa 8cbc
000000e0: b80c f13a 9019 8cbd 70d9 583d aba5 7d3d
000000f0: 746a df3d ab2e b83d 0fc2 1c3a 4716 0cbc
00000100: 737e a73d 3202 433d 158c 6f3a eb99 c4bc
00000110: 6453 f4bb bc71 293d a6c5 a93d d7b3 9dbd
00000120: f154 073d 7cfe e73c a334 a73d 91cc 2439
00000130: a424 1abc 0ead a7bd 359a 6fbd 924a 9fbd
00000140: d76c febc 3e9c 403d 2518 86bb dcaa 683d
00000150: 5f22 663d faf7 8a3d 0c23 8cbd fe27 e43c
00000160: d19f b83c 23dd 983d e555 97bd 1c4b a73b
00000170: fc89 1d3d 99b4 90bb 217d dd3d 9d72 12bd
00000180: 7a10 c7bb 9454 b3bd e41e feba 04f9 433d
00000190: 7698 fd3c e51b d6bc ae2e 803d a182 18bd
000001a0: c51f 4cbd b901 bcb8 5710 493c e946 803d
000001b0: 3695 dbbc 491c 1d3d c9b0 98bd e285 cbbd
000001c0: 4902 883d 7f0e 163c 8ea3 ba3d 3eee 9d3c
000001d0: 0030 613d 1882 a23c 8830 ecbc 38ed b03d
000001e0: 014c 113d 7a58 3ebc 86e5 61bd 5104 8cbc
000001f0: 298b 953d c28f 32bd 14b7 6a3d 8606 05bd

layers.6.sequential.0.weight f4 [128, 128]
0.024066903 0.10580642 0.05010009 -0.034971245 0.15843187 -0.029918287 0.12395275 -0.043309048
-0.053461336 0.033176728 0.08849171 0.07348699 0.07266095 -0.05827349 -0.01420088 -0.022771735
0.07240389 0.1004774 -0.0811984 -0.07809888 0.03151029 -0.019974308 -0.041847322 -0.08783706
0.018569361 -0.040403027 0.093412444 -0.064343676 -0.07612159 0.05603432 0.039453186 -0.083979905
0.07545524 0.028419387 -0.095774256 -0.0036380354 0.07356667 -0.025347095 0.028555656 0.067495145
-0.043358576 -0.08458742 0.064832315 0.0016917891 0.06784275 -0.09788336 0.116169 -0.055275574
-0.09093837 -0.04935113 -0.012890121 0.019810352 0.028659435 -0.07567856 0.0010536235 0.029658677
0.07812904 -0.0820999 0.021139411 0.11640687 0.14805296 -0.006383659 0.004458938 0.025570758
0.09424252 0.11245048 0.14022113 0.03280141 0.060519457 0.03309609 0.047207657 -0.010808187
0.05420427 -0.046156097 0.007877448 -0.0052101295 -0.0367886 0.062186874 0.021606319 0.07110433
-0.05913482 0.008654164 -0.07606904 0.09832475 -0.060151126 -0.068451315 0.055592705 0.04513717
-0.029073102 -0.13038352 0.012380963 -0.06373337 -0.054034974 0.120568864 0.14962487 0.11035289
-0.04052387 -0.009787985 0.05436827 -0.06685867 -0.044885684 -0.029357921 0.0004822009 -0.11398009
-0.019657705 0.061082132 0.11140306 -0.10208843 -0.08472158 -0.056910608 0.025542002 0.028032284
-0.038200498 -0.071634844 0.046104074 -0.026381735 -0.03817789 -0.03904791 0.07788398 -0.074643575
-0.05233468 -0.05628448 0.057502232 -0.029224414 -0.006293995 -0.06984224 -0.037377518 0.06548644
-0.04270037 -0.057484962 -0.023418313 0.105716765 -0.036630858 -0.040050432 -0.022237543 0.04394739
-0.0021772115 0.017941775 -0.016912442 -0.023471598 -0.11722022 -0.02050383 0.06601786 -0.02605342
0.043649778 0.112731814 -0.02189337 0.076380275 0.10841751 -0.029825054 0.039935738 -0.041238926
-0.038814522 0.032289814 -0.03560184 -0.0077395453 -0.0014007075 -0.08040629 -0.029534422 0.09600146
-0.081876546 -0.10954643 -0.06544159 0.10229628 -0.0028532206 -0.005644363 -0.042474445 -0.05961251
0.04530938 0.015198791 0.022648364 -0.04091062 0.11083529 0.083894886 -0.077340044 -0.049068928
0.005058381 0.105426274 0.041440755 -0.098555654 -0.018937323 -0.08612377 0.067824 0.070667185
-0.056387007 -0.011806891 -0.08023044 -0.050320834 -0.04853546 -0.01864081 0.048879605 -0.022867242
0.03619465 -0.069473 -0.11966192 0.07608754 -0.005252395 0.06132771 -0.059171967 -0.036411136
-0.016861977 0.0024896653 -0.033732377 -0.094721876 0.025559984 -0.09040302 0.011596452 7.099237e-05
0.02685955 0.069810644 0.035711963 -0.036265075 -0.031566598 0.08844857 0.046385672 0.12014538
-0.08370863 0.060566388 0.048200615 -0.0015996054 0.11549218 0.00075740885 -0.04400791 -0.025528815
-0.03985556 0.06514229 -0.070870765 -0.009693512 0.11150693 -0.07040583 0.08045952 -0.068979114
0.05451061 0.06680598 0.124904595 0.050183196 0.031343948 0.10493096 0.06335921 -0.045902703
-0.10790081 0.0831684 0.10836448 -0.10244173 0.08990167 0.07612388 -0.033684127 0.08125729
0.067104965 -0.082955174 -0.033740237 -0.019708432 -0.10764752 0.055063155 0.057365227 -0.053094767
00000000: f427 c53c 09b1 d83d c135 4d3d 023e 0fbd
00000010: f73b 223e 3217 f5bc f0da fd3d d464 31bd
00000020: 46fa 5abd 52e4 073d 243b b53d 5980 963d
00000030: 44cf 943d 2fb0 6ebd cfaa 68bc ca8b babc
00000040: 7e48 943d 18c7 cd3d 594b a6bd 4ef2 9fbd
00000050: ef10 013d 29a1 a3bc 1968 2bbd ebe3 b3bd
00000060: c61e 983c a57d 25bd 064f bf3d 9ec6 83bd
00000070: a3e5 9bbd 3e84 653d aa99 213d a8fd abbd
00000080: 4788 9a3d c6cf e83c 4b25 c4bd 1b6c 6ebb
00000090: 1faa 963d b6a4 cfbc 8ded e93c e53a 8a3d
000000a0: c398 31bd 2b3c adbd cec6 843d 06bf dd3a
000000b0: 24f1 8a3d 1277 c8bd 03ea ed3d a468 62bd
000000c0: e53d babd 6924 4abd 1631 53bc 5249 a23c
000000d0: 31c7 ea3c 5cfd 9abd bd19 8a3a c1f6 f23c
000000e0: 1e02 a03d fe23 a8bd 8f2c ad3c ba66 ee3d
000000f0: 329b 173e 032e d1bb 481c 923b c479 d13c
00000100: 3902 c13d 704c e63d 2196 0f3e c55a 063d
00000110: 40e3 773d c48f 073d d15c 413d d214 31bc
00000120: 4c05 5e3d 2d0e 3dbd 6910 013c bcb9 aabb
00000130: a5af 16bd aab7 7e3d bcff b03c 269f 913d
00000140: 5a37 72bd 32ca 0d3c 16ca 9bbd 7d5e c93d
00000150: 0761 76bd 3430 8cbd 2db5 633d c1e1 383d
00000160: b72a eebc 4283 05be 86d9 4a3c a486 82bd
00000170: c753 5dbd cfec f63d 4337 193e b200 e23d
00000180: 5cfc 25bd c95d 20bc 43b1 5e3d 33ed 88bd
00000190: 0dda 37bd 0680 f0bc e9cf fc39 656e e9bd
000001a0: 3209 a1bc 4231 7a3d 4a27 e43d bd13 d1bd
000001b0: 8282 adbd 191b 69bd 763d d13c f6a3 e53c
000001c0: 2078 1cbd 4ab5 92bd a0d7 3c3d 821e d8bc
000001d0: 6b60 1cbd b4f0 1fbd a381 9f3d bbde 98bd
000001e0: e45c 56bd 8e8a 66bd 7687 6b3d 0a68 efbc
000001f0: db3d cebb 7309 8fbd 2b19 19bd c11d 863d
00000200: 95e6 2ebd 5a75 6bbd c3d7 bfbc 0882 d83d
00000210: 3d0a 16bd ec0b 24bd 822b b6bc 2e02 343d
00000220: 8caf 0ebb a1fa 923c f68b 8abc 8247 c0bc
00000230: 2811 f0bd a6f7 a7bc 5f34 873d fb6d d5bc
00000240: 1cca 323d f0df e63d ba59 b3bc 436d 9c3d
00000250: 000a de3d ac53 f4bc a893 233d 26ea 28bd
00000260: fafb 1ebd 5342 043d 3cd3 11bd 039c fdbb
00000270: f297 b7ba 0eac a4bd 2cf2 f1bc 6a9c c43d
00000280: e4ae a7bd e159 e0bd 3e06 86bd b680 d13d
00000290: 19fd 3abb 59f4 b8bb aff9 2dbd 3f2c 74bd
000002a0: 5496 393d 5a04 793c 1089 b93c e591 27bd
000002b0: 9dfd e23d 15d1 ab3d 7564 9ebd 80fc 48bd
000002c0: c6c0 a53b bbe9 d73d c8bd 293d 8cd7 c9bd
000002d0: 7222 9bbc a961 b0bd 4fe7 8a3d f5b9 903d
000002e0: 10f6 66bd b171 41bc db4f a4bd 381d 4ebd
000002f0: 1ecd 46bd 9db4 98bc fb35 483d 1554 bbbc
00000300: d740 143d dc47 8ebd 4f11 f5bd c9d3 9b3d
00000310: 481c acbb c432 7b3d 4e5e 72bd d823 15bd
00000320: 2122 8abc a729 233b f62a 0abd 8bfd c1bd
00000330: 2c63 d13c 3825 b9bd 0cff 3d3c bde1 9438
00000340: 8f08 dc3c e2f8 8e3d b546 123d b08a 14bd
00000350: fa4b 01bd 8624 b53d e7fe 3d3d c80e f63d
00000360: 6e6f abbd 7614 783d 026e 453d daa9 d1ba
00000370: 2a87 ec3d d98c 463a a341 34bd ce21 d1bc
00000380: 953f 23bd 5269 853d b124 91bd 89d1 1ebc
00000390: bf5d e43d ef30 90bd f6c7 a43d ec44 8dbd
000003a0: 8446 5f3d 93d1 883d fbcd ff3d e58c 4d3d
000003b0: 8362 003d 0be6 d63d 79c2 813d 7904 3cbd
000003c0: 1afb dcbd 3254 aa3d 32ee dd3d f8cc d1bd
000003d0: 5e1e b83d d6e6 9b3d 5ef8 09bd 396a a63d
000003e0: 546e 893d 67e4 a9bd 3433 0abd 9473 a1bc
000003f0: 4e76 dcbd e789 613d cdf7 6a3d e679 59bd

layers.6.sequential.0.bias f4 [128]
0.020772219 -0.011863465 0.086058654 0.06637044 0.0126327975 -0.021286372 -0.061778203 -0.00876613
0.018535623 0.08421631 -0.035279714 0.09405872 0.07517923 -0.0026425342 -0.06009165 0.03182536
-0.02191892 0.067591324 -0.033437442 0.07738733 0.07750458 0.02807156 0.0936879 0.015260954
0.0055069393 -0.07324411 -0.07501505 -0.0066361036 0.03365867 -0.08151227 0.08251605 0.09099525
0.023876812 0.09134563 0.040786374 0.060533192 -0.047449805 0.045545477 0.09761551 0.033550706
0.09583724 -0.022720324 -0.00925678 -0.06373149 0.024592256 -0.04091546 0.041578487 -0.07068553
0.04109971 -0.054024752 -0.04388354 -0.025959646 -0.009496056 -0.03514678 -0.05113861 -0.056874365
-0.09077255 0.0164655 -0.03445488 0.083757974 -0.03579919 0.056606747 -0.012134677 -0.017539598
0.046169546 0.04722443 0.07004936 -0.044661086 -0.023686785 -0.06266799 0.025266705 0.024232846
0.047457032 -0.017626047 0.06838335 0.048567746 0.076992124 0.08939268 -0.018119706 0.004574596
-0.013187341 -0.017097866 0.03965906 0.030364355 0.019026052 -0.016467711 -0.021648008 -0.08252654
-0.020471852 0.018984644 -0.026014056 -0.036186453 0.049894046 0.03111414 0.049183205 0.09461103
0.045531936 0.08756969 -0.045439497 -0.004870387 0.054476395 0.08901014 0.0281435 -0.013582257
-0.02753628 0.012167902 0.04524544 0.050899547 0.022111228 0.030093843 0.028985187 -0.04919417
0.07773816 -0.0032513144 -0.0029496562 -0.045255005 -0.030884422 0.00707864 -0.01071339 -0.08456918
0.067780584 -0.08838984 -0.04868719 0.023434788 0.051205467 0.03257508 -0.024657525 0.06851083
00000000: 802a aa3c fb5e 42bc 853f b03d 3aed 873d
00000010: cbf9 4e3c c260 aebc 240b 7dbd d09f 0fbc
00000020: 05d8 973c 9a79 ac3d 7681 10bd dca1 c03d
00000030: 91f7 993d 5e2e 2dbb a922 76bd 4f5b 023d
00000040: 4f8f b3bc 526d 8a3d b3f5 08bd 407d 9e3d
00000050: b9ba 9e3d 54f6 e53c 71df bf3d 1509 7a3c
00000060: 8e73 b43b 0201 96bd 7ea1 99bd ac73 d9bb
00000070: acdd 093d e8ef a6bd 2dfe a83d b85b ba3d
00000080: 4e99 c33c 6b13 bb3d 9d0f 273d a7f1 773d
00000090: ba5a 42bd e58d 3a3d a4ea c73d 776c 093d
000000a0: 5146 c43d f91f babc c0a9 17bc a885 82bd
000000b0: b375 c93c f896 27bd 344e 2a3d 93c3 90bd
000000c0: 2b58 283d 0f49 5dbd 3abf 33bd 53a9 d4bc
000000d0: 5895 1bbc 12f6 0fbd b876 51bd 18f5 68bd
000000e0: f5e6 b9bd a8e2 863c 8f20 0dbd 4d89 ab3d
000000f0: 2ca2 12bd 7adc 673d 86d0 46bc 34af 8fbc
00000100: 471c 3d3d 676e 413d 0a76 8f3d 8bee 36bd
00000110: ca0a c2bc 1358 80bd 1ffc ce3c f683 c63c
00000120: 4e62 423d 8064 90bc 920c 8c3d f9ee 463d
00000130: 0cae 9d3d 8213 b73d c76f 94bc 7ee6 953b
00000140: b80f 58bc d310 8cbc 8a71 223d abbe f83c
00000150: 86dc 9b3c 4be7 86bc 2a57 b1bc ad03 a9bd
00000160: 96b4 a7bc af85 9b3c 6e1b d5bc 3f38 14bd
00000170: b35d 4c3d 15e3 fe3c 5474 493d 6dc3 c13d
00000180: b27f 3a3d bd57 b33d c41e 3abd c497 9fbb
00000190: a422 5f3d f34a b63d 338d e63c 1d88 5ebc
000001a0: c493 e1bc e15b 473c 4853 393d 0b7c 503d
000001b0: 9b22 b53c 5d87 f63c 5872 ed3c d37f 49bd
000001c0: 2f35 9f3d 0114 55bb 054f 41bb 505d 39bd
000001d0: 5401 fdbc f0f3 e73b 3787 2fbc 9b32 adbd
000001e0: 8cd0 8a3d bc05 b5bd 386c 47bd 50fa bf3c
000001f0: d3bc 513d 726d 053d 94fe c9bc 684f 8c3d
