RacPLL/example/tests/test_tiny.onnx (onnx, 570 bytes, 3 tensors)

1.weight f4 [8, 1]
000000 00 54 f5 bb 5e 54 09 3f 16 b3 52 bf 80 66 3c bf
       -0.00748682 0.5364436 -0.82304513 -0.735939
000010 f4 32 c5 be ec 4b 89 3e 40 4f a2 bc ce fa 4a 3f
       -0.38515437 0.26815736 -0.01981318 0.7928895

1.bias f4 [8]
000000 70 bf b5 bd 4c 7b 87 3e ac bb 9a be 70 48 49 be
       -0.088744044 0.26461256 -0.30221307 -0.19656539
000010 b8 91 74 bf 52 8b 29 bf e8 0e d3 be 00 bb 17 3d
       -0.9553485 -0.6622821 -0.4122231 0.03704357

3.weight f4 [1, 8]
000000 6b 20 0f 3e 40 3b 59 3e de 70 75 be 86 a7 1d be
       0.1397721 0.21214008 -0.23968837 -0.15395936
000010 a7 7f 03 3e f7 50 96 3e e7 03 95 bd 7a 75 87 3e
       0.12841664 0.29358646 -0.07276135 0.26456815
