RacPLL/example/random.onnx (onnx, 892 bytes, 6 tensors)

layers.0.weight f4 [5, 2]
-1.2 0.0 -1.1 2.0 1.1 -1.6 -0.7 -0.4
0.0 -0.8
00000000: 9a99 99bf 0000 0000 cdcc 8cbf 0000 0040
00000010: cdcc 8c3f cdcc ccbf 3333 33bf cdcc ccbe
00000020: 0000 0000 cdcc 4cbf

layers.0.bias f4 [5]
1.0 1.0 -0.0 -0.0 1.0
00000000: 0000 803f 0000 803f 0000 0080 0000 0080
00000010: 0000 803f

layers.2.weight f4 [4, 5]
-1.1 1.0 1.4 -0.4 -0.4 0.6 0.2 -1.6
0.1 0.6 -1.6 0.9 -0.8 0.5 0.5 -0.8
-0.5 0.4 1.0 0.2
00000000: cdcc 8cbf 0000 803f 3333 b33f cdcc ccbe
00000010: cdcc ccbe 9a99 193f cdcc 4c3e cdcc ccbf
00000020: cdcc cc3d 9a99 193f cdcc ccbf 6666 663f
00000030: cdcc 4cbf 0000 003f 0000 003f cdcc 4cbf
00000040: 0000 00bf cdcc cc3e 0000 803f cdcc 4c3e

layers.2.bias f4 [4]
-0.0 -0.0 -0.0 -0.0
00000000: 0000 0080 0000 0080 0000 0080 0000 0080

layers.4.weight f4 [3, 4]
0.7 -0.4 -0.4 -1.4 1.8 1.5 -0.6 -0.1
-1.0 0.1 -0.0 -0.5
00000000: 3333 333f cdcc ccbe cdcc ccbe 3333 b3bf
00000010: 6666 e63f 0000 c03f 9a99 19bf cdcc ccbd
00000020: 0000 80bf cdcc cc3d 0000 0080 0000 00bf

layers.4.bias f4 [3]
1.0 -0.0 -2.0
00000000: 0000 803f 0000 0080 0000 00c0
