RacPLL/example/test.onnx (onnx, 1070 bytes, 6 tensors)

layers.0.weight f8 [5, 2]
0	0x3ff0000000000000	1.0
1	0xbfc99999a0000000	-0.20000000298023224
2	0x3fe99999a0000000	0.800000011920929
3	0x3fd99999a0000000	0.4000000059604645
4	0x3fb99999a0000000	0.10000000149011612
5	0x8000000000000000	-0.0
6	0x3fe3333340000000	0.6000000238418579
7	0x3ff3333340000000	1.2000000476837158
8	0xbfe0000000000000	-0.5
9	0xbfe3333340000000	-0.6000000238418579

layers.0.bias f8 [5]
0	0x3ff0000000000000	1.0
1	0x8000000000000000	-0.0
2	0x0000000000000000	0.0
3	0xbff0000000000000	-1.0
4	0xc000000000000000	-2.0

layers.2.weight f8 [4, 5]
0	0xbff19999a0000000	-1.100000023841858
1	0x3fd3333340000000	0.30000001192092896
2	0x0000000000000000	0.0
3	0xbff0000000000000	-1.0
4	0xbff8000000000000	-1.5
5	0x3ff8000000000000	1.5
6	0x3ff99999a0000000	1.600000023841858
7	0xbff19999a0000000	-1.100000023841858
8	0xbff4ccccc0000000	-1.2999999523162842
9	0x3fe99999a0000000	0.800000011920929
10	0x3ff0000000000000	1.0
11	0xbff3333340000000	-1.2000000476837158
12	0xbfc99999a0000000	-0.20000000298023224
13	0x3fd3333340000000	0.30000001192092896
14	0xbfd3333340000000	-0.30000001192092896
15	0xbfecccccc0000000	-0.8999999761581421
16	0x3fd3333340000000	0.30000001192092896
17	0x3ff4ccccc0000000	1.2999999523162842
18	0xbfe0000000000000	-0.5
19	0xbff4ccccc0000000	-1.2999999523162842

layers.2.bias f8 [4]
0	0x3ff0000000000000	1.0
1	0x8000000000000000	-0.0
2	0xc008000000000000	-3.0
3	0x8000000000000000	-0.0

layers.4.weight f8 [2, 4]
0	0xbfe0000000000000	-0.5
1	0x3ff0000000000000	1.0
2	0xbfb99999a0000000	-0.10000000149011612
3	0xbfe0000000000000	-0.5
4	0x3fe6666660000000	0.699999988079071
5	0x3fe6666660000000	0.699999988079071
6	0xbfe3333340000000	-0.6000000238418579
7	0x3fe6666660000000	0.699999988079071

layers.4.bias f8 [2]
0	0x8000000000000000	-0.0
1	0xbff0000000000000	-1.0
