RacPLL/example/test.onnx (onnx, 54782 bytes, 14 tensors)

layers.0.weight f4 [50, 5]
0.36987752 0.19745831 -0.4028244 0.43789133 0.31918424 0.31245735 -0.38419038 0.29677504
0.07954899 0.38155463 0.06639068 -0.05746193 0.17308529 -0.1964294 -0.37138003 -0.33039466
0.09689181 -0.390138 -0.12694934 0.35378066 -0.34515366 0.42513016 -0.2992026 -0.09256581
0.29944536 0.2941087 -0.28980193 -0.28384435 0.33675057 -0.3806586 0.40182352 -0.274659
0.36970735 0.19045919 0.057787985 0.06485188 -0.42027652 0.013018687 -0.35930112 0.2005133
0.104111806 0.13555993 0.27104372 0.053297088 -0.15489699 0.22044796 0.058459077 0.4224052
0.07726969 -0.28156245 0.059287544 0.44134644 0.06292604 -0.09738335 -0.28564632 -0.00072296424
-0.12104695 -0.23612611 0.27513874 0.29405063 -0.038155142 -0.2611516 0.3751763 0.35221356
0.346819 0.08626988 -0.4460989 -0.31653914 0.2179409 -0.10082912 -0.30318952 0.0034742374
0.15987505 -0.3893136 0.20388082 -0.22634713 0.171181 -0.42442095 -0.22216934 0.38079226
0.20094088 -0.3759808 0.069033034 0.27140582 -0.20997998 0.22135058 -0.406813 0.39118907
-0.18020506 -0.12736645 -0.43005422 -0.0028607226 -0.07719175 0.3836836 -0.41763332 0.24676345
-0.38223994 0.27138087 -0.2272762 -0.070539795 0.1986598 0.42708048 -0.12068678 0.19374967
-0.11326042 -0.39392957 -0.013423592 0.38439593 -0.018025005 0.120841384 -0.105492584 -0.18700223
0.047428768 -0.020260805 -0.10828304 -0.33258173 -0.33088988 0.24982436 -0.25585565 0.18667553
0.1484843 -0.04354419 -0.32274827 -0.37097332 -0.3947203 -0.04835517 -0.28356943 -0.28515407
-0.4150743 0.044275682 -0.25154305 0.18818064 -0.40445048 -0.06517889 -0.11849923 -0.36121854
-0.063548505 -0.16492973 0.034743708 0.40957323 -0.38402477 -0.20203148 -0.094572425 -0.25718543
-0.12633982 -0.21456827 0.27450883 0.0011321339 0.27976763 0.2816027 0.15256278 0.1263281
-0.22393051 0.25882408 0.39068973 0.27825758 0.13285573 -0.28504404 0.039349116 0.24356323
-0.37774658 0.05856714 -0.1582227 -0.23667075 -0.14426626 0.3962952 -0.15114164 0.0003563375
0.4188236 -0.2353075 -0.07141976 0.38583338 0.3517241 0.055101324 0.011522326 -0.28752875
0.4165002 0.17527434 -0.28450537 -0.09198034 0.23987176 -0.18449529 0.18335223 -0.054646466
0.28604817 -0.05575701 -0.059484053 0.21976002 0.21153258 -0.18125813 -0.116152965 -0.32013363
0.15791957 0.2882178 -0.2537075 0.30919844 -0.21736124 0.04267872 0.19590865 -0.12962182
0.11469045 0.18215568 -0.3532639 0.2503812 -0.014106305 0.36774042 -0.44609112 0.43643042
0.1746122 -0.2016664 -0.36227086 -0.22661018 0.3620501 0.08296725 0.17644832 0.17470805
0.24534594 -0.21015303 -0.19568463 -0.31060165 -0.3088435 -0.37335202 -0.16837507 0.1793559
-0.42990205 -0.36167687 0.3012776 0.09960454 -0.11333964 0.07443066 -0.16540991 0.1492231
-0.032576412 0.29080638 -0.37906143 0.23273589 -0.15162604 -0.09372327 -0.049524248 -0.39021313
-0.3316685 -0.041874774 0.18019487 0.08480422 0.4321121 0.22940756 -0.20023796 0.32904267
-0.084560215 0.11810776
00000000: 9660 bd3e 8332 4a3e 003f cebe 4b33 e03e
00000010: 1e6c a33e 69fa 9f3e 9ab4 c4be e6f2 973e
00000020: 95ea a23d 215b c33e d6f7 873d 335d 6bbd
00000030: 453d 313e ca24 49be 8625 bebe 7d29 a9be
00000040: 376f c63d 2bc0 c7be 02ff 01be bd22 b53e
00000050: fbb7 b0be a9aa d93e 1531 99be 2593 bdbd
00000060: e750 993e 6a95 963e eb60 94be 0c54 91be
00000070: 926a ac3e afe5 c2be d0bb cd3e 1ba0 8cbe
00000080: 484a bd3e bc07 433e 18b3 6c3d 10d1 843d
00000090: 7c2e d7be 554c 553c 51f6 b7be 5c53 4d3e
000000a0: 9238 d53d 39d0 0a3e 3ec6 8a3e 0c4e 5a3d
000000b0: 519d 1ebe 1cbd 613e c972 6f3d 7f45 d83e
000000c0: 923f 9e3d f428 90be 7fd7 723d 29f8 e13e
000000d0: 5edf 803d ec70 c7bd 3c40 92be 4f85 3dba
000000e0: 77e7 f7bd 0bcb 71be fcde 8c3e ce8d 963e
000000f0: 9148 1cbd aab5 85be 1c17 c03e 5655 b43e
00000100: 4392 b13e 43ae b03d 1367 e4be 6b11 a2be
00000110: e62b 5f3e 7f7f cebd a83b 9bbe 08b0 633b
00000120: 49b6 233e 1d54 c7be 22c6 503e 8bc7 67be
00000130: 124a 2f3e b44d d9be 5c80 63be 34f7 c23e
00000140: 72c3 4d3e 8e80 c0be 3161 8d3d b4f5 8a3e
00000150: fe04 57be baa9 623e cb49 d0be ef49 c83e
00000160: ad87 38be 5a6c 02be 1130 dcbe f67a 3bbb
00000170: b516 9ebd 2d72 c43e 09d4 d5be 8faf 7c3e
00000180: f4b4 c3be 6ff2 8a3e 18bb 68be 2b77 90bd
00000190: 7a6d 4b3e 4baa da3e a12a f7bd 5066 463e
000001a0: 14f5 e7bd 23b1 c9be a0ee 5bbc 8bcf c43e
000001b0: 2da9 93bc b07b f73d 7f0c d8bd 837d 3fbe
000001c0: ab44 423d fdf9 a5bc 80c3 ddbd 2748 aabe
000001d0: 666a a9be f5d1 7f3e 83ff 82be df27 3f3e
000001e0: 450c 183e 645b 32bd 433f a5be 37f0 bdbe
000001f0: c718 cabe 1210 46bd 0330 91be b7ff 91be
00000200: 9e84 d4be 6b5a 353d 40ca 80be 6db2 403e
00000210: 2214 cfbe 837c 85bd b9af f2bd a3f1 b8be
00000220: b825 82bd 57e3 28be 6b4f 0e3d 95b3 d13e
00000230: e59e c4be 57e1 4ebe 30af c1bd cfad 83be
00000240: 3a5f 01be c9b7 5bbe 6c8c 8c3e 1c64 943a
00000250: b43d 8f3e 3b2e 903e 6b39 1c3e 275c 013e
00000260: 0a4e 65be 9784 843e 7c08 c83e c777 8e3e
00000270: 550b 083e 4bf1 91be 8a2c 213d a468 793e
00000280: 0068 c1be 19e4 6f3d 2205 22be d159 72be
00000290: 89ba 13be 34e7 ca3e e0c4 1abe cfd2 ba39
000002a0: 0c70 d63e 73f4 70be 8644 92bd f48b c53e
000002b0: 2e15 b43e edb1 613d 23c8 3c3c f836 93be
000002c0: 843f d53e 1e7b 333e b0aa 91be 3060 bcbd
000002d0: f1a0 753e 55ec 3cbe b0c0 3b3e f9d4 5fbd
000002e0: e874 923e 7661 64bd 8da5 73bd c508 613e
000002f0: ff9b 583e bb9b 39be 9be1 edbd 8ee8 a3be
00000300: abb5 213e 4991 933e f3e5 81be 424f 9e3e
00000310: f293 5ebe e2cf 2e3d 479c 483e 95bb 04be
00000320: d4e2 ea3d 0587 3a3e 02df b4be f731 803e
00000330: 221e 67bc 7948 bc3e 0e66 e4be cf73 df3e
00000340: 8acd 323e a381 4ebe 917b b9be 800c 68be
00000350: a15e b93e bcea a93d deae 343e abe6 323e
00000360: f73b 7b3e 5b32 57be 8d61 48be 2e07 9fbe
00000370: bc20 9ebe ff27 bfbe 846a 2cbe 13a9 373e
00000380: 1f1c dcbe b62d b9be 0f41 9a3e 77fd cb3d
00000390: 9d1e e8bd 1a6f 983d 3761 29be f1cd 183e
000003a0: d86e 05bd 93e4 943e 5714 c2be 5152 6e3e
000003b0: db43 1bbe fcf1 bfbd f0d9 4abd 04ca c7be
000003c0: 74d0 a9be e284 2bbd 0185 383e d6ad ad3d
000003d0: cc3d dd3e d1e9 6a3e 2e0b 4dbe 4878 a83e
000003e0: e82d adbd 7be2 f13d

layers.0.bias f4 [50]
0.15771058 -0.41323647 0.023002695 0.18008947 0.061769966 0.27581105 0.42054328 -0.11435102
0.15533319 0.028852196 -0.3926271 -0.27984664 0.36263525 -0.31891242 -0.012057418 0.176922
-0.1821358 0.3177934 -0.14626135 -0.35216334 -0.12628779 0.15939088 -0.1126268 -0.24557033
-0.38431767 0.425386 0.44222182 -0.3352959 0.18830785 -0.3832469 -0.2582806 0.25976023
-0.09004335 0.3465836 0.4272112 -0.13780063 -0.3413945 0.13227142 -0.23476249 -0.34837273
0.15334801 0.20625874 0.07982642 -0.15212402 -0.3379015 -0.2389147 -0.44528866 -0.41720948
-0.1230042 -0.05332124
00000000: e27e 213e bb93 d3be 2670 bc3c 6069 383e
00000010: 8102 7d3d 1b37 8d3e 7351 d73e de30 eabd
00000020: aa0f 1f3e 715b ec3c 6b06 c9be 0f48 8fbe
00000030: 54ab b93e 7d48 a3be 7a8c 45bc 0a2b 353e
00000040: cf81 3abe d1b5 a23e 89c5 15be c14e b4be
00000050: 9651 01be 5d37 233e e1a8 e6bd ca76 7bbe
00000060: 49c5 c4be 32cc d93e e66a e23e e7ab abbe
00000070: c6d3 403e f038 c4be 5b3d 84be 4bff 843e
00000080: a668 b8bd 6873 b13e 6dbb da3e 9c1b 0dbe
00000090: 43cb aebe 2972 073e 9465 70be e95d b2be
000000a0: 4307 1d3e 7e35 533e 097c a33d 66c6 1bbe
000000b0: 6d01 adbe 0ea6 74be e0fc e3be 7b9c d5be
000000c0: a0e9 fbbd 5f67 5abd

layers.2.weight f4 [50, 50]
-0.08968525 0.08708104 0.07524856 -0.026344547 0.10753128 0.053641427 0.038264822 -0.075301774
0.08803728 0.07098157 0.06401119 -0.09311376 0.11478656 0.13830227 0.1248095 -0.028173046
-0.08459701 0.030829545 -0.12318953 -0.018620647 -0.046666965 0.060142443 -0.08715536 -0.026986662
-0.1215739 0.02499342 0.10811741 0.14123218 0.02356395 0.041116968 -0.06717269 0.04882947
0.011076142 -0.0371933 -0.03709904 -0.025253618 0.012573923 0.13034855 -0.07709544 -0.097476445
-0.06952546 0.034885503 -0.07531335 0.12061186 0.09747555 -0.006361224 -0.10950841 0.0038975216
0.1009 -0.1395268 -0.028030353 0.040684506 0.051965885 0.12714148 0.046691865 0.06938881
-0.12921925 -0.060071263 0.07132024 0.03634139 0.0041096383 -0.14140387 0.042487513 0.067036524
-0.0561584 0.08117753 -0.023515044 0.14018868 -0.12264133 -0.076240145 -0.048823267 -0.06281234
-0.10748819 0.007134737 0.07906355 -0.011645411 0.114827916 0.0614525 -0.09885769 0.05208668
-0.11164765 -0.049104825 -0.11006655 0.026990524 0.13792153 -0.053108893 -0.0021655727 -0.0018404855
0.03806906 0.07401543 0.039291926 -0.021804487 -0.05002558 -0.054138456 -0.028112303 0.0938811
-0.071124025 0.09132826 -0.11859035 -0.13937423 -0.10948211 -0.10186361 0.0017535955 -0.000420575
-0.009946084 0.005360978 -0.06454478 0.09335944 -0.099499546 -0.0870263 0.14120303 0.14120564
-0.08762185 0.08155781 0.06935339 -0.0034093598 -0.099992864 -0.007177339 0.075303726 0.007276249
-0.07881159 0.05319005 -0.12220333 0.07344181 -0.10908564 0.0120748365 -0.08785186 0.106164426
-0.039098285 0.069962926 0.11876984 -0.035265755 -0.044823498 0.11451766 -0.087034024 -0.06700223
-0.041375056 0.082148395 -0.048812374 0.019567603 0.053304657 -0.1162345 -0.08953881 -0.07915168
0.032165397 -0.07169069 0.07482699 0.0828437 0.019120492 -0.1382847 0.109177455 -0.044442337
0.123841725 -0.097903274 -0.09831778 0.041247 -0.12985206 0.032608412 0.09639186 0.122074425
0.11223477 0.024499863 -0.015414165 -0.0908471 -0.03242347 -0.11971922 0.07509441 0.0931236
-0.08626914 0.07657769 -0.11159616 -0.13506098 0.015203819 0.07606964 0.046038523 -0.015704961
0.13950007 -0.043170832 -0.12527251 0.12942141 0.11846733 -0.00016691838 -0.084354155 -0.050654463
0.023509748 0.094139844 -0.058320098 -0.065849416 -0.087063506 0.008912407 0.009967562 -0.05461426
0.031629965 0.13042268 0.010939923 -0.08512556 0.0064572683 0.14057656 -0.0072097075 -0.010279988
0.034442928 -0.03853144 0.12359834 -0.034246475 0.018350335 -0.052638195 -0.13036343 -0.080411136
0.0048690233 -0.12275811 -0.046347156 0.011604394 -0.13937572 0.053456686 0.10369826 0.13720167
0.13166592 -0.049095888 0.08281729 0.11708837 -0.10124574 -0.05036906 -0.013760002 -0.1290082
-0.103050366 0.13013887 0.110336795 0.04533084 0.033672012 0.12712224 -0.034837373 -0.069549926
-0.119727336 0.06939843 0.09748331 -0.09904255 -0.11670272 0.017582638 -0.11310884 -0.122148335
0.008263278 0.007573536 -0.034122813 0.04370868 -0.13228741 -0.13975659 -0.08269534 -0.111154415
-0.06695481 0.11828011 0.042923585 0.08560273 0.122025244 -0.064330526 -0.035791595 -0.10475095
00000000: e6ac b7bd 8b57 b23d eb1b 9a3d 85d0 d7bc
00000010: 5c39 dc3d 1db7 5b3d 93bb 1c3d d137 9abd
00000020: e44c b43d c95e 913d 4c18 833d 6db2 bebd
00000030: 3715 eb3d 1c9f 0d3e 209c ff3d 29cb e6bc
00000040: 3241 adbd 3e8e fc3c cb4a fcbd 548a 98bc
00000050: dc25 3fbd ec57 763d 827e b2bd 2213 ddbc
00000060: bdfb f8bd 00bf cc3c a96c dd3d 2b9f 103e
00000070: 2f09 c13c 446a 283d d691 89bd 6901 483d
00000080: b578 353c 0058 18bd 2af5 17bd ade0 cebc
00000090: db02 4e3c 177a 053e 37e4 9dbd bba1 c7bd
000000a0: 5d63 8ebd 1ae4 0e3d e33d 9abd 5a03 f73d
000000b0: 43a1 c73d d171 d0bb f245 e0bd 906d 7f3b
000000c0: a9a4 ce3d 1de0 0ebe e99f e5bc cca4 263d
000000d0: 2eda 543d 6031 023e f83f 3f3d b81b 8e3d
000000e0: 0d52 04be 490d 76bd 5910 923d b6da 143d
000000f0: 25aa 863b 2dcc 10be 6307 2e3d 724a 893d
00000100: 5a06 66bd 6840 a63d 9fa2 c0bc 9f8d 0f3e
00000110: 612b fbbd cb23 9cbd e8fa 47bd c2a3 80bd
00000120: c522 dcbd 83ca e93b 12ec a13d 65cc 3ebc
00000130: e62a eb3d 9eb5 7b3d e775 cabd d858 553d
00000140: 86a7 e4bd 2422 49bd 926a e1bd 3b1b dd3c
00000150: 4d3b 0d3e b688 59bd 48ec 0dbb 723c f1ba
00000160: 4dee 1b3d 6795 973d 92f0 203d 539f b2bc
00000170: 9fe7 4cbd 49c0 5dbd c64b e6bc bc44 c03d
00000180: 79a9 91bd 500a bb3d 7fdf f2bd 1eb8 0ebe
00000190: 2838 e0bd de9d d0bd e7d8 e53a 9f80 dcb9
000001a0: e6f4 22bc 25ab af3b 0e30 84bd 3c33 bf3d
000001b0: 6bc6 cbbd d83a b2bd 8797 103e 3698 103e
000001c0: 1673 b3bd c807 a73d 2609 8e3d 916f 5fbb
000001d0: 0fc9 ccbd e22f ebbb d738 9a3d 9a6d ee3b
000001e0: f967 a1bd cfdd 593d bd45 fabd a968 963d
000001f0: 4b68 dfbd 89d5 453c adeb b3bd bc6c d93d
00000200: 8625 20bd b948 8f3d 9a3d f33d d372 10bd
00000210: d898 37bd 3c88 ea3d e53e b2bd 7738 89bd
00000220: e478 29bd 6b3d a83d 7cef 47bd 3d4c a03c
00000230: fc55 5a3d 5b0c eebd 2060 b7bd 471a a2bd
00000240: ddbf 033d 92d2 92bd e53e 993d f5a9 a93d
00000250: 94a2 9c3c 819a 0dbe 6e98 df3d 2b09 36bd
00000260: bba0 fd3d 8381 c8bd d55a c9bd 9df2 283d
00000270: f0f7 04be 6690 053d 1869 c53d 2802 fa3d
00000280: 58db e53d f0b3 c83c b28b 7cbc 0b0e babd
00000290: 79ce 04bd 5a2f f5bd 19cb 993d 96b7 be3d
000002a0: e0ad b0bd c4d4 9c3d 878c e4bd 6d4d 0abe
000002b0: 7019 793c 66ca 9b3d e492 3c3d b1a7 80bc
000002c0: 1bd9 0e3e e6d3 30bd 7047 00be 0c87 043e
000002d0: 009f f23d d006 2fb9 dfc1 acbd 0e7b 4fbd
000002e0: 8497 c03c 64cc c03d 0ee1 6ebd 0fdc 86bd
000002f0: 5a4e b2bd 5805 123c fc4e 233c 34b3 5fbd
00000300: 6c8e 013d 868d 053e 5d3d 333c 4f56 aebd
00000310: 7e97 d33b 4df3 0f3e 693f ecbb 656d 28bc
00000320: 0714 0d3d 25d3 1dbd 2021 fd3d 0846 0cbd
00000330: 7153 963c 269b 57bd fe7d 05be 98ae a4bd
00000340: 548c 9f3b 9b68 fbbd 84d6 3dbd 5b20 3e3c
00000350: 82b8 0ebe 66f5 5a3d c15f d43d 987e 0c3e
00000360: 6ed3 063e c518 49bd 1d9c a93d 07cc ef3d
00000370: ed59 cfbd ca4f 4ebd a271 61bc ba1a 04be
00000380: 120c d3bd 2043 053e 42f8 e13d d5ac 393d
00000390: aaeb 093d 552c 023e a2b1 0ebd 3170 8ebd
000003a0: 9b33 f5bd c420 8e3d 54a5 c73d d2d6 cabd
000003b0: d601 efbd 7709 903c 9ca5 e7bd e828 fabd
000003c0: b362 073c 6d2b f83b 5dc4 0bbd df07 333d
000003d0: 5a76 07be 5a1c 0fbe 2d5c a9bd eda4 e3bd
000003e0: 9a1f 89bd d83c f23d a4d0 2f3d 7c50 af3d
000003f0: 5fe8 f93d b9bf 83bd 359a 12bd ab87 d6bd

layers.2.bias f4 [50]
0.082382746 0.11367464 0.045997016 -0.011472018 0.12700284 -0.0059858644 0.07724577 0.11612612
-0.06292265 0.13059337 0.003930767 0.094749644 0.0004067171 0.10603055 -0.061625306 -0.08931862
-0.051272403 0.10991511 -0.03457837 -0.13193576 0.02356422 0.06502959 -0.051847115 -0.020641217
0.03836412 0.040573828 0.0830414 -0.11422294 0.034942117 -0.0009988972 0.13745587 -0.02211585
0.11353522 -0.08838181 0.02687312 0.123779975 0.12725244 0.10243864 0.08084093 0.075780764
0.108161226 -0.012388291 0.008231129 -0.002892589 -0.072014 0.010473206 -0.103452414 0.0780658
0.11916029 0.09641328
00000000: 49b8 a83d 40ce e83d 5e67 3c3d 22f5 3bbc
00000010: 080d 023e 1225 c4bb 0833 9e3d 88d3 ed3d
00000020: 97dd 80bd 45ba 053e aacd 803b 1a0c c23d
00000030: a53c d539 8c26 d93d d16a 7cbd aeec b6bd
00000040: 0303 52bd 2c1b e13d 0da2 0dbd 2b1a 07be
00000050: c009 c13c 3c2e 853d a45d 54bd c517 a9bc
00000060: b223 1d3d be30 263d 9c11 aa3d b7ed e9bd
00000070: 771f 0f3d 6eed 82ba 3bc1 0c3e 4d2c b5bc
00000080: 2785 e83d 8601 b5bd 0425 dc3c 5b80 fd3d
00000090: 774e 023e 5acb d13d ee8f a53d f232 9b3d
000000a0: a283 dd3d 42f8 4abc dbdb 063c 9791 3dbb
000000b0: 137c 93bd cf97 2b3c dcde d3bd f6e0 9f3d
000000c0: 4f0a f43d 5374 c53d

layers.4.weight f4 [50, 50]
-0.05387932 -0.015122678 0.0031230142 0.006525563 -0.102389455 -0.017548801 0.04728949 0.124595426
-0.06783403 -0.104316965 -0.044739135 -0.018763676 -0.038575057 0.08594625 0.12968454 -0.104432665
-0.112820424 -0.08641721 -0.00038469958 -0.041049346 0.05167052 -0.13303013 0.033763506 -0.07008371
0.11808814 0.075616054 0.14027268 0.08248113 -0.071601346 0.118310355 -0.12781295 -0.08663594
0.06924316 0.07867428 0.10451284 -0.04144315 0.011084368 0.09272761 0.056624748 0.04227872
0.012788602 0.12316808 0.11574511 0.05413097 0.070239075 0.121352516 0.1331391 -0.10977235
-0.13296512 -0.09948577 -0.08331696 0.11872599 0.10846738 0.08105001 -0.06424341 -0.07017373
-0.07785152 0.031185938 -0.09258716 0.108719945 -0.07423269 -0.11805741 -0.108702816 -0.01869314
0.00993177 0.06326041 -0.013654517 -0.02400339 -0.105898045 -0.019930739 -0.106303155 -0.016841747
-0.091920614 -0.10774381 0.030982824 0.13265263 -0.06620053 0.047937155 0.060423527 0.01773826
0.022620281 0.016369399 0.082622916 0.0073946314 0.0044615306 0.11567292 -0.0302347 -0.06697507
0.06398792 -0.08713093 -0.112048075 0.049058832 0.056076452 0.14098662 0.04776037 0.107613504
-0.12853217 0.12429568 -0.055621587 0.02500045 -0.13495146 0.011160789 -0.08172699 0.021530684
0.030068895 -0.08350493 0.058781657 0.019131316 -0.14023912 -0.0072025596 0.11791527 0.07316005
0.0071547986 0.014638967 0.07807047 0.09250907 -0.049927834 -0.016563678 0.12363674 0.043580484
-0.043435264 -0.0135164615 0.09500247 -0.07903 0.091822915 0.11102462 0.09403544 -0.0009673545
0.116272524 0.10974005 -0.015405449 -0.0014454853 -0.009794136 -0.07722799 0.0182244 0.084417626
0.123073846 -0.13582683 -0.035122827 0.020295024 0.13499852 -0.008239945 -0.0027662157 0.11602735
-0.009245013 -0.010948117 0.017922543 0.114899985 -0.13939235 0.030638754 -0.05471595 -0.006354009
0.0029692962 0.10066376 -0.07477787 -0.12593764 -0.09179667 0.12985355 0.091667004 0.04899524
0.0649691 0.11635063 -0.042085048 -0.09159444 0.025723571 0.05557526 0.007930689 -0.019559072
0.12999186 -0.07782883 0.05596999 -0.04842712 -0.09946486 0.025269179 0.12044835 -0.03024689
-0.13514993 -0.11042414 0.052095193 0.042626128 0.030249586 -0.030585699 -0.00951138 -0.10772069
0.07595815 -0.09333401 0.13615641 0.012001636 0.12481897 -0.028945614 -0.10640681 0.043578662
0.0331909 -0.006331772 -0.06558291 -0.09012517 0.059497006 0.03539167 -0.059974834 0.10302488
-0.0058686794 -0.07919698 0.07252627 0.06351903 0.02965997 0.012665432 0.10695525 -0.104010016
-0.07376845 -0.04068233 -0.012165301 -0.087701626 -0.11661054 0.0010962564 0.12456665 -0.005115026
-0.06464776 0.020778684 -0.028077388 -0.052551728 0.07319666 0.08553044 -0.11431838 -0.024230916
-0.012349027 0.01053442 0.137264 0.097603425 0.13458519 -0.098642915 -0.100641064 0.08930717
0.1403446 0.0711366 -0.038989715 -0.02150737 -0.07155917 -0.10623638 0.09989033 0.11891666
-0.08446036 -0.12783702 0.045178067 -0.050481725 -0.06600402 -0.1332737 -0.10804729 -0.12978713
-0.094192125 0.04023165 0.09912423 0.1124704 -0.022023449 0.11039083 -0.09694686 0.11463856
00000000: 90b0 5cbd 1cc5 77bc 7cab 4c3b 64d4 d53b
00000010: 90b1 d1bd 81c2 8fbc a0b2 413d e32b ff3d
00000020: 91ec 8abd 22a4 d5bd 6240 37bd 48b6 99bc
00000030: e100 1ebd 9604 b03d 06cc 043e cbe0 d5bd
00000040: 650e e7bd 82fb b0bd 81b1 c9b9 5c23 28bd
00000050: 78a4 533d 0d39 08be 9a4b 0a3d 0c88 8fbd
00000060: 32d8 f13d 97dc 9a3d a4a3 0f3e deeb a83d
00000070: baa3 92bd b34c f23d 66e1 02be 2f6e b1bd
00000080: 5ccf 8d3d fb1f a13d d40a d63d 4bc0 29bd
00000090: 369b 353c f9e7 bd3d 5aef 673d 732c 2d3d
000000a0: 4987 513c 8c3f fc3d c60b ed3d 70b8 5d3d
000000b0: 81d9 8f3d ab87 f83d 9e55 083e 53d0 e0bd
000000c0: 0228 08be 32bf cbbd 15a2 aabd 9d26 f33d
000000d0: 2524 de3d 8cfd a53d 0d92 83bd 3fb7 8fbd
000000e0: 9e70 9fbd a779 ff3c 569e bdbd 90a8 de3d
000000f0: 4f07 98bd 15c8 f1bd 959f debd 5b22 99bc
00000100: ddb8 223c ad8e 813d 32b7 5fbc c2a2 c4bc
00000110: 13e1 d8bd ca45 a3bc 78b5 d9bd b4f7 89bc
00000120: e040 bcbd c9a8 dcbd b1cf fd3c 17d6 073e
00000130: 2594 87bd c059 443d a97e 773d d44f 913c
00000140: 2b4e b93c 1e19 863c 3436 a93d aa4e f23b
00000150: 0832 923b ede5 ec3d c3ae f7bc 3a2a 89bd
00000160: 190c 833d b371 b2bd 7679 e5bd eaf1 483d
00000170: 6cb0 653d cc5e 103e 61a0 433d 7864 dc3d
00000180: f09d 03be bc8e fe3d 76d3 63bd becd cc3c
00000190: b730 0abe bedb 363c 7b60 a7bd 1e61 b03c
000001a0: 0b53 f63c a204 abbd 09c5 703d 47b9 9c3c
000001b0: d89a 0fbe 7303 ecbb 907d f13d f0d4 953d
000001c0: cd72 ea3b 47d8 6f3c 69e3 9f3d 6575 bd3d
000001d0: 2181 4cbd 8db0 87bc 4235 fd3d 7381 323d
000001e0: 2de9 31bd 2674 5dbc a890 c23d 7bda a1bd
000001f0: a70d bc3d e060 e33d a795 c03d 1096 7dba
00000200: 4a20 ee3d 64bf e03d 2367 7cbc 7076 bdba
00000210: 9577 20bc b529 9ebd 564b 953c 26e3 ac3d
00000220: 240e fc3d 3016 0bbe f4dc 0fbd c041 a63c
00000230: 0d3d 0a3e d600 07bc 6649 35bb bf9f ed3d
00000240: 6578 17bc bb5f 33bc 4cd2 923c af50 eb3d
00000250: debc 0ebe 20fe fa3c d51d 60bd 4a35 d0bb
00000260: 8698 423b cd28 ce3d 2425 99bd ccf5 00be
00000270: e4ff bbbd 54f8 043e e9bb bb3d 3caf 483d
00000280: 850e 853d 3d49 ee3d 5f61 2cbd de95 bbbd
00000290: 3dba d23c e2a2 633d b8ef 013c 593a a0bc
000002a0: 961c 053e b964 9fbd ca40 653d 845b 46bd
000002b0: 3cb4 cbbd 4f01 cf3c a0ad f63d 53c8 f7bc
000002c0: be64 0abe 0d26 e2bd c561 553d bc98 2e3d
000002d0: fbcd f73c dc8e fabc 9fd5 1bbc aa9c dcbd
000002e0: f28f 9b3d e725 bfbd 966c 0b3e 83a2 443c
000002f0: 17a1 ff3d 5a1f edbc d0eb d9bd 8a7f 323d
00000300: 2ef3 073d c17a cfbb 5550 86bd 8c93 b8bd
00000310: 22b3 733d dbf6 103d 2ca8 75bd b5fe d23d
00000320: 0d4e c0bb 0732 a2bd a788 943d 4416 823d
00000330: 77f9 f23c ac82 4f3c 5b0b db3d 3403 d5bd
00000340: ea13 97bd 84a2 26bd f850 47bc e99c b3bd
00000350: 82d1 eebd 43b0 8f3a cd1c ff3d f39b a7bb
00000360: 0b66 84bd 0f38 aa3c 8d02 e6bc 7b40 57bd
00000370: 21e8 953d 952a af3d c11f eabd ea7f c6bc
00000380: 9353 4abc 8f98 2c3c ef8e 0c3e 4ee4 c73d
00000390: b3d0 093e 4c05 cabd e71c cebd ade6 b63d
000003a0: 7fb6 0f3e 11b0 913d aeb3 1fbd 3930 b0bc
000003b0: 9d8d 92bd 7692 d9bd 4d93 cc3d 948a f33d
000003c0: 8ef9 acbd b5e7 02be a30c 393d edc5 4ebd
000003d0: 1e2d 87bd e778 08be e647 ddbd ebe6 04be
000003e0: cde7 c0bd f1c9 243d a501 cb3d e256 e63d
000003f0: 856a b4bc 9614 e23d 138c c6bd 9fc7 ea3d

layers.4.bias f4 [50]
0.037855238 -0.009950905 0.07450555 0.07796832 0.06997996 0.021311522 -0.011782877 0.08775485
0.026670864 -0.09905685 -0.13531284 0.13680695 -0.09552867 0.07856754 -0.035646796 -0.058380518
-0.07265712 0.0055251317 0.028735774 0.08329649 0.052393846 -0.072745785 -0.028016528 0.11793449
0.13259022 0.018451419 0.102631375 -0.13354197 -0.016566798 -0.115376584 -0.06440608 -0.10231642
0.13065991 0.004631939 0.05032071 -0.07244272 0.08917264 -0.10810625 0.03156934 -0.12449768
0.018855033 -0.110385634 0.1018539 -0.13951413 0.07557751 -0.040950775 -0.1082762 0.043860726
-0.03727594 0.084590115
00000000: 180e 1b3d 1f09 23bc 5e96 983d dbad 9f3d
00000010: a751 8f3d 8095 ae3c f80c 41bc d1b8 b33d
00000020: db7c da3c 51de cabd 738f 0abe 1f17 0c3e
00000030: 89a4 c3bd 05e8 a03d 6002 12bd 6920 6fbd
00000040: 42cd 94bd 2a0c b53b 4967 eb3c 5a97 aa3d
00000050: ee9a 563d befb 94bd eb82 e5bc a387 f13d
00000060: bbc5 073e 6e27 973c 6630 d23d 3abf 08be
00000070: 18b7 87bc 8f4a ecbd 56e7 83bd 458b d1bd
00000080: b6cb 053e 85c7 973b 171d 4e3d d95c 94bd
00000090: 25a0 b63d cf66 ddbd da4e 013d a4f8 febd
000000a0: df75 9a3c dd11 e2bd c798 d03d cbdc 0ebe
000000b0: 62c8 9a3d 00bc 27bd eabf ddbd 4ea7 333d
000000c0: a8ae 18bd 953d ad3d

layers.6.weight f4 [50, 50]
-0.07673466 -0.07578541 -0.030096998 0.07953094 -0.10615733 -0.090532646 -0.07457162 -0.033106923
-0.043480057 0.13021187 -0.10108236 -0.115683846 -0.05571714 0.086862296 0.025789894 -0.06944329
-0.05227541 0.07492031 0.070362754 -0.076617055 0.109854855 0.042825315 0.011453744 -0.022069793
0.13082878 -0.08460486 -0.021591427 -0.031296566 -0.042743903 -0.021472843 0.006060043 -0.056483693
-0.119049564 -0.120945886 -0.088774666 0.09478707 0.0796578 0.0024149977 0.021143137 0.094526485
-0.067459494 -0.13525347 -0.07918065 0.0411006 0.056583412 -0.07451039 -0.09455661 0.08273496
0.08043214 0.04851477 -0.09670359 0.031579018 -0.09076901 -0.062324435 -0.040999733 0.06582655
0.017545616 -0.053183746 0.04463633 0.044802304 0.027054468 -0.05993021 -0.13308583 -0.022702536
0.020248577 0.10685604 -0.04520607 0.035846908 -0.04683931 0.033745937 0.118562244 -0.018595798
0.008085215 0.048627216 -0.14089341 0.13321412 -0.09860141 0.1260548 0.13626778 -0.03856228
-0.05406539 -0.012008227 0.05123049 -0.034812253 0.017253235 -0.09900179 0.122681946 0.07188081
0.10862813 -0.04836154 0.025437227 0.105886176 0.09063818 -0.012973222 0.11080159 -0.030828668
-0.10568225 0.014358808 -0.043931313 0.034128092 -0.0069861608 -0.100995034 0.006691689 0.016746107
-0.0941622 -0.043572072 -0.1241522 -0.112118326 -0.108501315 0.13235362 -0.056583006 0.076833844
-0.08486823 0.032158602 0.004150504 -0.0662194 -0.11502842 -0.09421202 -0.051283192 -0.04905283
-0.08945669 -0.03300257 -0.13542002 -0.06547844 0.045308705 0.05328542 0.028289894 0.11786179
-0.09200007 0.055259816 0.13027558 -0.09070936 -0.10944768 0.024135124 -0.103724025 -0.13711321
-0.044046596 0.13986021 0.0952377 -0.08714903 0.02197579 0.07002586 0.14058436 -0.029082237
0.002680759 -0.07952819 0.06579673 0.052486368 -0.13145442 0.0015927969 -0.04120856 -0.06435846
-0.09825695 0.026629189 0.09855206 0.10643123 -0.0035929347 0.0146324085 0.022284895 -0.12663311
0.0058197887 0.069838665 0.048909027 -0.09217732 -0.073920384 -0.002695544 0.039322168 0.069711916
0.041129325 0.0044937646 0.11272949 0.12007299 0.13058528 0.0038643267 0.08785617 -0.047836356
-0.0059864544 0.14056642 0.022271609 -0.012641627 0.0895919 -0.07954768 0.041381717 -0.064658076
0.107673675 -0.047119066 0.06504631 -0.11863593 -0.0035903046 -0.0996567 -0.09009245 -0.1400364
0.026444316 -0.060187336 0.12087801 0.07887493 -0.13163292 0.07797639 0.09541887 -0.015803281
-0.060595892 0.0632123 -0.09834261 -0.104677185 -0.047399763 0.06717626 -0.13035604 -0.10241649
-0.10832211 0.003436907 0.1232985 -0.0440428 -0.016473416 0.019880906 0.065908454 -0.07788961
-0.07340985 0.023622282 -0.13278227 0.059376735 -0.13465528 0.02171136 -0.09301452 0.0897088
0.051650997 -0.021090368 0.083237536 -0.026563946 -0.13933095 -0.057316057 -0.14057021 -0.045235995
0.12468318 0.11375735 0.08585256 0.04967979 0.07306101 0.08097356 -0.01657253 0.009194875
-0.08767276 0.045016192 0.01717808 0.062514655 -0.030595291 -0.09842623 0.058121435 0.08989424
-0.030235527 -0.059459478 -0.13662112 -0.014557101 -0.01846467 -0.08339181 -0.035853583 -0.11223695
00000000: 1027 9dbd 6235 9bbd fb8d f6bc 1ee1 a23d
00000010: 0469 d9bd 2e69 b9bd 01b9 98bd 209b 07bd
00000020: 2518 32bd 4356 053e 4504 cfbd a7eb ecbd
00000030: a837 64bd dce4 b13d 5445 d33c 4938 8ebd
00000040: be1e 56bd d26f 993d 591a 903d 67e9 9cbd
00000050: 95fb e03d 9969 2f3d 7ca8 3b3c b6cb b4bc
00000060: fbf7 053e 5045 adbd 81e0 b0bc d430 00bd
00000070: 3b14 2fbd d1e7 afbc 5393 c63b 725b 67bd
00000080: 42d0 f3bd 7ab2 f7bd 7ecf b5bd b91f c23d
00000090: a123 a33d f044 1e3b 5f34 ad3c 1a97 c13d
000000a0: 3428 8abd e37f 0abe 7729 a2bd 1a59 283d
000000b0: 02c4 673d e798 98bd e5a6 c1bd f270 a93d
000000c0: 9bb9 a43d 6cb7 463d 880c c6bd 0059 013d
000000d0: 1ae5 b9bd e847 7fbd 56ef 27bd 12d0 863d
000000e0: d3bb 8f3c 33d7 59bd 96d4 363d 9f82 373d
000000f0: 55a1 dd3c 6179 75bd a747 08be abfa b9bc
00000100: 58e0 a53c 57d7 da3d 002a 39bd 35d4 123d
00000110: 94da 3fbd 2e39 0a3d c3d0 f23d 3756 98bc
00000120: da77 043c 552d 473d 5d46 10be 4869 083e
00000130: 89ef c9bd 8214 013e c889 0b3e 7bf3 1dbd
00000140: ac73 5dbd 28be 44bc 10d7 513d 4b97 0ebd
00000150: a856 8d3c 73c1 cabd ac40 fb3d 3f36 933d
00000160: 6d78 de3d c016 46bd bb61 d03c dada d83d
00000170: 83a0 b93d a38d 54bc f2eb e23d 678c fcbc
00000180: ef6f d8bd 3541 6b3c 52f1 33bd e6c9 0b3d
00000190: 2aec e4bb 7cd6 cebd f545 db3b 222f 893c
000001a0: 1dd8 c0bd a178 32bd 8243 febd 4b9e e5bd
000001b0: f035 debd b587 073e 95c3 67bd 105b 9d3d
000001c0: 65cf adbd bdb8 033d f300 883b 099e 87bd
000001d0: 0594 ebbd 3bf2 c0bd 530e 52bd 9feb 48bd
000001e0: 1235 b7bd b42d 07bd 8cab 0abe 8f19 86bd
000001f0: 9f95 393d d041 5a3d 35c0 e73c 8661 f13d
00000200: 886a bcbd 1e58 623d f666 053e d4c5 b9bd
00000210: 1b26 e0bd 06b7 c53c 436d d4bd 6867 0cbe
00000220: 346a 34bd 8437 0f3e fc0b c33d 317b b2bd
00000230: 9206 b43c b869 8f3d 59f5 0f3e df3d eebc
00000240: acaf 2f3b addf a2bd 70c0 863d f2fb 563d
00000250: fd9b 06be 65c5 d03a 4fca 28bd 5ece 83bd
00000260: f13a c9bd 7525 da3c aad5 c93d 9ef8 d93d
00000270: 7177 6bbb c5bc 6f3c d08e b63c 1cac 01be
00000280: edb3 be3b 9307 8f3d d554 483d 76c7 bcbd
00000290: 9263 97bd b9a7 30bb 4810 213d 1fc5 8e3d
000002a0: 3977 283d 6e40 933b b8de e63d d4e8 f53d
000002b0: 26b8 053e a540 7d3b f0ed b33d 0ef0 43bd
000002c0: 052a c4bb a5f0 0f3e f372 b63c d41e 4fbc
000002d0: f57b b73d e5e9 a2bd e07f 293d 746b 84bd
000002e0: 0484 dc3d ecff 40bd 0037 853d 65f7 f2bd
000002f0: 514b 6bbb d018 ccbd 6482 b8bd b465 0fbe
00000300: c0a1 d83c ff86 76bd e48e f73d 2e89 a13d
00000310: c8ca 06be 16b2 9f3d f86a c33d e275 81bc
00000320: 6633 78bd 7375 813d da67 c9bd fe60 d6bd
00000330: 4126 42bd b593 893d 0e7c 05be bdbf d1bd
00000340: fbd7 ddbd bb3d 613b ed83 fc3d 3966 34bd
00000350: 42f3 86bc 48dd a23c 03fb 863d 9684 9fbd
00000360: e757 96bd 8483 c13c 13f8 07be 0535 733d
00000370: 13e3 09be 06dc b13c 667e bebd 3fb9 b73d
00000380: ff8f 533d b5c5 acbc 7178 aa3d a29c d9bc
00000390: c6ac 0ebe 3ec4 6abd a3f1 0fbe 6149 39bd
000003a0: e559 ff3d 9df9 e83d 78d3 af3d 097d 4b3d
000003b0: 03a1 953d 77d5 a53d 1dc3 87bc 1aa6 163c
000003c0: c78d b3bd e662 383d 0bb9 8c3c af07 803d
000003d0: faa2 fabc b193 c9bd be10 6e3d 791a b83d
000003e0: 7fb0 f7bc c88b 73bd 68e6 0bbe e880 6ebc
000003f0: 3843 97bc 53c9 aabd 35db 12bd 7cdc e5bd

layers.6.bias f4 [50]
-0.08088775 0.03585156 0.12949556 -0.07219467 0.07917456 -0.093822025 -0.088275686 0.017025406
0.09829829 -0.042884827 0.101372786 -0.010976304 0.0155210495 0.009349352 -0.025459984 0.07437127
-0.14097783 0.022221152 0.060470227 0.09801704 0.08828789 -0.09766563 -0.1286303 -0.09164133
-0.0131132845 -0.11980089 -0.12900282 -0.115732215 0.06765903 0.08006033 -0.021782117 -0.0061652246
0.0028560054 0.051807735 -0.115479015 0.07967967 -0.07764903 0.14013918 0.0658472 -0.06289748
0.005940228 -0.13199714 0.020876465 0.13149744 0.08301982 -0.018592173 0.09142029 0.07808486
-0.10668157 -0.11418546
00000000: 7aa8 a5bd 16d9 123d 7c9a 043e cdda 93bd
00000010: 4626 a23d c325 c0bd e2c9 b4bd dd78 8b3c
00000020: 9d50 c93d 00a8 2fbd 899c cf3d f5d5 33bc
00000030: 004c 7e3c 062e 193c 7591 d0bc f74f 983d
00000040: 7e5c 10be 2209 b63c a1af 773d 28bd c83d
00000050: 48d0 b43d eb04 c8bd a9b7 03be 73ae bbbd
00000060: 1ad9 56bc 2b5a f5bd 5119 04be 0305 edbd
00000070: d190 8a3d acf6 a33d 6970 b2bc a705 cabb
00000080: d22b 3b3b 5934 543d 4380 ecbd 182f a33d
00000090: 7406 9fbd a580 0f3e e6da 863d 65d0 80bd
000000a0: 3ea6 c23b 422a 07be 1f05 ab3c 44a7 063e
000000b0: 4c06 aa3d 9d4e 98bc 903a bb3d f5ea 9f3d
000000c0: de7b dabd 11da e9bd

layers.8.weight f4 [50, 50]
-0.011971038 -0.06057428 -0.08055661 -0.009905572 -0.1267207 -0.04932729 0.029379608 -0.12534945
0.01696544 -0.062314488 -0.065345556 -0.12693469 -0.07445206 -0.014350109 0.06630817 0.011129112
-0.035243988 0.09391448 0.13986127 0.12782483 0.013318304 0.1089163 0.024534963 -0.08594117
-0.08488946 -0.1135865 -0.13470104 -0.051516198 0.019947818 0.0044392096 -0.06794895 0.066564575
0.02943681 0.077375636 -0.10889153 0.035568554 -0.0155891925 0.11262485 -0.006428507 -0.08061814
0.00749924 0.12850747 0.0428958 0.03740939 -0.09982105 0.080499575 -0.055094868 -0.055735957
0.028327134 0.09119727 -0.020548966 -0.07462196 -0.120659806 -0.11741974 -0.046156112 0.13679244
0.106055066 0.07228836 0.13383803 -0.060879152 -0.103897214 -0.044034675 -0.04328276 -0.13446379
0.114903845 -0.043892253 0.11193404 0.118200794 0.13023143 0.06452445 -0.09992902 -0.109209955
-0.10343778 -0.032504324 0.07930397 -0.050781764 -0.02437081 -0.11445352 -0.06858456 0.054389026
-0.1340285 0.020532697 0.058781303 0.09732347 0.054659 -0.047880627 0.12260706 -0.10702771
-0.0006078756 -0.11137307 -0.12335296 -0.09561787 -0.019424371 0.108531475 0.025073633 0.00090109964
0.082913056 0.03546538 -0.08263008 0.054994408 -0.052845206 0.0062313443 0.06996526 -0.10431374
-0.10911504 0.12619744 0.085379 -0.13218541 0.07660011 -0.056942604 0.1007072 -0.01776901
0.07878194 0.105215125 0.06903703 -0.13546649 0.067673616 0.08834735 0.13542488 -0.12754352
0.07828573 0.07694627 0.029607488 -0.069559604 -0.035856687 0.011802551 -0.060764246 0.07913315
-0.0441349 -0.13777755 0.11829181 0.07368994 -0.0126246 0.08234953 0.09632229 -0.04307194
0.045262277 -0.05617553 -0.105982214 0.1133901 -0.09083265 -0.03956279 0.11276973 0.06107168
0.14005025 -0.0023575095 0.07144222 0.061550315 -0.025872165 0.14009994 0.029955486 -0.0754712
0.1302418 0.0060266624 0.08679653 0.020632485 -0.06444437 -0.0716351 0.09175627 0.051921092
-0.06927236 -0.03777993 0.12251002 -0.13593747 0.11901451 -0.018875383 -0.07349937 0.12052607
0.0087177055 -0.07950408 0.12324061 -0.08762509 -0.026628735 0.034786712 0.00050614995 -0.037690666
-0.013805824 0.098683596 0.008453697 0.10363641 0.059152093 -0.05083721 -0.06500934 -0.04346023
-0.065292336 0.11882307 0.022210514 -0.019361285 -0.12521365 0.10639657 0.0158283 -0.033873945
0.11189626 -0.06238179 0.088792115 -0.030046742 -0.07253835 -0.13143224 0.011591884 -0.0043224967
0.114904165 0.072279535 -0.023022734 0.046092402 -0.012871665 -0.12454517 0.07100716 0.030901514
0.0338012 -0.09548779 0.1052259 0.055754617 -0.072842725 0.0890289 0.07872453 0.02087638
0.010999401 -0.09699636 0.070974216 0.10022988 0.0991783 0.11130419 0.11570351 -0.020867715
-0.079936124 0.09673014 -0.047698434 0.10514542 -0.11906669 -0.13790847 0.009414746 -0.065719955
0.006768228 -0.092927784 -0.1151001 -0.032425813 -0.1216565 0.118955605 0.05788064 0.12619273
0.13942124 0.043680303 -0.110723 -0.04305225 0.11099422 0.0935609 -0.1366397 0.13383594
0.1400951 0.1328152 0.062447168 -0.121059105 -0.018659422 -0.03742932 0.0018421208 -0.08239559
00000000: 2c22 44bc bc1c 78bd ddfa a4bd fb4a 22bc
00000010: 12c3 01be 6a0b 4abd 81ad f03c 9b5b 00be
00000020: 1bfb 8a3c 7a3d 7fbd e4d3 85bd 2bfb 01be
00000030: 527a 98bd b81c 6bbc 94cc 873d e156 363c
00000040: 005c 10bd 3c56 c03d cb37 0f3e 83e4 023e
00000050: 0435 5a3c 820f df3d 8cfd c83c ed01 b0bd
00000060: 86da adbd 0aa0 e8bd 12ef 09be a602 53bd
00000070: 9b69 a33c ca76 913b d228 8bbd 0253 883d
00000080: 7725 f13c 1e77 9e3d 8602 dfbd 55b0 113d
00000090: d069 7fbc dba7 e63d 3aa6 d2bb 201b a5bd
000000a0: 2fbc f53b 7697 033e 82b3 2f3d 973a 193d
000000b0: fb6e ccbd f6dc a43d 28ab 61bd 634b 64bd
000000c0: 4e0e e83c a2c5 ba3d 4e56 a8bc 66d3 98bd
000000d0: 7d1c f7bd c379 f0bd 310e 3dbd 5113 0c3e
000000e0: 6633 d93d eb0b 943d d60c 093e 6b5c 79bd
000000f0: 10c8 d4bd b45d 34bd 4349 31bd e0b0 09be
00000100: b552 eb3d 5dc8 33bd ad3d e53d 4213 f23d
00000110: 635b 053e 6525 843d 96a7 ccbd 78a9 dfbd
00000120: 30d7 d3bd 4123 05bd 1f6a a23d 8a00 50bd
00000130: 4ba5 c7bc 9b66 eabd 1076 8cbd 07c7 5e3d
00000140: c43e 09be 3034 a83c aac4 703d 8751 c73d
00000150: 1ee2 5f3d 7a1e 44bd 6919 fb3d 5831 dbbd
00000160: d759 1fba 9017 e4bd 7aa0 fcbd 4dd3 c3bd
00000170: dc1f 9fbc c045 de3d 3867 cd3c c637 6c3a
00000180: 52ce a93d 2544 113d f639 a9bd d141 613d
00000190: 3774 58bd 4e30 cc3b f249 8f3d 71a2 d5bd
000001a0: b577 dfbd e739 013e 2fdb ae3d 9d5b 07be
000001b0: 85e0 9c3d a63c 69bd 943f ce3d 5190 91bc
000001c0: 6d58 a13d 077b d73d 4963 8d3d bab7 0abe
000001d0: 7798 8a3d 75ef b43d d2ac 0a3e c59a 02be
000001e0: 4554 a03d 0296 9d3d 678b f23c 4475 8ebd
000001f0: 76de 12bd 7d5f 413c eee3 78bd 9010 a23d
00000200: ccc6 34bd 8f15 0dbe fa42 f23d c0ea 963d
00000210: 69d7 4ebc dfa6 a83d 9f44 c53d 346c 30bd
00000220: f064 393d 5018 66bd 340d d9bd 1239 e83d
00000230: 7806 babd 980c 22bd d1f3 e63d 4c26 7a3d
00000240: 5569 0f3e 7280 1abb 4c50 923d 2f1c 7c3d
00000250: ddf1 d3bc 5c76 0f3e 3565 f53c a590 9abd
00000260: 1b5e 053e 4f7b c53b 61c2 b13d 7505 a93c
00000270: 69fb 83bd 6cb5 92bd b6ea bb3d 36ab 543d
00000280: abde 8dbd 21bf 1abd 89e6 fa3d 3133 0bbe
00000290: e1bd f33d 8ca0 9abc d686 96bd 5fd6 f63d
000002a0: b5d4 0e3c 09d3 a2bd 9365 fc3d c874 b3bd
000002b0: 8124 dabc 837c 0e3d 26af 043a 8761 1abd
000002c0: d331 62bc a01a ca3d 6081 0a3c 533f d43d
000002d0: 7749 723d ae3a 50bd 9e23 85bd 5b03 32bd
000002e0: fdb7 85bd 8259 f33d d3f2 b53c 8f9b 9ebc
000002f0: 0238 00be 72e6 d93d 5aaa 813c 68bf 0abd
00000300: de29 e53d 0c84 7fbd a4d8 b53d 9624 f6bc
00000310: fd8e 94bd 2c96 06be e3eb 3d3c bba3 8dbb
00000320: e052 eb3d 4b07 943d 2c9a bcbc 63cb 3c3d
00000330: ade3 52bc 8a11 ffbd 346c 913d 2c25 fd3c
00000340: 2173 0a3d 1a8f c3bd ad80 d73d f45e 643d
00000350: 912e 95bd c954 b63d 543a a13d f104 ab3c
00000360: d536 343c 07a6 c6bd ee5a 913d 5345 cd3d
00000370: fe1d cb3d 73f3 e33d f6f5 ec3d c5f2 aabc
00000380: 8db5 a3bd 741a c63d 6f5f 43bd 7b56 d73d
00000390: 3dd9 f3bd e137 0dbe 4f40 1a3c 2f98 86bd
000003a0: 03c8 dd3b ec50 bebd 9ab9 ebbd eed0 04bd
000003b0: 0b27 f9bd ff9e f33d 4014 6d3d ab38 013e
000003c0: 71c4 0e3e 1eea 323d bdc2 e2bd 8e57 30bd
000003d0: f050 e33d db9c bf3d 47eb 0bbe 4a0c 093e
000003e0: 1775 0f3e b500 083e 9ac8 7f3d d6ed f7bd
000003f0: a5db 98bc 7d4f 19bd 5173 f13a 05bf a8bd

layers.8.bias f4 [50]
0.034165483 0.07006784 0.12233992 0.029838385 0.08879306 0.060994804 -0.09463667 0.03928255
-0.06767031 0.024047982 0.12418458 0.09388121 0.100785375 0.0691499 0.062978305 -0.006943525
-0.030259145 -0.063229784 -0.0736775 -0.03710818 -0.09630987 0.114146166 0.06174704 0.11360914
0.0047106524 -0.043087434 -0.08011755 0.10836775 0.13370557 -0.088750444 -0.03674472 -0.0020326583
-0.010881862 0.11459747 -0.11593193 0.09160691 0.08241611 0.056425545 0.05333608 -0.06397152
-0.018186787 -0.08966501 -0.03997401 -0.05693613 0.057037923 -0.11919239 0.028026795 -0.12873693
-0.08957163 -0.089607455
00000000: 1bf1 0b3d ba7f 8f3d 5a8d fa3d a16f f43c
00000010: 23d9 b53d b0d5 793d dfd0 c1bd bde6 203d
00000020: bb96 8abd 4600 c53c 7c54 fe3d cb44 c03d
00000030: 9068 ce3d 769e 8d3d c5fa 803d 8286 e3bb
00000040: 07e2 f7bc 9e7e 81bd 3be4 96bd bffe 17bd
00000050: 1c3e c5bd 77c5 e93d 77ea 7c3d e9ab e83d
00000060: d15b 9a3b 737c 30bd ac14 a4bd e9ef dd3d
00000070: 1dea 083e cbc2 b5bd a281 16bd 5936 05bb
00000080: d649 32bc 14b2 ea3d b86d edbd 679c bb3d
00000090: c7c9 a83d 791e 673d ef76 5a3d 8003 83bd
000000a0: 75fc 94bc 4aa2 b7bd cabb 23bd dc35 69bd
000000b0: 99a0 693d 241b f4bd 7398 e53c 9dd3 03be
000000c0: 5571 b7bd 1d84 b7bd

layers.10.weight f4 [50, 50]
-0.13246697 0.105155684 -0.14059976 -0.0954669 -0.044383448 0.13388993 0.13982126 0.02034651
0.11308406 0.12390824 0.061168905 -0.022542631 -0.110128626 -0.09880837 0.015471485 0.011434744
-0.078336634 -0.080419965 0.13468736 0.037034992 -0.08173492 -0.04899998 0.06923765 0.012145778
0.036831997 -0.08716827 -0.11918145 0.121772684 0.05609577 0.02129522 -0.07973892 0.10384181
0.083985105 0.07813038 0.030646138 0.002784929 0.047907043 0.035526626 0.069462106 -0.1115874
0.0337234 -0.11208153 -0.13093734 -0.06860319 0.0012041692 0.031806424 -0.01692255 0.026558079
0.088826224 -0.046119057 -0.13831939 0.022884054 -0.074816965 0.029171757 0.080316454 -0.1328251
-0.038661677 -0.0035938618 0.002295621 0.07787527 -0.046480138 -0.005343546 -0.016847478 0.011046807
-0.039067365 -0.12075843 -0.09606929 -0.086453624 0.074185945 0.03438925 0.02735983 0.14120546
-0.12784946 0.1038537 -0.068354405 -0.08686029 0.023168225 -0.05473962 -0.040499162 0.12375735
-0.0031983727 -0.08411169 0.042439856 0.14067502 0.04341345 -0.011459038 0.012390921 -0.0012189712
-0.09460333 -0.008925776 0.12337327 -0.036773432 -0.0063466583 -0.13218027 -0.028455462 0.040061712
-0.10100744 0.12955037 0.007003913 -0.06305528 -0.03824427 -0.0915933 -0.13840039 0.04037068
0.09434871 -0.046586365 0.050892692 0.041714035 -0.12051334 -0.09845142 -0.07194378 -0.13333589
-0.07740126 0.059739012 -0.11124265 -0.13733415 -0.056716748 0.06874298 0.09030569 -0.018643558
-0.038493898 0.1018993 -0.05247691 -0.04142383 -0.09461474 0.010012271 -0.111370675 -0.0047686803
-0.09571715 -0.0400258 -0.08540925 0.08980713 -0.10042119 -0.099633045 -0.09501893 0.029847523
-0.10660213 0.112569734 -0.033915807 0.07733185 -0.03133632 -0.029619137 0.031777628 0.05549267
-0.13771167 -0.10796005 0.024833513 -0.07876449 0.08793615 -0.072777376 -0.027584018 -0.01184018
0.015215806 0.028967615 -0.029974435 0.04784281 -0.12530784 0.06975926 -0.14083865 -0.023092225
-0.092182055 0.07657034 0.11399838 -0.06031914 -0.035641283 -0.057689782 0.06925447 0.086238034
0.086616546 0.14140613 0.07817737 -0.017346008 -0.004695867 -0.003338098 0.1018514 0.07309554
-0.12628762 -0.13950442 0.046771355 -0.100815974 -0.07807844 -0.08776822 0.054227233 0.00018016936
0.055728048 0.10983687 0.017018577 0.061769277 -0.07770758 -0.041768573 -0.019059816 -0.027752504
0.034423742 0.0051111653 -0.106587954 0.023666047 0.019565798 -0.032785125 -0.12829934 -0.008924596
0.04029522 0.010165214 0.024741465 -0.087933905 0.07113832 0.13003434 0.08464698 -0.12080395
0.08831184 0.07974466 0.01756529 -0.05825307 0.036909968 -0.055040143 -0.076731846 -0.11113562
0.03435749 0.0655086 -0.0615998 -0.013532763 0.08615209 0.084730476 -0.06963118 -0.00197635
-0.10696142 0.0049510915 0.10674372 0.023002975 0.032110777 0.072226785 -0.024597121 -0.11248298
-0.08282605 -0.03796772 0.077301286 0.018027237 -0.08085546 -0.06632478 -0.032851513 0.038594816
0.019214597 0.07175053 0.08561954 -0.09725551 0.014377319 -0.106554925 -0.12603772 0.11629517
-0.05438702 0.07816371 0.028922517 -0.11542844 0.034491044 -0.11484427 -0.06627709 -0.064946696
00000000: 6ca5 07be dd5b d73d 62f9 0fbe 2684 c3bd
00000010: 6bcb 35bd 711a 093e 4e2d 0f3e b9ad a63c
00000020: 9e98 e73d 9ac3 fd3d 3f8c 7a3d 53ab b8bc
00000030: 1e8b e1bd 0b5c cabd 1d7c 7d3c cb58 3b3c
00000040: f56e a0bd 39b3 a4bd 7ceb 093e 01b2 173d
00000050: a364 a7bd 34b4 48bd 78cc 8d3d 16ff 463c
00000060: 26dd 163d 4785 b2bd 6715 f4bd f563 f93d
00000070: aec4 653d 5073 ae3c 294e a3bd 04ab d43d
00000080: 6200 ac3d d202 a03d 9c0d fb3c 5b83 363b
00000090: 2d3a 443d 5e84 113d 2642 8e3d ef87 e4bd
000000a0: 8c21 0a3d 008b e5bd 7014 06be d47f 8cbd
000000b0: 37d5 9d3a 7447 023d 29a1 8abc 5490 d93c
000000c0: 86ea b53d 56e7 3cbd 99a3 0dbe 5777 bb3c
000000d0: a339 99bd 9cf9 ee3c f47c a43d 4e03 08be
000000e0: b55b 1ebd ff86 6bbb 2172 163b 127d 9f3d
000000f0: f561 3ebd ea18 afbb b903 8abc abfd 343c
00000100: 1a05 20bd 3250 f7bd fabf c4bd 990e b1bd
00000110: cdee 973d bedb 0c3d b921 e03c 2a98 103e
00000120: f8ea 02be 40b1 d43d 65fd 8bbd cfe3 b1bd
00000130: 4acb bd3c a736 60bd 73e2 25bd 7e74 fd3d
00000140: ca9b 51bb c042 acbd 6ad5 2d3d 1d0d 103e
00000150: 4dd2 313d b0be 3bbc 4a03 4b3c e3c5 9fba
00000160: 64bf c1bd 6b3d 12bc 20ab fc3d bd9f 16bd
00000170: a1f7 cfbb 445a 07be 6e1b e9bc c017 243d
00000180: fddc cebd daa8 043e 1581 e53b 2023 81bd
00000190: 06a6 1cbd 4595 bbbd d5b8 0dbe ba5b 253d
000001a0: e539 c13d 58d1 3ebd db74 503d 56dc 2a3d
000001b0: b3cf f6bd e6a0 c9bd 4357 93bd 3489 08be
000001c0: 8d84 9ebd e5b0 743d 30d3 e3bd 53a1 0cbe
000001d0: d24f 68bd 1fc9 8c3d 31f2 b83d 60ba 98bc
000001e0: c7ab 1dbd 95b0 d03d 07f2 56bd 09ac 29bd
000001f0: 5fc5 c1bd 820a 243c 4f16 e4bd 9742 9cbb
00000200: 5a07 c4bd 18f2 23bd 0beb aebd cdec b73d
00000210: a0a9 cdbd 690c ccbd 4999 c2bd cb82 f43c
00000220: 3852 dabd f68a e63d 4deb 0abd 2960 9e3d
00000230: 835a 00bd d5a3 f2bc 4229 023d 484c 633d
00000240: 4a04 0dbe 291a ddbd a76f cb3c 474f a1bd
00000250: de17 b43d 4e0c 95bd e1f7 e1bc 50fd 41bc
00000260: b74b 793c 7e4d ed3c f28c f5bc d3f6 433d
00000270: b350 00be f1dd 8e3d 0238 10be e82b bdbc
00000280: f2c9 bcbd e9d0 9c3d fc77 e93d 3411 77bd
00000290: 98fc 11bd 1f4c 6cbd 4ad5 8d3d 919d b03d
000002a0: 0464 b13d c5cc 103e 751b a03d 3719 8ebc
000002b0: cadf 99bb fec3 5abb 7897 d03d 1db3 953d
000002c0: 8b51 01be 3fda 0ebe 5293 3f3d 9b78 cebd
000002d0: 97e7 9fbd d3bf b3bd 601d 5e3d d8eb 3c39
000002e0: 1843 643d 27f2 e03d 8b6a 8b3c c801 7d3d
000002f0: 2725 9fbd 8615 2bbd 5523 9cbc 3859 e3bc
00000300: e9ff 0c3d 907b a73b c94a dabd 4cdf c13c
00000310: 7448 a03c b249 06bd e760 03be 7838 12bc
00000320: 9a0c 253d ff8b 263c 9dae ca3c b116 b4bd
00000330: f8b0 913d b927 053e 655b ad3d 1068 f7bd
00000340: d7dc b43d 2b51 a33d 15e5 8f3c c59a 6ebd
00000350: e82e 173d c671 61bd 9625 9dbd 129b e3bd
00000360: 70ba 0c3d 5f29 863d 1250 7cbd 86b8 5dbc
00000370: 8270 b03d 2c87 ad3d cb9a 8ebd a785 01bb
00000380: 970e dbbd c43c a23b 749c da3d bc70 bc3c
00000390: 9786 033d a3eb 933d e77f c9bc 7a5d e6bd
000003a0: b4a0 a9bd 0a84 1bbd 2350 9e3d dbad 933c
000003b0: 8c97 a5bd 49d5 87bd 4f8f 06bd 9915 1e3d
000003c0: ee67 9d3c f1f1 923d 4c59 af3d e62d c7bd
000003d0: d98e 6b3c 7839 dabd 0810 01be 292c ee3d
000003e0: edc4 5ebd 4c14 a03d eaee ec3c bf65 ecbd
000003f0: 7b46 0d3d 7933 ebbd 48bc 87bd c602 85bd

layers.10.bias f4 [50]
0.03976065 0.12372616 0.05159294 -0.06451314 -0.07756271 0.04767965 0.06698562 -0.13476515
0.0040131896 -0.06325325 0.09421589 -0.01804015 0.13681738 0.1051909 0.12438328 0.11400227
0.023384506 0.097092405 -0.0028524988 0.13394962 0.04412165 0.066295765 0.057543922 -0.027610233
-0.09721795 -0.08265006 -0.08890529 -0.042576022 0.018959912 -0.051016875 0.0764541 -0.09563684
-0.06852104 -0.010297925 0.03605904 0.054469645 -0.0946785 -0.11137558 -0.10828524 -0.06540726
0.073063485 0.055860206 -0.13680495 -0.038802885 -0.043631684 -0.05122132 -0.1099904 0.04477818
-0.13354746 -0.02481598
00000000: 10dc 223d 2464 fd3d 1e53 533d 771f 84bd
00000010: 33d9 9ebd bd4b 433d c22f 893d e0ff 09be
00000020: 1381 833b ec8a 81bd 43f4 c03d f0c8 93bc
00000030: db19 0c3e 546e d73d a9bc fe3d 067a e93d
00000040: dd90 bf3c 62d8 c63d fdf0 3abb 172a 093e
00000050: e7b8 343d 13c6 873d 2db3 6b3d db2e e2bc
00000060: 341a c7bd 6f44 a9bd fa13 b6bd 3264 2ebd
00000070: d151 9b3c 12f7 50bd f893 9c3d 3fdd c3bd
00000080: c254 8cbd a1b8 28bc a5b2 133d 901b 5f3d
00000090: cde6 c1bd e118 e4bd a7c4 ddbd 3ef4 85bd
000000a0: 4fa2 953d accd 643d 9916 0cbe c6ef 1ebd
000000b0: 23b7 32bd 72cd 51bd a642 e1bd 5369 373d
000000c0: aac0 08be e24a cbbc
