RacPLL/example/test.onnx (onnx, 776980 bytes, 12 tensors)

layers.0.weight f4 [50, 5]
0	0x3ec82930	0.39093924
1	0x3e0e822d	0.13916846
2	0xbe2a8acf	-0.16654514
3	0xbe8a4a83	-0.27009973
4	0xbd9984a1	-0.07496
5	0xbe4587f3	-0.19290142
6	0xbe12bf94	-0.14330894
7	0x3caf6af4	0.021413304
8	0x3e887f54	0.26659644
9	0x3e78e92c	0.24307698
10	0xbedfd546	-0.43717402
11	0x3e8df1fe	0.27723688
12	0x3dffde17	0.12493532
13	0x3ed931a5	0.42420688
14	0x3e9722d8	0.2951877
15	0xbed0a053	-0.40747318
16	0xbed9b5b5	-0.42521444
17	0xbe5ce1e5	-0.21570547
18	0x3ec9106f	0.3927035
19	0xbd988f38	-0.07449192
20	0x3e43fb8d	0.19138928
21	0xbe54d026	-0.20782527
22	0x3ee0ac3b	0.438814
23	0xbe41c1ad	-0.18921538
24	0x3eabb67a	0.33537656
25	0x3bad87f6	0.005295749
26	0xbe71411b	-0.23559992
27	0x3e6b6433	0.22987442
28	0xbe73165c	-0.23738998
29	0x3e06af2d	0.13152762
30	0xbe043c44	-0.12913615
31	0xbd48d3ad	-0.049029995
32	0xbedc21dc	-0.42994583
33	0xbe5a5733	-0.21322326
34	0x3e787f5a	0.24267331
35	0xbddea205	-0.108707465
36	0x3ee4119d	0.44544688
37	0x3eb78ada	0.35848123
38	0xbcab8ab3	-0.02094016
39	0xbe98d5fa	-0.2985075
40	0x3e8b6fa5	0.27233616
41	0x3e0e2084	0.13879591
42	0xbe94034e	-0.2890877
43	0x3e94ba79	0.29048517
44	0x3e8b0298	0.27150416
45	0x3ecb1348	0.39663148
46	0xbe805a6d	-0.2506899
47	0xbd96c2f4	-0.07361403
48	0xbc0df0c6	-0.008663362
49	0x3d85c5e9	0.06531889
50	0xbeadc5a6	-0.33939856
51	0xbea27c10	-0.31735277
52	0x3e792007	0.24328624
53	0xbdd6c507	-0.10486799
54	0x3e5fb1de	0.21845195
55	0x3cd0dc30	0.025495619
56	0x3e165d4b	0.14684026
57	0x3dc96505	0.09833721
58	0x3e268258	0.1626066
59	0x3e630254	0.22168857
60	0xbed40e14	-0.4141699
61	0x3e668216	0.22510561
62	0xbea0ff1a	-0.31444627
63	0xbeacc330	-0.33742666
64	0x3cdecc48	0.027197018
65	0xbd9c1327	-0.076208405
66	0x3e867b47	0.26265928
67	0xbe849b4d	-0.25899735
68	0xbecb8d9d	-0.3975648
69	0x3ea6a3c1	0.3254681
70	0xbd87cf72	-0.06631364
71	0x3e80c9a8	0.25153852
72	0x3e13390a	0.14377227
73	0xbeabb393	-0.33535442
74	0x3db8005d	0.08984444
75	0x3ddbfe96	0.10741918
76	0xbe994fa4	-0.29943573
77	0xbe594874	-0.21219045
78	0x3e1c2610	0.15248895
79	0x3da40ea4	0.08010605
80	0xbe42cc49	-0.19023241
81	0xbe0aa0b4	-0.13537866
82	0x3ed1b676	0.4095952
83	0xbda975b4	-0.08274403
84	0x3e8117e0	0.25213528
85	0x3e464ada	0.19364491
86	0xbe940290	-0.28908205
87	0xbec2b9c8	-0.38032365
88	0x3edbc9f8	0.42927527
89	0x3cbf4ccc	0.02335205
90	0x3e9cf39e	0.30654615
91	0x3dbdcd48	0.0926767
92	0x3e13493c	0.14383405
93	0x3eab089b	0.33405003
94	0x3ed91dab	0.42405447
95	0xbe97f13f	-0.29676244
96	0x3d6506c4	0.055914655
97	0x3eaadf80	0.33373642
98	0x3ea5e058	0.32397723
99	0x3e8e3f3f	0.27782628
100	0xbea5b65c	-0.32365692
101	0xbea4e27a	-0.32204038
102	0xbe8a7a02	-0.2704621
103	0x3d661fd6	0.056182705
104	0x3ee435af	0.44572207
105	0xbe90a30b	-0.28249392
106	0x3e7407f4	0.23831159
107	0xbe7d77d4	-0.24752742
108	0xbed748cb	-0.42047724
109	0xbdc2a9e8	-0.09505063
110	0x3e83ed84	0.25767148
111	0x3ed492b8	0.41518188
112	0xbe8e338b	-0.277737
113	0x3dc6c257	0.09705036
114	0x3ec5926e	0.3858828
115	0x3e97bae2	0.29634768
116	0x3e8eb394	0.27871382
117	0x3ea2b747	0.31780455
118	0x3e90d454	0.28286994
119	0x3dec926b	0.115513645
120	0xbe9c939b	-0.30581364
121	0xbec04847	-0.37555143
122	0xbe51d733	-0.20492248
123	0xbd554dd7	-0.052076187
124	0xbe8c5988	-0.27412057
125	0x3e278a9f	0.16361474
126	0x3e0dba9b	0.13840716
127	0xbdcf63ff	-0.101264946
128	0x3e3001f1	0.1718824
129	0x3e14005b	0.1445326
130	0x3e8bcc12	0.2730413
131	0x3e9a335e	0.30117315
132	0xbe1b15bc	-0.1514501
133	0x3edfb67d	0.43693915
134	0xbd53c4cc	-0.051701352
135	0xbc7bbb41	-0.015364469
136	0xbed81f97	-0.422116
137	0xbe935ef7	-0.2878339
138	0xbe85c45c	-0.26126373
139	0xbe43dfd3	-0.19128351
140	0x3ea2cb08	0.31795526
141	0xbe15a5f7	-0.14614092
142	0xbeab1b84	-0.3341943
143	0x3e3031e8	0.17206538
144	0x3e129ee0	0.14318419
145	0x3e944dcd	0.28965607
146	0xbe6cf984	-0.23142058
147	0x3dc69456	0.096962616
148	0xbe26b73e	-0.16280839
149	0xbdcdc730	-0.100477576
150	0xbeb6791c	-0.35639274
151	0xbe50b6d8	-0.2038225
152	0xbe0c3fee	-0.13696262
153	0x3e43d58d	0.19124432
154	0x3da752f5	0.0817012
155	0x3de23da0	0.1104691
156	0x3ee48a1c	0.4463662
157	0x3edf29ea	0.43586665
158	0x3e9c2bae	0.30502075
159	0x3c695285	0.014240866
160	0xbe9e66dd	-0.30937853
161	0x3eb2f1e4	0.34950173
162	0xbde5080d	-0.11183176
163	0xbd14176a	-0.036155142
164	0xbec542a4	-0.38527405
165	0xbdb4ea47	-0.08833747
166	0xbe93af5e	-0.28844732
167	0x3ed267ad	0.41094723
168	0xbec5f3c9	-0.38662556
169	0xbeb27b14	-0.34859526
170	0xbc78cd80	-0.015185714
171	0xbe779e6e	-0.2418153
172	0x3e23dbd3	0.16001825
173	0xbe304682	-0.17214397
174	0xbe571786	-0.21005067
175	0x3ccf7f06	0.025329124
176	0x3ea5c0db	0.323737
177	0xbea110b7	-0.31458065
178	0x3e570dfe	0.21001431
179	0x3e931a1a	0.2873085
180	0x3edffb29	0.43746307
181	0xbea043fa	-0.31301862
182	0x3dddd1f4	0.10831061
183	0xbea94f1e	-0.33068174
184	0x3ec37c6e	0.3818087
185	0xbe31a3f3	-0.17347698
186	0x3e89ec38	0.26938033
187	0x3c5a23c9	0.013314196
188	0xbd0eaa17	-0.03483018
189	0xbc69cb0b	-0.014269601
190	0x3d9bb263	0.07602384
191	0x3e57dfd2	0.21081474
192	0x3d92e411	0.071724065
193	0x3e0bb2eb	0.1364247
194	0xbecdf79a	-0.40227968
195	0x3ea6d0cf	0.32581183
196	0x3ec7a235	0.38990942
197	0x3ebd454d	0.36966935
198	0x3ea94326	0.33059043
199	0xbea53bff	-0.32272336
200	0xbe29c2c7	-0.16578208
201	0x3ec9e440	0.39431953
202	0xbeae6647	-0.34062406
203	0x3ecfbabf	0.40572163
204	0xbeb4162e	-0.35173172
205	0xbea14a71	-0.31502107
206	0x3e5fe14d	0.21863289
207	0xbea483cd	-0.32131806
208	0xbdd1d4f3	-0.10245695
209	0x3ea69385	0.32534423
210	0x3eb55e04	0.3542329
211	0x3ed88d88	0.4229548
212	0xbdb9d9cc	-0.090747446
213	0xbeb1f8d6	-0.3476016
214	0x3ee1731d	0.44033137
215	0xbdc31bf9	-0.0952682
216	0xbe3c6a55	-0.18399937
217	0x3ddf4556	0.10901897
218	0xbea0206e	-0.31274742
219	0x3e967fe9	0.29394463
220	0x3e8f814e	0.2802834
221	0xbeb5afa2	-0.3548556
222	0xbebc1288	-0.36732888
223	0xbd20753d	-0.039174307
224	0x3e40596b	0.1878411
225	0xbc5435b8	-0.012952261
226	0xbe6836ea	-0.22677198
227	0x3c278435	0.010224392
228	0xbed7382d	-0.42035046
229	0xbea1d456	-0.31607312
230	0xbe986cd5	-0.29770532
231	0x3ebc9106	0.36829394
232	0x3ec9d763	0.3942214
233	0xbe1b8c9c	-0.15190357
234	0x3ca45004	0.020057686
235	0x3e4c3bf0	0.1994474
236	0x3d5b7ada	0.053583957
237	0xbe655168	-0.22394335
238	0x3e840ec7	0.25792524
239	0x3e8cc1fc	0.27491748
240	0xbcd45303	-0.02591849
241	0xbd617f64	-0.05505313
242	0x3ed01414	0.40640318
243	0x3ec826f7	0.39092228
244	0xbe81d2aa	-0.25356036
245	0x3ee00652	0.43754822
246	0x3de2a891	0.11067308
247	0xbe981919	-0.29706648
248	0x3e7aaf8e	0.24481031
249	0xbeaaf218	-0.33387828

layers.0.bias f4 [50]
0	0x3ed38e17	0.41319343
1	0xbe9333c3	-0.2875043
2	0x3e018528	0.12648451
3	0x3e0b71e3	0.13617663
4	0x3dd9da3f	0.1063733
5	0x3ebdea64	0.37092888
6	0xbe3e353b	-0.18574993
7	0xbe4154dd	-0.18880029
8	0xbec66bf9	-0.38754252
9	0xbc965a1c	-0.018353514
10	0xbe58f053	-0.21185426
11	0x3c92cbeb	0.017919501
12	0xbdbbc1bc	-0.09167811
13	0x3e17f19e	0.14838263
14	0x3ec61455	0.38687387
15	0x3e07214d	0.13196297
16	0xbe1385e7	-0.14406548
17	0xbe60b674	-0.219446
18	0xbec7b327	-0.3900387
19	0x3ec0ab3e	0.37630647
20	0xbdad81c9	-0.0847202
21	0x3db8e0b3	0.09027233
22	0x3c87850b	0.016542932
23	0xbe91eacd	-0.2849945
24	0x3e80f41b	0.25186238
25	0x3e80522a	0.25062686
26	0x3cb87f58	0.02252166
27	0xbe821f7e	-0.25414652
28	0xbe4295a8	-0.19002402
29	0x3bc9ce1d	0.006158604
30	0xbe82d22d	-0.25550976
31	0xbe7f83e1	-0.24952652
32	0xbd889f02	-0.06670953
33	0xbe03ddae	-0.12877533
34	0x3de0d590	0.10978234
35	0xbdf0bd0d	-0.117548086
36	0xbd72d3cf	-0.059284028
37	0xbe2eca31	-0.17069317
38	0xbed13fee	-0.40869087
39	0x3ec7b19f	0.39002702
40	0x3daebc7c	0.08532044
41	0x3eccc0eb	0.39990935
42	0xbd939b3a	-0.072073415
43	0xbde62d01	-0.112390526
44	0xbed7425f	-0.42042825
45	0xbe2dd76a	-0.16976705
46	0x3e962781	0.29327014
47	0xbee04456	-0.43802136
48	0xbe202c86	-0.15641984
49	0x3e8b810f	0.272469

layers.2.weight f4 [200, 50]
0	0x3da6ed6d	0.08150754
1	0x3d55e3c5	0.05221917
2	0xbce552fa	-0.027993668
3	0xbc2f6fd2	-0.010707812
4	0xbcdc02f8	-0.026856884
5	0xbd558a13	-0.05213363
6	0x3d71bd7e	0.059018604
7	0xbd454c5b	-0.04816852
8	0xbda2b584	-0.079447776
9	0x3d03695e	0.032082908
10	0xbdd158d4	-0.10222021
11	0xbcf73f01	-0.03018141
12	0x3d94015f	0.07226824
13	0x3d587cbc	0.05285333
14	0x3df692ea	0.120397404
15	0xbdc58abc	-0.09645602
16	0x3aa12a45	0.0012295922
17	0xbd2b0ec1	-0.041762117
18	0xbda1fed5	-0.079099335
19	0xbda2eed3	-0.07955708
20	0x3d11efdd	0.035629142
21	0x3c726b95	0.014796157
22	0xbd93d778	-0.07218832
23	0xbdcc262d	-0.09968219
24	0xbdeff7a8	-0.117171586
25	0x3e0dedb4	0.13860208
26	0xbcc57711	-0.024104627
27	0xbd05f21f	-0.032701608
28	0xbd550149	-0.05200318
29	0xbd90dd0e	-0.07073413
30	0xbe046f7e	-0.12933156
31	0xbdaa07cc	-0.083022684
32	0x3db107db	0.086440764
33	0x3cfdeb9f	0.030996142
34	0xbd4c56f3	-0.04988761
35	0xbd5ae907	-0.05344489
36	0x3db90530	0.090341926
37	0x3dd0c767	0.10194283
38	0x3e0b852c	0.1362502
39	0x3d28f954	0.041253403
40	0x3d8bec87	0.068322234
41	0xbc3a2bb5	-0.01136296
42	0xbda9541d	-0.082679965
43	0xbe0ddf82	-0.13854793
44	0x3db0699d	0.08613894
45	0xbca86348	-0.020555153
46	0x3d6dfcc4	0.058102384
47	0x3be4192a	0.0069610076
48	0xbe0728c9	-0.13199152
49	0xbd8e176a	-0.0693806
50	0x3d22f70e	0.03978639
51	0xbcea7c59	-0.028623747
52	0xbe0bd7c6	-0.1365653
53	0x3d4b1faa	0.049590744
54	0x3bb1b9cc	0.00542376
55	0xbd3a29de	-0.045450084
56	0x3d6a0159	0.05713019
57	0x3cf49646	0.029856812
58	0xbd55a230	-0.052156627
59	0x3e021840	0.12704563
60	0x3d914d4b	0.070948206
61	0x3c9177a4	0.017757244
62	0xbcde7f02	-0.027160171
63	0xbdf55436	-0.119789526
64	0x3ddf9e16	0.109188244
65	0xbd15790d	-0.036492396
66	0xbdbb2abc	-0.0913901
67	0x3db9b28b	0.090672575
68	0x3d4db9b9	0.050225947
69	0x3d0f5965	0.034997363
70	0xbce5b66f	-0.028041093
71	0xbd34c539	-0.0441334
72	0x3cc49988	0.02399899
73	0x3de02171	0.109438784
74	0x3ca5e7c5	0.020252118
75	0xbd88f38f	-0.0668708
76	0x3e0fdba5	0.14048631
77	0x3b46383f	0.0030245928
78	0x3de4f557	0.11179607
79	0x3d0d2d77	0.034467187
80	0x3e01ce69	0.12676395
81	0x3da71c06	0.08159642
82	0xbd93a966	-0.072100446
83	0x3dcb73ea	0.09934218
84	0x3a6e7e6e	0.0009097819
85	0xbde87de5	-0.113521375
86	0xbcf2c395	-0.029634276
87	0xbe02b653	-0.12764864
88	0xbd960ef5	-0.073270716
89	0xbdcd2f5a	-0.10018797
90	0x3dc617f3	0.09672537
91	0xbcf36461	-0.02971095
92	0xbcc82a8c	-0.02443435
93	0x3d8acbad	0.06777129
94	0x3d6bbe19	0.057554338
95	0xbdbf25aa	-0.09333356
96	0x3d557a65	0.052118678
97	0x3d761562	0.060078986
98	0xbde649cd	-0.11244545
99	0x3dfbd0dc	0.12295696
100	0xbdb03c23	-0.0860522
101	0xbd628556	-0.05530294
102	0xbdee909a	-0.11648674
103	0x3e045bb0	0.12925601
104	0x3cdc9a6e	0.026929107
105	0x3df3e11d	0.11908171
106	0x3c174e1c	0.009234931
107	0x3d9d6d55	0.07686869
108	0xbd38f32f	-0.045153793
109	0xbde70f7e	-0.11282252
110	0x3cb9f99c	0.02270203
111	0xbc4ea188	-0.012611754
112	0xbc69f33d	-0.014279184
113	0xbd8e3df8	-0.06945413
114	0x3b3fde2f	0.002927672
115	0x3d265ac8	0.04061392
116	0x3d50f7b0	0.051017463
117	0xbde950fc	-0.113924
118	0x3d8bed33	0.068323515
119	0x3c6e44cd	0.014542771
120	0x3dc7c37a	0.09754081
121	0x3dccafac	0.09994444
122	0xbde416b0	-0.1113714
123	0x3e0b11b8	0.13580978
124	0xbe0e6b3c	-0.13908094
125	0x3da67fba	0.08129831
126	0x3c23155b	0.009953822
127	0x3d890e50	0.06692183
128	0xbd9c9f68	-0.07647592
129	0x3dae2006	0.08502202
130	0xbd8f51a2	-0.06997992
131	0xbe000077	-0.12500177
132	0x3d42126c	0.04738085
133	0x3d9e8841	0.07740832
134	0x3e0f8cbd	0.14018531
135	0xbc722930	-0.014780328
136	0x3e0b4f35	0.13604434
137	0x3dba11e3	0.09085443
138	0xbd8fa584	-0.070139915
139	0xbddf67bc	-0.10908458
140	0x3da27189	0.07931811
141	0xbd9eae8b	-0.07748135
142	0x3d84da2b	0.06486925
143	0xbdf80cf8	-0.121118486
144	0x3dd34e58	0.10317677
145	0x3d2d9d77	0.0423865
146	0xbc852fea	-0.016258199
147	0x3d84d538	0.06485981
148	0xbdce33a7	-0.10068446
149	0xbcfd42e8	-0.030915692
150	0x3ab5b846	0.0013864122
151	0xbda75b44	-0.081717044
152	0xbd1403a5	-0.03613629
153	0xbd79cf3c	-0.06098865
154	0x3e0a03af	0.13477968
155	0x3df60d45	0.1201425
156	0x3df9cd10	0.12197316
157	0x3decb9d4	0.115588814
158	0xbe0ab0d7	-0.13544022
159	0x3d41c3b4	0.047305778
160	0x3d558267	0.052126314
161	0xbdd47029	-0.10372955
162	0x3d6acc69	0.057323847
163	0xbd9d289a	-0.0767376
164	0x3cb83984	0.022488363
165	0x3d3fde58	0.046842903
166	0x3df9ebcd	0.122031786
167	0xbd97f1d5	-0.07419173
168	0xbde3dfd6	-0.11126678
169	0x3e05fde1	0.13085128
170	0x3d7327d1	0.059364144
171	0x3d8cc63b	0.06873747
172	0x3d508387	0.050906684
173	0xbd4d0936	-0.050057612
174	0x3dae3a22	0.08507182
175	0xbdfcdb97	-0.12346571
176	0x3ca139af	0.019680826
177	0x3d82ecb9	0.063928075
178	0x3dc5e389	0.096625395
179	0xbd90a21c	-0.0706217
180	0xbdc3c230	-0.09558523
181	0x3d591fdd	0.053008903
182	0xbde603b8	-0.11231178
183	0xbdf0b39d	-0.117530085
184	0xbe023c37	-0.12718283
185	0xbd8c73bc	-0.06858012
186	0xbcdd22f0	-0.026994199
187	0xbdab847d	-0.083748795
188	0xbd74ed56	-0.059796654
189	0xbe003b72	-0.12522677
190	0x3db20512	0.08692373
191	0xbd049c40	-0.032375574
192	0xbdb6bdc8	-0.08922917
193	0x3d16d051	0.03681976
194	0xbdd88f33	-0.10574188
195	0x3dcabd25	0.09899358
196	0x3da68ad4	0.08131948
197	0xbe0e4fd5	-0.13897641
198	0xbde3583d	-0.111008145
199	0xbdbef9d1	-0.093249924
200	0xbd9cc948	-0.07655579
201	0x3c90a7c9	0.017658131
202	0xbe0f33a7	-0.13984548
203	0xbdd6b909	-0.104845114
204	0x3d844527	0.06458502
205	0xbd3db72c	-0.046317264
206	0xbd668054	-0.056274727
207	0xbdef9b33	-0.11699524
208	0x3d6ac810	0.0573197
209	0x3c239ef5	0.009986629
210	0xbd5fe6f6	-0.05466362
211	0xbdb15d85	-0.086604156
212	0x3cf662d0	0.030076414
213	0x3d1d9cc5	0.038479585
214	0x3d808e4f	0.06277143
215	0x3d2c2524	0.042027608
216	0xbcb0ba37	-0.02157317
217	0xbde034b1	-0.1094755
218	0x3db861a9	0.09003002
219	0xba9ee54f	-0.0012122783
220	0xbdc07c2c	-0.09398684
221	0x3df9c65a	0.12196036
222	0x3da17bad	0.078849174
223	0xbde3a126	-0.11114721
224	0xbd90a58a	-0.07062824
225	0xbd452018	-0.04812631
226	0xbda732f8	-0.081640184
227	0x3d8740fd	0.066041924
228	0xbdce9efe	-0.10088919
229	0x3e069646	0.13143262
230	0xbd6f6dc9	-0.05845431
231	0x3daaf647	0.08347755
232	0x3b9dd044	0.004816087
233	0xbd7ec115	-0.062195856
234	0x3dc1691b	0.094438754
235	0xbddcff87	-0.107909255
236	0xbd993d0f	-0.07482349
237	0x3c8adc74	0.016950823
238	0x3de5c1c3	0.11218598
239	0xbd783018	-0.06059274
240	0xbdb05d7f	-0.08611583
241	0xbdb8e7ad	-0.09028564
242	0xbd7f6220	-0.06234944
243	0xbd4818e3	-0.04885186
244	0xbd06ec23	-0.03294004
245	0xbda4c458	-0.08045262
246	0x3d350ba7	0.044200566
247	0x3a968b05	0.0011485523
248	0xbdbd3c54	-0.09240022
249	0xbda565e2	-0.08076073
250	0x3cf551de	0.029946264
251	0xbb04662d	-0.0020202503
252	0x3dccfc53	0.100090645
253	0xbcafa0ae	-0.021438923
254	0xbdeaa16b	-0.11456569
255	0xbdd636f4	-0.104597

layers.2.bias f4 [200]
0	0x3c1443cc	0.009049367
1	0x3c0f64d0	0.008752063
2	0x3dc3c2d6	0.095586464
3	0xbdf75f22	-0.12078692
4	0x3d6b2420	0.0574075
5	0x3e0f1aa0	0.13975
6	0xbdaa5424	-0.0831683
7	0xbdcf2404	-0.10114291
8	0xbd40d39b	-0.047076803
9	0x3e016536	0.12636265
10	0x3e0cab63	0.13737254
11	0x3da02546	0.07819609
12	0xbd9b3a7c	-0.075795144
13	0xbd8205cf	-0.06348764
14	0xbe037915	-0.12839158
15	0x3cc77149	0.02434601
16	0x3d07ad5f	0.033124324
17	0xbc1f8ad8	-0.009737693
18	0x3dbe7395	0.09299389
19	0x3d94dd78	0.07268804
20	0xbe0a9202	-0.1353226
21	0x3dee0a0a	0.116230085
22	0x3ddde044	0.10833791
23	0x3dfdcb9e	0.123923525
24	0x3dfb4b03	0.12270167
25	0xbcacc8f6	-0.02109192
26	0x3dfaca0e	0.1224557
27	0x3da0ea1b	0.07857152
28	0x3d3c59f8	0.04598424
29	0xbd0e4505	-0.03473379
30	0x3bd0896f	0.0063640396
31	0xbd1c5f16	-0.03817662
32	0x3d823395	0.06357495
33	0xbdb79b1b	-0.08965131
34	0x3d83fbd8	0.0644452
35	0x3df2ab13	0.11849036
36	0x3debcd30	0.11513746
37	0x3dcc0dad	0.09963546
38	0xbc16b17c	-0.009197589
39	0x3d96ec83	0.0736933
40	0x3daf4e4f	0.08559858
41	0x3c93828b	0.018006584
42	0xbdb90da5	-0.090358056
43	0xbdfb0ea9	-0.122586556
44	0x3d891705	0.06693844
45	0x3e0c039b	0.1367325
46	0xbcf55504	-0.029947765
47	0x3d8dd5f2	0.069255725
48	0xbce37d36	-0.027769666
49	0x3d3fbc75	0.046810586
50	0x3dab7315	0.083715595
51	0xbdb2c4dd	-0.08728955
52	0x3d019986	0.031640552
53	0xbc9f5b6e	-0.019452777
54	0xbd1c448d	-0.038151313
55	0x3bb83713	0.0056217997
56	0x3dbbfbe3	0.09178903
57	0x3db87eb0	0.09008539
58	0xbd87462f	-0.06605183
59	0x3dee0f63	0.116240285
60	0xbd919b9b	-0.071097575
61	0x3d6026d5	0.054724533
62	0x3dd25ad5	0.10271231
63	0xbb444eee	-0.0029954272
64	0xbc9f59c5	-0.019451985
65	0x3d856624	0.065136224
66	0x3e07c2ef	0.13257955
67	0xbd416c20	-0.047222257
68	0x3d7bb974	0.06145616
69	0xbd357ef7	-0.044310536
70	0xbdff35dc	-0.12461445
71	0x3ccd285c	0.025043659
72	0x3d620d17	0.055188265
73	0xbe0d61f9	-0.13806905
74	0xbdfbacb1	-0.12288798
75	0xbdf6118e	-0.12015067
76	0xbbf64ed6	-0.007516722
77	0xbdef54f8	-0.116861284
78	0xbd7d7760	-0.061881423
79	0xbe1082eb	-0.14112441
80	0x3d4bc3f6	0.04974743
81	0x3d57dd68	0.052701384
82	0xbd9ef0d4	-0.07760778
83	0x3db90db1	0.090358146
84	0x3d1f31b2	0.038865753
85	0xbdfa0b0e	-0.1220914
86	0x3e06a29f	0.13147973
87	0x3df117ab	0.117720924
88	0x3cc29e13	0.023757016
89	0xbcb02ddb	-0.02150624
90	0xbe0b0e6c	-0.1357972
91	0x3cb7cffb	0.02243804
92	0x3e061abc	0.13096136
93	0xbdf85ba7	-0.12126856
94	0xbd6331b1	-0.05546731
95	0x3c8e5e5f	0.017378984
96	0xbe031ce1	-0.12803985
97	0x3d9e2328	0.07721549
98	0x3ded2f97	0.11581343
99	0x3e007e53	0.12548189
100	0xbbbdff79	-0.005798277
101	0xbe0f95e0	-0.14022017
102	0xbd3206cd	-0.043463517
103	0xbc8e1f28	-0.01734884
104	0x3cb167fc	0.021656029
105	0x3df9d616	0.12199037
106	0xbbbc4ac4	-0.0057462174
107	0x3e0f05bf	0.13967036
108	0x3e0d4303	0.13795094
109	0xbde35a95	-0.111012615
110	0xbe0882f0	-0.13331199
111	0xbda6846c	-0.08130726
112	0xbded218e	-0.11578666
113	0xbd0c3dbd	-0.034238566
114	0xbde1f78d	-0.11033545
115	0xbd5bf66a	-0.053701796
116	0xbde71d26	-0.112848565
117	0x3d9ff5f8	0.07810587
118	0xbc870b5f	-0.016484914
119	0x3d9d9e68	0.07696229
120	0x3cba031e	0.022706565
121	0x3d8ef128	0.06979591
122	0x3c80dc05	0.015729913
123	0xbc96e1a4	-0.01841814
124	0xbd839670	-0.06425178
125	0xbd8a9c0b	-0.06768044
126	0xbcc7ff2a	-0.024413664
127	0x3dabe528	0.083933175
128	0x3dad70c2	0.084687725
129	0xbe04ad8b	-0.12956826
130	0xbd37ac9b	-0.044842344
131	0x3d5c2974	0.05375047
132	0xbdc2769c	-0.09495279
133	0x3de22671	0.11042488
134	0x3d955859	0.072922416
135	0xbd164891	-0.0366903
136	0xbdf367e3	-0.11885049
137	0x3d086f3e	0.033309214
138	0x3df086d6	0.11744468
139	0x3de089df	0.10963797
140	0x3e0dc203	0.13843541
141	0x3c286c79	0.010279768
142	0x3e0506b1	0.12990834
143	0xbda1c9cb	-0.07899817
144	0xbd43fda1	-0.0478493
145	0xbc85ae19	-0.016318368
146	0xbdb8f431	-0.09030951
147	0xbd038ea6	-0.032118462
148	0xbde79c50	-0.11309111
149	0x3df500a8	0.11963016
150	0x3d3a7196	0.04551848
151	0xbd435b28	-0.047694355
152	0xbc414d75	-0.011798252
153	0xbda65155	-0.081209816
154	0xbe108401	-0.14112855
155	0xbd73cdef	-0.059522565
156	0x3d98f5b1	0.07468737
157	0x3a31d65d	0.0006783957
158	0x3bd9a652	0.0066421414
159	0x3da63639	0.08115811
160	0xbcd3fd7e	-0.02587771
161	0xbd841af3	-0.06450453
162	0x3cb8accf	0.022543339
163	0xbcacaa58	-0.02107732
164	0xbd028db0	-0.031873405
165	0x3ce706fb	0.02820157
166	0xbb8947ea	-0.004189481
167	0xbc0f65ce	-0.0087522995
168	0x3d4beac7	0.049784448
169	0xbcf1419c	-0.02945023
170	0x3d8d4c90	0.06899369
171	0xbd0f8e0a	-0.03504757
172	0x3ccba514	0.024858989
173	0x3dfef875	0.12449733
174	0xbd52fad5	-0.051508743
175	0xbda43ec8	-0.08019787
176	0x3d01247f	0.031528946
177	0xbd0a92c1	-0.03383136
178	0xbdce9a4f	-0.10088026
179	0x3d9adcc9	0.07561643
180	0x3dcf75eb	0.10129913
181	0x3d5f47c6	0.054511808
182	0xbb288f9e	-0.0025720368
183	0x3cb4c52c	0.022066675
184	0xbe067641	-0.13131048
185	0xbd393fbf	-0.04522681
186	0x3c6756be	0.014119802
187	0x3d6e4a44	0.058176294
188	0x3dd45f2e	0.103697166
189	0x3d8610e3	0.0654619
190	0x3dcd1e83	0.10015585
191	0xbe0da070	-0.13830733
192	0x3d82a67b	0.0637941
193	0x3cdfce25	0.027319977
194	0xbd8c55cf	-0.06852304
195	0xbe10cbee	-0.14140293
196	0x3e078f96	0.13238367
197	0xbd437f80	-0.047729015
198	0xbe00e401	-0.12586977
199	0xbdd0c11a	-0.10193081

layers.4.weight f4 [200, 200]
0	0x3c8fc14e	0.01754823
1	0x3d32172e	0.043479137
2	0x3bef19c8	0.0072967745
3	0x3c34ba9a	0.011030817
4	0xbc214149	-0.009842225
5	0x3c40b577	0.011762015
6	0xbbc4a03f	-0.006000548
7	0x3d67ca4b	0.056589406
8	0x3cd93dcf	0.02651873
9	0xbcf877ab	-0.0303305
10	0x3ccdc2e1	0.02511734
11	0xbccb2efd	-0.02480268
12	0xbd38b33e	-0.045092814
13	0xbceac654	-0.028659023
14	0x3d7bcf13	0.06147678
15	0x3d19faab	0.03759257
16	0xbd84ea08	-0.064899504
17	0x3d7fcf52	0.062453575
18	0xbd5b7a68	-0.053583533
19	0x3d4319d6	0.04763206
20	0x3c146617	0.009057543
21	0xbca6881b	-0.020328572
22	0xba9f6601	-0.0012161137
23	0xbd27006e	-0.040771894
24	0x3d829889	0.0637675
25	0xbcdf3e00	-0.027251244
26	0xbcb1a702	-0.02168608
27	0xbd67b53a	-0.056569315
28	0x3d3c4741	0.04596639
29	0x3d68e7b7	0.056861605
30	0x3c3a771f	0.01138094
31	0xbc425848	-0.011861868
32	0x3cba4321	0.022737088
33	0xbd00cea3	-0.031447064
34	0x3d8f128a	0.06985958
35	0xbcb21e6b	-0.02174302
36	0x3ccfed9b	0.025381854
37	0x3d6e6547	0.058202054
38	0xbc9ac16d	-0.01889106
39	0x3d626c62	0.055279143
40	0x3d23a0ee	0.039948396
41	0xbaaa82d6	-0.0013008963
42	0xbcd2cc18	-0.025732085
43	0x3d5a0362	0.053225882
44	0x3cc74f6e	0.024329867
45	0x3b9f68b1	0.004864775
46	0xbcb8cfcb	-0.02256002
47	0xbd87bcd6	-0.066278145
48	0xbd78db71	-0.06075615
49	0xb99b4231	-0.0002961322
50	0xbd849b36	-0.06474917
51	0xbd8c4a47	-0.06850105
52	0xbc944c4d	-0.01810279
53	0xbbd1f97b	-0.006407914
54	0x3d59349c	0.053028688
55	0xbd3d25d6	-0.04617866
56	0xbd8c419e	-0.06848453
57	0x398f2ac3	0.00027306945
58	0xbd861d0e	-0.065485105
59	0xbbd5a88d	-0.006520337
60	0x3d50cf60	0.05097902
61	0xbd6fc7a7	-0.058540013
62	0x3c85762a	0.016291697
63	0xbc9b343e	-0.01894581
64	0x3d90a3f1	0.07062519
65	0x3ae5f9b7	0.0017545734
66	0xbbf16e16	-0.0073678596
67	0xbc822235	-0.015885452
68	0xbd0d946c	-0.034565374
69	0x3d5055cc	0.050863072
70	0xbd151cf8	-0.03640458
71	0x3d845d5d	0.0646312
72	0x3d424c0b	0.0474358
73	0xbd74b747	-0.0597451
74	0x3d62d8cf	0.055382546
75	0xbaa7b939	-0.001279629
76	0x3d32a959	0.043618534
77	0xbd08890b	-0.03333382
78	0x3c493a89	0.012282022
79	0x3b12a867	0.0022378208
80	0x3b951ad4	0.0045503173
81	0xbc53f3ce	-0.012936546
82	0xbbee487a	-0.0072718235
83	0xbd14e1a6	-0.036348008
84	0x3d5d57c0	0.054038763
85	0x3d05014e	0.032471947
86	0xbd096a34	-0.03354855
87	0xbc24c2bf	-0.010056197
88	0xbd77a2e7	-0.06045809
89	0xbca92c35	-0.020650962
90	0x3c36cb05	0.011156802
91	0x3d8ba488	0.06818491
92	0xbd8e53df	-0.06949591
93	0xbc82103a	-0.015876878
94	0xbd49518f	-0.049150046
95	0x3d485028	0.048904568
96	0xbd868152	-0.06567635
97	0x3c8715c9	0.01648988
98	0x3c845848	0.016155377
99	0x3d1ef96f	0.038812097
100	0x3c70cba1	0.014696986
101	0x3c1b6ba1	0.00948611
102	0x3d8ccf05	0.06875423
103	0xbc3bae63	-0.011455151
104	0x3d598670	0.053106725
105	0x3d1aec94	0.037823275
106	0xbc8cc54f	-0.017183928
107	0xbc8cbe39	-0.017180549
108	0x3d112f07	0.03544524
109	0xbcf5cb2c	-0.030004106
110	0x3c29249b	0.010323669
111	0xbd5e29ac	-0.05423896
112	0x3d41bef0	0.047301233
113	0xbd614670	-0.054998815
114	0x3c90ad0e	0.017660644
115	0xbd7d7e08	-0.06188777
116	0x3c81523a	0.015786279
117	0xbc3a4ac0	-0.011370361
118	0xbd109785	-0.03530075
119	0xbc46db97	-0.012137315
120	0x3c57a258	0.013161264
121	0xbc00a95b	-0.0078528775
122	0x3d590a38	0.05298826
123	0xbd72794f	-0.05919772
124	0x3d458bc0	0.04822898
125	0xbd5d4143	-0.054017317
126	0xbcf3fbd3	-0.029783165
127	0xbb6d91b1	-0.003625017
128	0xbd2bdc64	-0.041958228
129	0x3d05ff1d	0.032713998
130	0x3d8ab9da	0.067737296
131	0xbcbe2cda	-0.023214746
132	0xbc58b075	-0.013225664
133	0x3c3f0d2a	0.011660853
134	0x3d67834f	0.05652171
135	0x3d90755b	0.07053634
136	0x3caa961f	0.020823536
137	0x3c8fda7e	0.01756024
138	0x3d8a3f94	0.06750408
139	0xbd1a78ba	-0.03771279
140	0x3d2dc59c	0.042424783
141	0xbd263a1d	-0.040582765
142	0x3ca4f251	0.020135077
143	0xbd8eea29	-0.06978256
144	0xbc163755	-0.009168466
145	0x3d831e9c	0.06402323
146	0x3d86dab3	0.06584682
147	0xbc697aed	-0.014250499
148	0xbd0be9e7	-0.034158614
149	0xbbf5ce24	-0.0075013805
150	0x3d3d48d6	0.04621204
151	0x3c92546f	0.017862527
152	0xbcc6bf41	-0.024261119
153	0xbcfc7bc5	-0.030820737
154	0x3d3d5c8e	0.046230845
155	0xbd3f263b	-0.04666732
156	0xbce75a50	-0.028241307
157	0xbc2ec48f	-0.01066698
158	0x3d8762f6	0.06610672
159	0x3d5e7cf1	0.054318372
160	0x3d5b5148	0.053544313
161	0xbd4416c2	-0.047873266
162	0x3cc7d1e9	0.024392085
163	0xbb9f4653	-0.004860678
164	0x3d0ff2cf	0.03514367
165	0x3d3f9701	0.046774868
166	0xbd629ebf	-0.055327173
167	0xbd6a104b	-0.057144444
168	0x3c04b4e9	0.008099773
169	0xbd8eeef7	-0.06979173
170	0x3d50e0c7	0.050995614
171	0xbd51a94a	-0.051186837
172	0xbd285037	-0.041092124
173	0x39a59634	0.00031583162
174	0x3d2511c8	0.04030016
175	0x3d7ce068	0.061737448
176	0x3c55e9d1	0.013056234
177	0x3d77122a	0.060320057
178	0x3cf3dc05	0.029768
179	0x3d8e1174	0.06936923
180	0xbc8ec58e	-0.017428186
181	0xbc932535	-0.017962078
182	0xbcb33450	-0.02187553
183	0xbc44c121	-0.012008936
184	0xbd74fa86	-0.05980923
185	0x3cad2065	0.021133611
186	0x3d4fc0ef	0.050721105
187	0x3d1548ab	0.036446255
188	0xbd36bfb0	-0.0446164
189	0x3d83419e	0.06409
190	0xb93d5631	-0.00018056553
191	0xbb0c157d	-0.0021375113
192	0xbd7b3d57	-0.061337795
193	0xbcfd73bb	-0.030938974
194	0x3cbb1bdc	0.022840433
195	0x3c0c8274	0.008576024
196	0xbd3922f5	-0.045199353
197	0x3d865342	0.06558849
198	0x3cf29d7d	0.029616112
199	0x3d1fecc9	0.039044175
200	0xbd287b3a	-0.041133143
201	0xbce9e4cc	-0.028551482
202	0x3cb52591	0.02211264
203	0xbd87df70	-0.06634414
204	0x3d07a201	0.033113483
205	0x3b6f0510	0.0036471523
206	0x3d391dbc	0.045194373
207	0x3d5e430a	0.054263152
208	0x3c64f8d2	0.013975339
209	0x3d1716a5	0.03688683
210	0x3ad78e9e	0.0016445701
211	0x3d8d4460	0.06897807
212	0xbc009378	-0.007847659
213	0xbd32737e	-0.043567173
214	0xbc1aeb4a	-0.009455511
215	0xbd5a3c5c	-0.05328022
216	0xbd299b88	-0.04140809
217	0x3c7cfe88	0.015441544
218	0x3d5fc14f	0.054627713
219	0x3d6bfd79	0.057614777
220	0x3d5a2d7e	0.05326604
221	0x3d776bb6	0.060405456
222	0x3d81531e	0.063146815
223	0xbd2e360c	-0.042532012
224	0xbcb0e3f4	-0.021593072
225	0x3d03d02c	0.03218095
226	0xbce38b29	-0.027776318
227	0xbc45a4a4	-0.012063179
228	0x3d74f646	0.059805177
229	0xbbc9e8cd	-0.006161785
230	0xbc867662	-0.016413871
231	0x3cee2b30	0.029073328
232	0x3d8dadd4	0.06917921
233	0xbcf9a796	-0.030475419
234	0xbc17851f	-0.009248047
235	0xbd80d696	-0.06290929
236	0x3c08fa47	0.008360452
237	0x3bef2366	0.007297921
238	0x3d4282e3	0.047488105
239	0xbd6c9ffc	-0.05776976
240	0xbd336ed1	-0.043806855
241	0x3d6166ea	0.055029787
242	0xbd028825	-0.03186812
243	0x3b98980c	0.0046567973
244	0x3d79256c	0.060826704
245	0x3d7b884d	0.061409283
246	0xbb911dd6	-0.0044286055
247	0xbd88e3aa	-0.066840485
248	0xbd6daa51	-0.058023755
249	0xbd8b0ccc	-0.0678955
250	0xbb8ac640	-0.004235059
251	0xbd6141c3	-0.054994356
252	0x3d6ae2f3	0.057345342
253	0xbd7b6a0a	-0.061380424
254	0xbcabfc4e	-0.020994332
255	0x3cf83194	0.030297078

layers.4.bias f4 [200]
0	0xbcc2eca2	-0.023794476
1	0xbd840b4b	-0.064474665
2	0xbd029a93	-0.031885695
3	0xbd4415a1	-0.04787219
4	0xbd8bbf85	-0.06823639
5	0xbd8da666	-0.069165036
6	0x3cdb8cc2	0.026800517
7	0xbd8a953f	-0.06766748
8	0x3d909e4e	0.07061444
9	0xbd08290b	-0.033242267
10	0xbcaba8a8	-0.020954445
11	0x3d25e5dc	0.040502414
12	0xbd1411cc	-0.036149785
13	0xbc4aa7dc	-0.012369122
14	0x3d2fea0f	0.042947825
15	0xbbc425a2	-0.0059859315
16	0x3d7cc915	0.061715204
17	0x3d31a02d	0.043365646
18	0x3b4bb14f	0.0031081026
19	0x3d23f535	0.04002877
20	0xbb83360c	-0.0040042456
21	0xbb136338	-0.002248956
22	0xbd1e5ac7	-0.03866079
23	0xbcf604c0	-0.030031562
24	0x3d82edf7	0.063930444
25	0xbc28ade2	-0.010295363
26	0xbccbd86a	-0.024883468
27	0x3d616da8	0.055036217
28	0x3d4a3a0e	0.04937177
29	0x3d0b1dc1	0.033963922
30	0x3d8cbdcd	0.06872139
31	0x3c2f5e88	0.01070369
32	0x3ca9cb45	0.02072681
33	0xbd217a30	-0.039423168
34	0x3cef2aee	0.029195275
35	0x3a869513	0.0010267816
36	0x3d405da6	0.04696431
37	0x3d64a8d4	0.05582507
38	0xbd23f9f4	-0.040033296
39	0xbcb6ca62	-0.0223133
40	0xbcd92d8c	-0.026510976
41	0xbce3834b	-0.027772566
42	0xbd1da6e8	-0.038489252
43	0x3d898b57	0.0671603
44	0xbd1a5e78	-0.03768775
45	0x3b94ee11	0.0045449813
46	0x3c5c06ff	0.013429402
47	0xbaa1f0d3	-0.0012355096
48	0x3b753885	0.0037417721
49	0xbd02d2ce	-0.03193932
50	0xbbf0c66e	-0.0073478734
51	0xbc0eb151	-0.008709268
52	0xbd428f89	-0.047500167
53	0x3d8b2bf3	0.06795492
54	0x3cebc6c7	0.028781308
55	0x3d530e9d	0.05152761
56	0x3cbcf7b9	0.023067342
57	0x3d266b4d	0.040629674
58	0x3d746bd9	0.059673164
59	0xbd4d6664	-0.050146475
60	0x3d555910	0.05208689
61	0x3b59abfa	0.0033214078
62	0xbd51d938	-0.051232547
63	0x3bdb74a0	0.0066972524
64	0x3cd4ec56	0.0259916
65	0xbd246f73	-0.04014535
66	0xbd80a1dd	-0.06280873
67	0xbd8f3923	-0.0699332
68	0xbd1b066a	-0.037847914
69	0xbd801f75	-0.06256
70	0x3d1d0e55	0.038343746
71	0xbd0b019e	-0.03393709
72	0xbd7a0a59	-0.061045025
73	0xbd4298ba	-0.047508933
74	0xbc4e835f	-0.0126045635
75	0x3d146540	0.036229372
76	0x3d5c271e	0.053748243
77	0x3c96d7fd	0.018413538
78	0x3d3734c7	0.044728067
79	0xbd5fa998	-0.054605097
80	0xbcb4ba9e	-0.022061642
81	0x3d4ea52c	0.05045049
82	0xbd11c229	-0.035585556
83	0x3c96bf19	0.01840167
84	0xbca0bf44	-0.019622453
85	0x3d1596b4	0.036520675
86	0xbd847760	-0.064680815
87	0x3c7687c2	0.015047016
88	0xbd36bcfc	-0.044613823
89	0xbd456332	-0.048190303
90	0x3d4ce633	0.050024223
91	0xbd0ac0f6	-0.03387543
92	0x3b4d515f	0.0031329019
93	0x3bc331d3	0.0059568672
94	0xbd6199fe	-0.0550785
95	0x3d21e001	0.039520267
96	0xbd391e7a	-0.04519508
97	0xbcd1482d	-0.025547111
98	0xbd86a4c0	-0.06574392
99	0xbc405692	-0.01173939
100	0x3c94065e	0.018069442
101	0x3cb5e91e	0.022205885
102	0x3cf214ae	0.029550876
103	0xbcde686b	-0.0271494
104	0x3ce99e51	0.028517874
105	0xbc887c06	-0.016660701
106	0x3d8790ad	0.066193916
107	0xbd17c1c6	-0.03705003
108	0xbc3e5a0e	-0.01161815
109	0xbb1cc9ee	-0.002392407
110	0x3d5450ca	0.05183486
111	0xbcf38914	-0.02972845
112	0xbd5db00f	-0.05412298
113	0x3c93f611	0.01806167
114	0x3d493676	0.049124204
115	0xbd78e07d	-0.060760964
116	0xbcb6496d	-0.022251809
117	0xbc9f9d95	-0.01948432
118	0x3d5dd039	0.054153655
119	0x3c1ee3e5	0.009697889
120	0xbd841ef3	-0.064512156
121	0x3d8543c5	0.06507067
122	0xbca21741	-0.019786479
123	0xbd810f8d	-0.06301794
124	0x3d89144c	0.066933244
125	0xbc608b03	-0.013705018
126	0x3ccd6809	0.025074022
127	0x3ba27d2f	0.0049587707
128	0x3d2acf75	0.041701753
129	0xbd035479	-0.03206298
130	0xbd08a745	-0.033362646
131	0xbd1ec83d	-0.03876518
132	0xbd26cf13	-0.040724825
133	0xbd3323df	-0.04373538
134	0x3d3e1338	0.046405047
135	0xbd3d751f	-0.046254274
136	0xbb53e401	-0.0032331946
137	0x3afe9b20	0.0019424893
138	0x3d89c309	0.06726653
139	0xbccdded8	-0.025130674
140	0xbcfc6ec2	-0.030814532
141	0x3c948488	0.018129602
142	0x3c614105	0.013748412
143	0x3cbc63cc	0.022996806
144	0x3d62b7ee	0.05535119
145	0xbd5c7917	-0.053826418
146	0x3c09e1b6	0.00841563
147	0xbc25009e	-0.010070948
148	0xbd797c6f	-0.060909685
149	0xbc28504c	-0.0102730505
150	0x3c874dce	0.016516592
151	0x3d28ad93	0.04118116
152	0x3a90372e	0.0011002773
153	0xbd5349bf	-0.051584
154	0xbc8945d0	-0.016756922
155	0x3d271f6d	0.040801454
156	0x3cd58afa	0.026067246
157	0xbd5249db	-0.051339965
158	0x3c66ec6d	0.014094454
159	0xbc5cff4c	-0.013488602
160	0x3ba7c28e	0.0051196283
161	0x3d3a91b9	0.04554913
162	0xbd138303	-0.036013614
163	0xbbacc5f5	-0.0052726218
164	0x3d57b5dc	0.05266367
165	0xbc22506d	-0.00990687
166	0x3d900261	0.07031704
167	0xbba2d1e5	-0.004968869
168	0x3c681e25	0.014167343
169	0xbc3d6647	-0.011560029
170	0x3cbcc162	0.02304143
171	0xbcc76dc9	-0.024344342
172	0x3d8831dd	0.06650136
173	0x3d83c486	0.06433968
174	0x3b62f229	0.0034629202
175	0xbd1783fb	-0.0369911
176	0x3cb4a0e1	0.02204937
177	0xbc2f6a4e	-0.010706497
178	0xbd738042	-0.059448488
179	0x3c02776a	0.007963041
180	0xbd4edad5	-0.050501663
181	0xbcc52d48	-0.024069443
182	0xbd538d56	-0.05164846
183	0x3d61d93e	0.05513882
184	0x3ce66ba1	0.028127493
185	0xbd26422c	-0.04059045
186	0x3d3b45e3	0.045720946
187	0xbd58a6c1	-0.052893404
188	0x3bd18d4b	0.0063950173
189	0xbd670c5d	-0.056408275
190	0x3d20a662	0.039221175
191	0xbd1df561	-0.03856409
192	0xbcd0cecd	-0.025489235
193	0x3c9444db	0.01809924
194	0xbd8fff57	-0.07031124
195	0x3d25c8bd	0.040474642
196	0x3b9876ab	0.004652818
197	0xbd3e3440	-0.04643655
198	0xbc2c0740	-0.010499775
199	0xbd38d468	-0.04512444

layers.6.weight f4 [200, 200]
0	0x3c88cacb	0.016698262
1	0x3cd2f2f8	0.025750622
2	0xbd6d4dcb	-0.057935517
3	0x3d3e6fd5	0.04649337
4	0xbcd02342	-0.025407437
5	0x3d82b0c0	0.06381369
6	0xbbb20ddf	-0.0054337825
7	0x3c856638	0.016284093
8	0xbcf54067	-0.029937936
9	0xbaa89bc8	-0.0012863809
10	0xbc058a24	-0.008150611
11	0xbcb378e7	-0.021908237
12	0xbd1d7a6a	-0.03844682
13	0x3b10becd	0.0022086382
14	0xbd828809	-0.06373603
15	0xbd27544d	-0.04085188
16	0xbce93cce	-0.028471377
17	0x3aef60b4	0.0018263073
18	0xbd32d156	-0.04365667
19	0xbd0af9e7	-0.03392973
20	0x3bbcd08d	0.005762166
21	0x3a93bb77	0.0011271079
22	0x3ada160b	0.0016638649
23	0xbd1b1636	-0.03786298
24	0x3d6030b4	0.054733947
25	0xbc911099	-0.01770811
26	0xbd5de566	-0.05417385
27	0x3d1fe921	0.03904069
28	0x3c0e1e0f	0.008674159
29	0xbb2e06b3	-0.0026554286
30	0xbd8323e1	-0.06403328
31	0xbd380044	-0.04492213
32	0x3d30599d	0.043054212
33	0xbcb67a77	-0.022275193
34	0xbd4a6535	-0.049412925
35	0x3d2554a6	0.04036393
36	0xbd6c00ca	-0.05761794
37	0x3d253fec	0.040344164
38	0xbcc52130	-0.024063677
39	0x3cf3fed0	0.02978459
40	0x3c22ffee	0.009948714
41	0x3d8ce813	0.06880202
42	0x3ce9bc16	0.02853207
43	0xbb9c98b7	-0.004778947
44	0x3d887fd2	0.06665005
45	0xbd68cf22	-0.056838162
46	0x3c0ed412	0.008717554
47	0x3cbe751e	0.023249205
48	0xbd626148	-0.055268556
49	0xbd1a0987	-0.037606742
50	0xbd030d56	-0.03199514
51	0xbd1466d3	-0.036230873
52	0xbc0d2fa9	-0.00861732
53	0xbd33ac6c	-0.043865606
54	0x3d88d01a	0.06680317
55	0xbae849fc	-0.0017722244
56	0x3d8fdd4f	0.07024633
57	0x3c9070cf	0.017631916
58	0xbc38d5ff	-0.011281489
59	0x3bca93da	0.006182176
60	0xbd26bd95	-0.040708143
61	0xbd3ea879	-0.046547387
62	0x3ce284a5	0.02765114
63	0xbc1699cc	-0.0091919415
64	0x3bca0ec6	0.006166312
65	0xbc01f01c	-0.007930782
66	0x3d6190f1	0.055069868
67	0xbd90742d	-0.07053409
68	0xbd39ea93	-0.045389723
69	0xbd17e3c7	-0.03708246
70	0xbcb7d189	-0.022438781
71	0x3d655389	0.05598787
72	0x3d43fc80	0.047848225
73	0xbd56646e	-0.05234187
74	0xbca6bba7	-0.020353151
75	0x3d6e7f2c	0.05822675
76	0xbd5fb606	-0.05461695
77	0x3bf04e39	0.0073335436
78	0x3cda97be	0.026683684
79	0x3d096eb8	0.033552855
80	0x3d49e8fa	0.04929445
81	0x3d3d53c1	0.046222452
82	0x3c95ae11	0.018271478
83	0xbd88833a	-0.066656545
84	0xbd007265	-0.031359095
85	0xbc48c7fc	-0.012254711
86	0xbd53933c	-0.051654086
87	0xbd158372	-0.03650231
88	0x3c7743c7	0.015091843
89	0xbce15657	-0.02750699
90	0x3c41b399	0.011822605
91	0x3cd368aa	0.025806744
92	0x3d12fb86	0.035884403
93	0xbd60dce7	-0.05489817
94	0x3d824d34	0.063623816
95	0x3ce90abe	0.028447505
96	0x3bd32a63	0.006444262
97	0xbca2f28c	-0.019891046
98	0xbcb03715	-0.02151064
99	0x3b97309f	0.0046139504
100	0xbbc4cabf	-0.0060056145
101	0xbd878433	-0.06617012
102	0x3c41088c	0.011781823
103	0xbd3f4e97	-0.04670581
104	0xbd720016	-0.059082113
105	0x3d2b589a	0.041832544
106	0xbc350e6d	-0.011050803
107	0xbc985e22	-0.018599574
108	0xbc1ea5b5	-0.009683062
109	0xbcecef21	-0.02892262
110	0x3d182ecd	0.037154008
111	0xbaf2d649	-0.0018526997
112	0xbcfa4cf1	-0.030554267
113	0x3d8bdb4a	0.068289354
114	0x3d5c1737	0.053733077
115	0x3d6461bb	0.055757266
116	0xbd904b2e	-0.070455894
117	0x3c5f2ab2	0.013621019
118	0x3be14954	0.0068751965
119	0x3d84fc74	0.06493464
120	0x3caa095f	0.020756422
121	0x3c81e307	0.015855325
122	0x3d3f1584	0.04665138
123	0x3d03af1d	0.032149423
124	0xbd80f4bc	-0.062966794
125	0xbd8c9814	-0.06864944
126	0xbd16294e	-0.036660485
127	0xbc46a45d	-0.012124148
128	0x3c937a14	0.018002547
129	0x3d3de86a	0.046364225
130	0xbd80f003	-0.062957786
131	0xbc243e72	-0.010024654
132	0xbd632b5d	-0.055461276
133	0x3d7a9e35	0.061186034
134	0x3d327d92	0.043576784
135	0x3d26dba0	0.040736794
136	0xbbc83bdf	-0.006110653
137	0xbd37e3e7	-0.04489508
138	0xbd117dbb	-0.035520297
139	0xba33fba5	-0.0006865806
140	0x3a60c06f	0.0008573597
141	0xb992b740	-0.00027983822
142	0x3d7e62de	0.062106006
143	0xbd11d416	-0.03560265
144	0x3d5a1d7e	0.053250782
145	0x3d0089d6	0.03138145
146	0xbd60f869	-0.054924402
147	0xbd008394	-0.031375483
148	0xbd29e180	-0.04147482
149	0xba356762	-0.0006920007
150	0x3d1a216b	0.037629526
151	0x3d2ad8a9	0.04171053
152	0xbc595193	-0.013264078
153	0x3d82d6cc	0.063886255
154	0x3d0bb095	0.03410395
155	0x3c6a551b	0.014302517
156	0xbd6b0458	-0.05737719
157	0xbd6fed82	-0.058576114
158	0x3d33f1f5	0.04393192
159	0x3d1ad7ee	0.037803583
160	0xbd0b7d39	-0.03405497
161	0xbd53876d	-0.051642824
162	0x3b707f15	0.003669684
163	0xbd847caf	-0.06469094
164	0x3d4347da	0.047675945
165	0x3d189942	0.037255533
166	0x3ca05f5d	0.019576723
167	0xbd4a43f7	-0.049381223
168	0xbc153921	-0.009107859
169	0xbd08c09f	-0.033386823
170	0x3d0e7e73	0.03478856
171	0x3d8a25c9	0.06745488
172	0x3b689b96	0.0035493127
173	0xbc952781	-0.018207313
174	0x3d4bfcab	0.04980151
175	0xbc8697f0	-0.016429871
176	0xbd0a989d	-0.03383695
177	0xbd6f605c	-0.058441505
178	0x3c238a73	0.009981739
179	0x3d64f564	0.055898085
180	0x3d3b57f4	0.045738176
181	0x3ce69b57	0.028150244
182	0x3d4ad1bb	0.04951642
183	0xbd66c0b4	-0.05633612
184	0x3d8dfbe6	0.069328114
185	0xbcb28bd4	-0.02179519
186	0xbd86b69e	-0.065778
187	0x3d06ab78	0.03287837
188	0x3c9b4dc1	0.018957974
189	0xbc7e88a3	-0.015535506
190	0xbd893a71	-0.067006
191	0x3a4879d0	0.0007647546
192	0xbd0ea5e3	-0.03482617
193	0xbd303ec3	-0.043028604
194	0x3d81f309	0.063451834
195	0x3d0cbc45	0.034359235
196	0xbd782b8a	-0.060588397
197	0xbcf9aa92	-0.030476842
198	0xbd0957e5	-0.03353109
199	0xbd8269dc	-0.06367847
200	0xbd5b7230	-0.053575695
201	0x3d902613	0.07038512
202	0x3b77efe3	0.0037832193
203	0x3d6e7a6b	0.058222216
204	0x3c468cff	0.012118577
205	0x3d8be526	0.06830816
206	0xbd2fabca	-0.04288844
207	0x3ca1754b	0.01970925
208	0xbd0aa40f	-0.033847865
209	0x3cce4f93	0.025184428
210	0x3d608a7b	0.054819565
211	0x3d5b3d40	0.05352521
212	0xbd39c0a9	-0.04534975
213	0xbb2d0eca	-0.002640652
214	0x3bb5e8a4	0.0055514146
215	0x3b3697b8	0.0027861428
216	0xbceaff9f	-0.028686343
217	0x3cafdc02	0.021467213
218	0xbd63e042	-0.05563379
219	0xbcb11c3d	-0.02161991
220	0xbd161c8d	-0.036648322
221	0xbcd9668a	-0.026538152
222	0xbd2676bd	-0.04064058
223	0x3d38768e	0.045034938
224	0xbc7948e3	-0.015215131
225	0x3d0a6e0c	0.033796355
226	0x39cbab3a	0.0003884675
227	0x3b807c47	0.003921065
228	0x3d84aa3f	0.06477784
229	0x3d37edb4	0.044904426
230	0x3d8d297b	0.068926774
231	0xbd6cc158	-0.057801574
232	0x3d8f4d8c	0.06997213
233	0xbcf95311	-0.030435117
234	0xbaa0afcc	-0.0012259423
235	0x3c02641c	0.007958438
236	0xbd8bf979	-0.068346925
237	0x3d0966b8	0.033545226
238	0xbd227491	-0.039661948
239	0x3d802cb0	0.062585235
240	0xbc3ecd11	-0.011645571
241	0xbd4e3084	-0.050339237
242	0x3d4f6405	0.050632495
243	0x3b06de0c	0.0020579128
244	0xbd56752b	-0.052357834
245	0x3c42a1d2	0.011879401
246	0xbc752017	-0.014961264
247	0xbd8d852a	-0.06910165
248	0x3c80c036	0.015716653
249	0xbd05baec	-0.032648966
250	0xbc56bb9d	-0.013106254
251	0x3d745553	0.059651684
252	0x3a7b6fa7	0.00095915276
253	0xbd4a10f0	-0.04933256
254	0x3d522ac4	0.051310316
255	0xbd55d8b7	-0.05220863

layers.6.bias f4 [200]
0	0xbd7bd649	-0.061483655
1	0x3d6553d3	0.055988144
2	0xbc88b0dc	-0.016685896
3	0x3d16d0a2	0.03682006
4	0xbd779e21	-0.060453538
5	0xbcc4430d	-0.023957754
6	0xbd25e124	-0.040497914
7	0xbcb06097	-0.021530433
8	0x3d1c52f5	0.03816505
9	0xbd5db7c1	-0.05413032
10	0xbc87ed93	-0.016592776
11	0xbc795515	-0.015218039
12	0x3cdd455f	0.027010618
13	0x3c1c3f17	0.009536526
14	0x3d765242	0.06013704
15	0xbcf751d0	-0.030190378
16	0xbd240ff8	-0.04005429
17	0x3c17b586	0.009259587
18	0x3d4c0d80	0.049817562
19	0xbd530a7d	-0.051523674
20	0xbd4d81c6	-0.05017259
21	0xbcded3ea	-0.027200658
22	0x3cdbcb91	0.026830466
23	0x3d3ec224	0.046571866
24	0xbd59c50b	-0.05316643
25	0xbcd58c40	-0.026067853
26	0xbd1b08b2	-0.03785009
27	0x3d40b798	0.04705009
28	0xbd422ecb	-0.047407907
29	0x370951f5	8.184918e-06
30	0x3d7354be	0.05940699
31	0xbcbaff58	-0.022826836
32	0xbd46a7d2	-0.04849989
33	0xbd892f0a	-0.06698425
34	0xbd5240b5	-0.05133124
35	0xbd6f6dbc	-0.05845426
36	0x3d3942d4	0.045229748
37	0xbd30f93c	-0.04320644
38	0x3d6fff8e	0.058593325
39	0x3d5286ee	0.05139821
40	0xbd696daf	-0.056989368
41	0xbc69b35a	-0.014263952
42	0xbcc0424b	-0.023469111
43	0x3cfa8d72	0.030585025
44	0xbd029932	-0.03188438
45	0xbd5b812b	-0.05358998
46	0x3cfa3a78	0.030545458
47	0xbd2055a4	-0.039144173
48	0x3c1a8dab	0.00943319
49	0xbc29f835	-0.010374119
50	0x3d7ee4ea	0.06223003
51	0x3c9e44eb	0.019319972
52	0xbc2d519c	-0.010578539
53	0xbc95ecbc	-0.01830136
54	0xbd69e69a	-0.057104684
55	0xbd2b3c88	-0.041805774
56	0xbd50676e	-0.05087989
57	0x3d181b54	0.037135437
58	0x3c9aabd8	0.01888077
59	0xbd6640eb	-0.056214254
60	0x3cd725e9	0.026263194
61	0xbd8c9043	-0.06863453
62	0xbd72611a	-0.059174635
63	0x3d46765c	0.04845272
64	0xbd28a763	-0.041175257
65	0xbc23efb5	-0.010005881
66	0xbcfede56	-0.031111877
67	0xbd249ed1	-0.04019052
68	0xbbbc4afa	-0.0057462426
69	0x3c1d1448	0.009587355
70	0xbd7c0f73	-0.06153817
71	0x3d2457e9	0.0401229
72	0xbd7cd936	-0.061730586
73	0xbd1ddcb6	-0.038540564
74	0x3cf49e71	0.029860707
75	0xbc321a3f	-0.010870515
76	0x3c68aa03	0.01420069
77	0xbd8c3848	-0.06846672
78	0x3d5b4b9b	0.0535389
79	0xbb7176da	-0.0036844523
80	0xbd029b4c	-0.031886384
81	0x3c205cb6	0.009787729
82	0xbcbb448d	-0.022859836
83	0xbc773177	-0.015087477
84	0xbc4a1891	-0.012334959
85	0x3c52eaec	0.012873393
86	0x3d43f632	0.047842212
87	0x3d888d1d	0.0666754
88	0xbba024da	-0.0048872055
89	0xbd38eff7	-0.045150723
90	0x3d014dea	0.031568445
91	0x3b80a361	0.0039257263
92	0x3c6286c9	0.013826081
93	0x3d630d4b	0.0554326
94	0x3cf0a282	0.029374365
95	0xbd736d5c	-0.059430465
96	0xbd554bc9	-0.052074227
97	0x3d38cfb0	0.04511994
98	0x3cf86263	0.030320352
99	0x3cb798ce	0.02241173
100	0x392a3c68	0.00016234966
101	0xbd8ee762	-0.069777265
102	0xbd0bce95	-0.03413256
103	0xbd86534d	-0.06558857
104	0xbd6799bd	-0.0565431
105	0xbc6514dc	-0.013982024
106	0x3d05ace0	0.03263557
107	0x3d863c4c	0.065544695
108	0x3d22ce68	0.039747626
109	0x3b943db7	0.0045239585
110	0x3cdef3f3	0.027215933
111	0x3d1a2ba5	0.03763928
112	0x3d730199	0.059327696
113	0x3cef8641	0.029238822
114	0x3c934690	0.017977983
115	0x3c67d559	0.014149987
116	0xbc9a4e66	-0.018836211
117	0x3ca8eb3e	0.020619985
118	0x3c9cf3d3	0.019159233
119	0xbd00e70f	-0.031470355
120	0xbd8882ae	-0.0666555
121	0xbd82b2ed	-0.06381784
122	0xbc586843	-0.013208452
123	0xbc9daed6	-0.019248407
124	0x3b2dc5a5	0.002651551
125	0xbc88e9a4	-0.016712971
126	0xbc6fc663	-0.014634701
127	0xbd4e6646	-0.050390504
128	0x3d0f228a	0.03494505
129	0xbcb20e51	-0.021735342
130	0x3d63964c	0.055563256
131	0x3d894c67	0.06704026
132	0xbb65b3fe	-0.003504991
133	0xbd5148b0	-0.05109471
134	0x3cd5d70b	0.026103517
135	0x3c92b623	0.017909115
136	0xbd123f5a	-0.035704948
137	0xb9f6295c	-0.00046951592
138	0xbd1a1cb7	-0.03762504
139	0x3d4acec7	0.049513604
140	0xbcd6a789	-0.026202934
141	0xbd8f3e0b	-0.06994256
142	0xbd1fcee9	-0.039015684
143	0xbc8fad6f	-0.017538754
144	0x3cf9993f	0.030468581
145	0x3d855b22	0.06511523
146	0x3d249318	0.040179342
147	0x3d7fe74a	0.062476434
148	0xbd58cd8a	-0.052930392
149	0xbd2f25eb	-0.04276077
150	0xbce91356	-0.028451603
151	0x3cd7d069	0.026344495
152	0x3d15e63c	0.03659652
153	0xbd02f97e	-0.031976216
154	0xbc38d429	-0.011281052
155	0x3d673e81	0.056456093
156	0x3d21558b	0.03938822
157	0xbd3e189a	-0.04641018
158	0x3c70c4b3	0.014695334
159	0xbccc45d6	-0.024935644
160	0x3cebabe4	0.028768487
161	0x3d722a2b	0.059122246
162	0xbd58a805	-0.05289461
163	0xbd89391c	-0.06700346
164	0x3d675e09	0.056486163
165	0xbc657e77	-0.014007202
166	0x3d050fdb	0.032485824
167	0xbac825cf	-0.0015270057
168	0x3bce8c51	0.006303348
169	0x3d843c82	0.064568534
170	0xbca16dc8	-0.019705668
171	0x3d118b08	0.03553298
172	0xbc2bbe74	-0.010482419
173	0x3d1a7c87	0.037716415
174	0xbc05f2a6	-0.008175528
175	0x3c7745ef	0.015092357
176	0x3d8336fb	0.06406971
177	0xbcf59c14	-0.02998165
178	0x3c3acbd5	0.011401136
179	0xbb424d4a	-0.0029648119
180	0xbd091e20	-0.033475995
181	0x3b2e84fd	0.002662956
182	0xbd5eaa27	-0.05436149
183	0xbd7ba031	-0.061432067
184	0xbcede52f	-0.029039947
185	0x3d1b3311	0.037890498
186	0x3d585f12	0.05282504
187	0xbcdbaaa6	-0.02681477
188	0xbd78c0ff	-0.06073093
189	0xbd2dec1d	-0.042461503
190	0x3d5b2820	0.053505063
191	0xbd49f81c	-0.04930888
192	0xbc27caf9	-0.010241264
193	0xbbb0408e	-0.0053787893
194	0xbd2e2a0e	-0.042520575
195	0x3c55f99f	0.013060003
196	0x3c868068	0.01641865
197	0x3cd5e61f	0.026110707
198	0x3abd15fd	0.0014426109
199	0xbd8d47a9	-0.06898434
