RacPLL/lirpa/test.onnx (onnx, 666579 bytes, 8 tensors)

0.weight f4 [16, 1, 4, 4]
0	0xbd7beed0	-0.061507046
1	0x3de60984	0.11232284
2	0xbb1fba00	-0.002437234
3	0x3db52280	0.08844471
4	0x3c381900	0.011236429
5	0x3e0a1202	0.13483432
6	0x3e19b5d4	0.15010768
7	0xbe577d6c	-0.21043938
8	0xbe78eeae	-0.24309799
9	0x3df1e0ac	0.11810431
10	0xbc10b220	-0.008831531
11	0xbd0296e8	-0.031882197
12	0x3d12aea8	0.035811096
13	0xb9e4cc00	-0.0004363954
14	0xbdb0d0b8	-0.0863356
15	0x3dfd95f0	0.12382114
16	0x3d1b68c0	0.037941694
17	0xbdb2f020	-0.087372065
18	0xbe4dccca	-0.20097652
19	0x3c4c2d60	0.01246199
20	0x3e5ed864	0.21762234
21	0xbc74df60	-0.014945835
22	0xbcd19080	-0.025581598
23	0xbe2a6cb8	-0.16643035
24	0x3e61619e	0.22009894
25	0xbd32db18	-0.043665975
26	0x3e5abf00	0.21361923
27	0xbd268d28	-0.04066196
28	0x3dfd1504	0.12357524
29	0xbd912bd8	-0.07088441
30	0xbdcb632c	-0.09931025
31	0x3e27b4aa	0.16377512
32	0x3d179af8	0.037013024
33	0x3db50e78	0.0884065
34	0xbe134986	-0.14383516
35	0x3e0515bc	0.12996572
36	0x387a4000	5.966425e-05
37	0x3d4d0f60	0.05006349
38	0x3e5b4dfc	0.21416467
39	0xbe2f9fd0	-0.17150807
40	0x3e13e6fc	0.14443582
41	0x3d15ecc8	0.036602765
42	0x3dbd47d8	0.09242219
43	0x3e1e6482	0.15468028
44	0x3e7697f2	0.240814
45	0xbe3d4a30	-0.18485332
46	0x3d28ce18	0.04121217
47	0x3e6fd2c0	0.23420238
48	0x3e7b86de	0.24563166
49	0xbe34da22	-0.17661336
50	0x3da339b4	0.079699904
51	0x3d67d1b0	0.056596458
52	0x3ca078e0	0.019588888
53	0xbe6072f0	-0.21918845
54	0xbe791d44	-0.2432757
55	0x3e34b932	0.17648771
56	0x3e4431ec	0.19159669
57	0xbd90aaf0	-0.07063854
58	0x3e5ba498	0.21449506
59	0x3e266fb8	0.16253555
60	0x3e44288e	0.19156095
61	0x3d8e02a0	0.069340944
62	0x3e2c2ad2	0.1681321
63	0x3e011a04	0.1260758
64	0x3e7b58c0	0.24545574
65	0x3e463bb8	0.19358718
66	0x3ded099c	0.115740985
67	0xbe0f3c68	-0.13987887
68	0x3d41abf8	0.047283143
69	0xbe4c4016	-0.19946322
70	0xbdde1ff8	-0.10845941
71	0x3e61fd1e	0.22069213
72	0x3e53db10	0.20689034
73	0xbe7487be	-0.23879907
74	0xbe74418e	-0.23853132
75	0x3e1fc630	0.15602946
76	0xbe5387e6	-0.2065731
77	0x3dddc948	0.10829407
78	0xbe343b72	-0.17600802
79	0x3e33cfd6	0.17559752
80	0xbe5d7460	-0.21626425
81	0x3da70a90	0.081563115
82	0xbe426d0a	-0.18986908
83	0x3d8dfc6c	0.06932911
84	0xbddf06ac	-0.108899444
85	0xbd0e9c70	-0.03481716
86	0xbe7a08ce	-0.24417421
87	0x3e75b080	0.2399311
88	0xbcd7c0d0	-0.026337057
89	0xbd9895d0	-0.074504495
90	0xbe686900	-0.22696304
91	0x3d8c31f4	0.06845465
92	0xbc832890	-0.016010553
93	0xbdc05998	-0.09392089
94	0xbe576ca0	-0.21037531
95	0xbdaeb0a0	-0.08529782
96	0x3e7e9c9c	0.24864429
97	0x3d82b158	0.06381482
98	0xbe645a34	-0.22300035
99	0xbddc7d58	-0.10766095
100	0x3d046a58	0.03232798
101	0xbe388dba	-0.18022814
102	0x3e217f04	0.15771109
103	0xbe21f4b2	-0.15816
104	0x3c8d9a30	0.017285436
105	0xbb926f00	-0.0044687986
106	0xbe508168	-0.20361865
107	0xbe56c554	-0.20973712
108	0xbdabe190	-0.08392632
109	0xbdb38e10	-0.08767331
110	0xbe06ffe6	-0.13183555
111	0xbdeaa3ec	-0.11457047
112	0xbdd88280	-0.10571766
113	0xbd80f408	-0.06296545
114	0xbe35d7b0	-0.1775806
115	0xbe4adfa6	-0.19811878
116	0xbc4e1600	-0.012578487
117	0xbd8cccf8	-0.06875032
118	0x3c709b80	0.014685512
119	0xbe70682e	-0.23477241
120	0x3e4d54a6	0.20051822
121	0x3e2eecf6	0.17082581
122	0x3e1cc730	0.15310359
123	0x3e5ecdfa	0.21758261
124	0x3d981130	0.07425153
125	0x3e5a3192	0.21307972
126	0x3e44eeae	0.19231674
127	0xbd701208	-0.058610946
128	0x3e2027d4	0.15640193
129	0xbe14c1a0	-0.14526987
130	0xbe069948	-0.1314441
131	0x3e43842e	0.19093391
132	0x3e11d7f4	0.14242536
133	0x3e1e7f22	0.15478185
134	0xbe229cc8	-0.1588012
135	0xbe4b8a7e	-0.1987705
136	0x3e260ca6	0.16215762
137	0x3e2c317a	0.16815749
138	0xbe7d6708	-0.24746335
139	0x3e031dc0	0.12804317
140	0x3d6b9450	0.05751449
141	0x3d36fa98	0.04467258
142	0xbdf12dac	-0.11776289
143	0x3d2fd390	0.04292637
144	0x3d84c3f4	0.064826876
145	0x3e746458	0.23866403
146	0xbe4fbe52	-0.20287445
147	0xbdcd53f4	-0.100257784
148	0x3dc9e1fc	0.09857556
149	0x3e7ba1f6	0.24573502
150	0x3df8abe4	0.121421605
151	0x3df6db58	0.12053555
152	0x3e26803a	0.16259852
153	0x3e0efcea	0.13963667
154	0xbdab5ab8	-0.083669126
155	0x3d43cd68	0.047803313
156	0xbdf4758c	-0.11936483
157	0x3d09c9c8	0.0336397
158	0x3dea44b4	0.11438885
159	0xbd1ed908	-0.038781196
160	0x3e662dee	0.22478458
161	0xbd400d28	-0.046887547
162	0xbdfb2150	-0.12262213
163	0x3dc835e0	0.09775901
164	0x3de12ae8	0.10994512
165	0xbdcfed34	-0.10152665
166	0x3d9f93d0	0.07791865
167	0x3db8af14	0.090177685
168	0xbdff2a18	-0.124592006
169	0xbe0aedfe	-0.1356735
170	0xbd8f7d94	-0.07006374
171	0xbc3f29e0	-0.011667699
172	0xbb961e80	-0.0045812726
173	0x3e072780	0.13198662
174	0x3e504f32	0.2034271
175	0xbcc61f30	-0.024184793
176	0xbe22a8de	-0.1588473
177	0xbe3ac5ca	-0.18239513
178	0xbdbdb7a8	-0.09263545
179	0xbe1679a0	-0.14694834
180	0x3dc65678	0.09684461
181	0x3e5a8eb6	0.21343502
182	0x3d7919b0	0.060815513
183	0x3e1dc61c	0.15407604
184	0xbd5b6e18	-0.05357179
185	0x3e6036de	0.2189593
186	0xbcdb9a10	-0.026806861
187	0xbe2e1d3c	-0.1700334
188	0xbd2df4f8	-0.04246995
189	0xbe2f9404	-0.17146307
190	0xbd751d88	-0.059842616
191	0xbc0c81c0	-0.008575857
192	0x3da93524	0.08262089
193	0x3c9eb610	0.019373924
194	0xbe46a3a6	-0.19398364
195	0xbdd75b2c	-0.105154365
196	0xbe46e050	-0.19421506
197	0x3b49ff80	0.0030822456
198	0xbe270162	-0.16309121
199	0xbdf53d28	-0.11974555
200	0xbe4c5226	-0.19953212
201	0xbe5a551c	-0.21321529
202	0x3d22e538	0.03976938
203	0xbde21318	-0.11038798
204	0xbcff23e0	-0.031145036
205	0xbe244826	-0.16043147
206	0xbe09b9b6	-0.1344975
207	0x3dad8300	0.08472252
208	0x3e33e50c	0.17567843
209	0xbe1a19ca	-0.150489
210	0xbd5af520	-0.053456426
211	0x3e693332	0.22773436
212	0x3dbefbcc	0.0932537
213	0x3e7f6bda	0.24943486
214	0x3e7ace24	0.24492699
215	0x3e5192ae	0.2046611
216	0x3e403c00	0.18772888
217	0xbda7f518	-0.08201045
218	0x3e6ea200	0.23303986
219	0xbd407000	-0.04698181
220	0xbe3d79e4	-0.18503529
221	0xbd23b750	-0.039969742
222	0xbded6be0	-0.11592841
223	0xbda40910	-0.08009541
224	0x3e35a71a	0.17739525
225	0x3d1ebeb8	0.038756102
226	0x3e52a9b8	0.20572555
227	0x3e11accc	0.14226073
228	0xbe5f543e	-0.2180948
229	0x3e1b8ab4	0.1518963
230	0x3d32a9b0	0.043618858
231	0x3e7b7b6a	0.24558797
232	0x3d0e81a8	0.03479162
233	0xbcc029d0	-0.023457438
234	0x3d340310	0.043948233
235	0xbe199d16	-0.1500133
236	0x3e55f1e6	0.20893058
237	0x3d40d0a0	0.04707396
238	0xbd79df08	-0.061003715
239	0x3e70d768	0.23519671
240	0xbd9a2514	-0.07526603
241	0x3d8093b4	0.06278172
242	0x3e3fa706	0.18716058
243	0xbe2c485e	-0.16824481
244	0x3e3da986	0.185217
245	0xbe5d05e8	-0.21584284
246	0xbe762e8e	-0.24041197
247	0xbe585cc6	-0.2112914
248	0xbe5feb36	-0.2186707
249	0xbe25e450	-0.16200376
250	0xbc365380	-0.011128306
251	0x3e0d09ce	0.13773271
252	0x3ca96d80	0.020682096
253	0xbe62cd18	-0.2214855
254	0xbde2e1ac	-0.110782
255	0x3e6eff70	0.23339629

0.bias f4 [16]
0	0x3e53c5d0	0.20680928
1	0xbe72020e	-0.23633596
2	0xbd378840	-0.044807673
3	0xbe4cb59c	-0.19991153
4	0x3e6213fa	0.22077933
5	0xbc8236d0	-0.015895277
6	0xbd14e878	-0.036354512
7	0xbd9b8e9c	-0.0759556
8	0x3e655d60	0.22398901
9	0xbe6bf948	-0.23044312
10	0x3d67b640	0.05657029
11	0x3c2e4c80	0.010638356
12	0xbdaa4d0c	-0.08315477
13	0x3e18533c	0.14875501
14	0xbe0df302	-0.13862231
15	0x3dfd7384	0.123755485

2.weight f4 [32, 16, 4, 4]
0	0x3cf0b5f0	0.02938363
1	0x3c86243c	0.0163747
2	0x3d2594c0	0.040425062
3	0x3c1f9618	0.009740375
4	0x3d19feb4	0.03759642
5	0xbb7f4fc0	-0.0038957447
6	0x3cbd87ec	0.023136102
7	0x3d618304	0.055056587
8	0xbcd76f08	-0.026298061
9	0x3d0260fc	0.031830773
10	0xbd6af4d2	-0.057362385
11	0xbb09fc80	-0.0021055043
12	0xbcee5004	-0.029090889
13	0x3d55b4e4	0.052174464
14	0x3c8681c4	0.016419299
15	0xbd307140	-0.043076754
16	0xbc610540	-0.013734162
17	0xbd6e1710	-0.058127463
18	0xbd1adaba	-0.03780625
19	0x3d45dff2	0.048309274
20	0x3d721f7a	0.05911205
21	0x3d735762	0.059409507
22	0xbb4b8da0	-0.0031059757
23	0x3d410632	0.04712505
24	0xbcc73aac	-0.02431997
25	0x3ad01880	0.0015876442
26	0x3abceac0	0.0014413223
27	0xbca4a32c	-0.020097338
28	0x3d3cf81c	0.046135053
29	0xbd72e8ac	-0.059303924
30	0x3d6d7250	0.057970345
31	0xbd4c934e	-0.04994517
32	0x3cd9b0b4	0.026573516
33	0x3a52e280	0.00080446154
34	0x3d1f3312	0.038867064
35	0x3d1265ca	0.035741605
36	0xba527f00	-0.0008029789
37	0xbc8576d8	-0.01629202
38	0xbc901368	-0.017587379
39	0x3c1088e0	0.008821696
40	0x3c74e888	0.014948018
41	0xbb1ee6a0	-0.002424635
42	0x3bf09050	0.007341422
43	0xbc09a878	-0.0084019825
44	0xbc15f000	-0.009151459
45	0x3bcb89c0	0.0062114894
46	0xbbe4daf0	-0.006984107
47	0xbaf28fc0	-0.0018505976
48	0x3c0485c8	0.008088537
49	0xbd2148f8	-0.03937623
50	0x3d1b88b8	0.037972182
51	0xbc1b56f0	-0.009481177
52	0xbd4d0422	-0.05005277
53	0xbd6cded2	-0.057829686
54	0x3cbd0e4c	0.023078106
55	0x3d38d5de	0.045125835
56	0xbd71647e	-0.058933727
57	0xbcce7ed8	-0.025206968
58	0x3bbcbaf0	0.0057595894
59	0x3b705de0	0.0036677048
60	0xbd54f58e	-0.05199199
61	0x3ccb37ac	0.02480682
62	0xbccd5968	-0.025067046
63	0x3c45b3e0	0.012066811
64	0xbd746726	-0.059668683
65	0x3ca1f48c	0.01976993
66	0x3950b000	0.00019901991
67	0xbd1d136a	-0.038348593
68	0xbbd9c6e0	-0.006646022
69	0xbd4f2782	-0.050574787
70	0x3d4fe142	0.050751932
71	0x3d6c5092	0.057694025
72	0x3d3b3934	0.04570885
73	0x3d697798	0.05699882
74	0xbcbf6b98	-0.023366734
75	0xbb151f60	-0.0022754297
76	0xbb5fa800	-0.0034127235
77	0x3cd09ea8	0.025466278
78	0x3ba7d980	0.0051223636
79	0x3d55959a	0.052144624
80	0xbc0e6150	-0.008690193
81	0x3d543344	0.051806703
82	0xbd12fc32	-0.035885043
83	0x3c9e504c	0.019325398
84	0x3c95f2bc	0.018304221
85	0x3ce84b98	0.028356358
86	0x3d17bfe4	0.037048236
87	0xbd5b899c	-0.05359803
88	0x3d407ed0	0.046995938
89	0xbd436094	-0.047699526
90	0x3d31387e	0.043266766
91	0x3c8b76b8	0.017024383
92	0xbd2b0306	-0.04175093
93	0x3d4f5b46	0.050624155
94	0xbd57957a	-0.052632786
95	0x3ce2b68c	0.027674936
96	0x3d0d5a24	0.034509793
97	0xbccfd21c	-0.025368743
98	0x3d1f4b64	0.038890257
99	0xbd583584	-0.05278541
100	0x3cbc4678	0.02298282
101	0x3ade8040	0.0016975477
102	0xbd790ab0	-0.060801208
103	0x3ab76580	0.0013992041
104	0x3d513ea6	0.051085137
105	0x3d151bc8	0.036403447
106	0x3d04236e	0.03226035
107	0xbd21aa10	-0.039468825
108	0x3d504bee	0.050853662
109	0x3d0c8926	0.034310482
110	0x3c93c50c	0.018038295
111	0x3d312386	0.04324677
112	0xbd4cd118	-0.050004095
113	0x3d3b0ae2	0.045664676
114	0x3ca961e0	0.020676553
115	0xbd225f52	-0.039641686
116	0x3d3af778	0.04564616
117	0x3c3f3a88	0.01167167
118	0x3d4a2518	0.04935178
119	0x3cd9990c	0.026562236
120	0xbd71bc40	-0.05901742
121	0xbd7b1412	-0.061298437
122	0xbcfa9e5c	-0.03059309
123	0x3cbbb258	0.02291219
124	0xbd385736	-0.045005046
125	0xbd4bb294	-0.049730852
126	0xbd524546	-0.051335596
127	0x3cf01f78	0.02931188
128	0xbd0d3a2c	-0.034479305
129	0xbc17d4a8	-0.00926701
130	0x3d79a056	0.060943924
131	0xbd56f6a8	-0.052481323
132	0x3d3b4098	0.0457159
133	0xbd32e11e	-0.04367172
134	0xbbf46890	-0.007458754
135	0x3d6438be	0.055718176
136	0x3ca7f598	0.02050285
137	0x3d6e3c5a	0.058163024
138	0xbd2b39c4	-0.041803136
139	0xbc5546a0	-0.013017327
140	0x3c8b4894	0.017002381
141	0x3d1580a0	0.03649962
142	0x3ce6f160	0.028191268
143	0xbcd31fa0	-0.025771916
144	0xbbf40d70	-0.007447891
145	0x3b44eba0	0.003004767
146	0x3d214204	0.039369598
147	0xbd38d6ce	-0.04512673
148	0x3d429d16	0.04751309
149	0xbc1bd708	-0.009511717
150	0x3d5df39a	0.054187395
151	0x3d5228ea	0.05130855
152	0xbd4672ea	-0.048449434
153	0xbd655d12	-0.055996962
154	0x3c7825b0	0.015145704
155	0xbcf07418	-0.029352233
156	0xbc6f5740	-0.014608204
157	0x3b5641c0	0.0032692999
158	0x3cd65654	0.026164211
159	0x3c63b608	0.01389838
160	0xbd57e4f8	-0.052708596
161	0xbb2e4620	-0.002659209
162	0xbce41e38	-0.02784644
163	0x3bd12a40	0.0063832104
164	0x3b8b2800	0.0042467117
165	0xbcec009c	-0.028808884
166	0x3ceedb7c	0.029157393
167	0xbccede24	-0.02525241
168	0x3cc7bd18	0.02438216
169	0xbc1c4588	-0.009538062
170	0x3d063022	0.032760747
171	0x3d216a74	0.039408162
172	0xbd4347cc	-0.047675893
173	0xbbd320e0	-0.006443128
174	0x3d40be52	0.047056504
175	0xbd68be3c	-0.056822047
176	0x3adccc80	0.0016845614
177	0x3d049106	0.032364868
178	0x3cf5bc58	0.029997036
179	0x3d455c5e	0.04818379
180	0xbbebf970	-0.007201366
181	0xbba5e510	-0.005062707
182	0xbb970b70	-0.0046095178
183	0xbcda1b58	-0.026624367
184	0x3d3bb972	0.04583115
185	0xbb1db9a0	-0.002406694
186	0xbd7ef636	-0.062246524
187	0xbd4d57e4	-0.050132647
188	0xbd54eda4	-0.051984444
189	0xbc7f1ab8	-0.015570335
190	0x3d170b96	0.036876284
191	0xbc89ba64	-0.01681251
192	0xbcaab344	-0.020837434
193	0xbd7cb36c	-0.061694548
194	0x3d11b75e	0.035575263
195	0xbd244890	-0.040108263
196	0xbc00f768	-0.007871486
197	0x3ce5c444	0.028047688
198	0x3bf3f100	0.007444501
199	0xbcecb6f4	-0.028895833
200	0x3cdb793c	0.026791207
201	0xbd4a3950	-0.049371064
202	0xbcb90b40	-0.022588372
203	0xbd4dd042	-0.05024744
204	0xbc0609a8	-0.008181013
205	0x3cb186ac	0.021670662
206	0x3d78601c	0.060638532
207	0x3c41c610	0.011827007
208	0xbcbf0d2c	-0.02332171
209	0x3d17c9da	0.037057735
210	0x3c11bb38	0.008894734
211	0x3d1acb96	0.03779181
212	0xbd0bbba8	-0.03411451
213	0x3d21efaa	0.039535202
214	0xbd685b66	-0.05672779
215	0xbd2ae550	-0.041722596
216	0xbd754a7a	-0.05988548
217	0xbc4d3600	-0.012525082
218	0xbbb0ba30	-0.005393289
219	0xbc835070	-0.016029567
220	0xbd242748	-0.040076524
221	0xbd0e624e	-0.03476172
222	0x3cc1a324	0.023637362
223	0x3d00b804	0.03142549
224	0x3d69251e	0.056920163
225	0xbd6dc2ac	-0.05804698
226	0xbd069e8c	-0.032866046
227	0xbb54bdc0	-0.0032461733
228	0xbd0d4b0c	-0.0344954
229	0x3d3ee38e	0.04660373
230	0xbc3cde98	-0.01152768
231	0xbd197422	-0.03746427
232	0xbd26f760	-0.04076326
233	0x3d51e8b2	0.051247306
234	0xbd387526	-0.045033596
235	0x3c7a4e00	0.015277386
236	0xbd4468f2	-0.047951646
237	0xbc428a88	-0.011873849
238	0x3d060c94	0.03272684
239	0xbb383a20	-0.0028110817
240	0x3cc647a0	0.024204075
241	0x3bd3fbc0	0.00646922
242	0x3cdcb078	0.026939616
243	0xbd622148	-0.05520752
244	0x3c5846b0	0.013200447
245	0xbd54e372	-0.05197472
246	0x3d0bfce8	0.034176737
247	0x3c1ff3e0	0.009762734
248	0x3d604016	0.054748617
249	0xbc506fd0	-0.012721971
250	0x3d643aa0	0.05571997
251	0x3cc55d8c	0.024092458
252	0xbd300846	-0.04297664
253	0xbc812fd8	-0.015769884
254	0xbcca3170	-0.024681777
255	0x3d48007e	0.048828594

2.bias f4 [32]
0	0x3be21a20	0.006900087
1	0xbd70d9f0	-0.05880159
2	0xbd47144e	-0.04860335
3	0x3d0e3ea8	0.034727722
4	0x3ab3ab40	0.0013707653
5	0x3d5feae2	0.05466736
6	0x3d32af60	0.043624282
7	0xbc26df48	-0.01018507
8	0x3d4b4e10	0.049634993
9	0x3b8a9f50	0.0042304173
10	0x3cadd23c	0.021218412
11	0x3ca68d3c	0.020331018
12	0x3d4be762	0.04978121
13	0xbcbe1ebc	-0.023208015
14	0x3cda65c0	0.026659846
15	0xbd3e6102	-0.046479233
16	0xbd2c7398	-0.042102426
17	0xbd52e586	-0.05148842
18	0x3c741a28	0.014898814
19	0x3d1d8370	0.038455427
20	0x3d25089e	0.04029142
21	0xbbcac540	-0.006188065
22	0x3d690a6a	0.056894697
23	0x3d1589c4	0.036508337
24	0xbce04520	-0.027376711
25	0x3ccfe7e8	0.025379136
26	0xbd3058c8	-0.04305342
27	0xbcae7a98	-0.021298692
28	0xbc466580	-0.01210916
29	0x3d3e5f6e	0.046477728
30	0xbc5e34a0	-0.013562351
31	0x3c95b100	0.018272877

5.weight f4 [100, 1568]
0	0x3cb974d3	0.022638714
1	0xbc6279bb	-0.013822968
2	0xbc5c4b7a	-0.013445729
3	0xbc7fdb50	-0.015616253
4	0xbb79d677	-0.0038122216
5	0x3c149c13	0.009070414
6	0x3cbc5920	0.022991717
7	0xbc8ca679	-0.017169224
8	0x3c819b9e	0.015821274
9	0xbc05ad54	-0.008159
10	0x3c1a96c2	0.0094353575
11	0x3c1e1b7d	0.009650108
12	0xbcc55049	-0.024086135
13	0xbc2c64c8	-0.010522075
14	0xbc965f61	-0.018356027
15	0x3ccc5ace	0.024945643
16	0xba66cea7	-0.00088045973
17	0x3cae1c99	0.02125387
18	0x3caad7d4	0.020854868
19	0x3c97415d	0.018463785
20	0x3ae70f4d	0.0017628461
21	0xbb0c9b86	-0.0021455004
22	0x3c8ca446	0.017168175
23	0x3ca3687d	0.019947285
24	0x3ba80274	0.0051272456
25	0x3c434bf6	0.011919966
26	0x3c33d66f	0.010976418
27	0x3bc8e51d	0.006130828
28	0xbbf0642f	-0.0073361616
29	0xbc901047	-0.017585887
30	0x3cce0dfc	0.025153153
31	0xbca649c7	-0.020298852
32	0xbc314bd9	-0.010821306
33	0x3c3e3df1	0.011611448
34	0x3cc19547	0.023630751
35	0xbc75c769	-0.015001156
36	0xbaf4da98	-0.0018680869
37	0xbc46bb4f	-0.012129619
38	0xbcbf4e24	-0.02335269
39	0xbad93a50	-0.0016573165
40	0x3c49f5b4	0.012326647
41	0xbbee2377	-0.0072674113
42	0x3ccae1dd	0.024765903
43	0xbc9f8d37	-0.019476516
44	0xbbdfc668	-0.006829072
45	0xbc9370d3	-0.017998135
46	0x3c9ec844	0.019382603
47	0xbbe2702f	-0.006910346
48	0x3b74acc8	0.003733443
49	0xbc9405c8	-0.018069163
50	0xbb3430c5	-0.002749489
51	0xbc4b8007	-0.012420661
52	0x3b70bc66	0.0036733388
53	0x3b538b3d	0.0032279037
54	0xbc0aaeec	-0.008464556
55	0xbbecc4b7	-0.0072255987
56	0x38f533b0	0.00011692138
57	0xbc8d025d	-0.017213041
58	0x3bb30ce9	0.0054641855
59	0xbc85e8ff	-0.016346453
60	0x3c728d2b	0.014804165
61	0xbc8be7cc	-0.017078303
62	0x397a48c4	0.00023868965
63	0x3c88e52f	0.016710846
64	0x3b97dc2d	0.0046344013
65	0xbc3c429b	-0.011490489
66	0xbc40820c	-0.011749756
67	0xbb5b23d5	-0.0033438106
68	0xbbd8e555	-0.0066191354
69	0xb990932e	-0.00027575478
70	0x3c1ea6f0	0.009683356
71	0xbc16170c	-0.009160768
72	0x3c25727f	0.010098099
73	0x3b9d1ff9	0.004795071
74	0x3b40e5f7	0.0029433945
75	0x38be00de	9.0600675e-05
76	0x3ba5727c	0.005049048
77	0xbcc9ef4a	-0.024650235
78	0xbc8b4d05	-0.0170045
79	0x3c97b69e	0.018519696
80	0x3cc8bd2e	0.02450427
81	0x3ca7eba4	0.020498104
82	0x3cb7ecd0	0.022451788
83	0x3cc9e73a	0.02464639
84	0x3c1ac6d4	0.009446818
85	0xbcbb3299	-0.022851275
86	0x3c3d775c	0.011564102
87	0xbb784131	-0.0037880654
88	0x3c677a10	0.014128223
89	0xbbb1f9d8	-0.005431395
90	0xbc213653	-0.009839612
91	0xbc8b3080	-0.0169909
92	0xbcbdd2b0	-0.023171753
93	0xbb5da6f2	-0.003382143
94	0x3c54001d	0.01293948
95	0x3cadb48a	0.021204252
96	0x3cc7a32f	0.024369804
97	0xbcc6dc53	-0.02427498
98	0x398cb672	0.00026838813
99	0xbcbe4e81	-0.023230793
100	0x3c955a6d	0.018231595
101	0x3bd066e1	0.0063599204
102	0xbc975979	-0.018475281
103	0xbbe90ed1	-0.007112362
104	0xbc6f3985	-0.014601116
105	0xbc98ade9	-0.018637614
106	0x3c38bd0b	0.01127554
107	0x3b989db2	0.0046574706
108	0xbb4089a3	-0.0029378913
109	0xbc7da97b	-0.015482302
110	0x3b31b9ba	0.0027118758
111	0x3c9407f3	0.018070197
112	0xbb625f7e	-0.003454178
113	0x3c1d8a2a	0.00961546
114	0xbbb0a711	-0.0053910096
115	0x3c416840	0.01180464
116	0x391fffaa	0.00015258664
117	0x3c82156f	0.015879361
118	0xbb13ebf1	-0.0022571052
119	0x3b0aa38f	0.0021154617
120	0x3c8f56a2	0.017497364
121	0xbc848d41	-0.016180636
122	0xbb947d54	-0.004531542
123	0x3cb9475a	0.02261703
124	0x3b1f1755	0.0024275382
125	0xbc085094	-0.008319993
126	0x3c1117dd	0.008855787
127	0xbc6f704c	-0.014614176
128	0x3c8121f8	0.015763268
129	0x3c97653b	0.018480888
130	0xbca1ca19	-0.019749688
131	0x3c5c8c7b	0.0134612275
132	0x3aee5ac5	0.001818501
133	0xbc90f8aa	-0.017696697
134	0xbbae822c	-0.0053255763
135	0x3ab59a0c	0.0013855114
136	0x3c36a2ec	0.011147242
137	0xbc8763a9	-0.016527014
138	0x3a6e6868	0.0009094537
139	0x3c8fffc6	0.017578017
140	0x39d3f0e9	0.00040424548
141	0xbcc886f9	-0.024478422
142	0x3c35aaf2	0.01108812
143	0x3c09784a	0.008390496
144	0xbc7a840c	-0.0152902715
145	0x3ba3148b	0.004976814
146	0x3b5e735a	0.0033943267
147	0x3c8d3530	0.017237276
148	0x3c3b75f3	0.0114416955
149	0x3c70e864	0.014703844
150	0xbcc7e7ff	-0.024402617
151	0xbcbcd13d	-0.023048991
152	0xbc57bf00	-0.013168097
153	0xbc111ed9	-0.008857452
154	0xbb1e4f45	-0.0024156135
155	0x3cb9cec5	0.022681603
156	0x3bd23971	0.006415539
157	0x3a446e00	0.0007493198
158	0x3c690edb	0.014224733
159	0xbc32ac19	-0.010905289
160	0xbc9be85d	-0.019031698
161	0xbba157cd	-0.0049237967
162	0xbc851eca	-0.016250033
163	0xbcafbbf5	-0.02145193
164	0xbb36bf3f	-0.0027884988
165	0xbcae05e8	-0.02124305
166	0x3c4acf78	0.012378566
167	0x3c7cc066	0.015426731
168	0x3ca90ea9	0.020636873
169	0xbc905130	-0.017616838
170	0x39b79e70	0.00035022525
171	0x3ca45252	0.020058785
172	0xbcb77301	-0.022393705
173	0xbbf9e0f9	-0.007625696
174	0xbcc378fd	-0.023861403
175	0xbca3db63	-0.020002073
176	0x3c5d4434	0.01350503
177	0x3c6df2b6	0.014523199
178	0xbaa47879	-0.0012548111
179	0x3c42e0f9	0.011894458
180	0xbca7d689	-0.02048804
181	0xbba9cc27	-0.0051818076
182	0xbc216dfc	-0.0098528825
183	0xbbc950c5	-0.0061436617
184	0xbbfc5487	-0.007700506
185	0x3c149a5c	0.009070005
186	0xbc5a4f25	-0.013324534
187	0xbc440b45	-0.0119655775
188	0x3ab1fc8c	0.0013579293
189	0x3c812559	0.015764879
190	0x3bc73752	0.0060795927
191	0xbca18ddd	-0.019720966
192	0x3ca5d202	0.020241741
193	0xb9ca5564	-0.00038592063
194	0xbc0030d3	-0.007824141
195	0x3ccbb6d8	0.02486746
196	0xbc7c88aa	-0.015413443
197	0xbc7dfc39	-0.015502029
198	0x3cac02e8	0.02099748
199	0xbab9be34	-0.0014171065
200	0xbc432c5e	-0.011912433
201	0x3c09d635	0.008412887
202	0xbb28bb96	-0.0025746576
203	0xbb2b689f	-0.0026154888
204	0x3c950bfd	0.018194193
205	0xbc127071	-0.008937941
206	0x3c4f1ec8	0.012641616
207	0xbc82d2f7	-0.015969737
208	0x3b337329	0.0027381873
209	0x3c884fec	0.016639672
210	0xbc463dd0	-0.012099698
211	0x3cc016d8	0.023448393
212	0x3ca2b1cd	0.019860173
213	0xbc4c15cf	-0.012456371
214	0xbab115ee	-0.0013510564
215	0xbb9354ac	-0.0044961777
216	0xbbdb7a06	-0.006697896
217	0x3c2ec9ff	0.010668277
218	0xbcb90498	-0.022585198
219	0xbadffae3	-0.001708832
220	0x3c99907c	0.018745653
221	0x3ca09d6b	0.019606313
222	0xbbe6d6c8	-0.007044647
223	0xbc932691	-0.017962726
224	0x3cca17b4	0.024669506
225	0xbc5e1f3e	-0.013557253
226	0x3c939782	0.01801658
227	0x3c8956d2	0.016765032
228	0x3ca1e950	0.019764572
229	0xbc3e114b	-0.011600803
230	0xbbd7010a	-0.006561403
231	0xbcc8549e	-0.024454411
232	0x3ca62acb	0.020284077
233	0xbc1eeb5a	-0.009699667
234	0x3ccaec07	0.02477075
235	0x3c069a1c	0.0082154535
236	0x3c530442	0.012879433
237	0xbb464509	-0.003025355
238	0xbc333044	-0.0109368
239	0x3aab2fda	0.0013060526
240	0xbcc8e1b9	-0.024521695
241	0xbc755179	-0.014973038
242	0xbc3c0d3b	-0.011477764
243	0xbcac6fbe	-0.021049377
244	0xbb7281c1	-0.003700361
245	0x3c0683e6	0.008210158
246	0x3c8f15e8	0.0174665
247	0x3c620f6d	0.013797623
248	0xbc8667ec	-0.016406976
249	0x3cccaa9d	0.024983699
250	0xbc683d36	-0.01417475
251	0xbc958c0b	-0.018255254
252	0xbbe17c96	-0.006881307
253	0xbc1db6e0	-0.00962612
254	0x3c414810	0.011796966
255	0x3c213f78	0.009841792

5.bias f4 [100]
0	0xb94f461a	-0.00019767173
1	0xbc7eb271	-0.015545473
2	0x3b08055f	0.0020755155
3	0x3c960245	0.01831163
4	0xbc183185	-0.00928915
5	0xbc66bc0d	-0.014082921
6	0x3ccb7e41	0.024840476
7	0x3c4667a5	0.012109672
8	0x3c256e82	0.010097148
9	0xba48b83d	-0.0007656848
10	0x3c931233	0.017953014
11	0xbb975c71	-0.004619174
12	0x3b127b7d	0.0022351437
13	0x3cbfbc4a	0.023405213
14	0x3c53e527	0.012933052
15	0xbb9a9b5e	-0.0047182282
16	0xbcc2cf58	-0.02378051
17	0x39bed971	0.0003640163
18	0xb9c37eff	-0.00037287918
19	0xbab02467	-0.0013438583
20	0x3c87b24d	0.016564513
21	0x3c4934ad	0.012280625
22	0xbc6415d9	-0.0139212245
23	0x3cbc9762	0.023021404
24	0xbb5f7abf	-0.0034100262
25	0x3cb705d8	0.022341654
26	0xbc942189	-0.018082397
27	0xbcb5cf1b	-0.022193482
28	0xbcb71e9e	-0.022353467
29	0x3cb1bb6b	0.021695813
30	0x3c1a61a3	0.0094226925
31	0xbc9ade85	-0.018904934
32	0x3c879e66	0.016555022
33	0x3b4f8810	0.0031666793
34	0x3ba87bbf	0.005141705
35	0xbc5cdadb	-0.013479914
36	0xbc302d71	-0.010753022
37	0x39ecf67d	0.00045197076
38	0xbc5fbdf6	-0.01365613
39	0xbc2dede5	-0.0106158005
40	0x3c746176	0.014915815
41	0xba8ab5e4	-0.0010582772
42	0xba3ba704	-0.0007158371
43	0x3a619b45	0.0008606206
44	0x3c81cc95	0.015844623
45	0xbcc337bf	-0.023830293
46	0xbbed4f28	-0.007242102
47	0xba416c10	-0.0007378468
48	0xbcb81419	-0.02247052
49	0x3c8aaf10	0.01692918
50	0xbcc023ef	-0.023454634
51	0x3c6d2bf0	0.014475808
52	0xbc2e2d38	-0.010630898
53	0x3ad20647	0.0016023599
54	0x3bfb1c71	0.0076633026
55	0x3b65b258	0.0035048928
56	0xbbfdb5ad	-0.0077426047
57	0xbb763cc0	-0.003757283
58	0x3b2ac700	0.0026058555
59	0xbcba88aa	-0.022770245
60	0xbc9fde70	-0.019515246
61	0x3af01cb1	0.0018319098
62	0x3ac2cb7e	0.0014861671
63	0xbc7f232d	-0.015572351
64	0xbc7b076e	-0.015321596
65	0x3cb8f895	0.02257947
66	0xbcc40ad1	-0.023930939
67	0xbcc68a27	-0.024235798
68	0x3cc1d5e7	0.023661567
69	0xbc9fb23e	-0.019494172
70	0x3b606d70	0.0034244917
71	0x3c778f95	0.015109916
72	0xbbcfd4c3	-0.006342502
73	0xbb556b02	-0.0032565002
74	0xbc3ab612	-0.011395948
75	0x3b69b77d	0.0035662346
76	0xbbd830e5	-0.0065976256
77	0x3cce227a	0.025162924
78	0x3c33086a	0.010927299
79	0x3ba67665	0.0050800317
80	0xbc1a5759	-0.009420239
81	0x3caae038	0.020858869
82	0xbbea8ea6	-0.0071581183
83	0xbc15ce1a	-0.009143377
84	0xbcb0e1ae	-0.021591987
85	0x3cc7e555	0.024401346
86	0xbb092a2a	-0.0020929673
87	0x3c273498	0.01020541
88	0xbc6a4b18	-0.01430013
89	0xbc326056	-0.010887226
90	0x3bb72532	0.005589151
91	0xbbee365b	-0.0072696633
92	0x3bbec88c	0.005822247
93	0xbcced736	-0.025249105
94	0x3c92afa2	0.017906014
95	0x3c187372	0.009304868
96	0x3c93f223	0.018059796
97	0xbbeb522a	-0.0071814256
98	0xbc92935b	-0.01789253
99	0x3b065f7b	0.0020503688

7.weight f4 [10, 100]
0	0xbccf446d	-0.025301183
1	0xbda3ec2a	-0.08004029
2	0x3d995c18	0.074882686
3	0x3dae4d37	0.08510821
4	0x3d866477	0.06562131
5	0xbc98f6ad	-0.018672312
6	0xbb7a3b00	-0.003818214
7	0x3da5fdc5	0.08105043
8	0x3c09ef67	0.008418894
9	0x3cdd381a	0.02700429
10	0xbd57cb60	-0.052684188
11	0xbd181a6a	-0.037134565
12	0xbd3d5c2d	-0.046230484
13	0x3d82bd45	0.063837565
14	0xbd3f7e20	-0.04675114
15	0xbcb22e40	-0.02175057
16	0x3d0142da	0.031557895
17	0x3db54190	0.08850396
18	0x3db1f9a3	0.086901926
19	0xbcd5abc7	-0.026082886
20	0xbd49b96a	-0.04924909
21	0xbd5f3f5a	-0.054503776
22	0x3c1b8533	0.009492206
23	0x3c605d5a	0.013694132
24	0x3cd0d33a	0.025491346
25	0x3dcca5b8	0.09992546
26	0xbdc6af5f	-0.09701418
27	0xbbeb851a	-0.007187498
28	0xbbace667	-0.0052764895
29	0xbd2f10a7	-0.04274049
30	0x3d724a3a	0.05915282
31	0xbd8e997f	-0.06962871
32	0x3d8e032f	0.06934201
33	0x3d81fc97	0.06347006
34	0xbc936ac7	-0.017995251
35	0x3d4df8ea	0.05028621
36	0xbd93792a	-0.072008446
37	0xbcc8cb53	-0.024511015
38	0xbcf7b320	-0.03023678
39	0x3c220cf3	0.009890783
40	0xbd1c951a	-0.03822813
41	0x3dbf0445	0.09326986
42	0xbda9115d	-0.08255265
43	0xbdbe1ca5	-0.09282807
44	0x3db0bcd3	0.08629765
45	0x3be979cd	0.0071251155
46	0x3d0104b0	0.03149861
47	0xbc9fc507	-0.01950313
48	0xbb10bf33	-0.002208662
49	0xbbd52980	-0.0065051913
50	0xbdc9d988	-0.09855944
51	0xbd978a6f	-0.07399451
52	0x3da36eaf	0.079800956
53	0xbdbf03b5	-0.09326879
54	0x3d9634b2	0.073342696
55	0x3c3f0f40	0.011661351
56	0x3d89bdca	0.067256525
57	0xbdc35520	-0.09537721
58	0x3a83439a	0.0010014654
59	0xbb265400	-0.0025379658
60	0xbc4b61da	-0.012413466
61	0x3d8f6f57	0.07003658
62	0xbc9cf9da	-0.019162107
63	0xbd829ccf	-0.06377565
64	0x3dc5c85a	0.09657355
65	0xbcc7cae0	-0.02438873
66	0xbd2c9e0d	-0.042142916
67	0x3dc72503	0.09723856
68	0x3c0bc78d	0.008531463
69	0x3d7992b0	0.060930908
70	0xbcde3c6d	-0.027128423
71	0x3d299b37	0.04140779
72	0x3d3a4c5a	0.04548297
73	0x3d9bf750	0.076155305
74	0x3dc04eed	0.09390054
75	0xbd581823	-0.052757394
76	0x3dc9e3fd	0.098579384
77	0x3d75dc30	0.06002444
78	0xbd843105	-0.06454662
79	0xbdaebaca	-0.08531721
80	0xbd89a8cb	-0.06721648
81	0x3c98515a	0.018593479
82	0xbd5654ad	-0.052326847
83	0xbd4c5ed0	-0.049895108
84	0xbceaa413	-0.02864269
85	0x3dbc4383	0.09192564
86	0x3c1468cd	0.00905819
87	0x3d6c9633	0.05776043
88	0x3a9d50cd	0.001200223
89	0x3da4fae0	0.08055663
90	0xbd142ce7	-0.036175635
91	0xbcb990b3	-0.022652006
92	0xbd196683	-0.03745128
93	0xbd44a5c3	-0.048009645
94	0xbd00980d	-0.031395007
95	0x3be450e7	0.006967652
96	0xbd9a5832	-0.07536353
97	0xbd923de8	-0.07140714
98	0x3c6db127	0.014507568
99	0xbd8e0c30	-0.06935918
100	0x3b9c0c33	0.0047621964
101	0x3d49f7b7	0.049308505
102	0xbdbdf762	-0.092757
103	0x3d016a0a	0.031595267
104	0xbdc5f598	-0.09665984
105	0x3d0c45c0	0.034246206
106	0x3be23500	0.0069032907
107	0x3d8f293d	0.069902875
108	0x3ce831c0	0.028344035
109	0x3d75f1d3	0.060045075
110	0xbc1e19da	-0.009649718
111	0x3dc9f0c3	0.09860375
112	0x3d5daa0a	0.05411724
113	0xbc19d173	-0.0093883155
114	0x3c939ae0	0.018018186
115	0xbd65099d	-0.05591737
116	0x3c8323cd	0.016008282
117	0xbd9f6f5f	-0.07784914
118	0x3d68ba27	0.056818154
119	0xbbee1e00	-0.00726676
120	0xbd5a30e3	-0.05326928
121	0xbd2e5cad	-0.04256885
122	0x3babc44d	0.0052419067
123	0x3cf6857a	0.030092943
124	0xbdc375bb	-0.0954394
125	0xbdae06ed	-0.08497415
126	0x3cb6f5c7	0.022333993
127	0xbd0722a0	-0.032992005
128	0x3c66155a	0.014043177
129	0x3cb5de73	0.022200799
130	0xbc4e874d	-0.0126055
131	0x3d55d337	0.052203383
132	0xbdbe751f	-0.09299683
133	0xbd943e05	-0.07238392
134	0xbccd38ad	-0.02505144
135	0xbae6499a	-0.0017569542
136	0x3d37e683	0.044897567
137	0xbcf10f4d	-0.029426241
138	0x3dbbf3d7	0.09177368
139	0xbdcb5357	-0.09928005
140	0x3da73048	0.08163506
141	0xbcc9c1a0	-0.02462846
142	0x3db0e515	0.08637444
143	0x3b61b833	0.0034442067
144	0x3da2ad02	0.07943155
145	0x3c93c180	0.018036604
146	0x3d3abea3	0.04559196
147	0xbdc142b3	-0.0943655
148	0xbd9c6575	-0.07636539
149	0x3cfdbfc7	0.030975236
150	0xbd6ec25a	-0.058290817
151	0x39ac7e67	0.00032900574
152	0x3bc1284d	0.005894697
153	0x3d391857	0.045189228
154	0xbdaa8e82	-0.083279625
155	0xbdcc6827	-0.09980803
156	0x3dabec2f	0.08394658
157	0xbb1d5e67	-0.0024012567
158	0x3cc0a300	0.023515224
159	0xbd9a6df3	-0.075405024
160	0x3d366af7	0.044535603
161	0x3c3fc8cd	0.0117055895
162	0xbd974ffa	-0.07388301
163	0x3d7d64d7	0.061863746
164	0xbdca38b3	-0.09874096
165	0xbd321880	-0.043480396
166	0x3a1124cd	0.0005536795
167	0x3c419db3	0.011817384
168	0xbda27308	-0.07932097
169	0x3db36c4a	0.08760889
170	0x3d8151ad	0.063144065
171	0x3d9f0ea3	0.077664636
172	0xbd60fc2a	-0.054927982
173	0xbd632db0	-0.055463493
174	0xbd52c99a	-0.051461793
175	0xbd24b977	-0.040215936
176	0x3cf7698d	0.030201698
177	0x3d45e190	0.048310816
178	0x3d789fed	0.060699392
179	0x3beb4280	0.0071795583
180	0x3bc8959a	0.0061213495
181	0xbd8b5cd0	-0.06804812
182	0xbd8bf31d	-0.068334796
183	0xbd651497	-0.05592784
184	0x3c96f73a	0.018428434
185	0xbda3ee50	-0.08004439
186	0xbccfdda7	-0.025374247
187	0x3d014dda	0.031568386
188	0xbdc72db5	-0.09725515
189	0xbdc195aa	-0.09452374
190	0x3dc7469b	0.09730264
191	0xbd5908a7	-0.052986767
192	0xbcc02673	-0.023455834
193	0x3d851688	0.06498438
194	0xb9c27e67	-0.0003709674
195	0xbd53db10	-0.051722586
196	0x3c6118a7	0.013738788
197	0x3d8ee4b8	0.069772184
198	0x3d721cb0	0.05910939
199	0xbd699e9d	-0.05703603
200	0x3db7b790	0.08970559
201	0xbd81d757	-0.06339901
202	0x3dc56f2a	0.096403435
203	0xbd8db5b2	-0.06919421
204	0x3c76901a	0.015049005
205	0xbc936947	-0.017994536
206	0xbd8d4d4a	-0.06899507
207	0xbc8eea20	-0.017445624
208	0x3da3dc62	0.08001019
209	0x3c0d444d	0.008622241
210	0xbd05bf2a	-0.03265301
211	0x3c284bcd	0.010271979
212	0x3c9733b3	0.01845727
213	0x3bc04d4d	0.00586859
214	0xbdb34d5b	-0.08754989
215	0xbc77324d	-0.015087676
216	0x3d1e5040	0.03865075
217	0xbd202290	-0.03909546
218	0xb97b7ccd	-0.00023983717
219	0x3d15a0ad	0.036530185
220	0x3d955de2	0.07293297
221	0xbd0f1c20	-0.03493893
222	0xbd208a4d	-0.039194394
223	0x3b156000	0.0022792816
224	0x3d8cccba	0.06874986
225	0xbd0b429a	-0.033999063
226	0x3dc60a7d	0.09669969
227	0x3dc9eb2f	0.09859311
228	0xbd1f80ca	-0.038941182
229	0xbdbfcd37	-0.093653135
230	0x3d4ff3c7	0.050769594
231	0x3d053fcd	0.03253155
232	0xbd14f197	-0.03636321
233	0x3d871890	0.06596482
234	0xbbd42967	-0.006474662
235	0xbd80be3d	-0.06286285
236	0xbda15835	-0.07878152
237	0x3b90abe7	0.0044150236
238	0xbc3d9d8d	-0.011573208
239	0x3d11f193	0.035630774
240	0xbc7e8bf3	-0.015536296
241	0xba842333	-0.0010081291
242	0x3c6c20f3	0.014412153
243	0x3c7dd85a	0.015493477
244	0xbd68a0d7	-0.056794014
245	0xbd64e873	-0.055885743
246	0xbdbdb4ca	-0.092629984
247	0xbd164917	-0.036690798
248	0x3c8eaded	0.017416919
249	0x3c9b2fda	0.018943716
250	0xbdc2c12a	-0.09509499
251	0xbc85387a	-0.016262282
252	0x3ccd544d	0.025064612
253	0x3c4dc55a	0.012559259
254	0x3c027c27	0.007964171
255	0xbdc82485	-0.097725905

7.bias f4 [10]
0	0xbc8c8b6d	-0.017156327
1	0x3d847065	0.0646675
2	0xbade5400	-0.001696229
3	0x3d7373b7	0.059436526
4	0x3dbe33a2	0.09287192
5	0xbdba32a2	-0.09091689
6	0xbc7aac5a	-0.015299881
7	0x3d451c10	0.048122466
8	0x3d26d60a	0.040731467
9	0xbd41ccba	-0.047314383
