src/example/onnx/cifar_relu.onnx (onnx, 1243 bytes, 4 tensors)

0.weight f4 [2, 3, 5, 5]
00000000: c478 7fbd 1774 8e3d b89c 11bd 4663 66bc
00000010: cc9c 473d bd99 6e3d dc5f 413d a902 833d
00000020: 1b9e bebb 9893 ccbd 27c4 fabb 0ec6 a73d
00000030: 5cd2 3dbd 8820 87bd 8200 abbd 0858 cfbd
00000040: 45ff cf3d 55c4 2dbd 60f9 d6bd 2aed d5bc
00000050: 5f93 8b3c e56d 833d ce26 c2bd de42 e2bd
00000060: 682f 2d3d 4b71 c63d 31b2 893d 13fe d83c
00000070: fa4f febb b86e ad3d 13ed b6bd 6528 7b3d
00000080: a08c 4e3c b7b1 93bc 2b80 b23d b17b 8ebc
00000090: 42e3 c33c 2fcd 313d 8ca1 d03d 93e8 05bd
000000a0: 0416 14bd 5c53 f3bb 00cf acbb 9714 d63d
000000b0: 7312 803b 0d39 763d 6cc6 383d b9bf 4dbd
000000c0: ac97 c4bd 80dc 88bd 7592 91bc 7ed7 7bbc
000000d0: 2c94 bf3b b256 bbbc 3bd2 7d3d 945d 7d3d
000000e0: e853 e53d fbe2 30bd d95a 79bb 402e a6bd
000000f0: c2f0 9abd 5600 fdbc 18d8 913d 266f d8bc
00000100: 9837 13bd 7c2d cd3d 6305 aebb 51e9 a1bd
00000110: 502a 54bd 7d0d de3d 7275 16bd 1e89 5cbc
00000120: b7ee 26bd a0f4 333c 6467 9d3d 8cef b43d
00000130: a817 433d 38b7 67bc 62aa 09bd c593 dcbd
00000140: e6a6 013d cb7f 7bbb 0a98 453d dc05 80bd
00000150: a5c5 3cbd 7abe e7bd 0858 9abc dde7 e53c
00000160: 6a35 893b a856 083d 5f4c f3bc 2865 1ebb
00000170: e23c 01bc 9f52 653d 5064 70bd df88 803d
00000180: 13c1 45bd e485 32bc 778a b1bd cd89 e23d
00000190: 6861 b13c 0dce 493c 94c8 8e3d fac3 ce3d
000001a0: 7237 b73d ada3 52bd 807d 253a 3b18 2bbd
000001b0: 6223 093d a7cb 403c 2fce f5bc d3f4 023d
000001c0: edd1 e5bc 1fa8 d3bd 58df d0bd b5e1 acbc
000001d0: a5aa b83d 9769 e03d f963 a33d 361e a43c
000001e0: 59f9 83bd 0f7f eb3d 8937 abbc 934c 06bc
000001f0: 9164 9dbd cda6 82bd 0188 c4bd 3ecb 023d
00000200: 795a e5bd b36f 90bd 1feb abbc 9f3f ad3d
00000210: ed6f 59bd 14ed 41bc be3a 3ebd 3918 e4bd
00000220: 78c7 95bd 08a8 acbc c7fe 98bd 6f06 493d
00000230: ce87 ab3d e047 13bd 9f1d 5aba 97fd c1bd
00000240: 2898 c6bd 659a e73d 0102 113d 1381 d6bd
00000250: 2aa8 9c3c da07 70bc
-0.06237103 0.06955736 -0.03554985 -0.014061755 0.048733518 0.058252085 0.04721056 0.06396992
-0.0058171875 -0.09989089 -0.0076527777 0.08192073 -0.046343192 -0.06598002 -0.08349706 -0.101242125
0.10156111 -0.042423565 -0.10496783 -0.026114065 0.017038045 0.06417445 -0.09480058 -0.1104791
0.04228154 0.09689578 0.067234404 0.02648834 -0.007760999 0.084683836 -0.08931937 0.06131782
0.01260677 -0.018029077 0.08715852 -0.017392965 0.023912076 0.04340857 0.101870626 -0.032692503
-0.03615381 -0.0074257087 -0.0052736998 0.10453146 0.0039084493 0.060113 0.045111105 -0.05023167
-0.095992416 -0.06682682 -0.017770031 -0.015371202 0.005846521 -0.022868488 0.06196807 0.06185682
0.111976445 -0.043185215 -0.0038048534 -0.0811429 -0.07565452 -0.03088395 0.07121295 -0.026420187
-0.03594169 0.10018441 -0.0053107007 -0.0790583 -0.051798165 0.108424164 -0.0367331 -0.013460426
-0.040755 0.010983616 0.07685736 0.088347524 0.047629982 -0.014142804 -0.033609755 -0.10770372
0.031653307 -0.003837573 0.0482407 -0.062511176 -0.046086926 -0.113156274 -0.018840805 0.028064663
0.0041872757 0.033285767 -0.029699503 -0.002416918 -0.007888051 0.055986997 -0.058689415 0.06276106
-0.048279833 -0.01089618 -0.08668988 0.1106144 0.021652892 0.012317193 0.06971851 0.10095973
0.08946122 -0.051425625 0.00063129514 -0.041771155 0.03348101 0.0117673045 -0.030005543 0.031971764
-0.028054202 -0.10334801 -0.101988494 -0.02110372 0.09016923 0.1095764 0.07978053 0.020033937
-0.06444044 0.11498844 -0.020900505 -0.008196968 -0.07685197 -0.06379471 -0.09596253 0.031932108
-0.11198897 -0.07052555 -0.020986138 0.084594004 -0.053085256 -0.011836309 -0.04644274 -0.111374326
-0.07313436 -0.021076217 -0.0747047 0.0490784 0.08375512 -0.035957217 -0.0008320454 -0.094721965
-0.0969699 0.11308745 0.0354023 -0.10473838 0.019123156 -0.014650309

0.bias f4 [2]
00000000: 4f02 e63d f986 d33d
0.11230909 0.10328478

3.weight f4 [2, 8]
00000000: d184 b0be 5870 9bbc f903 b33e 9b60 27be
00000010: ebf9 353e 6504 83bd 79af 8ebe ca42 dd3c
00000020: af78 76bd 84a0 b93d a5ec bc3d 6a49 053e
00000030: d409 383e 268d 41be 6c93 7a3e 63fa 733d
-0.3447633 -0.018974468 0.34963968 -0.16345446 0.17771117 -0.063973226 -0.2786825 0.027009387
-0.060173687 0.09063819 0.09224824 0.13016286 0.17972499 -0.189015 0.244703 0.05956496

3.bias f4 [2]
00000000: 78cb 873d 01b4 e7bc
0.066306055 -0.028284075
