src/example/onnx/test_mnistfc.onnx (onnx, 17503 bytes, 8 tensors)

1.weight f4 [5, 784]
000000 a3 a5 01 3d 10 5a ef 3b 90 66 39 bb aa 7e 77 bc
       0.031652104 0.0073044375 -0.0028289892 -0.015105883
000010 28 34 0c bd c0 e8 2b bc 50 54 20 3b 98 63 5f 3c
       -0.034229428 -0.010492504 0.0024464317 0.013634585
000020 ee b5 a6 bc 64 b9 02 bd 1f 7f 0e 3d c6 f3 5b bc
       -0.020350423 -0.031915084 0.0347892 -0.013424819
000030 30 09 4f bb a0 b1 a5 ba 6a 42 41 bc 0a a2 e7 3c
       -0.003159117 -0.0012641437 -0.0117956195 0.028275508
000040 81 33 e9 bc 8d e5 0e bd ca 02 9d 3c 1e 02 fe 3c
       -0.028466942 -0.034886885 0.019166369 0.031006869
000050 92 db 18 bc a2 ce d9 3c 6a 98 ca bc a3 2a f3 bc
       -0.009329693 0.026587788 -0.02473088 -0.029683417
000060 50 ce 75 3b eb 1b 02 3d 00 85 d8 ba 9c fa cb bb
       0.0037507005 0.031764906 -0.0016519129 -0.0062249433
000070 66 1e fc 3c c2 d4 ee 3c 82 aa ad 3c 60 06 ad ba
       0.030776214 0.029154185 0.021199469 -0.0013200752
000080 b5 79 0a 3d 25 4c e5 bc 64 69 b1 bb 58 e9 bd bc
       0.033807475 -0.02799041 -0.005414175 -0.023182556
000090 6c a0 a1 bc 0c 1e 05 bd bc 34 8b 3c e0 22 30 3b
       -0.019729815 -0.032499358 0.01699292 0.0026876256
0000a0 ef d9 05 bd 3a c6 a9 3c 43 37 c7 bc 70 64 38 3b
       -0.03267854 0.020724405 -0.024318343 0.0028136037
0000b0 00 6b 31 bb 98 d7 01 3c 5a 1d d4 3c 4a 54 ae 3c
       -0.0027071834 0.007924937 0.025892902 0.021280427
0000c0 f0 f5 b2 3b b0 2f dd bc c3 8e 8a bc c1 32 f4 bc
       0.005461447 -0.027000278 -0.016913777 -0.029809358
0000d0 8e 8d 5f bc 8a 53 18 bc 5d 3a 0b 3d 1f 75 0f 3d
       -0.013644589 -0.009297261 0.033991206 0.035023805
0000e0 60 dc 77 bc 90 8d 1a 3b e0 34 43 3c 17 ac 0c 3d
       -0.015128225 0.0023582913 0.011914462 0.034343805
0000f0 d5 78 c7 bc 9a 79 b7 bc d4 6d 3b 3c c8 32 03 bd
       -0.02434961 -0.022396851 0.011439759 -0.03203085
000100 12 89 41 bc 80 c7 b0 bb e0 88 41 3c cc 0f d2 3c
       -0.011812465 -0.005394876 0.011812419 0.025642298
000110 78 22 bd bb c0 65 93 3c bc db 02 bd 64 3c 0f bc
       -0.0057719313 0.017992854 -0.031947836 -0.008742426
000120 31 1d 11 3d 4a 3d 86 3c 96 4e fc 3c a4 c4 06 bc
       0.03542823 0.016386647 0.030799191 -0.008225594
000130 86 2d 9d 3c b0 cd c5 bc aa 37 b5 bc 80 47 3a 3c
       0.019186746 -0.024145931 -0.02212127 0.011369586
000140 40 2b b5 3a 80 1d d6 bc 62 47 d5 3c 6a da 84 3c
       0.0013822094 -0.026137114 0.026035015 0.01621743
000150 1a 9d 98 3c 26 55 07 bd 88 c0 b7 bb 48 df ff 3b
       0.0186296 -0.03304019 -0.0056076683 0.0078085996
000160 ea 7c 9a bc b8 a6 81 3b cb ab 0c 3d 8a 4a a6 bc
       -0.018858392 0.003956642 0.034343522 -0.020299215
000170 6e ec 52 bc 56 f3 bb 3c 2a 3b 50 bc e3 49 f1 bc
       -0.012873752 0.02294318 -0.012709418 -0.029454177
000180 c6 47 70 bc 08 77 a9 3c 0b f6 0b 3d 27 d8 0b 3d
       -0.01466555 0.020686641 0.03417019 0.034141686
000190 00 ae f9 ba 5d 15 0b 3d 80 6b a4 3c 50 25 43 3c
       -0.0019049048 0.03395592 0.020070791 0.011910751
0001a0 aa c3 33 bc 6c c9 e4 bc 98 f0 cc bc 20 00 a0 3c
       -0.010971943 -0.027928077 -0.025017068 0.01953131
0001b0 c8 52 04 bd c6 8a ba 3c 90 62 85 bc f6 47 a4 3c
       -0.03230551 0.02277125 -0.01628235 0.020053845
0001c0 77 5b 01 bd bb f4 0b 3d 80 cb 2b 3a a0 ab ce 3a
       -0.03158137 0.03416894 0.0006553456 0.0015767701
0001d0 80 0b d5 bb 80 10 96 bb 00 99 4a bb 70 e1 6d 3b
       -0.006501615 -0.0045796037 -0.003091395 0.0036297701
0001e0 1f 48 0f bd 89 74 11 3d 6c e7 99 bc b6 61 05 bd
       -0.03498089 0.035511527 -0.018787108 -0.032563888
0001f0 9c dd 9c bb 38 64 c6 3b 92 6f ff 3c bc 23 ad bc
       -0.00478716 0.0060544275 0.03118113 -0.021135204
000200 08 3c 7e 3c 7c 2d 42 bc d3 be a1 bc dc 06 cf 3c
       0.015517242 -0.011851665 -0.019744312 0.025271825
000210 88 65 00 bd 48 37 b1 3b 02 fb ba 3c 10 ee dd 3b
       -0.031346828 0.0054082014 0.022824768 0.006772764
000220 28 e2 69 3c df 54 02 bd b8 45 d0 bc 25 60 b3 bc
       0.014275111 -0.03181922 -0.02542387 -0.021896431
000230 01 10 f7 bc 05 41 a6 bc 4c 0e a1 bc e3 bb a8 bc
       -0.030158998 -0.020294676 -0.019660138 -0.020597404
000240 e8 d1 fa bc 54 ff 6c 3c 48 3a 8f 3b 9c 22 02 bc
       -0.03061767 0.014465172 0.0043709613 -0.007942822
000250 70 27 33 3c e8 51 4d 3c 18 fc a6 3b e0 46 db ba
       0.010934696 0.012531735 0.00509597 -0.0016729496
000260 26 9e 78 bc f8 8d b2 bb 06 4c 92 3c bf 75 08 bd
       -0.015174424 -0.005449053 0.017858516 -0.033315416
000270 a0 f6 35 3c 75 63 bb bc 86 80 26 bc 31 24 09 3d
       0.011106163 -0.022874573 -0.010162478 0.03348178
000280 f8 97 94 3b 78 89 b2 3b ae 60 b5 bc 73 10 f3 bc
       0.0045347176 0.0054485165 -0.022140827 -0.02967093
000290 e8 27 b1 bc 90 ff 07 bd 8a 76 d4 bc f2 d2 e8 3c
       -0.021625474 -0.033202708 -0.02593543 0.028420899
0002a0 04 29 8e 3c 70 8e 35 bb 5e 13 b1 3c b8 b0 f7 bc
       0.017353542 -0.0027703308 0.02161568 -0.030235633
0002b0 9a 4b e0 bc 92 45 8f 3c 8a 76 a9 3c d2 44 9f 3c
       -0.0273798 0.017489228 0.020686407 0.019441996
0002c0 3a 72 ba 3c 86 40 03 bd 94 ed b9 bb 7e 44 f3 bc
       0.022759546 -0.032043956 -0.0056740735 -0.029695746
0002d0 7e 15 8b bc 80 75 88 b9 8e 47 fb 3c 2e d0 17 bc
       -0.016978022 -0.00026027486 0.030673768 -0.0092659425
0002e0 60 81 97 ba 60 71 36 bc 7c b6 bb bc d2 f3 04 bd
       -0.0011558942 -0.011135429 -0.022914164 -0.032459088
0002f0 d2 ce e6 3c 08 ba 3a 3c 42 0a 9d 3c 1a 45 e5 3c
       0.028174791 0.011396892 0.01916993 0.027987052
000300 7c d9 42 bc a4 20 3f 3c 90 0a 9d 3c 17 28 05 bd
       -0.011892673 0.011665497 0.019170076 -0.032508936
000310 d7 d1 0f 3d 77 32 09 3d 0b 9d 0c bd 5e a9 f8 3c
       0.03511223 0.033495393 -0.034329455 0.030354198
000320 90 b2 4d 3b 90 98 2a 3c b3 25 e4 bc ca a8 d5 3c
       0.003138695 0.01041235 -0.027850008 0.026081461
000330 12 24 91 3c 78 bf 1f 3c 9a 40 ad 3c 3d ea 0f bd
       0.017717395 0.00975024 0.021148968 -0.035135496
000340 40 c1 f4 bb 08 b2 ef 3b d0 ec c6 3c f3 8c c1 bc
       -0.0074693263 0.007314924 0.024282843 -0.02362678
000350 4e 03 02 bc ff f4 02 bd 65 b2 0d bd a0 ca 80 3c
       -0.007935358 -0.031971928 -0.03459396 0.01572162
000360 c0 36 9a 3a 00 13 30 bb b0 7c 4b 3b fe 8a 93 3c
       0.0011765584 -0.0026866794 0.0031049661 0.018010613
000370 1c b3 a3 bc c0 66 bd bb 3c 78 78 bc 38 92 29 3c
       -0.019982867 -0.005780071 -0.015165385 0.010349803
000380 dc 9f 4a bc 0c f4 dc bc 4b e5 0d 3d 9e b1 8d bc
       -0.012367215 -0.02697184 0.0346425 -0.017296609
000390 ba 4e e2 bc 96 c5 f7 3c 48 cd c5 3b a5 ac 03 bd
       -0.02762543 0.030245584 0.0060364343 -0.03214707
0003a0 97 0f 05 3d 80 ec 52 bc d4 0b 73 3c 70 5a 63 3c
       0.03248557 -0.012873769 0.014834363 0.013876542
0003b0 75 0c b5 bc 93 4b 04 3d 2a e7 84 3c 06 ca 31 bc
       -0.022100667 0.032298636 0.016223509 -0.010851389
0003c0 e8 44 86 3b 00 20 34 3b 83 19 e1 bc f2 d8 93 3c
       0.0040975697 0.0027484894 -0.027477985 0.018047784
0003d0 30 aa fb bb 0a 3c ba 3c 55 97 e8 bc cc fc 0b bd
       -0.0076802 0.022733707 -0.028392473 -0.034176633
0003e0 c0 c4 d1 bc b8 6e 04 bc 94 0a 42 3c ef 73 0e 3d
       -0.025606513 -0.008083038 0.011843342 0.03477853
0003f0 bd b0 05 bd d8 ab fa bc e8 bf 8e 3c 48 5b dc bb
       -0.032639254 -0.03059952 0.017425492 -0.0067247488

1.bias f4 [5]
000000 aa f9 11 bd 6a 55 f7 3c f2 f7 ea 3c fc 80 f5 bc
       -0.03563849 0.030192096 0.028682683 -0.029968731
000010 86 46 da 3c
       0.026644956

3.weight f4 [7, 5]
000000 f9 75 bb be a8 de 7f 3e 78 e6 b6 3d 8a 08 b2 3e
       -0.36613443 0.2498728 0.08930677 0.3477214
000010 c0 ec 9e 3e 22 e0 08 be 20 54 8c 3c 4c 51 5f be
       0.3104 -0.1336675 0.017129958 -0.21808356
000020 68 1e 18 3d 5c 9e 12 be e8 64 d7 3e 3a 18 bb be
       0.037138373 -0.14318222 0.42069173 -0.3654192
000030 b4 40 d4 bd 2c be 96 bd cf 99 b5 be a0 37 9c 3d
       -0.10363904 -0.07360491 -0.3546891 0.07627797
000040 b0 a5 09 bd fa 27 78 be b4 5d ac be dc 3c c2 be
       -0.033605278 -0.24234 -0.3366524 -0.37937057
000050 b2 1a c9 be 02 02 c1 3e 10 1a b6 be f8 e9 4a be
       -0.3927818 0.37696844 -0.3556676 -0.19815814
000060 81 e3 d9 be f6 44 b5 3e 3c 12 29 3e 40 bd f4 3d
       -0.42556384 0.35404176 0.16510862 0.11950159
000070 32 7e b2 3e 20 3f 82 3d 40 15 3a 3e 33 29 6d be
       0.34861904 0.063596964 0.18172169 -0.23160248
000080 35 15 e4 be 80 3a 3d be 60 ac 61 3c
       -0.4454743 -0.18479347 0.013774008

3.bias f4 [7]
000000 fa 4b 3b be d0 93 d7 3d 08 31 31 3e 19 e8 cf be
       -0.18290702 0.1052624 0.1730386 -0.40606764
000010 70 a0 97 3d 06 5b d2 3e ac 02 2e 3e
       0.07403648 0.4108507 0.16993207

5.weight f4 [9, 7]
000000 5c 9f 80 bd 7d 1c 86 3e 05 86 b5 3e 92 9d 54 3e
       -0.062803954 0.2619361 0.3545381 0.20763233
000010 a8 3a 8a bd df 0f 28 be f2 e6 39 be 50 5d 65 bd
       -0.06749469 -0.16412304 -0.18154505 -0.055997193
000020 16 39 8d be 5a 64 7e 3e 68 e8 9c be 53 01 86 be
       -0.27582616 0.24842969 -0.30646062 -0.26172885
000030 ec 67 ac be 3a 94 3f 3e a8 bd d7 bd 2f e5 9e 3e
       -0.33673036 0.18708888 -0.10534221 0.31034228
000040 5f 12 88 3e ae f4 34 3e e0 c0 14 3c 1e cf 2a 3e
       0.26576516 0.17671463 0.009079188 0.16680571
000050 26 f6 2b be 5c 03 a8 bd 44 46 48 be 89 60 68 be
       -0.16793117 -0.08203766 -0.19558054 -0.22693075
000060 97 b9 bc 3e de 22 32 be 33 e0 a1 3e 6a 2c ac be
       0.36860344 -0.17396113 0.31616363 -0.33627635
000070 5a 81 2a 3e 97 14 93 be bb d9 85 3e c8 18 2b 3d
       0.16650906 -0.28726646 0.26142678 0.04177168
000080 77 c8 53 be d8 45 a0 be b2 75 6b 3e 20 57 78 3d
       -0.2068194 -0.31303287 0.22994116 0.060629964
000090 b2 84 5b 3e 20 e9 8c bc 93 38 af 3e 14 13 98 be
       0.21437338 -0.017201006 0.3422285 -0.29702055
0000a0 85 34 be be 08 c4 b4 bd 36 d9 42 3e c9 12 a4 3e
       -0.37149444 -0.088264525 0.19028172 0.32045582
0000b0 ea 6d 09 3e d8 4e c9 bd 28 84 32 be b8 32 6d 3d
       0.13420835 -0.098294914 -0.17433226 0.057909697
0000c0 93 08 b9 be 40 76 07 3d bd 72 a9 be 40 03 82 3b
       -0.36139354 0.033071756 -0.3309535 0.0039676726
0000d0 50 ed 63 bd 50 8e 3c 3d 80 55 46 3c fa 80 7c 3e
       -0.05564624 0.046034157 0.012105346 0.24658576
0000e0 04 29 8d 3d b2 c4 ba be e0 d5 f9 3d 70 3e 11 3d
       0.06892589 -0.36478192 0.121989965 0.035459936
0000f0 48 47 61 be 4e 9c 6f 3e 86 5c 49 3e
       -0.21999848 0.2339947 0.19664201

5.bias f4 [9]
000000 72 08 09 3e 42 d0 4a be 41 02 9e be 69 fc 62 be
       0.13382128 -0.19806007 -0.30861095 -0.221666
000010 8e 0b 44 3e 0e 03 68 3e 5c 21 90 3d 91 2a b9 3e
       0.19145033 0.22657415 0.07037613 0.36165288
000020 70 8b c5 bc
       -0.02411434

7.weight f4 [10, 9]
000000 00 da 58 bc 80 d9 e1 3c ea 49 52 3e ca f5 22 3e
       -0.013235569 0.027569532 0.20536008 0.15914074
000010 44 b3 a8 3d 9b c6 8d 3e ab 3e 85 be 09 59 95 3e
       0.08237317 0.27690586 -0.26024374 0.2916949
000020 58 09 33 bd 23 eb 42 be 66 38 7f 3e 5d 3c 8d 3e
       -0.043710083 -0.1903501 0.24923858 0.27585116
000030 48 f0 38 3d 7b 1c 1b be ea 93 3c 3e 51 a2 99 3e
       0.045151025 -0.15147583 0.184158 0.3000665
000040 42 d2 3e 3e ce 78 4f be 34 b6 bb 3d 00 7c 98 be
       0.18634894 -0.20260927 0.09165612 -0.29782104
000050 00 7f c9 3a 9e 98 01 3e c3 92 03 be 58 9c 57 bd
       0.0015372932 0.12655875 -0.12848954 -0.052639335
000060 58 bc 5e bd 86 4a 6a 3e 78 b6 11 3e 4f 9a 95 3e
       -0.054378837 0.22879991 0.14229763 0.2921929
000070 30 2d 23 3e 70 a6 d2 bd 4c de 95 be c6 40 a2 be
       0.15935206 -0.10285652 -0.29271162 -0.31690043
000080 c7 8e aa 3e a0 bd 6b be 9e fe 0b be 34 3f a5 3d
       0.33312055 -0.23021555 -0.13671347 0.08068696
000090 a1 20 a2 3e 22 23 3a 3e 92 78 75 3e 13 d4 86 3e
       0.3166552 0.18177465 0.23971775 0.26333675
0000a0 02 cb 0d 3e 2e bf 5d 3e 90 94 e8 3c 0b 71 85 3e
       0.13846973 0.2165496 0.028391153 0.26062807
0000b0 df 4a 98 be bc 62 ee bd 9c 9d a8 bd 28 2f 46 bd
       -0.29744622 -0.11639926 -0.082331866 -0.048384815
0000c0 80 e5 5a bb 25 b0 84 3e 42 d1 60 3e ad ec 9b 3e
       -0.0033400953 0.25915638 0.21954826 0.30454007
0000d0 e0 c7 4e be 66 f9 44 3e b0 22 83 3d b4 6c 8c bd
       -0.20193434 0.19235763 0.064031005 -0.06856671
0000e0 e7 6a 93 3e e0 3b a9 3d f2 f8 4a 3e b8 8b 9d be
       0.28792498 0.082633734 0.19821528 -0.3077066
0000f0 a0 e8 2a 3c 3a 44 49 3e 40 eb a0 be 80 99 dd bc
       0.010431439 0.19654933 -0.31429482 -0.027050734
000100 8a e5 48 3e 7c c1 d5 bd b3 03 a3 3e 9f e2 95 be
       0.19618812 -0.10437295 0.3183876 -0.2927446
000110 d4 65 80 3d 02 df 3b 3e 94 20 a3 bd c8 ab 75 be
       0.06269422 0.1834679 -0.07965198 -0.2399131
000120 9a 2f 64 3e e7 91 90 3e ab e3 a3 3e 00 12 28 3c
       0.22283784 0.28236315 0.32009634 0.010258198
000130 00 62 cc 3d ce 6d 57 3e 96 e8 a2 be 82 2f 25 3e
       0.099796295 0.21037981 -0.31818074 0.16131404
000140 0b cf 32 be 50 14 c2 3d 13 1b aa be 53 50 3f be
       -0.17461793 0.094765306 -0.3322378 -0.18682985
000150 e4 89 84 bd ae 18 02 3e c8 95 15 3d 24 00 86 bd
       -0.06471613 0.12704727 0.036519796 -0.065429956
000160 74 79 8a be b0 74 fa bc
       -0.27045786 -0.030573219

7.bias f4 [10]
000000 78 40 42 be e6 03 e6 bd 00 da b0 3d 60 2b a2 be
       -0.18969905 -0.11231212 0.0863533 -0.31673717
000010 de ee 49 be 00 63 fc ba 40 7f f3 3c 78 8d 05 3d
       -0.19720027 -0.0019255579 0.029723763 0.03260562
000020 a8 11 40 bd 28 ce 08 3d
       -0.04689184 0.03339973
