neuralsat-pt113/example/motivation_example_277.onnx (onnx, 985 bytes, 6 tensors)

layers.0.weight f4 [2, 2]
0	0x3ecccccd	0.4
1	0xbf000000	-0.5
2	0x3e4ccccd	0.2
3	0x3f000000	0.5

layers.0.bias f4 [2]
0	0xbf4ccccd	-0.8
1	0x3e99999a	0.3

layers.2.weight f4 [2, 2]
0	0x3f333333	0.7
1	0x3e4ccccd	0.2
2	0xbf4ccccd	-0.8
3	0x3f000000	0.5

layers.2.bias f4 [2]
0	0xbe99999a	-0.3
1	0x3e99999a	0.3

layers.4.weight f4 [2, 2]
0	0xbf4ccccd	-0.8
1	0xbf4ccccd	-0.8
2	0x3f666666	0.9
3	0x3e4ccccd	0.2

layers.4.bias f4 [2]
0	0x3dcccccd	0.1
1	0xbf4ccccd	-0.8
