benchmark/ablation_mnistfc_tiny/onnx/mnistfc-tiny-net-328.onnx (onnx, 465108 bytes, 4 tensors)

layers.2.sequential.0.weight f4 [146, 784]
0.0049712183 0.017355977 -0.0017748597 -0.01017152 0.01971745 0.027639385 0.028988743 -0.008209159
0.00077194616 0.004726084 0.02811921 -0.0055949218 -0.03382807 -0.03588737 0.012357933 0.0013661362
-0.022961954 0.008802085 0.030213095 0.0022318526 -0.033381574 -0.00097348215 -0.0042431597 -0.03418295
0.033323746 0.0018991021 -0.022366496 0.029759692 -0.011694507 -0.009842114 0.016351426 0.009663547
-0.022312518 -0.008185191 -0.00542357 0.0046824277 0.017179236 -0.03392467 -0.015540363 -0.03360125
0.013214398 -0.01595663 0.013961783 -0.020606209 -0.003894988 0.029495561 -0.03623593 -0.0021363096
0.018999206 0.0010760262 0.005456117 0.0102464445 0.011958495 0.029064182 0.011946383 0.03140287
-0.019475972 0.033610027 -0.00568528 -0.014714216 0.030335763 -0.011502775 -0.0028133253 0.029769745
-0.02665947 0.008366738 -0.019242827 -0.06850651 -0.060398363 0.030109497 0.03614637 0.0076223253
-0.029857436 -0.012805902 0.008451961 0.03219863 0.0022854987 -0.017799182 0.021584585 0.0239909
-0.017097756 -0.0273289 -0.020569572 0.00971413 0.002356636 0.022849381 0.024341412 -0.0076764976
0.015717544 -0.00904211 -0.013004261 -0.01601009 -0.054791458 -0.03582585 -0.089367665 -0.1009619
-0.09367107 -0.112014465 -0.06870959 -0.035058845 -0.022871587 0.0320994 0.047725763 0.1038212
0.028619409 0.0377388 0.005151205 0.03432345 0.005716914 -0.026475195 0.014291047 0.032950487
0.0034112188 -0.017517557 -0.026933622 -0.00937044 0.0044344226 -0.026416484 -0.008702365 -0.005300812
-0.029034164 -0.0054477775 -0.055488527 -0.059529357 -0.11781163 -0.13392502 -0.08164858 -0.11863604
-0.1130458 -0.019113217 0.124170735 0.09026379 0.069316626 0.009679975 0.064791605 0.010121955
0.04391704 -0.019412829 -0.0016555442 0.0010003779 0.00961626 0.014745773 -0.0045691323 0.022576433
-0.02609401 0.03021425 0.023135481 0.043352436 -0.011266334 -0.020526025 -0.10266087 -0.09348309
-0.055207673 -0.07098914 -0.05050013 -0.048687756 -0.069514364 -0.073993936 -0.030813469 -0.037579168
-0.15377894 -0.08232869 0.012844107 0.082952626 0.0070788013 -0.05244308 -0.016377551 0.024237314
0.032702122 -0.028465403 -0.025507266 0.027701007 -0.010475015 0.00033610416 0.032010775 0.04341707
-0.01109405 -0.0770677 -0.0882309 -0.091072574 -0.08717129 -0.025369428 0.015523398 0.062958814
0.054563425 0.03129089 -0.08676551 -0.14329645 -0.21696241 -0.14845797 -0.026940364 0.017310046
-0.029242396 -0.025959503 0.000306838 0.0026619427 0.017693123 0.032969613 -0.007090876 0.010459206
0.020723812 0.004813555 0.021396754 -0.041619528 -0.082543746 -0.1719734 -0.15698709 -0.14844781
-0.0108834915 0.05221378 0.08177657 0.069096394 0.066513844 0.0606169 -0.0905896 -0.1720059
-0.18348263 -0.16185926 -0.057761494 -0.08500809 -0.105468795 -0.039441247 0.018893013 -0.017035749
-0.03472404 0.002839308 -0.025376609 0.0023688378 -0.014807119 0.017252916 -0.029690824 -0.057216913
-0.19328296 -0.21723692 -0.18171701 -0.08717026 -0.070381664 -0.043128535 -0.054442044 0.068708606
-0.005936312 -0.0559056 -0.08242583 -0.20074655 -0.13973168 -0.11454825 -0.056897677 -0.15839648
-0.12500112 -0.062527224 0.0046847803 -0.036972877 -0.0028938418 0.025181495 0.01881529 0.019400729
00000000: 9ae5 a23b 1f2e 8e3c 69a2 e8ba 72a6 26bc
00000010: 7d86 a13c fe6b e23c cd79 ed3c b57f 06bc
00000020: 6e5c 4a3a 44dd 9a3b 425a e63c 9b55 b7bb
00000030: 4d8f 0abd a3fe 12bd ee78 4a3c ed0f b33a
00000040: b51a bcbc 9f36 103c 7481 f73c 4644 123b
00000050: 1ebb 08bd 4831 7fba 340a 8bbb 6c03 0cbd
00000060: 7b7e 083d 4beb f83a f139 b7bc 99ca f33c
00000070: 519a 3fbc d140 21bc 6df3 853c db53 1e3c
00000080: bec8 b6bc 2e1b 06bc 34b8 b1bb 0d6f 993b
00000090: 78bb 8c3c 98f4 0abd 029d 7ebc 77a1 09bd
000000a0: 3481 583c 7bb7 82bc f6bf 643c 5ace a8bc
000000b0: 0e43 7fbb ada0 f13c 206c 14bd 5401 0cbb
000000c0: 39a4 9b3c 7309 8d3a 3ac9 b23b b4e0 273c
000000d0: 90ed 433c 0218 ee3c c3ba 433c 4ca0 003d
000000e0: 138c 9fbc abaa 093d 964b babb e513 71bc
000000f0: b582 f83c 2376 3cbc c45f 38bb aedf f33c
00000100: f664 dabc a514 093c 22a3 9dbc 244d 8cbd
00000110: 4664 77bd 31a8 f63c 370e 143d b3c4 f93b
00000120: 9597 f4bc d9cf 51bc 187a 0a3c b6e2 033d
00000130: 4ec8 153b 97cf 91bc 28d2 b03c 9088 c43c
00000140: 9810 8cbc dbe0 dfbc 8581 a8bc 0428 1f3c
00000150: cb71 1a3b a02e bb3c a467 c73c 218b fbbb
00000160: 14c2 803c 5c25 14bc d30f 55bc 9827 83bc
00000170: 026d 60bd 20be 12bd 6506 b7bd 1dc5 cebd
00000180: 9ed6 bfbd d767 e5bd 9db7 8cbd dd99 0fbd
00000190: 325d bbbc a97a 033d 177c 433d 36a0 d43d
000001a0: 4073 ea3c 0094 1a3d 71cb a83b bf96 0c3d
000001b0: f354 bb3b 82e2 d8bc ff24 6a3c 17f7 063d
000001c0: c18e 5f3b fb80 8fbc e6a3 dcbc 7986 19bc
000001d0: a24e 913b 6267 d8bc 5d94 0ebc 6fb2 adbb
000001e0: 0ed9 edbc 4583 b2bb f047 63bd 0ed5 73bd
000001f0: 3947 f1bd a423 09be 5f37 a7bd 74f7 f2bd
00000200: 8e84 e7bd 5293 9cbc 3a4d fe3d 39dc b83d
00000210: e0f5 8d3d c298 1e3c 76b1 843d 8ed6 253c
00000220: 5be2 333d a707 9fbc d8fe d8ba 1d1f 833a
00000230: 858d 1d3c 4198 713c a9b8 95bb 36f2 b83c
00000240: 1bc3 d5bc e083 f73c 9f86 bd3c 5392 313d
00000250: 6e96 38bc 3226 a8bc dd3f d2bd 1074 bfbd
00000260: 7121 62bd c162 91bd 39d9 4ebd d06c 47bd
00000270: 8c5d 8ebd 228a 97bd 876c fcbc 9dec 19bd
00000280: 3a78 1dbe f29b a8bd 1770 523c 11e3 a93d
00000290: 4af5 e73b 8ece 56bd 372a 86bc 558d c63c
000002a0: a9f2 053d 4730 e9bc 9df4 d0bc 39ed e23c
000002b0: 669f 2bbc 2337 b039 bb1d 033d 19d6 313d
000002c0: d1c3 35bc acd5 9dbd 67b2 b4bd 4284 babd
000002d0: dc86 b2bd 8cd3 cfbc da55 7e3c 8df0 803d
000002e0: e67d 5f3d e02a 003d 1eb2 b1bd 4ebc 12be
000002f0: 652b 5ebe 5e05 18be 0ab2 dcbc cccd 8d3c
00000300: c08d efbc 06a9 d4bc 19df a039 fd73 2e3b
00000310: 2bf1 903c 250b 073d 945a e8bb 175d 2b3c
00000320: fcc4 a93c 07bb 9d3b 3f48 af3c 3d79 2abd
00000330: b20c a9bd cc19 30be 39c1 20be b402 18be
00000340: ac50 32bc 1ede 553d 797a a73d 6982 8d3d
00000350: 6938 883d 6d49 783d 0a87 b9bd 5122 30be
00000360: dfe2 3bbe 6fbe 25be 5197 6cbd b918 aebd
00000370: 0600 d8bd 258d 21bd 85c5 9a3c 8e8e 8bbc
00000380: cc3a 0ebd af13 3a3b 9be2 cfbc 813e 1b3b
00000390: 8f99 72bc fd55 8d3c 2c3a f3bc 485c 6abd
000003a0: f8eb 45be 5b73 5ebe 0614 3abe 5286 b2bd
000003b0: 4324 90bd 8ca7 30bd 9ffe 5ebd 19b7 8c3d
000003c0: 6585 c2bb 45fd 64bd e0ce a8bd 8190 4dbe
000003d0: d215 0fbe 4698 eabd 8a0d 69bd b032 22be
000003e0: 4b00 00be 460e 80bd c982 993b df70 17bd
000003f0: 9ca6 3dbb 6c49 ce3c 8622 9a3c 47ee 9e3c

layers.2.sequential.0.bias f4 [146]
-0.023713425 -0.038322013 -0.008707656 0.03607348 0.035776325 0.006484255 0.054153427 0.016232148
-0.03336317 -0.036760967 0.0045370143 0.02496294 0.060080472 -0.042293925 0.004941632 0.032341138
0.03959636 0.035137977 -0.05919769 0.008950181 -0.019003103 -0.017268106 0.04526306 0.005865407
0.018948166 0.012341887 -0.013080717 -0.012208485 0.0067536007 -0.0019904554 -0.030195637 0.0021672372
0.10480575 0.020284459 0.023503028 -0.058772877 0.015673472 -0.025885912 -0.005111832 -0.026983
0.0056890775 -0.03593566 -0.032708596 0.010194011 -0.023331786 -0.013413826 -0.018379284 0.0437639
-0.017890664 -0.012942714 0.021356111 0.022525696 0.031383485 0.05133612 0.020285975 0.019044625
0.019488622 -0.01628806 -0.035743114 -0.016524777 0.02314257 0.021588484 -0.01772672 -0.0025962677
0.0152082145 0.0050093303 0.029851273 0.033915807 -0.011694179 0.013672286 -8.5073916e-05 -0.040624276
0.02254581 0.022626761 -0.010207301 0.05998369 -0.021238748 0.016862497 -0.01313017 0.0029269606
0.009099104 0.00011357593 -0.016404407 -0.014746065 0.01644326 -0.04758569 -0.025125835 -0.032061335
0.036430355 -0.0362396 -0.010520336 0.037861805 -0.018362273 -0.0012410318 -0.013322198 -0.0114365965
0.006060363 -0.024109729 0.0385769 0.047739707 0.052655686 -0.03285965 -0.027359452 0.020514553
0.010986082 0.024802968 0.046406157 0.06620486 0.008630857 -0.0076919426 -0.026389256 0.045074485
-0.013175475 0.0758713 0.023810202 0.020511001 0.033766903 -0.024849273 -0.025109133 0.04345433
0.002609958 -0.04685131 0.055140384 0.017708348 0.032230705 -0.02299224 -0.029042805 -0.035555374
-0.015998526 -0.00885314 0.05638997 -0.025143577 0.041511696 -0.012133174 0.004934026 -0.020259112
0.025120614 0.014355821 -0.0012414596 -0.0063526304 0.004849927 -0.0021620549 0.025463657 -0.023618288
0.030689508 -0.043256607
00000000: a842 c2bc 8bf7 1cbd 8eaa 0ebc c9c1 133d
00000010: 328a 123d e079 d43b fccf 5d3d 48f9 843c
00000020: d2a7 08bd ab92 16bd 3cab 943b 147f cc3c
00000030: f116 763d 653c 2dbd 6aed a13b 2478 043d
00000040: cb2f 223d d7ec 0f3d 4779 72bd c8a3 123c
00000050: 65ac 9bbc d875 8dbc c265 393d 9a32 c03b
00000060: 2f39 9b3c a035 4a3c 8150 56bc 1906 48bc
00000070: 4f4d dd3b 4d72 02bb d75c f7bc 3508 0e3b
00000080: 66a4 d63d 982b a63c 6c89 c03c d4bb 70bd
00000090: a765 803c b10e d4bc 2881 a7bb 740b ddbc
000000a0: 716b ba3b 4531 13bd 73f9 05bd c804 273c
000000b0: 4d22 bfbc aac5 5bbc 2790 96bc c641 333d
000000c0: 718f 92bc ad0d 54bc 03f3 ae3c cf87 b83c
000000d0: f88b 003d d345 523d c62e a63c 7903 9c3c
000000e0: 9aa6 9f3c 8a6e 85bc 5f67 12bd f85e 87bc
000000f0: 7d95 bd3c 55da b03c a037 91bc 2526 2abb
00000100: e02b 793c 4f25 a43b a88a f43c 4deb 0a3d
00000110: f198 3fbc b901 603c b669 b2b8 a465 26bd
00000120: feb1 b83c c25b b93c 863c 27bc 75b1 753d
00000130: e2fc adbc 3823 8a3c ed1f 57bc 40d2 3f3b
00000140: 6914 153c 9d2f ee38 8962 86bc 7b99 71bc
00000150: 04b4 863c 36e9 42bd b2d4 cdbc bf52 03bd
00000160: ff37 153d fa6f 14bd 7d5d 2cbc fb14 1b3d
00000170: 7a6c 96bc 1eaa a2ba 5945 5abc 9060 3bbc
00000180: 0296 c63b c481 c5bc d002 1e3d b68a 433d
00000190: 7dad 573d d797 06bd ee20 e0bc 230e a83c
000001a0: f8fe 333c 982f cb3c 6214 3e3d 6a96 873d
000001b0: 7068 0d3c b10c fcbb 482e d8bc 06a0 383d
000001c0: f3dd 57bc 6a62 9b3d 9d0d c33c b006 a83c
000001d0: 2a4f 0a3d b490 cbbc abb1 cdbc 2bfd 313d
000001e0: d40b 2b3b 29e7 3fbd e2da 613d 1911 913c
000001f0: 5804 043d 395a bcbc 2deb edbc 83a2 11bd
00000200: 570f 83bc c30c 11bc 2bf9 663d e7f9 cdbc
00000210: 2b08 2a3d 38ca 46bc 9cad a13b 70f6 a5bc
00000220: bfc9 cd3c ad34 6b3c 79b8 a2ba ba29 d0bb
00000230: 23ec 9e3b 43b1 0dbb 2999 d03c 247b c1bc
00000240: 9068 fb3c d72d 31bd

layers.3.sequential.0.weight f4 [10, 146]
0.10780916 -0.025353918 -0.014994813 0.07570626 -0.042410795 0.15170898 -0.23466712 0.12552288
0.057331845 0.07266481 0.0032543147 -0.19324589 -0.042738516 0.25351524 -0.13462472 0.047274463
0.076709114 0.21784373 -0.05202735 0.052522082 0.1268134 0.16493598 -0.017973436 -0.032920897
0.015399714 -0.14805603 -0.17939134 -0.14703774 0.010805658 0.3278931 -0.17275926 0.1263597
-0.25729695 -0.052163944 -0.031622857 -0.14978784 -0.10878876 -0.056766044 -0.14584504 -0.2679685
0.14200564 0.0031944478 -0.07006592 -0.09206871 0.15399155 -0.0673339 0.057416495 -0.28737622
-0.09777818 -0.07031504 -0.025273874 0.18138981 -0.062065016 0.13561317 -0.037519436 0.044366542
0.11115131 -0.105997734 -0.08770898 0.13010792 -0.21087 0.12568644 0.11820642 0.1937627
-0.20202383 -0.09667797 0.14278212 0.08831253 0.103122 0.029629482 -0.015794722 -0.038540285
-0.08558552 0.0033774723 -0.22499122 -0.12923943 -0.17700462 -0.11388369 0.07141878 -0.15216699
-0.10498929 0.08593956 0.09030381 0.09519403 0.06280701 -0.1749874 -0.04547001 -0.06949018
0.07223974 -0.081233494 0.015866008 -0.18915877 0.05924133 -0.1622481 0.1888976 -0.10379364
-0.26545584 -0.02409506 -0.16237721 0.19138114 0.1623783 -0.050539292 -0.05244264 0.03382545
-0.15397923 -0.217908 0.092371196 -0.1657318 0.042193815 -0.06337006 -0.0043867338 -0.000648215
-0.1525334 -0.2538237 -0.01669781 -0.17156824 -0.20209944 0.086117044 -0.099914126 0.0705381
0.03476557 -0.08667898 0.015877176 -0.11017408 0.054960508 0.10460178 -0.067094706 -0.1815939
-0.11343051 0.12111395 -0.1504421 -0.085694276 0.1487025 0.113699086 -0.14704238 -0.09370509
0.061832614 -0.06909981 -0.11185192 -0.06769957 0.15729107 -0.2015552 -0.20930383 0.063302726
-0.5805322 0.016878549 -0.17531493 0.02933291 -0.0986582 -0.19759384 0.26652107 0.21875933
0.12556763 -0.19058636 -0.033986237 -0.049680416 0.09685411 0.16911149 0.1350637 0.10580242
-0.18661886 0.08856972 -0.13040902 -0.23698243 0.039544396 -0.11567536 -0.03878142 -0.21509555
0.06046791 0.08455554 0.09839887 0.26964763 0.067700855 -0.22320664 -0.30072892 0.37835926
0.24078836 0.10951332 0.046675984 0.19936894 0.3043598 -0.114606656 -0.15285441 -0.11558204
0.11954921 0.24890257 -0.16153908 0.23008297 -0.04719927 0.19164038 -0.04307158 -0.008981155
-0.033560205 0.10999105 -0.17603259 -0.14678977 -0.0070070517 -0.13336128 -0.009197687 -0.16639078
-0.015429206 0.31625542 -0.24516143 0.24502891 0.18624228 -0.16662888 0.16430211 -0.033369157
-0.12701131 -0.21066654 0.11015019 -0.19407596 -0.14846496 -0.24307394 0.20070219 0.03556083
-0.15279609 -0.041269723 0.09272033 0.061943635 0.08863931 -0.3598925 -0.119007565 0.15797962
-0.1978762 0.112708874 -0.08675822 -0.15699296 0.05580631 -0.14685726 0.18690617 -0.27350613
0.040944777 0.16064505 -0.18640761 0.082809426 -0.017463503 0.10482266 -0.098221876 0.002515079
-0.13532214 0.26351145 -0.03508535 0.08847002 0.021856075 -0.04577441 0.14350833 -0.032824356
-0.22496548 0.3524178 -0.15377316 0.18485571 -0.1456632 -0.045232143 0.015620271 -0.051194727
00000000: 0dcb dc3d 05b3 cfbc ceac 75bc e20b 9b3d
00000010: f1b6 2dbd 9959 1b3e 944c 70be 1289 003e
00000020: ccd4 6a3d 4ad1 943d 5746 553b 40e2 45be
00000030: 950e 2fbd c0cc 813e 10db 09be dea2 413d
00000040: ab19 9d3d 6d12 5f3e a11a 55bd 6521 573d
00000050: 5fdb 013e fae4 283e 073d 93bc 10d8 06bd
00000060: 154f 7c3c 009c 17be 5db2 37be 1091 16be
00000070: 370a 313c 9be1 a73e cee7 30be 7064 013e
00000080: 6dbc 83be dca9 55bd f886 01bd fc61 19be
00000090: a4cc debd 8383 68bd 6758 15be 2b33 89be
000000a0: ed69 113e f159 513b b97e 8fbd 858e bcbd
000000b0: f6af 1d3e 5be6 89bd 8f2d 6b3d fa22 93be
000000c0: ed3f c8bd 5501 90bd 280b cfbc 40be 393e
000000d0: e337 7ebd 2ede 0a3e fbad 19bd b1b9 353d
000000e0: 4ca3 e33d 5715 d9bd c4a0 b3bd 033b 053e
000000f0: 4eee 57be f2b3 003e 3516 f23d bb69 463e
00000100: 56df 4ebe 19ff c5bd 7a35 123e 33dd b43d
00000110: a131 d33d 87b9 f23c ef63 81bc 6bdc 1dbd
00000120: 7647 afbd 9558 5d3b 1964 66be 5757 04be
00000130: b340 35be da3b e9bd 0244 923d aad1 1bbe
00000140: a004 d7bd 1401 b03d 34f1 b83d 16f5 c23d
00000150: f6a0 803d e62f 33be c33e 3abd de50 8ebd
00000160: 6ef2 933d bf5d a6bd 6ef9 813c d6b2 41be
00000170: 09a7 723d 5e24 26be 5f6e 413e c391 d4bd
00000180: d4e9 87be 0163 c5bc 3646 26be 6bf9 433e
00000190: 7f46 263e 4a02 4fbd 18ce 56bd 8e8c 0a3d
000001a0: bbac 1dbe 4623 5fbe 1c2d bd3d 99b5 29be
000001b0: 6cd3 2c3d 29c8 81bd 97be 8fbb f9ec 29ba
000001c0: b731 1cbe 2ef5 81be d8c9 88bc 96af 2fbe
000001d0: 28f3 4ebe 225e b03d c79f ccbd 4876 903d
000001e0: 5866 0e3d c084 b1bd da10 823c f3a2 e1bd
000001f0: 451e 613d 7539 d63d f368 89bd c0f3 39be
00000200: 414e e8bd 970a f83d 7e0d 1abe 7b80 afbd
00000210: 7845 183e 11db e83d 4792 16be 74e8 bfbd
00000220: 3244 7d3d 3484 8dbd 9f12 e5bd 12a6 8abd
00000230: e910 213e 7d64 4ebe be53 56be dca4 813d
00000240: c29d 14bf e244 8a3c c285 33be 924b f03c
00000250: 4f0d cabd 0a56 4abe 7375 883e 7202 603e
00000260: cd94 003e 1229 43be 2735 0bbd b17d 4bbd
00000270: 735b c63d 902b 2d3e 234e 0a3e f0ae d83d
00000280: 0419 3fbe 0b64 b53d f189 05be 86ab 72be
00000290: 4ef9 213d 34e7 ecbd 44d9 1ebd 0242 5cbe
000002a0: 33ad 773d 742b ad3d 5985 c93d 410f 8a3e
000002b0: bfa6 8a3d 4890 64be 24f9 99be 4eb8 c13e
000002c0: 3991 763e 8548 e03d 512f 3f3d 5f27 4c3e
000002d0: 0cd5 9b3e e5b6 eabd de85 1cbe 47b6 ecbd
000002e0: 37d6 f43d 51e0 7e3e 806a 25be df9a 6b3e
000002f0: 0654 41bd 603d 443e d36b 30bd b225 13bc
00000300: 6d76 09bd fd42 e13d e341 34be 0f50 16be
00000310: 699b e5bb dc8f 08be e5b1 16bc 5862 2abe
00000320: c8ca 7cbc 3bec a13e 990b 7bbe dce8 7a3e
00000330: 4cb6 3e3e c3a0 2abe d03e 283e 19ae 08bd
00000340: 410f 02be f8b8 57be 6c96 e13d d9bb 46be
00000350: 3307 18be 60e8 78be e084 4d3e 3ca8 113d
00000360: 9476 1cbe 710a 29bd 28e4 bd3d 9cb8 7d3d
00000370: 8788 b53d d443 b8be 3dba f3bd 69c5 213e
00000380: 0fa0 4abe e9d3 e63d 4bae b1bd c3c2 20be
00000390: 2895 643d c061 16be 5564 3f3e ff08 8cbe
000003a0: b6b5 273d 2380 243e a3e1 3ebe fd97 a93d
000003b0: 9f0f 8fbc 43ad d63d 8d28 c9bd 06d4 243b
000003c0: e391 0abe f9ea 863e a8b5 0fbd c52f b53d
000003d0: 830b b33c f37d 3bbd d9f3 123e d572 06bd
000003e0: 5a5d 66be 1b70 b43e b676 1dbe d14a 3d3e
000003f0: bc28 15be 5745 39bd 2aec 7f3c 90b1 51bd

layers.3.sequential.0.bias f4 [10]
-0.09266596 -0.026931683 -0.047964837 0.053021424 -0.016556706 0.045846652 0.04265768 0.027598295
-0.0019131398 0.025849769
00000000: a7c7 bdbd d59f dcbc c776 44bd fe2c 593d
00000010: eea1 87bc b3c9 3b3d d2b9 2e3d d215 e23c
00000020: 52c2 faba e5c2 d33c
