benchmark/ablation_mnistfc_tiny/onnx/mnistfc-tiny-net-283.onnx (onnx, 191279 bytes, 10 tensors)

layers.2.sequential.0.weight f4 [50, 784]
0	0xbc8204f6	-0.015871506
1	0xbda94052	-0.08264221
2	0xbd90dc9f	-0.0707333
3	0xbd46aba5	-0.048503537
4	0xbd4f625a	-0.050630905
5	0xbd89f42b	-0.067360245
6	0xbd01996c	-0.031640455
7	0xbca334c0	-0.019922614
8	0xbd8b2d9d	-0.067958094
9	0xbcb5ec00	-0.02220726
10	0xbd9a1ae6	-0.07524662
11	0xbd6e8346	-0.05823066
12	0xbd9287c4	-0.071548015
13	0xbd629453	-0.055317234
14	0xbd53fb9a	-0.051753618
15	0xbd228bdd	-0.039684165
16	0xbd4e7c3b	-0.050411444
17	0xbcec6226	-0.028855395
18	0xbcaf067c	-0.021365397
19	0xbda8446c	-0.082161754
20	0xbd9254a5	-0.07145051
21	0xbdaa2a6f	-0.08308875
22	0xbda95acb	-0.082692705
23	0xbd933261	-0.071873434
24	0xbd494fc1	-0.049148325
25	0xbd09981e	-0.033592336
26	0xbd272856	-0.04080995
27	0xbd9255e7	-0.07145291
28	0xbda17caa	-0.07885106
29	0xbd643174	-0.055711225
30	0xbca8a729	-0.02058752
31	0xbd85ae54	-0.06527391
32	0xbd5ef252	-0.054430313
33	0xbcc8d5ac	-0.02451595
34	0xbd0384e8	-0.03210917
35	0xbd280769	-0.041022692
36	0xbcb28e44	-0.021796353
37	0xbd8ee5e1	-0.0697744
38	0xbcf1db39	-0.029523479
39	0xbd4685d3	-0.04846747
40	0xbd415f35	-0.047209937
41	0xbbc3cc3c	-0.0059752744
42	0xbd6eb42e	-0.0582773
43	0xbd48b6d0	-0.04900247
44	0xbd06a9e2	-0.032876857
45	0xbd65a2b3	-0.056063365
46	0xbd64044f	-0.05566817
47	0xbd556450	-0.05209762
48	0xbd8a087b	-0.06739899
49	0xbc973ca5	-0.018461535
50	0xbd027e31	-0.031858627
51	0xbd2a6605	-0.0416012
52	0xbc9e8ea9	-0.019355135
53	0xbce64c12	-0.028112445
54	0xbd5ecb96	-0.054393373
55	0xbce62bc4	-0.028097041
56	0xbcba41d0	-0.02273646
57	0xbd1402d1	-0.0361355
58	0xbd1250f6	-0.03572174
59	0xbd57de6c	-0.052702352
60	0xbd744b2a	-0.059641995
61	0xbcab47d2	-0.02090827
62	0xbc955d54	-0.018232979
63	0xbd7582fd	-0.059939373
64	0xbc8e91ac	-0.017403446
65	0xbd280819	-0.041023348
66	0xbc5b79b9	-0.01339572
67	0xbbc1f8c1	-0.0059195464
68	0x3cb54611	0.022128137
69	0x3d0327fc	0.032020554
70	0x3d0cea7d	0.034403313
71	0x3c7d4ab6	0.015459707
72	0x3cefd4aa	0.02927621
73	0x3d966ce2	0.073449865
74	0x3d7607e2	0.06006611
75	0x3d752df1	0.059858266
76	0x3d3da155	0.046296436
77	0xbd03b934	-0.032159045
78	0xbd851dad	-0.06499801
79	0xbd88934a	-0.06668718
80	0xbda058e1	-0.07829452
81	0xbd596517	-0.053074922
82	0xbd29ae87	-0.041426208
83	0xbd231293	-0.039812636
84	0xbd266aa3	-0.04062904
85	0xbd3ae4b7	-0.045628276
86	0xbd32398a	-0.043511905
87	0xbd6d766a	-0.057974257
88	0xbd7bf695	-0.061514456
89	0xbd5f5f75	-0.054534394
90	0xbd7dcfe3	-0.061965834
91	0xbd7f9541	-0.0623982
92	0xbcbb8f5e	-0.022895511
93	0xbc9475e9	-0.01812263
94	0x3d1e4f4f	0.038649853
95	0x3cad5df0	0.021162957
96	0x3b53cebb	0.0032319266
97	0x3ce0c1f8	0.027436242
98	0x3c4d8768	0.01254449
99	0x3b98ff5d	0.0046691136
100	0x3af6f4d3	0.0018841274
101	0xba3bc27a	-0.0007162463
102	0x3d468527	0.048466828
103	0x3d2057fd	0.039146412
104	0x3d11a25c	0.03555523
105	0x3d52f366	0.051501654
106	0x3c20758d	0.009793651
107	0x3c16c93c	0.009203251
108	0xbc9792c6	-0.018502604
109	0xbce21721	-0.02759892
110	0xbd45a9eb	-0.04825775
111	0xbca05c64	-0.019575305
112	0xbda6de38	-0.081478536
113	0xbd497cec	-0.0491914
114	0xbd709c20	-0.058742642
115	0xbc910cde	-0.01770633
116	0xbc803e7d	-0.015654797
117	0xbd9c90f7	-0.07644837
118	0xbdbd2a6d	-0.09236608
119	0xbd008603	-0.031377804
120	0xbc023706	-0.007947689
121	0xbb2bcede	-0.0026215832
122	0x3d1e3b43	0.038630735
123	0x3dd972bb	0.10617586
124	0x3e04c4fd	0.1296577
125	0x3d584998	0.05280456
126	0x3d4306f0	0.047614038
127	0x3cefeaf8	0.029286847
128	0x3ca1a659	0.019732641
129	0x3d8ec0b9	0.06970353
130	0x3c2a4460	0.010392278
131	0xbcd8fe6f	-0.02648851
132	0xbc69e8c3	-0.014276686
133	0xbcf3210a	-0.02967884
134	0xbd95c0c0	-0.07312155
135	0xbd01e230	-0.03170985
136	0xbd3a4e27	-0.045484688
137	0xbd7a16c2	-0.06105686
138	0xbd8e5b2a	-0.06950982
139	0xbd339e55	-0.04385217
140	0xbd1a022a	-0.03759972
141	0xbc9c1e40	-0.019057393
142	0xbd8b6c2b	-0.06807741
143	0xbdaf8bc3	-0.08571579
144	0xbd91813a	-0.07104726
145	0xbdc3077d	-0.09522913
146	0xbc2178d9	-0.0098554725
147	0x3d4fdf26	0.05074992
148	0x3d54d4a2	0.051960595
149	0x3d4019d7	0.046899643
150	0x3dbd1010	0.09231579
151	0x3dc3eb46	0.09566359
152	0x3d8aa5f8	0.06769937
153	0x3da60b11	0.081075795
154	0x3dbd70ea	0.09250052
155	0x3bc0e41b	0.0058865673
156	0x3dbdae38	0.09261745
157	0x3e45e032	0.19323805
158	0x3de007e6	0.109390065
159	0x3d0e65a6	0.03476491
160	0x3d1cee35	0.03831311
161	0x3cde2de6	0.027121495
162	0x3d22a7c7	0.039710786
163	0xbca07f2e	-0.019591894
164	0xbdb5f37c	-0.088843316
165	0xbd39a7c3	-0.045326006
166	0xbd215c33	-0.03939457
167	0xbd81abbb	-0.06331583
168	0xbcc9c403	-0.024629598
169	0xbd8c29d0	-0.068439126
170	0xbd7dd75e	-0.06197297
171	0xbda4278c	-0.080153555
172	0xbd92d143	-0.0716882
173	0xbc8e0404	-0.0173359
174	0x3c0ba540	0.008523285
175	0x3d623f86	0.055236362
176	0x3c6d9bbf	0.014502465
177	0x3c5f50ec	0.013630133
178	0x3c721203	0.014774802
179	0x3d0c4d38	0.03425333
180	0x3c4f7af7	0.012663594
181	0x3d22ff6d	0.039794374
182	0xbd406812	-0.04697425
183	0x3c05269b	0.00812688
184	0x3b7f66a7	0.0038971098
185	0x3d90b5c0	0.07065916
186	0xbd373f56	-0.044738136
187	0x3b1ac85d	0.002361796
188	0xbbe8d0e0	-0.007104978
189	0x3d2c8c4a	0.042125978
190	0x3de7f254	0.11325517
191	0x3db25169	0.08706934
192	0xbc5d8351	-0.013520078
193	0xbd50f681	-0.051016334
194	0xbdc2cb11	-0.09511388
195	0xbd21ff1e	-0.03954994
196	0xbc8a383d	-0.01687252
197	0xbd94d110	-0.07266438
198	0xbdae9018	-0.085235775
199	0xbda0a8fb	-0.078447305
200	0xbd4bfcd3	-0.04980166
201	0xbb85b46d	-0.0040803463
202	0x3da194bd	0.07889698
203	0x3d9594e9	0.07303793
204	0x3bba3fc7	0.0056838724
205	0x3cf01d55	0.029310862
206	0xbc1d3291	-0.0095945755
207	0xbc7d383b	-0.015455301
208	0x3cc56669	0.024096685
209	0xbbc5db5b	-0.006038112
210	0xbc63a354	-0.013893921
211	0xbd4c7790	-0.04991871
212	0xbccf5633	-0.025309658
213	0x3b85e45e	0.0040860614
214	0xbd4b33ba	-0.049609877
215	0xbd67aa2e	-0.05655878
216	0xbdde8b25	-0.108663835
217	0x3c1a8bde	0.009432761
218	0x3d8e101a	0.06936665
219	0x3e39a292	0.18128422
220	0x3c7aa899	0.015298986
221	0xbdd648cb	-0.10463103
222	0xbdcf2593	-0.101145886
223	0xbd21a292	-0.03946168
224	0xbd7ea240	-0.062166452
225	0xbdb3c253	-0.08777299
226	0xbd5d3d06	-0.054013275
227	0xbd962a36	-0.0733227
228	0xbd1e6e21	-0.038679246
229	0xbc907726	-0.01763494
230	0xbcceb2a7	-0.025231672
231	0xbc23ff0f	-0.010009541
232	0xbc3f5176	-0.011677137
233	0x3d0dbed2	0.03460581
234	0x3d5a1506	0.053242706
235	0xbcbd6c8c	-0.023123048
236	0xbcbd98d0	-0.023144156
237	0xbdc4f0a3	-0.0961621
238	0xbe274de7	-0.16338311
239	0xbd943957	-0.07237499
240	0xbd560f41	-0.05226064
241	0xbcb7aca6	-0.022421192
242	0xbd844988	-0.064593375
243	0xbd0d0172	-0.034425206
244	0xbcd33baa	-0.025785286
245	0x3d4472ca	0.047961034
246	0x3d963cb3	0.07335796
247	0x3e662c2e	0.2247779
248	0x3d81d945	0.06340269
249	0xbdd64f42	-0.10464336
250	0xbd8d3d54	-0.06896463
251	0xbda4c8ec	-0.08046135
252	0xbceafbbc	-0.02868449
253	0xbd2a9375	-0.041644532
254	0xbde2726c	-0.110569805
255	0xbdb9393c	-0.0904412

layers.2.sequential.0.bias f4 [50]
0	0x3d3c1f6e	0.04592841
1	0x3d88dd57	0.06682842
2	0x3d592066	0.053009413
3	0x3d9b2a29	0.07576401
4	0xbd20e750	-0.039283097
5	0x3c25f6e3	0.010129663
6	0x3bdb9499	0.006701064
7	0xbc8c5406	-0.01712991
8	0x3d211efd	0.039336193
9	0x3c977871	0.018490048
10	0x3b8a5403	0.0042214408
11	0x3c9a140c	0.018808387
12	0x3ca8e42d	0.020616615
13	0x3bc25d76	0.0059315516
14	0x3d34577b	0.04402874
15	0x3ce98ad9	0.02850859
16	0x3cb643bf	0.0222491
17	0x3d344380	0.044009686
18	0x3adbc8cb	0.0016768215
19	0x3dc11308	0.09427458
20	0x3d5adc89	0.053432975
21	0xbba8457f	-0.0051352377
22	0xbc149c62	-0.009070488
23	0xbc815505	-0.01578761
24	0x3d59e05f	0.053192493
25	0x3d46e9d1	0.04856283
26	0x3d4ca051	0.049957577
27	0x3c388042	0.011261048
28	0xbc8a10d3	-0.016853726
29	0xbbcf26d2	-0.0063217664
30	0x3db18407	0.0866776
31	0xbd3d5256	-0.0462211
32	0x3d17e76b	0.03708593
33	0xbcfbdfb7	-0.030746324
34	0x3d15a8e3	0.036538016
35	0x3d295d0b	0.0413485
36	0x3ce545e7	0.027987434
37	0x3dbe05b4	0.092784315
38	0x3cb1d12e	0.02170619
39	0x3ad39278	0.0016141674
40	0xbba0b95a	-0.004904908
41	0xbc4ff958	-0.0126937255
42	0x3d989c73	0.07451715
43	0xbcb5b431	-0.022180649
44	0xbccc9ab8	-0.02497612
45	0x3c57d1fb	0.013172622
46	0x3d95e64d	0.07319317
47	0x3cc0b045	0.023521552
48	0xbd00359f	-0.031301137
49	0x3cd65c24	0.026166983

layers.3.sequential.0.weight f4 [50, 50]
0	0xbe32d55d	-0.17464204
1	0x3e1c1d29	0.15245499
2	0xbde16bfe	-0.11006926
3	0xbd814424	-0.06311825
4	0x3d2c6254	0.04208596
5	0x3d672f5c	0.05644165
6	0xbded9579	-0.11600775
7	0xbc832127	-0.01600702
8	0x3d4a2563	0.04935206
9	0x3c475dc5	0.0121683525
10	0xbc613871	-0.013746367
11	0xbd8b2c6a	-0.06795581
12	0x3e53b0e8	0.20672953
13	0x3d6da33b	0.058016997
14	0xbca7270f	-0.020404367
15	0x3def01bf	0.11670255
16	0xbda85d44	-0.08220914
17	0x3ce9bd79	0.02853273
18	0x3e1fbc0d	0.1559908
19	0x3e77a512	0.24184063
20	0xbe23ac72	-0.15983751
21	0xbd59b82c	-0.053154156
22	0x3dc3f110	0.095674634
23	0x3c258da5	0.0101045715
24	0x3dad7f75	0.08471576
25	0xbe9b0ae3	-0.30281743
26	0xbe878b8f	-0.26473662
27	0x3dea17a8	0.11430293
28	0x3e6f43c3	0.23365693
29	0x3e21f1c0	0.15814877
30	0x3d564dbe	0.052320234
31	0xbe66d96b	-0.22543876
32	0x3de1e72f	0.11030423
33	0x3da79fc1	0.081847675
34	0x3d97671c	0.073927134
35	0xbd03b2c9	-0.032152925
36	0x3e51e15a	0.20496121
37	0x3df953a3	0.121741556
38	0x3e40c363	0.18824534
39	0xbec49680	-0.38396072
40	0x3d29a9b6	0.041421615
41	0x3df18f8f	0.1179496
42	0x3e07c039	0.13256921
43	0x3d801b49	0.06255204
44	0x3e0ac971	0.13553406
45	0xbd816792	-0.063185826
46	0x3d7d4fae	0.061843567
47	0x3e1369bd	0.14395805
48	0xbe154ac0	-0.14579296
49	0xbdcec495	-0.10096089
50	0xbd6febe0	-0.058574557
51	0xbd88fa4e	-0.06688367
52	0x3e0ae998	0.13565671
53	0xbdb33aa9	-0.08751423
54	0x3cb04de5	0.021521518
55	0x3dbf5cde	0.09343885
56	0xbe9c05f9	-0.30473307
57	0x3dc8c1e7	0.09802609
58	0xbd9e56c6	-0.077313945
59	0xbeb74279	-0.35792902
60	0xbe264b17	-0.16239582
61	0xbec9ff1d	-0.39452448
62	0xbdc380d0	-0.095460534
63	0xbe385026	-0.17999324
64	0x3e38e179	0.18054761
65	0x3e09d99c	0.13461918
66	0x3d728484	0.059208408
67	0xbe5e5320	-0.21711397
68	0xbe24f3d3	-0.16108637
69	0x3e7608fd	0.24026866
70	0x3e22cfe0	0.1589961
71	0x3defb01d	0.11703513
72	0x3d354542	0.044255503
73	0x3b4781b9	0.003044231
74	0x3e7801bd	0.24219413
75	0xbd250ea1	-0.040297154
76	0xbd4321b5	-0.047639567
77	0xbbde5099	-0.0067845103
78	0x3e02dc00	0.12779236
79	0x3eaa74cf	0.33292243
80	0x3e0a6f94	0.13519126
81	0xbe02ded9	-0.12780322
82	0xbe52123d	-0.2051477
83	0xbdd4b2de	-0.10385679
84	0xbcb46646	-0.022021424
85	0xbe13e6ff	-0.14443587
86	0x3dda5576	0.10660832
87	0x3e2e3511	0.1701243
88	0x3d3aee53	0.04563744
89	0x3d8ebaf1	0.0696925
90	0x3e978fb9	0.2960184
91	0xbeae539d	-0.34048167
92	0xbdb8355b	-0.08994552
93	0xbcc4fe3a	-0.024047006
94	0x3cc6b8f9	0.024258124
95	0xbdd7fcc7	-0.1054626
96	0x3dcb17a2	0.09916617
97	0xbdcac61b	-0.09901067
98	0x3dafa5c4	0.08576539
99	0xbda53b2a	-0.08067925
100	0x3d4d8513	0.050175738
101	0x3e60eeba	0.21966067
102	0x3e1cc283	0.15308575
103	0x3e44a933	0.1920517
104	0x3d8832ff	0.06650352
105	0x3a9abe7e	0.0011806039
106	0xbaf3876a	-0.0018579785
107	0xbdbbd1dc	-0.09170887
108	0x3d196732	0.03745193
109	0x3e00ef4b	0.12591283
110	0xbe032252	-0.12806061
111	0xbe0a4e81	-0.1350651
112	0x3bc19cdf	0.005908593
113	0x3d5e25f2	0.054235406
114	0x3dbf3dbe	0.09337948
115	0x3e1195f2	0.14217356
116	0x3c4b6235	0.012413551
117	0xbd38f1dd	-0.045152534
118	0xbe08b463	-0.13350062
119	0xbcd45ac3	-0.025922185
120	0x3de79217	0.11307161
121	0x3e378157	0.17920433
122	0xbda95810	-0.0826875
123	0xbd9fefb3	-0.07809391
124	0xbe180621	-0.14846088
125	0x3e205a08	0.15659344
126	0x3e304695	0.17214425
127	0xbdbc6f2d	-0.092008926
128	0x3e635855	0.22201665
129	0x3d3533f7	0.04423901
130	0xbd9b511f	-0.07583832
131	0x3cb39699	0.021922396
132	0xbd150463	-0.036381137
133	0xbd382040	-0.04495263
134	0x3e3eeb66	0.18644485
135	0x3e15d1b5	0.14630778
136	0xbce75c0b	-0.028242132
137	0xbdc0bbfc	-0.09410855
138	0x3e01ed64	0.12688214
139	0x3e011e7e	0.12609288
140	0xbd9813ab	-0.07425626
141	0x3da09419	0.078407474
142	0x3c98d1c0	0.018654704
143	0x3dfc0e53	0.1230742
144	0xbce69ba5	-0.028150389
145	0x3e25bd05	0.16185386
146	0x3d367bb5	0.04455157
147	0x3c8a81a7	0.016907526
148	0x3ebe0f81	0.37121204
149	0xbd9d1419	-0.07669849
150	0x3e41b97b	0.18918411
151	0x3d8dc1f5	0.0692176
152	0xbd8c5611	-0.06852353
153	0x3db7f1ed	0.089816906
154	0xbc096f08	-0.008388288
155	0x3accf902	0.0015638175
156	0x3e0e9716	0.13924822
157	0xbda373a2	-0.079810396
158	0x3e3eb846	0.18624982
159	0xbe2e6e8f	-0.17034362
160	0xbe06a65f	-0.13149403
161	0x3e617d28	0.220204
162	0x3d7a4e9a	0.061110117
163	0xbc96bd9b	-0.018400958
164	0xbcf22a79	-0.029561268
165	0xbe008d68	-0.12553942
166	0xbd09465c	-0.033514366
167	0xbe4b2771	-0.19839264
168	0xbe3a7021	-0.18206836
169	0x3e486779	0.19570722
170	0x3de83aa6	0.11339311
171	0xbe746c5e	-0.23869464
172	0xbd06692f	-0.032815155
173	0xbde9372d	-0.11387477
174	0x3e8823d3	0.26589832
175	0x3e492673	0.19643573
176	0xbc8006a8	-0.015628174
177	0x3d82f4cc	0.063943475
178	0x3e120e82	0.14263347
179	0xbb812846	-0.0039415685
180	0x3c5c440d	0.013443959
181	0xbe01a2f3	-0.12659816
182	0xbe29585c	-0.16537613
183	0x3d445c0a	0.047939338
184	0x3e0cc5bc	0.13747305
185	0xbd5e0134	-0.054200366
186	0x3da62e3f	0.081142895
187	0xbdbe5a4f	-0.09294569
188	0xbe73bcbd	-0.23802467
189	0x3e511e33	0.20421676
190	0xbd649c99	-0.055813406
191	0xbe95e692	-0.29277474
192	0x3e046e63	0.12932734
193	0x3dc298c4	0.09501794
194	0x3c96e798	0.01842098
195	0x3e671152	0.22565201
196	0xbc4fb1bf	-0.012676655
197	0xbdf25877	-0.118332796
198	0x3e92ea0f	0.28694198
199	0xbdc342bf	-0.09534215
200	0x3dbbfdd1	0.09179271
201	0xbd4ad4cb	-0.04951934
202	0x3e2bed36	0.16789708
203	0x3dfd87fd	0.12379453
204	0x3db060f0	0.08612239
205	0x3d2499af	0.040185627
206	0x3da7c3e3	0.08191659
207	0xbd3c266f	-0.04593509
208	0x3d9c55f4	0.07633582
209	0x3e84778c	0.25872457
210	0x3d5eba00	0.054376602
211	0xbdf39cc4	-0.11895135
212	0x3e4034d4	0.18770152
213	0x3d95f213	0.073215626
214	0x3e45fa06	0.19333658
215	0x3daa3fbb	0.08312937
216	0xbd8b1dbc	-0.06792781
217	0x3e33e15f	0.17566441
218	0x3e238a65	0.15970762
219	0xbcfd6fea	-0.030937154
220	0xbd992ff5	-0.0747985
221	0x3ec60e83	0.38682947
222	0x3d1442bb	0.03619645
223	0x3c9edf08	0.019393459
224	0xbd6c418b	-0.057679694
225	0x3e87e034	0.2653824
226	0x3dfea060	0.12432933
227	0xbc87ec32	-0.016592119
228	0xbd0628f3	-0.032753896
229	0xbe0c84d0	-0.13722539
230	0x3c0b1993	0.008489984
231	0x3deddcfd	0.11614416
232	0x3df641b9	0.12024254
233	0xbc9e6d35	-0.019339183
234	0x3e0ff202	0.14057162
235	0x3dc16460	0.09442973
236	0xbd86e6e2	-0.06587006
237	0xbe10d5be	-0.14144036
238	0xb9a35eb4	-0.00031160342
239	0x3e59425a	0.21216717
240	0xbd8a8135	-0.067629255
241	0x3cb259bc	0.021771304
242	0x3d042b75	0.032268006
243	0xbcccb5af	-0.024988977
244	0xbdc46b93	-0.09590831
245	0x3dade653	0.084911965
246	0xbe10765e	-0.14107653
247	0x3db9b8c3	0.090684436
248	0x3dc873c2	0.09787704
249	0xbdea6547	-0.11445098
250	0xbd9f06fe	-0.077650055
251	0xbd168982	-0.03675223
252	0xbe04abbe	-0.1295614
253	0xbdc98e55	-0.09841601
254	0x3db98478	0.090584695
255	0xbdcb0799	-0.099135585

layers.3.sequential.0.bias f4 [50]
0	0x3d382a06	0.04496195
1	0x3e138e0c	0.14409655
2	0x3d86a7ef	0.065749995
3	0x3cae913c	0.021309488
4	0xbd9402ac	-0.07227072
5	0xbd2c7079	-0.04209945
6	0x3e22dbad	0.15904112
7	0x3e1bf96e	0.15231869
8	0x3d8e3c68	0.06945115
9	0x3d8917a9	0.06693966
10	0x3e119be4	0.14219624
11	0xbd74206f	-0.059601244
12	0x3e4383cd	0.19093247
13	0x3e0f8255	0.14014561
14	0xbd49e7b4	-0.049293235
15	0x3d708fa8	0.05873075
16	0xbd2c85ce	-0.042119794
17	0x3e67a62e	0.22621986
18	0x3daf99fb	0.08574291
19	0xbdd440e3	-0.10363939
20	0x3cc9ccce	0.024633791
21	0xbde6db99	-0.11272354
22	0x3cd9cb91	0.026586326
23	0xbcfda001	-0.030960085
24	0x3d6afc7a	0.057369687
25	0x3e4e880e	0.20169088
26	0x3dba4d64	0.09096792
27	0xbd472ad5	-0.048624832
28	0xbd27a5e0	-0.040929675
29	0x3d952fd6	0.072845146
30	0x3dbd719d	0.09250186
31	0xbde2771b	-0.11057874
32	0xbd255131	-0.040360633
33	0x3e0057b0	0.1253345
34	0x3d1afdf2	0.037839837
35	0x3d4026d8	0.046912044
36	0x3e0465cd	0.12929459
37	0x3dac5a11	0.08415616
38	0x3db9de8a	0.09075649
39	0x3de6c1bb	0.1126742
40	0x3e1c1335	0.15241702
41	0x3db1218a	0.08648975
42	0x3dc05c2c	0.093925804
43	0x3df128dd	0.11775372
44	0xbdbb688a	-0.091507986
45	0x3d5c3a88	0.053766757
46	0xbda50222	-0.080570474
47	0x3e47a46b	0.19496314
48	0x3dfd511c	0.12368986
49	0x3d9e0e22	0.07717539

layers.4.sequential.0.weight f4 [50, 50]
0	0x3d0a3baf	0.033748325
1	0x3e75c107	0.23999415
2	0x3da9db4f	0.08293783
3	0x3d54d8de	0.051964633
4	0x3dc7b8b9	0.0975203
5	0xbde6a94b	-0.11262759
6	0xbe0f46cb	-0.13991849
7	0x3d55e7b6	0.05222293
8	0x3dee87e4	0.11647013
9	0x3d042397	0.032260504
10	0x3e0e85f7	0.13918291
11	0xbd993442	-0.074806705
12	0xbd0a27ec	-0.03372948
13	0xbda4e3e4	-0.08051279
14	0x39a858d4	0.0003210964
15	0x3e12e49e	0.14345023
16	0x3e408d7d	0.18803973
17	0x3da12246	0.07867865
18	0xbdc4cfe0	-0.096099615
19	0x3d18bef8	0.037291497
20	0x3e96e4d4	0.29471457
21	0xbe209f3c	-0.15685743
22	0x3b52cf7e	0.0032167132
23	0x3df1631a	0.1178648
24	0x3dfacbb5	0.12245885
25	0xbe2bbe92	-0.16771916
26	0x3d4f6fc8	0.050643712
27	0x3db9e3eb	0.09076675
28	0x3e14c715	0.14529069
29	0xbd639d1f	-0.055569764
30	0x3e6cc5b2	0.2312229
31	0x3e952335	0.29128423
32	0x3db0ff7b	0.08642479
33	0x3dee65e4	0.11640528
34	0xbeb6b47d	-0.35684577
35	0xbd0cdb08	-0.034388572
36	0xbdc167d9	-0.094436355
37	0xbc19cea1	-0.009387643
38	0x3cf37da6	0.029723
39	0x3d55f5e2	0.052236445
40	0xbde17893	-0.11009326
41	0x3ce6fc8a	0.028196592
42	0xbd1d440c	-0.038394973
43	0x3e6309d2	0.22171715
44	0xbe2077d6	-0.15670714
45	0xbcbba971	-0.022907944
46	0xbd86c584	-0.06580642
47	0x39360cd8	0.00017361657
48	0xbd70c93f	-0.058785673
49	0xbd4e37e3	-0.050346266
50	0xbdf71efe	-0.12066458
51	0xbdf5e26d	-0.12006078
52	0xbd024a5a	-0.03180919
53	0xbde33a6b	-0.11095127
54	0xbd8970db	-0.067109786
55	0x3dbc6896	0.09199636
56	0x3d033df8	0.03204152
57	0x3ca8a0b6	0.020584445
58	0x3dbf5349	0.09342057
59	0xbd9f8a08	-0.07789999
60	0xbd2ea95b	-0.04264198
61	0xbd7a30c8	-0.061081678
62	0x3d9b86ee	0.07594095
63	0xbc38f1f7	-0.011288158
64	0x3d5fb332	0.054614253
65	0x3dd494ea	0.103799656
66	0xbb8e95fb	-0.004351375
67	0xbc5cbb51	-0.013472394
68	0x3d849fce	0.06475793
69	0xbd4ac416	-0.04950341
70	0xbc9fa0a2	-0.019485775
71	0x3d53dc64	0.051723853
72	0x3c8982bf	0.016785977
73	0xbdef3a2b	-0.116810165
74	0x3d96d828	0.07365447
75	0x3cd78f5d	0.026313478
76	0xbcf7a5e4	-0.03023047
77	0x3b3b2c63	0.0028560392
78	0x3dcd2364	0.10016516
79	0xbd0a4b00	-0.03376293
80	0xbdc6b9b3	-0.09703388
81	0xbe21c22d	-0.15796728
82	0xbd8c7944	-0.06859067
83	0x3d08a813	0.033363413
84	0x3d92fa4e	0.07176648
85	0xbe09901e	-0.13433883
86	0x3cd17cd8	0.025572225
87	0xbe09fd6d	-0.1347558
88	0xbddbfb80	-0.10741329
89	0xbd82d7d1	-0.0638882
90	0xbe09ad61	-0.13445045
91	0x3db0936c	0.086218685
92	0xbe0de2cf	-0.13856052
93	0xbd541c02	-0.051784523
94	0xbdd4a7fa	-0.103836015
95	0xbe190b78	-0.14945781
96	0xbc544422	-0.012955697
97	0xbd4f4207	-0.050600078
98	0xbdc8455d	-0.09778855
99	0xbb0de72a	-0.0021652677
100	0xbddce871	-0.10786522
101	0x3d4efd5f	0.050534602
102	0xbd89e9a8	-0.067340195
103	0xbd9c5b99	-0.07634658
104	0x3ccff18b	0.025383731
105	0x3cc03dc0	0.023466945
106	0x3d81885b	0.06324836
107	0x3d4fc284	0.050722614
108	0xbe13ebca	-0.14445415
109	0xbd6827f8	-0.056678742
110	0xbb0784ec	-0.0020678593
111	0xbd39c656	-0.045355164
112	0xbe279452	-0.16365173
113	0x3db94e59	0.09048147
114	0xbdcae440	-0.099068165
115	0xbd17af2e	-0.0370323
116	0x3cc2e849	0.023792403
117	0x3d5f1248	0.054460794
118	0xbc8b4c37	-0.017004116
119	0xbd0a6c67	-0.033794787
120	0x3dbdc97a	0.09266944
121	0xbd131444	-0.035908
122	0x3dc58538	0.0964455
123	0x3de18c55	0.11013094
124	0xbe18b133	-0.14911346
125	0xbdd73391	-0.105078824
126	0xbe0a0b3c	-0.13480848
127	0xbdf73f16	-0.120725796
128	0x3c8fe27c	0.01756405
129	0xbd8fd64f	-0.07023298
130	0x3d7e98e1	0.062157515
131	0x3d22d6eb	0.039755743
132	0xbdeebe28	-0.11657363
133	0xbdbcde1c	-0.092220515
134	0xbdd24202	-0.10266496
135	0x38ca5fbd	9.649943e-05
136	0x3d751e81	0.059843544
137	0x3d08bd64	0.033383742
138	0x3d2ace09	0.041700397
139	0xbdb4e91a	-0.08833523
140	0x3dc14059	0.094361015
141	0xbd958d44	-0.07302335
142	0xbb333a8e	-0.0027348134
143	0xbdcc9417	-0.099891834
144	0xbab41eac	-0.0013742051
145	0xbc8830fb	-0.016624918
146	0x390d20da	0.00013459046
147	0x3c350d8d	0.011050594
148	0x3cfde879	0.03099464
149	0x3d64594d	0.055749226
150	0x3e57dff7	0.2108153
151	0x3e2fdc20	0.17173815
152	0xbe242889	-0.16031088
153	0xbe2f1469	-0.1709763
154	0xbe3d303f	-0.18475436
155	0xbdffe203	-0.1249428
156	0x3e2be616	0.1678699
157	0x3db92270	0.090397716
158	0xbd30e7ed	-0.04318993
159	0x3e7f3663	0.2492309
160	0x3e66360c	0.22481555
161	0xbc3d5a60	-0.011557192
162	0xbc7a4086	-0.015274173
163	0x3e8c41d2	0.27393967
164	0x3dc4fccc	0.0961853
165	0xbd9db7a1	-0.0770104
166	0xbdfb7739	-0.12278599
167	0xbd761e43	-0.060087454
168	0x3e182aa8	0.14860022
169	0xbdec1904	-0.11528209
170	0x3e2a8bae	0.16654846
171	0x3d8f9a0e	0.070118055
172	0x3db00500	0.08594704
173	0x3e061e98	0.13097608
174	0xbe6145a3	-0.2199922
175	0x3e016a0d	0.12638111
176	0x3e1a4050	0.15063596
177	0xbdf6ab74	-0.12044421
178	0x3e0c331c	0.13691372
179	0x3c9d340c	0.019189857
180	0x3e6d0ba7	0.23148976
181	0x3d3a59db	0.04549585
182	0x3db0cc5f	0.08632731
183	0xbda2abf4	-0.07942954
184	0xbd79aa9b	-0.060953718
185	0x3c788044	0.0151673
186	0x3ddf978e	0.10917579
187	0x3d04bc1b	0.032405954
188	0xbe966664	-0.29374993
189	0x3e0e4902	0.13895038
190	0xbd29d46e	-0.041462354
191	0x3e06c7ec	0.13162202
192	0x3d9200e0	0.07129073
193	0x3c310902	0.01080537
194	0x3db43aa7	0.088002495
195	0x3e00d6ca	0.12581936
196	0x3c7ce398	0.015435122
197	0x3e732d0b	0.23747651
198	0xbe93fd70	-0.28904295
199	0xbe040f26	-0.12896404
200	0xbdd284eb	-0.10279258
201	0x3ec2cf26	0.38048667
202	0xba4d1bad	-0.00078242534
203	0x3ea8ab91	0.32943395
204	0x3cea828d	0.028626705
205	0x3d6da758	0.05802092
206	0xbd21fb10	-0.039546072
207	0x3e150d68	0.14555895
208	0xbe3d9f64	-0.18517834
209	0xbe4cde2e	-0.2000663
210	0x3db41e94	0.08794895
211	0x3dc04b2f	0.0938934
212	0x3e6e9060	0.23297262
213	0xbdd9cc63	-0.10634687
214	0x3cccd25c	0.02500265
215	0x3c832e1a	0.016013194
216	0x3dbf97c1	0.09355117
217	0x3df6f461	0.1205833
218	0xbe18b2ef	-0.14912008
219	0xbe0a0f74	-0.13482457
220	0x3e8d94af	0.276525
221	0x3cb34dcb	0.02188768
222	0x3dd493ab	0.10379728
223	0x3d69ba0b	0.05706219
224	0xbcde376e	-0.02712604
225	0x3d662fcf	0.056197938
226	0xbd55248d	-0.05203681
227	0x3dbd2f2d	0.09237514
228	0xbe8ddd61	-0.2770796
229	0x3c137622	0.009000333
230	0xbc09475e	-0.008378832
231	0xbe1e094e	-0.15433237
232	0xbc98e2f4	-0.018662907
233	0x3d261cc3	0.040554773
234	0xbd81db75	-0.06340686
235	0x3dc3df7f	0.09564113
236	0x3e1e44ab	0.15455882
237	0x3e1df929	0.15427078
238	0x3e86f8a2	0.26361567
239	0x3da240c9	0.07922513
240	0xbda7837f	-0.08179378
241	0xbbc2be57	-0.0059431004
242	0x3e41f123	0.18939643
243	0x3c53b9cb	0.012922714
244	0x3dd0477e	0.10169886
245	0x3e1605e6	0.14650688
246	0x3dd0f1fa	0.10202403
247	0xbd0b8ffb	-0.034072857
248	0xbcdfdb77	-0.027326329
249	0xbe0815ca	-0.13289562
250	0x3dead5e9	0.114665814
251	0xbe9e3e03	-0.30906686
252	0x3cb7dd9e	0.022444542
253	0x3d8f272f	0.069898956
254	0x3dd8a140	0.10577631
255	0xbdd6b543	-0.10483792

layers.4.sequential.0.bias f4 [50]
0	0x3ddf284f	0.1089636
1	0xbdff8184	-0.12475875
2	0xbe0e802b	-0.1391608
3	0x3d9d5944	0.07683042
4	0xbd00345b	-0.03129993
5	0x3de2a2e7	0.110662274
6	0x3db4551f	0.08805298
7	0x3cc5c76e	0.024142947
8	0x3dfd2d0d	0.123621084
9	0x3c1d5a55	0.009604056
10	0x3d9cc049	0.07653863
11	0x3e112cd6	0.1417726
12	0xbce40edc	-0.027839117
13	0xbdad33ba	-0.08457132
14	0x3e384359	0.17994441
15	0x3d8513e8	0.064979374
16	0xbd656d88	-0.05601266
17	0xbe099988	-0.13437474
18	0x3de3411e	0.110964045
19	0x3e28da7b	0.16489594
20	0xbdc0930a	-0.094030455
21	0x3c81fa8b	0.015866539
22	0x3d9e63a9	0.077338524
23	0xbda7402d	-0.081665374
24	0xbcbbf7a5	-0.022945235
25	0x3bc85567	0.0061136964
26	0xbdb2a1d0	-0.087222695
27	0x3b7dc92d	0.0038724646
28	0xbd9a315b	-0.07528945
29	0xbb44473d	-0.0029949688
30	0xbda7a2dc	-0.0818536
31	0xbd65ce53	-0.05610497
32	0x3def284d	0.11677609
33	0x3da8d040	0.082428455
34	0xbd485887	-0.04891255
35	0x3a897dfd	0.0010489818
36	0xbe0beaab	-0.13663737
37	0x3c6010f5	0.013675918
38	0xbb41ea8b	-0.0029589261
39	0xbdbcbf00	-0.09216118
40	0x3e19325e	0.1496062
41	0xbda0877c	-0.078383416
42	0xbd8a1c57	-0.06743687
43	0xbd71082a	-0.058845676
44	0x3da5ad4f	0.080896966
45	0xbcabc30a	-0.020967025
46	0xbc934468	-0.017976955
47	0xbd8be190	-0.06830132
48	0x3e1b4877	0.15164362
49	0xbd25e041	-0.04049707

layers.5.sequential.0.weight f4 [50, 50]
0	0xbdeaaacf	-0.114583604
1	0x3d1ddbe1	0.03853977
2	0x3e10acbe	0.14128396
3	0x3dad153b	0.08451315
4	0x3d1ed03a	0.0387728
5	0xbdf8ebfb	-0.12154385
6	0x3def8150	0.11694586
7	0xbcb997b5	-0.022655347
8	0x3d5d3421	0.054004792
9	0x3dbda511	0.092599995
10	0x3db2906d	0.08718953
11	0x3d931eae	0.07183586
12	0xbc14383b	-0.0090466095
13	0xbd2c51ac	-0.042070076
14	0xbe0e49ab	-0.1389529
15	0x3dc6750b	0.09690293
16	0xbced90a5	-0.028999636
17	0xbd228244	-0.039675012
18	0xbddab81f	-0.106796496
19	0xbdac2e8a	-0.08407314
20	0xbd8594f9	-0.06522555
21	0xbd9f8dc6	-0.07790713
22	0xbdf454a9	-0.1193021
23	0xbd3ad18f	-0.045610007
24	0x3dd7e04c	0.10540828
25	0xbe12b804	-0.14328009
26	0xbdcc28e0	-0.09968734
27	0xbd62fd59	-0.055417392
28	0xbd2c7171	-0.042100374
29	0xbd46fd4d	-0.04858141
30	0xbcbdf75f	-0.023189245
31	0x3c584687	0.013200409
32	0xbda92761	-0.08259464
33	0xbd5a3e80	-0.05328226
34	0xbe148b6f	-0.14506315
35	0x3d9ec3ac	0.07752165
36	0xbd6bab18	-0.057536215
37	0x3ddfbc74	0.109246165
38	0xbdebf54b	-0.11521395
39	0xba9a84a2	-0.0011788795
40	0x3ceece2a	0.029151041
41	0xbdc47fbb	-0.09594675
42	0xbc8fd89e	-0.017559346
43	0x3dd2221d	0.10260413
44	0x3d7d8f2e	0.061904125
45	0x3ae019dd	0.0017097552
46	0xbd993456	-0.074806854
47	0x3c81668a	0.015795965
48	0xbd740e72	-0.05958409
49	0x3dab5a4d	0.08366833
50	0xbddb1ad7	-0.10698479
51	0xbc42c46f	-0.011887654
52	0xbd4cf95b	-0.05004249
53	0xbc5fe9c9	-0.013666579
54	0xbe189671	-0.14901139
55	0x3d58d352	0.052935906
56	0xbd502e45	-0.050825376
57	0x3c2bdc66	0.010489559
58	0xbdaae763	-0.08344915
59	0xbc3a5e90	-0.0113750845
60	0x3dd5d9ff	0.1044197
61	0xbe03eaf1	-0.12882592
62	0xbdb6f7a4	-0.089339525
63	0x3d8c521f	0.06851601
64	0xbd7d013c	-0.061768755
65	0x3e057dc7	0.13036261
66	0xbda6c1cc	-0.081424326
67	0xbd3c0fdd	-0.045913566
68	0xbc2af1ab	-0.010433595
69	0x3da473f2	0.08029927
70	0xbd393f51	-0.0452264
71	0xbdc24e23	-0.0948756
72	0xbd9c305c	-0.07626411
73	0xbbb8f12f	-0.0056439857
74	0x3d1a4d49	0.03767136
75	0x3d73514e	0.05940371
76	0xbe0d43b0	-0.13795352
77	0xbe0f37af	-0.13986085
78	0xbcb922a6	-0.02259953
79	0x3dbe76d0	0.093000054
80	0xbc927958	-0.017880127
81	0xbd89cd52	-0.06728615
82	0xbe0d5104	-0.13800436
83	0xbe0e96b7	-0.1392468
84	0xbe05e86c	-0.13076943
85	0xbd781ffb	-0.060577374
86	0x3dbd7535	0.09250871
87	0xbd8b2783	-0.06794646
88	0x3dff0a7f	0.12453174
89	0x3d0ebcb9	0.03484795
90	0x3d528b04	0.051402107
91	0x3d533a80	0.05156946
92	0x3df3b23d	0.11899231
93	0xbdf9eddf	-0.122035734
94	0x3dacc466	0.084358975
95	0x3b64d320	0.003491588
96	0x3d2bb19b	0.041917425
97	0xbce9f624	-0.028559752
98	0x3c9fb61c	0.019496016
99	0xbd85565d	-0.06510613
100	0xbbf4c171	-0.007469349
101	0x3d6793df	0.056537505
102	0x3c95d38f	0.018289356
103	0xbdb92c9d	-0.090417124
104	0x3cd43408	0.025903717
105	0xbdaeaa89	-0.08528621
106	0xbd86f1e6	-0.06589107
107	0x3da6994e	0.08134709
108	0x3dd33a88	0.10313898
109	0x3bb4c5f1	0.0055167605
110	0xbe19f002	-0.15032962
111	0xbd0ce1ba	-0.034394957
112	0xbe0ef510	-0.13960671
113	0xbe178e5f	-0.14800404
114	0x3dc8de95	0.09808079
115	0xbdad6c32	-0.08467902
116	0xbe200cd1	-0.15629889
117	0xbd364f60	-0.04450929
118	0xbdf75ae0	-0.1207788
119	0xbd898616	-0.06715028
120	0xbdc947f5	-0.09828178
121	0xbe17595a	-0.14780179
122	0xbbb41e04	-0.005496742
123	0x3cf8a8e7	0.030353976
124	0xbe0cc875	-0.13748343
125	0xbd2d98f2	-0.04238219
126	0xbd6db851	-0.058037106
127	0x3dadec23	0.08492305
128	0x3d5fc412	0.054630347
129	0x3d663dee	0.056211405
130	0x3d06ea94	0.032938555
131	0xbded9b78	-0.11601919
132	0xbd97cf8c	-0.07412633
133	0x3dbaad71	0.091151126
134	0x3d350580	0.0441947
135	0xbbd89318	-0.006609332
136	0x3d9e3ef8	0.07726854
137	0xbce6baa7	-0.028165175
138	0xbe0b7efb	-0.13622658
139	0xbc826bff	-0.015920637
140	0x3d1020a5	0.035187382
141	0xbe16bf9b	-0.14721529
142	0x3c6dface	0.0145251285
143	0xbdbe7bde	-0.093009695
144	0x3a632634	0.00086650555
145	0x3cd7281e	0.026264247
146	0x3dbd3c8c	0.09240064
147	0x3d882908	0.06648451
148	0xbd9f3093	-0.07772937
149	0x3dd678d9	0.104722686
150	0xbcb0b9f2	-0.02157304
151	0x3dd7572e	0.10514675
152	0x3d608593	0.054814886
153	0x3e3c2ba2	0.1837602
154	0x3e269bfd	0.16270442
155	0xbe33e788	-0.17568791
156	0xbd0a9e07	-0.033842113
157	0x3e4593ef	0.19294713
158	0xbdd43187	-0.10361009
159	0x3cc66359	0.024217295
160	0x3e3ff2c8	0.18744957
161	0x3ce356a1	0.027751269
162	0xbe241f53	-0.16027574
163	0x3e62cd5d	0.22148652
164	0xbdf54903	-0.119768165
165	0xbe6f0671	-0.23342301
166	0x3d5b7a47	0.05358341
167	0xbd592328	-0.053012043
168	0x3e586d3b	0.21135418
169	0x3cfc82c2	0.030824069
170	0x3b727b43	0.003699974
171	0x3e7133e7	0.23554955
172	0xbbc51214	-0.006014118
173	0x3e0cdcd2	0.13756111
174	0xbda013c6	-0.078162715
175	0xbd878c59	-0.06618566
176	0x3dd249ee	0.10268007
177	0xbceb3a11	-0.028714212
178	0xbe2bbf42	-0.16772178
179	0xbd8aadcb	-0.0677143
180	0xbd133edb	-0.035948616
181	0x3d16288e	0.03665977
182	0xbbcd66e6	-0.00626837
183	0xbdb43d65	-0.088007726
184	0xbcb201f0	-0.02172944
185	0x3e49332d	0.19648428
186	0x3e0bfad9	0.1366991
187	0xbe4dcca9	-0.20097603
188	0x3ceb0b80	0.028692007
189	0xbcc55d31	-0.024092289
190	0x3d59600c	0.053070113
191	0xbe29e9cd	-0.16593094
192	0xbce224ef	-0.027605502
193	0xbb4e571c	-0.0031485027
194	0xbeb770bd	-0.358282
195	0x3dd0f743	0.102034114
196	0x3e6d7975	0.23190863
197	0x3e465fe7	0.19372521
198	0x3e785cf1	0.24254204
199	0xbd9a61eb	-0.075382076
200	0x3e93692d	0.2879118
201	0xbd33b41d	-0.04387294
202	0xbd90b862	-0.07066418
203	0xbc4e1af2	-0.012579666
204	0xbe55353a	-0.20821086
205	0xbd9b4800	-0.07582092
206	0x3d0b212a	0.033967175
207	0x3e79b8af	0.24386857
208	0x3db3e6bd	0.08784244
209	0x3e367c3b	0.17820828
210	0x3e245e46	0.16051587
211	0x3dffafc4	0.124846965
212	0x3debc9d0	0.11513102
213	0xbe4292dc	-0.19001335
214	0xbe2587c0	-0.16165066
215	0x3e8ca1b3	0.27467117
216	0xbe2df5e6	-0.16988334
217	0x3cda8b45	0.026677737
218	0x3e084358	0.1330694
219	0x3da90d17	0.0825445
220	0x3e4a7b6b	0.19773643
221	0xbe292b26	-0.16520366
222	0x3e482c3c	0.19548124
223	0xbdd1d290	-0.1024524
224	0xbd9ace65	-0.07558898
225	0xbd11df97	-0.035613623
226	0xbc90a771	-0.017657967
227	0x3e356419	0.17713965
228	0xbd82530c	-0.06363496
229	0xbcd59d71	-0.02607605
230	0xbccdf479	-0.025140988
231	0xbd79d5cb	-0.060994904
232	0x3de42b62	0.11141087
233	0x3e15c7b7	0.14626966
234	0x3e462b08	0.19352353
235	0x3deb47cf	0.11488306
236	0xbdd7e68b	-0.105420195
237	0x3b72e1ec	0.003706093
238	0xbda6bd64	-0.08141592
239	0x3e1c7d4a	0.15282169
240	0x3e53bb53	0.20676927
241	0x3c2b0d66	0.010440206
242	0x3de85a4a	0.11345346
243	0x3c29aa15	0.010355492
244	0x3e75f605	0.2401963
245	0xbd40892f	-0.04700583
246	0xbd7f519a	-0.06233368
247	0x3e16d9dc	0.14731544
248	0x3d91c7b0	0.071181655
249	0x3dc4232c	0.09577021
250	0xbd2aa1b1	-0.041658107
251	0xbdae6caf	-0.085168235
252	0x3de3866c	0.11109623
253	0xbd84cf9c	-0.06484911
254	0xbdae422b	-0.08508714
255	0x3cdf73e7	0.027276946

layers.5.sequential.0.bias f4 [50]
0	0xbd593622	-0.05303014
1	0xbe046246	-0.12928113
2	0xbe1a2adc	-0.15055412
3	0xbd01640c	-0.031589553
4	0x3e0ea6b4	0.1393078
5	0x3e0867e9	0.13320889
6	0x3d3fab22	0.046794064
7	0x3d7fe131	0.06247062
8	0x3dc70590	0.09717858
9	0xbce4d78c	-0.027934812
10	0xbdad6f9d	-0.08468554
11	0x3d764ba5	0.060130734
12	0x3db6e3d3	0.08930173
13	0xbd484045	-0.048889417
14	0x3db9cd00	0.09072304
15	0x3d59511e	0.053055875
16	0xbd9e2c19	-0.07723255
17	0xbd9a2785	-0.07527069
18	0xbe1c3290	-0.15253663
19	0xbcf25ea6	-0.029586148
20	0x3dcf0651	0.10108627
21	0x3d8861ee	0.066593036
22	0x3d9687b9	0.07350106
23	0x3d869438	0.06571239
24	0x3da9e8ff	0.082963936
25	0xbd1fb57a	-0.03899143
26	0x3d6919ed	0.05690949
27	0x3e0a9ac9	0.13535608
28	0x3e4d0f3f	0.20025347
29	0xbd3085a4	-0.0430962
30	0x3e090c4d	0.13383599
31	0xbc836a9e	-0.01604205
32	0x3ca28b01	0.019841673
33	0x3c96c44c	0.018404149
34	0x3d00838b	0.03137545
35	0xbb47c8a0	-0.0030484572
36	0x3d615199	0.05500946
37	0x3e0a0ffc	0.1348266
38	0x3d18f8c2	0.03734661
39	0xbde405c3	-0.111339115
40	0x3e03e646	0.12880811
41	0xbd164036	-0.03668233
42	0xbcd398b4	-0.02582965
43	0x3dfae052	0.12249817
44	0xbcc9b705	-0.024623403
45	0xbc6fb266	-0.014629936
46	0xbdfcc696	-0.12342565
47	0x3e023ef5	0.12719329
48	0xbccae4c0	-0.02476728
49	0x3deea500	0.11652565

layers.6.sequential.0.weight f4 [10, 50]
0	0xbcc4dd9c	-0.024031453
1	0xbdb218de	-0.08696149
2	0xbdfb4d94	-0.12270656
3	0xbdb96139	-0.09051747
4	0x3c8202af	0.01587042
5	0xbe33a86a	-0.17544714
6	0x3dc97f03	0.09838679
7	0x3d38aa83	0.045084488
8	0x3d4be66a	0.049780287
9	0xbd94b1d7	-0.07260483
10	0x3d874776	0.06605427
11	0xbdbbf255	-0.091770805
12	0xbdbc2f55	-0.09188715
13	0x3d99cc80	0.075097084
14	0x3be36db3	0.0069405674
15	0xbe42e164	-0.19031292
16	0x3e01312e	0.12616417
17	0x3e16a208	0.14710248
18	0x3e1c59fe	0.15268704
19	0x3e599b89	0.21250738
20	0x3dc59d65	0.09649161
21	0xbcde8d30	-0.027166933
22	0xbd5b8b11	-0.05359942
23	0x3c25bba1	0.010115535
24	0xbcdf00a0	-0.027221978
25	0xbe1ee614	-0.15517455
26	0xbdee1901	-0.11625863
27	0xbd8dab42	-0.069174305
28	0x3db3b377	0.087744646
29	0xbdf0e56a	-0.11762507
30	0xbe1831d0	-0.14862752
31	0x3e04d3b9	0.12971391
32	0x3d61523a	0.055010058
33	0xbe7c60e5	-0.24646337
34	0xbe5f9c5a	-0.21836987
35	0xbc4f131e	-0.012638835
36	0xbd860edb	-0.06545802
37	0xbd691d7b	-0.05691288
38	0x3ca57c0a	0.020200748
39	0xbdc7d3a2	-0.09757163
40	0x3e662b7d	0.22477527
41	0xbe0c8e68	-0.13726199
42	0xbd3cdc55	-0.046108562
43	0x3d601898	0.054710954
44	0xbda0f27b	-0.078587495
45	0x3d55fb1b	0.052241426
46	0x3de9c360	0.11414218
47	0x3e412e24	0.18865258
48	0xbeb15b46	-0.3463995
49	0xbce8b857	-0.028408213
50	0xbde10acb	-0.10988387
51	0xbddcdef7	-0.10784715
52	0x3d696815	0.056984026
53	0xbe8371ee	-0.2567286
54	0x3e19ae53	0.15007906
55	0xbd3d6637	-0.046240058
56	0xbd2932e4	-0.0413083
57	0x3e840a95	0.25789323
58	0xbdd4cc8f	-0.10390579
59	0xbccd55cb	-0.025065323
60	0xbde20029	-0.11035187
61	0x3e0a2d83	0.13493924
62	0x3adb158a	0.0016714793
63	0x3c730b1b	0.014834191
64	0xbdcbde22	-0.09954478
65	0xbe2fa371	-0.17152192
66	0xbd9ca7c0	-0.07649183
67	0x3eb80f74	0.3594929
68	0xbdf5e967	-0.120074086
69	0xbd71f5f7	-0.05907246
70	0xbcf8a921	-0.030354084
71	0xbdc78f24	-0.09744099
72	0xbc05d14f	-0.008167579
73	0xbe91cb77	-0.28475544
74	0xbcb942c0	-0.022614837
75	0x3db2cf44	0.08730939
76	0x3e4b614a	0.19861332
77	0x3e7e27d4	0.2481988
78	0xbe306070	-0.17224288
79	0xbd87e9fa	-0.06636424
80	0x3d907642	0.07053806
81	0xbc5b1b3d	-0.013373193
82	0xbdfa6893	-0.12226977
83	0xbe0f93b4	-0.14021188
84	0x3e30af42	0.17254356
85	0x3dce7d62	0.100825086
86	0x3de71c3b	0.112846814
87	0x3e2217a1	0.15829326
88	0xbd697649	-0.05699757
89	0x3dff686c	0.12471089
90	0x3d4152e8	0.047198206
91	0xbe40b1b2	-0.18817785
92	0xbdfc0b04	-0.123067886
93	0x3c8edc31	0.01743898
94	0xbdf2f05a	-0.1186225
95	0xbde26639	-0.11054654
96	0x3e089aaf	0.13340257
97	0xbe3b115f	-0.18268345
98	0xbe5e34fd	-0.21699901
99	0x3e53b317	0.20673786
100	0xbc4cddb0	-0.012504026
101	0x3d4ae4ac	0.049534485
102	0x3d4d2fd5	0.050094444
103	0xbc78e1b0	-0.015190527
104	0x3dd65246	0.10464911
105	0x3e70ec98	0.23527753
106	0xbc610930	-0.013735101
107	0x3c7e7907	0.015531785
108	0x3d4ddd37	0.050259795
109	0xbe04d3b2	-0.1297138
110	0x3e068048	0.13134873
111	0xbe21c8e1	-0.15799285
112	0xbe2139ef	-0.15744756
113	0xbd54912f	-0.05189627
114	0x3c25321c	0.010082748
115	0x3e22bc04	0.15892035
116	0x3e2e36ca	0.17013088
117	0x3c0ce913	0.008600491
118	0x3de9abcf	0.11409723
119	0xbde08b5f	-0.10964083
120	0x3e14f96c	0.14548272
121	0xbe07eb1b	-0.1327328
122	0xbd10d770	-0.035361707
123	0x3e1ecebf	0.15508555
124	0xbcc7c0f6	-0.024384003
125	0xbe3fcd98	-0.18730772
126	0x3e87a413	0.26492366
127	0xbd76298d	-0.06009822
128	0x3da1306a	0.078705624
129	0x3d1b75f0	0.03795427
130	0xbdf0e62d	-0.117626525
131	0xbd3a9070	-0.045547903
132	0xbe0584b4	-0.13038903
133	0xbe0bee73	-0.1366518
134	0x3d8891a5	0.066684045
135	0x3baf5039	0.0053501395
136	0xbaf11d1d	-0.0018395517
137	0xbe17258f	-0.14760421
138	0xbd9a8b24	-0.0754607
139	0xbdb13b92	-0.0865394
140	0x3d692d55	0.056927998
141	0xbd81836b	-0.06323894
142	0x3be11fb9	0.0068702367
143	0xbe7eb1ae	-0.24872467
144	0x3ea630b1	0.32459024
145	0x3db3875a	0.08766051
146	0x3cf117d3	0.029430306
147	0xbdfed4f0	-0.12442958
148	0xbdc029dc	-0.09382984
149	0x3e04d8f0	0.1297338
150	0xbd5da4cd	-0.054112244
151	0xbd37a2b6	-0.044832908
152	0x3ddaddfa	0.1068687
153	0x3d1bf330	0.03807372
154	0xbd866c93	-0.06563678
155	0x3da1dab5	0.07903043
156	0x3c365836	0.01112943
157	0xbdc0d87f	-0.09416293
158	0xbdaaeba5	-0.08345727
159	0x3d551f9f	0.05203211
160	0xbe2350ba	-0.15948763
161	0xbd448844	-0.047981516
162	0x3d882d9c	0.06649324
163	0xbd8d8f5e	-0.06912111
164	0xbdf7cbc4	-0.12099412
165	0x3e12cf5a	0.14336911
166	0x3d1d041a	0.03833399
167	0xbde6de0a	-0.11272819
168	0x3d9e7666	0.077374265
169	0x3e287a9b	0.1645302
170	0x3e7b6a95	0.24552377
171	0xbe0d5db8	-0.13805282
172	0xbc1fb7f6	-0.00974845
173	0x3d704d14	0.058667257
174	0x3e5620fe	0.20911023
175	0x3dd16ede	0.10226224
176	0x3e13e10e	0.1444132
177	0x3d367212	0.04454238
178	0xbccbcab5	-0.024876932
179	0xbdacb48a	-0.084328726
180	0x3e8646ca	0.26225883
181	0xbd61577b	-0.05501507
182	0x3dd224f2	0.10260953
183	0xbe010e22	-0.12603047
184	0xbe5d40be	-0.21606728
185	0x3d9bcf4f	0.076079
186	0x3dcd4ee4	0.10024813
187	0xbd8e8288	-0.069584906
188	0xbcd4d05e	-0.025978263
189	0xbdce6422	-0.100776926
190	0x3d9a10e5	0.075227536
191	0x3e1dc22e	0.15406105
192	0xbd0f8c88	-0.03504613
193	0xbb86becb	-0.0041120998
194	0x3bd2b57c	0.006430326
195	0xbe241475	-0.16023429
196	0x3d5788ea	0.052620806
197	0xbc09aa02	-0.008402349
198	0x3dad9632	0.08475913
199	0x3e899df8	0.26878333
200	0xbdac9f16	-0.08428781
201	0xbd7422fb	-0.059603672
202	0xbde06c81	-0.109581955
203	0xbe66487a	-0.22488585
204	0x3e47e219	0.19519843
205	0x3e181853	0.14853029
206	0xbdde5085	-0.10855202
207	0xbe24d678	-0.16097438
208	0x3d262287	0.04056027
209	0x3c27a49d	0.010232118
210	0x3dfd0ba6	0.123557374
211	0xbd1ad030	-0.0377962
212	0x3d0b9364	0.03407611
213	0xbdb94111	-0.090456136
214	0xbdfe4aab	-0.124165855
215	0x3e221dbf	0.1583166
216	0x3e6ac632	0.22927168
217	0xbe8a632d	-0.2702879
218	0xbd7b2a18	-0.06131944
219	0x3e3a2e3f	0.18181704
220	0xbe1366b1	-0.14394642
221	0x3e19155b	0.14949553
222	0xbd67e9c6	-0.056619428
223	0xbe4e6eab	-0.20159404
224	0x3e0c86c5	0.13723285
225	0x3e469e1f	0.19396256
226	0xbb279c64	-0.0025575394
227	0x3d9926d5	0.0747811
228	0xbdf9a8cc	-0.121903986
229	0x3de57e78	0.112057626
230	0xbd8241ec	-0.0636023
231	0x3e02b48c	0.12764186
232	0x3ddb3cc2	0.10704948
233	0x3b74ead1	0.0037371407
234	0xbe0a211e	-0.13489196
235	0x3e0d4b87	0.13798343
236	0xbddb804e	-0.107178316
237	0x3dc596ec	0.09647927
238	0xbc7451d3	-0.014912087
239	0xbdb3a437	-0.08771556
240	0x3dbfe683	0.093701385
241	0xbdcd11ec	-0.10013184
242	0x3da0dea4	0.07854965
243	0x3da28375	0.0793523
244	0x3e516887	0.2045003
245	0x3cd86524	0.026415415
246	0xbdca4b7e	-0.0987768
247	0xbce292a3	-0.027657812
248	0xbe7fc96b	-0.24979179
249	0xbe21051f	-0.1572461
250	0x3d4018a6	0.046898507
251	0xbd87037d	-0.06592462
252	0xbd4f3b6e	-0.050593786
253	0xbe39b37a	-0.18134871
254	0x3d4ef16d	0.05052321
255	0x3e27485e	0.163362

layers.6.sequential.0.bias f4 [10]
0	0xbd296269	-0.041353617
1	0x3dfa474e	0.122206315
2	0xbda1a64c	-0.07893047
3	0xbd7672e9	-0.06016818
4	0x3ddbe582	0.107371345
5	0x3d44f637	0.04808637
6	0xbdae9c2a	-0.0852588
7	0x3e0d5ef7	0.13805757
8	0xbe05500d	-0.13018818
9	0x3db6163d	0.0889096
