benchmark/ablation_mnistfc_tiny/onnx/mnistfc-tiny-net-81.onnx (onnx, 382423 bytes, 4 tensors)

layers.2.sequential.0.weight f4 [120, 784]
00000000: 1303 3cbd 7eae 17bd 4d2d a33c 51dd 91bc
00000010: 1f8b b43c c634 1ebd 2d27 fa3b e586 68bb
00000020: b387 1bbd 3339 733c 57ba 12bd 6fce 11bd
00000030: b255 18bd c48f 1d3b b51f 8b3c ac3b e7bc
00000040: b76b 853c f41e 27bd 7a01 a8bc f61e 86ba
00000050: 7f51 2fbd 43fe 15bd d908 11bd 75ae 2fbd
00000060: f535 8dbb 71f5 c2bb db84 1d3c 196f 16bd
00000070: 9726 12bd 8295 2cbd 65bb 31bd 4c83 a3bb
00000080: 81d5 913c 8aa1 843c 54f8 50bd 171b 0bbd
00000090: 08f6 1bbc 790b f5bc 0bc4 4bbd cb3d 13bb
000000a0: 4c02 27bd b706 e73c 0a03 09bd de3f 22bd
000000b0: 4a07 4b3c 3ef3 d53b 742e 9e3b 5200 dbbc
000000c0: 3fea 81bc 1643 7cbc 298f 123b 1e54 563c
000000d0: 37f6 573c 43f2 853c 9a87 09bd b15f 0dbd
000000e0: 23e7 33bc 7e65 3abd 56b1 38bd 57b8 dcbb
000000f0: 8f06 143c c346 8dbc 8f0a 2bbd f2b8 76bd
00000100: 6425 3cbd 3073 cebd 40e0 a8bd 3e47 96bd
00000110: 9dec 08bd f5ce b6bc 223c 82bd 556a a4bd
00000120: 2498 99bd 9294 c3bc 018b a3bd 2bae 5dba
00000130: 4088 1ebc 34c9 54bd c2e6 41bd 95b1 613c
00000140: f77c 10bd e1ca 22bd b42a 693c 7e4d 36bd
00000150: 0000 40bc bb4e 61bc 502b 08bd 3c1b 14bd
00000160: 563e 33bd abf1 0dbc ac6c 5abd 57e8 73bd
00000170: d13a a5bd 6a55 07be c5c4 3dbe 6a94 24be
00000180: db27 13be 101b 29be ff94 07be 9f57 2cbe
00000190: a63f f8bd 9545 07be 79eb bbbd 8221 87bd
000001a0: 15d8 95bd 0fbd 92bd 56cb 5539 edb9 edbc
000001b0: bf79 76ba 48ce 493c c17b 283c 18b3 8b3c
000001c0: f7ad 0cbd 8e30 83bc 5064 38bc 81ee 0c3c
000001d0: 8e50 01bd 59b7 52bd e889 24bc d30e 49bd
000001e0: 2864 b5bd eedd 10be 5082 37be d87c 2dbe
000001f0: af47 3cbe 08ac 1ebe 32c1 20be 29c0 15be
00000200: 420c d7bd e56e 7bbd 6f48 21bd 0daa a2bb
00000210: 5dc7 ea3b 6f1e bb38 6d59 873c 2213 adbc
00000220: a14f 94bc 094c 0abd eece 6ebc c9f7 04bd
00000230: fed9 ebbc b092 1ebd 3587 143c c10a a73c
00000240: f1dc 73bc 2213 893c b846 b7bc cd26 2ebd
00000250: fa6b 94bd 2b8f c2bd 09cf 0ebe e91d fabd
00000260: 1ff8 c4bd 69c2 8fbd cee5 f4bd 13ec 92bd
00000270: 1780 85bd 07f5 3cbd 3096 a7bc 2b74 28bd
00000280: aa9b 20ba e1fa 923c 3077 7f3d 6c8c 803d
00000290: ee33 123c a55c e8bc a483 03bc d6cd 053c
000002a0: c53e 853c 834b 1fbc 6aeb 3c3c 42c7 bcbb
000002b0: 54a5 e43c 23c9 60bc 482f 04bc 54d6 80bb
000002c0: 22ca 1fbd cbd0 09bd 21b1 8bbd b943 2ebd
000002d0: 7daf 9fbc 752b 95bd ce11 82bd 2e87 113c
000002e0: f052 2cbd 4225 25bc d36d a1bd 35a5 6bbd
000002f0: f2fe 00be ebc3 bebb 0d6c ee3d d3a7 a23d
00000300: c102 90bb 467a 4bbc fd78 773b fbb3 f53b
00000310: a00c 0dbd 89f2 b63b a02e 9a3b b304 7f3c
00000320: 7134 52bc 912a 4d3d b7bf 7e3d b1eb de3c
00000330: aef8 0d3c 357d da3c 6a11 253c 6a5c 9abc
00000340: c20c 9f3d 2d9b b93c c9da 243d c73c 7abc
00000350: 1503 713c 2f9d 163d 4322 93bd eac0 81bd
00000360: 48fb d6bd 039a 67bd 9400 233d 3a6e 6f3c
00000370: 3597 92bd 507f f5bc 48d0 9abc 2952 12bd
00000380: 10ff 20bd 4877 473c 3d8c 6bbc 8640 5ebc
00000390: c295 2f3c 0457 e63d d251 c63d 95c2 683d
000003a0: 04cb 363d 2b68 163d 4551 053d 4851 553d
000003b0: 1859 563d 172c 203d 1d72 8abb f74e 453c
000003c0: 6348 883d e924 4b3c 6aac 4839 c7e0 31bd
000003d0: a04f 663c 9628 a6bc e27e 923d 2c1f f03a
000003e0: f5d4 31bd 4476 8ebd 4918 c23c 215b 18bc
000003f0: cd3a 383c 9d2f 99bc e24c 1f3d 10e9 003d
-0.04590137 -0.037031643 0.019919062 -0.017805727 0.022038994 -0.038624547 0.0076340646 -0.0035480794
-0.03797121 0.01484518 -0.03582224 -0.03559726 -0.0371911 0.002404199 0.016982893 -0.028226696
0.016286714 -0.040801004 -0.020508517 -0.0010232616 -0.04280233 -0.036619436 -0.03540883 -0.042890985
-0.0043094107 -0.005949669 0.009614195 -0.036727045 -0.035681333 -0.04213477 -0.043391604 -0.004990017
0.017802002 0.01619031 -0.051018074 -0.03396138 -0.009519108 -0.029912697 -0.049747508 -0.0022467251
-0.040773675 0.028201444 -0.033450164 -0.03961169 0.012391875 0.006529241 0.004827315 -0.026733551
-0.015858768 -0.015396854 0.0022363162 0.013081579 0.013181261 0.016350871 -0.033576585 -0.034515087
-0.0109804 -0.045506947 -0.045090996 -0.006735842 0.009034767 -0.017245656 -0.041758116 -0.06023497
-0.045934096 -0.10080564 -0.08245897 -0.07337807 -0.033428777 -0.022315482 -0.06359126 -0.08028094
-0.07499722 -0.023874555 -0.07985497 -0.0008456434 -0.009676039 -0.051949695 -0.04733921 0.013775249
-0.035275426 -0.03974426 0.014231373 -0.044507496 -0.01171875 -0.013751681 -0.03324443 -0.036158785
-0.04376062 -0.008663575 -0.053326294 -0.05954775 -0.08067859 -0.13216177 -0.18532093 -0.1607224
-0.14370672 -0.1651423 -0.13240431 -0.168303 -0.12121515 -0.13210137 -0.09175772 -0.06598188
-0.07316605 -0.07164966 0.00020389011 -0.02901932 -0.0009402297 0.012317248 0.0102834115 0.017053172
-0.034345593 -0.016014364 -0.011254385 0.008601786 -0.031570964 -0.051444385 -0.010042645 -0.049086403
-0.08856994 -0.1414716 -0.17920804 -0.16942155 -0.1838672 -0.15495312 -0.15698698 -0.14624085
-0.10500385 -0.061385054 -0.03937572 -0.0049641193 0.0071648792 8.9225236e-05 0.016522134 -0.021127287
-0.018104376 -0.03376392 -0.014575703 -0.03246287 -0.02879047 -0.03871411 0.009065439 0.02039087
-0.0148842195 0.016732756 -0.022372589 -0.042517472 -0.072471574 -0.094999634 -0.13946165 -0.12212736
-0.09617638 -0.07019503 -0.11957894 -0.07173934 -0.06518572 -0.046132114 -0.020457357 -0.04112641
-0.00061267114 0.017941894 0.062369525 0.06276783 0.008923514 -0.028364489 -0.008026991 0.008166751
0.016265282 -0.009722593 0.011530736 -0.005761058 0.027910866 -0.01371983 -0.008067913 -0.0039318
-0.03901113 -0.033646386 -0.06820894 -0.042545054 -0.019492859 -0.072836794 -0.06351052 0.008882327
-0.042071283 -0.010079684 -0.078822754 -0.0575306 -0.12597254 -0.005821695 0.11641703 0.07942166
-0.0043948595 -0.012419289 0.0037761324 0.007498262 -0.03443587 0.0055831117 0.004705265 0.015565085
-0.012829886 0.050089423 0.062194552 0.027211996 0.008665247 0.026671031 0.010074953 -0.018842895
0.07766105 0.022657001 0.040247712 -0.0152732795 0.0147102075 0.036770996 -0.07184269 -0.063356236
-0.10497147 -0.05654336 0.039795473 0.014613682 -0.07157747 -0.029967934 -0.018898144 -0.035722885
-0.039305747 0.012174435 -0.014376697 -0.013565188 0.010716857 0.11247066 0.09683575 0.056826193
0.044627205 0.036720436 0.032548208 0.05207947 0.05233106 0.039104547 -0.004225029 0.0120427525
0.06654432 0.012398937 0.00019137716 -0.043427255 0.01405707 -0.020283025 0.07153107 0.0018319837
-0.043415982 -0.06956151 0.02369322 -0.009299071 0.011244488 -0.018699462 0.03889168 0.031472266

layers.2.sequential.0.bias f4 [120]
00000000: 2239 123d ca2a 783c 6317 84bc 99a6 f33b
00000010: 0364 35bd 096a 263c a35b d8bc c835 efbb
00000020: 8f31 c83a 62fe 1c3c 71f8 ce3d 1198 973a
00000030: b490 113d bdde 7f3d fc64 743a a25a acbb
00000040: a021 afbb 0cdf eabc a77e 5d3d 8f78 0cbd
00000050: d56d 28bc 1947 3a3d 6cc2 53bd beea c43c
00000060: c990 073c 2d4b 5cbd 4cd2 c3bc 6f23 47bc
00000070: 8251 82bc a140 133d 9aa9 a33a 562c 503c
00000080: 9779 cd3c 67f5 d03c ead7 a53c 5fe8 db3c
00000090: 89b5 83bc 8a28 c0bc bde0 ffbb 586d a33b
000000a0: 445b 2f3c 1520 81bc 7639 963c 4f62 8fbc
000000b0: 602a 173d f3ba ce3c 67aa 5c3a 857f 6dbd
000000c0: 041c 0fbd 0846 9d3c d871 3c3d d749 2e3d
000000d0: 4d09 e5bc fe23 ed3d e940 423b 2210 d2bc
000000e0: 7ae6 273c 9a05 88bd 4026 423d 894a 85bc
000000f0: 84ef 52bb 42cf 903c 474a 033d 9562 0c3d
00000100: 2129 96bb f522 213d c822 eb3b 5875 9b3c
00000110: 7670 023c 8bb2 b93c 2b12 1fbd 57c7 f23a
00000120: b094 7339 bb7b 16bd bc6b adbc f4b7 e83c
00000130: 77c2 453c 9d27 063d 7d69 bebc 5039 c03b
00000140: b4a3 183d 89a4 103d a74e 2c3d cc5a 1e3c
00000150: 4c75 803b 880d fe3b c0ae 30bd 0f3f 17bc
00000160: 701a 2f3d 4bcd 953c 900c 16bd 53a2 fcbc
00000170: fa75 0d3b 3d7b 35bd c178 52bc d6ee 95bc
00000180: c365 06bd 34bd 67bc 9f04 a2bb f781 8c3d
00000190: 3ade f6bc 0c7d 843c 5036 edbc c647 273c
000001a0: 086d ab3c 3d35 d03c e864 173d b474 92bd
000001b0: 549d 3fbc 94d3 1cbc 09cc bebc ddf1 ec3c
000001c0: ed0b 163c 6206 303d b737 39bc bf65 b13b
000001d0: 0a45 d73b a330 a53c eb72 ebbb 3d62 c8b7
0.035699017 0.01514692 -0.016124433 0.0074356315 -0.04428483 0.010157117 -0.026410883 -0.0073001124
0.0015273559 0.009582134 0.1010598 0.0011565705 0.03553839 0.06246828 0.0009322909 -0.0052598277
-0.0053445846 -0.02867081 0.054075863 -0.03429466 -0.010280092 0.04547796 -0.051699087 0.024037715
0.008274266 -0.05378263 -0.023903988 -0.012154444 -0.015908007 0.035950307 0.0012486458 0.012705883
0.025082393 0.025507642 0.020244557 0.026844202 -0.016077774 -0.02345683 -0.0078087733 0.0049874
0.010702912 -0.015762368 0.018337946 -0.017502932 0.036905646 0.025235629 0.0008417726 -0.05798294
-0.034938827 0.019198433 0.046007007 0.042550888 -0.027958537 0.115791306 0.002964074 -0.025642458
0.010247821 -0.066416934 0.04739976 -0.016270893 -0.003218622 0.017676953 0.03205326 0.034273703
-0.0045825397 0.03933998 0.007175777 0.018976852 0.007961383 0.022668144 -0.038835686 0.0018522543
0.00023229676 -0.036739092 -0.021169536 0.028408028 0.01207029 0.032752622 -0.02324366 0.005866207
0.037265494 0.035313163 0.042067196 0.009665202 0.003920233 0.007753078 -0.043135405 -0.009231343
0.042749822 0.018286368 -0.036633074 -0.030839121 0.0021585212 -0.044306982 -0.012846173 -0.018302362
-0.03281189 -0.014144231 -0.0049443985 0.06860726 -0.030135263 0.016172908 -0.028956562 0.010209983
0.020926014 0.025416011 0.036961466 -0.071511656 -0.011695225 -0.0095719285 -0.02329065 0.028923923
0.009158117 0.042974837 -0.011304787 0.0054137404 0.0065695094 0.020164793 -0.00718533 -2.3887604e-05

layers.3.sequential.0.weight f4 [10, 120]
00000000: b5ab d53d d302 3d3e f77c 8bbd da51 87bd
00000010: d560 79bd cd9f 01be 7da8 f6bb 8278 0cbe
00000020: 9e66 d23c efbb 1cbe aa61 e5bd 466a 2abd
00000030: e6cc 253e 9eac 36be 8b99 fabc 9da8 62be
00000040: da35 56be e47d 92bd 9d9e a6bd f011 a4bd
00000050: b16d 3cbd 3b5a ea3d 3c5b 503e 7883 ab3d
00000060: 6599 2b3e 7c47 aabd 3a31 2dbe f160 723e
00000070: f3ef 66bc ed41 e03d 99cc 1bbe 7f12 463e
00000080: aacc 86bd 8404 57bd 0e72 563e b89f 363e
00000090: 9156 d03d 94a4 59be fb82 64be a93d f5bc
000000a0: 2d0a c4bd 3d0e 0fbe 9322 bfbd 9db1 6cbe
000000b0: b246 563e ce40 18be 481e 1a3e 0c0c c6bd
000000c0: 1aa4 91bd 3c07 9ebe 0f68 53be 62c4 97bd
000000d0: 0490 88bb cceb 69be afb6 9a3c 358f 8a3d
000000e0: a316 62bd c606 b1bc 68c7 a13b 18e9 973c
000000f0: f1a5 10be fbd1 dc3d b8a1 a63e 6519 c6b9
00000100: 8a56 063d ab7d fcbd 45ff e3bd 4d44 37bd
00000110: 2cb9 8ebd 6b2f 173d 18e0 193e 02ce 2fbe
00000120: f587 1dbe 2d47 45bd 9819 3b3d 7954 a23d
00000130: 32e5 3bbe 6c0d ebbd d1ce a5ba 2468 8dbc
00000140: 6384 2b3e 11d1 65be e3b5 54be ec61 91bd
00000150: 03b7 433e 3cc6 5dbe 8d06 e0bd 5dc3 61be
00000160: 98e5 663b 10ee 11be 77f2 0a3d 23b3 92bb
00000170: aee7 233d f5e6 523e 17bb 383d 362e 483e
00000180: 5017 90bd bbbe 40bd 7a3b 023e 73ab e63c
00000190: 9e20 80bd e88d babe fe28 423e cdf7 1cbe
000001a0: 546c f73d e6bf c53d fb10 f93d 4f0e 5e3e
000001b0: 5891 a7be 58dc 49bd e80d 0dbe 21a6 01be
000001c0: b005 d23d f0b6 a83d eb90 193d 2c25 17be
000001d0: cb51 203e 2e46 4abe 6b23 cfbd de8f 63be
000001e0: 5ea8 e7bd 5ba6 41be dc90 0ebd 54ab 01bd
000001f0: 2989 4e3d b9d7 99bd 2f9e 263d 879d 25bc
00000200: 9f78 843e c713 703d 4341 5cbd 4916 1e3d
00000210: a453 59be 9355 373e 0b09 46bd ef6b f63d
00000220: 8fb2 76be fcb8 31bd 59cc 363c 70b3 39be
00000230: 1835 543d 8dec 47be dfa7 ae3e c75d 1abe
00000240: 1f3f 35be dd15 64bc c0c3 20bd 7326 82bd
00000250: 145f 923d ba1b 8dbe bfa3 45be 52ba 5dbe
00000260: 4cb1 953d cabf 523e 86a1 4cbe 5e24 1e3c
00000270: ff0d 66be 7680 603e ac2b c63d 4095 ae3d
00000280: e4fe f83c 1703 293e fca8 97bd 48f4 50be
00000290: dc53 343e 5821 323e ea4a 263e ca27 18be
000002a0: b957 3b3e 078f 503e 1cc0 153e c1fd 53be
000002b0: 770d f6bb 4625 1bbe eaea 573e ad91 163e
000002c0: 2083 13be a44c 353e 0d25 a43d 2e6d e0bc
000002d0: a606 af3d b19f 1e3f a2b5 5d3e 0021 403d
000002e0: fd29 b0bd e6f6 dcbd a535 1c3e ddcc 1bbd
000002f0: 53dc 7c3e f386 3a3e 94bc 4dbe e2f3 c43d
00000300: a77e 513e e4fd 98bd 77fc 9a3c 62e5 02be
00000310: ad2f ddbd 81eb 343d 5895 32bd 9485 1f3e
00000320: 53c7 46be ed2a aa3e 211b 5cbe 1b69 163d
00000330: e11e 1cbd af00 03be baf2 9bbe a3ca 463e
00000340: 2bca 27be 7c47 3a3e 7705 133d 6265 bcbd
00000350: 3bd6 0bbe 6543 4c3e fdd1 f7bd d38e 56be
00000360: bd4a b23d 764f 193e b92a 7bbd cb27 79be
00000370: ca8b 7abc 8e32 2abe b990 923e 98c3 4e3e
00000380: e757 a13b 41e6 1c3e 0435 3fbd b0de 183e
00000390: a6e6 163e b136 52be 1f6a e8bd 4284 893e
000003a0: a0a0 883d 5baa a73d e468 34be a629 403d
000003b0: 2cbc babe 02d2 ddbd 6006 863d fd50 303d
000003c0: aa18 343e c8a6 22be 2087 873d 91a9 063e
000003d0: 1475 83bd 7124 15bd c6a9 2e3e fc3d 403e
000003e0: 85eb 8e3e de94 2d3b 86bf c6bd a657 9bbd
000003f0: 2818 083c 77c9 823e f0c9 743c a7ab df3d
0.10433141 0.18458109 -0.068109445 -0.06607409 -0.06088336 -0.12658615 -0.0075274096 -0.13717845
0.025683697 -0.15306066 -0.112002686 -0.041605256 0.16191444 -0.17839286 -0.030590793 -0.22134633
-0.2091898 -0.07152918 -0.08135722 -0.08011234 -0.046003047 0.11442991 0.20347303 0.08374685
0.16757734 -0.08314416 -0.1691331 0.23669793 -0.014095294 0.10950074 -0.15214767 0.19342993
-0.06582005 -0.05249454 0.20941946 0.17834365 0.10172761 -0.21254188 -0.2231559 -0.029936628
-0.095722534 -0.13970275 -0.093327664 -0.23114629 0.20925406 -0.14868471 0.15050614 -0.096702665
-0.07111378 -0.30864894 -0.20645164 -0.07410504 -0.0041675586 -0.22843856 0.018885938 0.06765596
-0.05519737 -0.021609675 0.004937101 0.018543765 -0.14125802 0.10782238 0.32545257 -0.00037784423
0.032797374 -0.12328657 -0.11132673 -0.04474287 -0.069689125 0.036910456 0.15026891 -0.1716843
-0.15383895 -0.04816358 0.045678705 0.07926268 -0.1834915 -0.114771694 -0.0012650137 -0.017261572
0.1674972 -0.22443034 -0.2077251 -0.07098755 0.19112782 -0.21657652 -0.109387495 -0.22047181
0.0035232063 -0.1425097 0.03392264 -0.004476921 0.04001587 0.20595916 0.045100298 0.19548878
-0.070356965 -0.047056895 0.12718001 0.028157925 -0.06256221 -0.3643639 0.1896095 -0.15328903
0.12081209 0.09655742 0.12161442 0.21685146 -0.32728076 -0.0492824 -0.13774836 -0.1266103
0.10254991 0.082380176 0.03749172 -0.14760274 0.15656202 -0.19753334 -0.10114177 -0.2222285
-0.1131141 -0.18911116 -0.034806117 -0.03165753 0.050423775 -0.07511849 0.0406782 -0.010108358
0.25873277 0.05861261 -0.053773176 0.03859547 -0.21223313 0.17903738 -0.048348468 0.120323054
-0.24091552 -0.043389305 0.011157119 -0.18134856 0.051808447 -0.1952383 0.3411245 -0.15074836
-0.1769986 -0.013921228 -0.03924918 -0.0635499 0.07147041 -0.27560216 -0.19300745 -0.21653107
0.07309207 0.20580974 -0.19983491 0.009652225 -0.22466277 0.21924004 0.096762985 0.08524561
0.030394979 0.16505085 -0.07405278 -0.20405686 0.17610115 0.17395532 0.16239515 -0.14858928
0.18295182 0.2036706 0.14624065 -0.20702268 -0.0075089294 -0.15150937 0.21085706 0.14704008
-0.14405489 0.17705017 0.080148794 -0.027395811 0.0854619 0.6196242 0.21651319 0.04690647
-0.08601759 -0.1078928 0.15254839 -0.03803717 0.24693422 0.18215542 -0.20091468 0.096168295
0.2045847 -0.07470301 0.018919213 -0.12782815 -0.10800109 0.044169907 -0.043599457 0.155783
-0.19411974 0.33235875 -0.21494724 0.03672133 -0.038115386 -0.1279323 -0.30458623 0.19413237
-0.16385715 0.18191332 0.035893884 -0.09199025 -0.13655941 0.19947584 -0.12100599 -0.2095292
0.087056614 0.14971718 -0.06132004 -0.24331586 -0.015292117 -0.16620848 0.2862604 0.201918
0.004923809 0.1532221 -0.04668142 0.14928699 0.14736423 -0.20528676 -0.11348366 0.26858717
0.06671262 0.081867896 -0.17618138 0.04691472 -0.3647169 -0.108310714 0.06544185 0.043045986
0.17587534 -0.15883934 0.0661757 0.13150622 -0.06418815 -0.036411706 0.17056951 0.18773645
0.27914062 0.0026486437 -0.09704499 -0.07585077 0.008306541 0.2554433 0.014940724 0.10921412

layers.3.sequential.0.bias f4 [10]
00000000: 85e1 a2bc 9cf7 eabc 3b73 25bd 4ce4 4abd
00000010: f42c 463d 13c3 0e3d 5df5 ba3c 5f37 be3c
00000020: 5c82 be3c d3d7 823d
-0.019882927 -0.028682522 -0.040393095 -0.049534127 0.048382714 0.034854006 0.022822076 0.023219762
0.02325552 0.063888215
