benchmark/ablation_mnistfc_tiny/onnx/mnistfc-tiny-net-320.onnx (onnx, 382423 bytes, 4 tensors)

layers.2.sequential.0.weight f4 [120, 784]
0	0xbcf6c5d2	-0.030123625
1	0xbd044971	-0.0322966
2	0xbbcd4ba8	-0.0062651224
3	0xbd1747e5	-0.0369338
4	0xbae7a32b	-0.0017672529
5	0xbd1b1b44	-0.0378678
6	0xbd26ca01	-0.04071999
7	0xbcdab687	-0.026698364
8	0xbc002c32	-0.007823037
9	0xbd4cf5fa	-0.05003927
10	0xbd15aeea	-0.036543764
11	0xbd1633d7	-0.036670532
12	0xbca567ee	-0.02019116
13	0xbcd1332e	-0.0255371
14	0xbbff41ca	-0.007789825
15	0xbc79d01a	-0.015247369
16	0xbc7f808e	-0.015594615
17	0xbcad728c	-0.021172784
18	0xbd5ac9fe	-0.05341529
19	0xbcd53d39	-0.02603017
20	0xbba4d501	-0.005030275
21	0xbca28356	-0.019838016
22	0xbb23cb5f	-0.0024993045
23	0xbc208dbd	-0.009799418
24	0xbd1f0258	-0.038820595
25	0x3be9d443	0.0071358993
26	0xbd4e6049	-0.050384793
27	0xbd1a76f5	-0.037711103
28	0xbd1314f3	-0.03590865
29	0xbd04dee5	-0.03243913
30	0xbd3c4955	-0.045968372
31	0xbd5b229a	-0.053499795
32	0x3bbbe0f0	0.0057336017
33	0xbd26bb2b	-0.04070584
34	0xbd4252e9	-0.04744235
35	0x3b59d25e	0.003323696
36	0xbb367613	-0.0027841374
37	0xbca86c64	-0.020559497
38	0xbcc049e0	-0.023472726
39	0xbd79c8a3	-0.060982358
40	0xbd47f0e6	-0.048813723
41	0xbbad4278	-0.0052874647
42	0xbc3c1f4d	-0.011482072
43	0xbbe503ea	-0.006988992
44	0xbc43ec62	-0.0119582135
45	0xbd1614f5	-0.03664108
46	0xbcb84f28	-0.022498682
47	0xbb948b9d	-0.0045332448
48	0xbcc1fc99	-0.023680018
49	0x3c34d85b	0.011037911
50	0xbd16d931	-0.036828224
51	0xbbfe37d3	-0.0077581196
52	0x3b4a25d2	0.0030845297
53	0xbd6234d9	-0.05522618
54	0xbc6527e4	-0.013986561
55	0xbba6122c	-0.005068084
56	0xbc5743b6	-0.013138702
57	0xbd5ce5f0	-0.053930223
58	0xbd2fcb5d	-0.04291855
59	0xbd67e763	-0.056617152
60	0xbd054143	-0.03253294
61	0x3b5a2720	0.003328748
62	0xbd7e5704	-0.062094703
63	0xbd2dcd8d	-0.042432357
64	0x3b1c0498	0.002380645
65	0xbbc0c15c	-0.0058824252
66	0xbcd3428a	-0.025788564
67	0xbd4e4f62	-0.050368674
68	0x3c8468b6	0.016163211
69	0xbd1374f6	-0.036000215
70	0x3c7a93ac	0.015293997
71	0x3ce9f9d1	0.028561505
72	0x3cb5da14	0.022198714
73	0xbd3923f6	-0.04520031
74	0xbd2a8b9e	-0.041637056
75	0xbdbc7d23	-0.092035554
76	0xbd844cf7	-0.064599924
77	0xbcf5e48a	-0.030016202
78	0xbd947062	-0.07247998
79	0xbc68365b	-0.014173116
80	0xbd16da8a	-0.03682951
81	0xbd539a9d	-0.051661123
82	0xbcd3865f	-0.025820909
83	0x3b7b8ef6	0.0038384772
84	0xbd577c3d	-0.052608717
85	0xbd653e48	-0.0559676
86	0x3b2fa23e	0.0026799585
87	0x3b32d153	0.0027285411
88	0xbd1d5254	-0.038408592
89	0x3c5b196d	0.013372761
90	0xbcf4a5bf	-0.02986419
91	0x3b69ff31	0.0035705084
92	0x3daaa989	0.083331175
93	0x3df3c015	0.11901871
94	0x3e1ce54f	0.1532185
95	0x3e3a4589	0.18190588
96	0x3e605829	0.2190863
97	0x3e55385d	0.20822282
98	0x3e457f89	0.19286932
99	0x3e00c64c	0.12575644
100	0x3d34a0ed	0.044098783
101	0x3c7173d8	0.014737092
102	0x3c3a9369	0.011387684
103	0xbc93c8c0	-0.018040061
104	0xbd023600	-0.03178978
105	0xbd9ee14f	-0.07757818
106	0xbd8771b3	-0.06613483
107	0xbcd9e874	-0.0266001
108	0xbd893d6b	-0.06701168
109	0xbb7e4649	-0.0038799217
110	0xbcf80f14	-0.030280627
111	0x3bf10227	0.007354993
112	0xbd4389bd	-0.04773878
113	0xbb80ab9c	-0.0039267074
114	0xba535e6d	-0.0008063082
115	0x3c3a3e61	0.011367411
116	0xbd23d49d	-0.039997686
117	0x3c85b94d	0.01632371
118	0x3dbc2699	0.091870494
119	0x3dfe6b44	0.12422803
120	0x3ddbb602	0.107280746
121	0x3e1a675b	0.1507849
122	0x3e1c857b	0.15285294
123	0x3e0bf22c	0.136666
124	0x3e3f03c2	0.18653777
125	0x3e1c28ae	0.15249893
126	0x3e1948b1	0.14969136
127	0x3e138f95	0.14410241
128	0x3e206660	0.15664053
129	0x3deddff2	0.1161498
130	0xbca0bd36	-0.019621473
131	0xbd47cecc	-0.0487812
132	0xbd9bc579	-0.07606024
133	0xbe21683d	-0.1576242
134	0xbdceaf9d	-0.10092089
135	0xbde714dc	-0.112832755
136	0xbde6c64f	-0.11268293
137	0xbcf38e69	-0.029730992
138	0xbd155ac8	-0.03646353
139	0xbc8fd6f2	-0.017558549
140	0x3c4f8340	0.01266557
141	0xbd465868	-0.048424155
142	0xbd28f72f	-0.041251358
143	0xbad288c7	-0.0016062491
144	0x3cab1a5f	0.020886598
145	0x3dba8965	0.09108237
146	0x3db49cbb	0.088189565
147	0x3dba3336	0.09091799
148	0x3d98fc17	0.07469957
149	0x3e0218f3	0.1270483
150	0x3dc8b9f5	0.098010935
151	0x3d919013	0.07107558
152	0x3d31a8c0	0.043373823
153	0x3d66e0b6	0.056366645
154	0x3dc624ff	0.09675025
155	0x3d9c672f	0.07636868
156	0x3d59fce2	0.053219683
157	0xbd28bb7a	-0.041194417
158	0xbd5711d6	-0.052507244
159	0xbe0a5018	-0.13507116
160	0xbe05edd3	-0.13079004
161	0xbdc3db02	-0.09563257
162	0xbe200ba4	-0.1562944
163	0xbdf48637	-0.11939662
164	0xbdc77abf	-0.09740209
165	0xbd21451c	-0.03937255
166	0xbceb1eef	-0.028701274
167	0xbcef47b0	-0.029208988
168	0xbca9d379	-0.02073072
169	0xbd276cd4	-0.04087527
170	0xbd19a19e	-0.037507646
171	0x3d721947	0.059106138
172	0x3dd82816	0.10554521
173	0x3e1b5f08	0.1517297
174	0x3e0ebe63	0.13939814
175	0x3df1db38	0.11809391
176	0x3dbe155b	0.09281417
177	0x3dd13d66	0.10216789
178	0x3da183c4	0.078864604
179	0x3dd503e5	0.104011334
180	0x3ddf0961	0.10890461
181	0x3d99d009	0.07510383
182	0x3dadd181	0.08487225
183	0x3de95e13	0.11394896
184	0x3dba8dd6	0.09109084
185	0x3c50961e	0.012731103
186	0xbd644512	-0.055729933
187	0xbe383098	-0.17987287
188	0xbe1c9499	-0.1529106
189	0xbe09ce42	-0.13457587
190	0xbe00a73d	-0.12563796
191	0xbe37ac63	-0.17936854
192	0xbe1e73c5	-0.1547385
193	0xbdac4f84	-0.08413604
194	0xbc359535	-0.011082937
195	0xbd0ae746	-0.033911966
196	0xbc79051c	-0.015198972
197	0x3bf67494	0.0075212214
198	0x3d04cc08	0.032421142
199	0x3da08b31	0.07839049
200	0x3e437122	0.19086125
201	0x3e2a7bd1	0.16648795
202	0x3d6e7e54	0.058225945
203	0x3c862f74	0.01638005
204	0x3cfa5d17	0.030561967
205	0x3d653dba	0.05596707
206	0x3c75f3c4	0.015011732
207	0x3df3f8e0	0.119127035
208	0x3e17f0b0	0.14837909
209	0x3e2b110e	0.16705725
210	0x3e369ef0	0.17834067
211	0x3e062de8	0.1310345
212	0x3d9a37fd	0.0753021
213	0x3ca50ec2	0.020148639
214	0xbd934fe3	-0.071929716
215	0x3ac7e07e	0.0015249399
216	0xbce8fe75	-0.028441647
217	0xbd48ce46	-0.049024843
218	0xbdcd468c	-0.100232214
219	0xbe35034a	-0.17677036
220	0xbe5f2095	-0.21789773
221	0xbdea02c5	-0.114263095
222	0xbd66b9f3	-0.05632968
223	0xba7c185f	-0.00096166687
224	0xbd0bb7db	-0.034110885
225	0xbc46cae7	-0.012133337
226	0x3bb07114	0.0053845737
227	0x3daab7c8	0.08335835
228	0x3e067d4b	0.13133733
229	0x3d9ebc03	0.07750704
230	0x3d914a84	0.07094291
231	0x3dcdfd93	0.10058131
232	0x3d2d6d97	0.04234084
233	0x3c382d0f	0.011241212
234	0x3c8d2079	0.017227398
235	0x3b12bf39	0.002239181
236	0x3d0261bf	0.0318315
237	0x3cb97e43	0.022643214
238	0x3dc1e509	0.09467513
239	0x3dc8ddc4	0.098079234
240	0x3dab10d2	0.083528176
241	0x3cd55fbd	0.026046628
242	0xbca4ede5	-0.020132968
243	0x3db8e641	0.090282924
244	0x3d8f96c7	0.0701118
245	0x3d39e105	0.04538061
246	0xbdd6655f	-0.10468554
247	0xbe68b288	-0.22724354
248	0xbe850f85	-0.25988403
249	0xbdf01e90	-0.11724579
250	0xbd3b5e89	-0.045744453
251	0xbcc45883	-0.023967987
252	0xba548a84	-0.00081077986
253	0xbb3a46fb	-0.0028423655
254	0x3c775b67	0.015097476
255	0x3db485da	0.08814593

layers.2.sequential.0.bias f4 [120]
0	0xbc097912	-0.008390682
1	0x3d062bdb	0.032756668
2	0x3d291cb4	0.04128714
3	0xbc46215b	-0.0120929135
4	0xbcb7740f	-0.022394208
5	0xbc44bfbe	-0.0120086055
6	0x3ce84a7f	0.028355835
7	0xbd0c6d79	-0.03428409
8	0xbd5177c2	-0.0511396
9	0x3d165165	0.036698718
10	0xbd68442e	-0.056705646
11	0x3c7b073d	0.01532155
12	0x3cecf8a8	0.028927162
13	0x3c4294ef	0.011876329
14	0x3d313d35	0.043271262
15	0x3c29c977	0.010362974
16	0xbc7397bb	-0.014867718
17	0x3b61aec5	0.0034436446
18	0xbce9619b	-0.028488925
19	0xb93b2064	-0.00017845776
20	0x396661f2	0.00021970997
21	0x3bcfba3b	0.006339339
22	0xbc90c349	-0.017671244
23	0xbd0aacb4	-0.03385611
24	0xbdba98e1	-0.091111906
25	0x3c57fbb9	0.013182574
26	0xbb9669b5	-0.004590238
27	0xb9906dc9	-0.00027547617
28	0xbb2559c6	-0.002523051
29	0x3c82b85c	0.01595705
30	0x3c7fae31	0.015605495
31	0x3cc37efa	0.023864258
32	0x3d37144d	0.044697095
33	0x3bf73d92	0.0075451816
34	0xbc880f75	-0.016608933
35	0x3d221814	0.039573744
36	0xbd10a50c	-0.03531365
37	0xba8a4acf	-0.0010550859
38	0xbd1df9ad	-0.038568188
39	0x3a95c818	0.001142743
40	0x3d18827d	0.03723382
41	0x3c3b881b	0.011446024
42	0x3d16cd9b	0.036817174
43	0xbbdae06c	-0.006679585
44	0x3ce2245a	0.027605224
45	0xbcd4df83	-0.025985485
46	0x3b6ee422	0.0036451896
47	0x36af9f29	5.233935e-06
48	0xbbfacb7d	-0.007653652
49	0x3c348634	0.011018325
50	0xbbca08c8	-0.0061655976
51	0x3d8efcdc	0.06981823
52	0x3d21894a	0.03943757
53	0x3b856218	0.0040705316
54	0x3cd7121b	0.02625375
55	0x3c4ef3c3	0.0126313595
56	0x3b3f185a	0.0029158802
57	0xbcf4fc00	-0.02990532
58	0x3d3b4f4a	0.045729913
59	0xbc40d1ea	-0.011768797
60	0x3d2c7ff4	0.042114213
61	0x3a47c63c	0.0007620787
62	0xbd3412d6	-0.043963276
63	0xbbe23f81	-0.006904543
64	0x3d727532	0.059193797
65	0xbc88af34	-0.016685106
66	0x3c87438c	0.016511701
67	0xbcc46078	-0.023971781
68	0x3d4131fb	0.047166806
69	0x3c9718da	0.018444467
70	0xbd1670b7	-0.036728587
71	0xbd1c468f	-0.038153227
72	0x3c9a8ade	0.018865045
73	0x3cd86d31	0.026419254
74	0x3c0760b2	0.0082628
75	0xbccd113c	-0.025032632
76	0x3ade2314	0.001694771
77	0xbdd3cf2d	-0.1034225
78	0x3cbcfaae	0.023068752
79	0xbcab9299	-0.020943927
80	0xbd344517	-0.0440112
81	0xbd321f85	-0.04348709
82	0xbd33f7c0	-0.043937445
83	0x3c8c2755	0.017108599
84	0xbd895a86	-0.06706719
85	0x3b59cdda	0.003323427
86	0x3c023254	0.0079465695
87	0x3d09226a	0.033480085
88	0xbce4f281	-0.027947666
89	0xbd904017	-0.07043474
90	0xbd309d72	-0.0431189
91	0xbc01ff7b	-0.007934446
92	0xbd7703f4	-0.060306504
93	0x3d099147	0.033585813
94	0x3d884212	0.06653227
95	0x3d00059e	0.031255357
96	0xbcfcc969	-0.030857759
97	0x39b5903d	0.00034630476
98	0xbc1bb9cf	-0.009504749
99	0xbd583796	-0.052787386
100	0x3cd9177a	0.026500452
101	0x3c3e6b9e	0.011622338
102	0xbd1ec92e	-0.03876608
103	0xbcedcb74	-0.029027678
104	0x3d70d120	0.058793187
105	0x3d847d4a	0.064692095
106	0x3ba754e2	0.0051065544
107	0xbd3986c2	-0.04529453
108	0xbc8282d6	-0.015931528
109	0xbd1229df	-0.035684463
110	0x3ba9035d	0.0051578716
111	0x3c937e31	0.018004509
112	0xbbf70128	-0.0075379796
113	0xbca77f9a	-0.020446587
114	0x3c7bc0f7	0.015365831
115	0x3cb2a98e	0.021809366
116	0x3cb8f0f9	0.022575842
117	0xbdabf06f	-0.083954684
118	0xbd1bbdd0	-0.038022816
119	0x3a858533	0.0010186791

layers.3.sequential.0.weight f4 [10, 120]
0	0xbe4c8b3a	-0.19974986
1	0xbe5f11f2	-0.2178419
2	0x3dd4c04a	0.10388239
3	0xbd4e1507	-0.050313022
4	0xbe510ced	-0.20415087
5	0xbe409516	-0.18806872
6	0xbe0f3cef	-0.13988088
7	0xbe698cb8	-0.22807586
8	0xbd3a1dbe	-0.04543852
9	0xbe00607a	-0.12536803
10	0xbd6b1eca	-0.05740241
11	0x3e10abe8	0.14128077
12	0xbd019ab3	-0.031641673
13	0x3e2b8617	0.1675037
14	0x3db1d792	0.08683695
15	0xbe7d0a2f	-0.24710916
16	0xbdb52e27	-0.088466935
17	0xbf28f82f	-0.660037
18	0xbe5550cc	-0.20831603
19	0x3dec3418	0.115333736
20	0xbe11e838	-0.1424874
21	0xbe25b8c3	-0.16183762
22	0xbd7a545a	-0.0611156
23	0xbd51d010	-0.051223814
24	0x3c4b50d4	0.012409408
25	0x3e5ee0ac	0.21765393
26	0xbc922bb9	-0.017843114
27	0xbd31a4f4	-0.043370202
28	0xbcfef464	-0.031122394
29	0xbcf0b0f9	-0.029381262
30	0xbd1dd20c	-0.038530394
31	0x3dacd24c	0.084385484
32	0xbd856761	-0.065138586
33	0xbe526388	-0.2054578
34	0xbe0877de	-0.13326976
35	0xbe4a4ebd	-0.19756599
36	0xbdfea3dd	-0.12433598
37	0xbd93e4f5	-0.072214045
38	0x3e10dd22	0.14146855
39	0xbc823c6b	-0.01589795
40	0x3e4dbb96	0.2009109
41	0x3e3af3e3	0.18257098
42	0x3d3292c1	0.043596987
43	0xbd5d48c8	-0.054024488
44	0xbe0c8fb3	-0.13726692
45	0x3c71607c	0.014732476
46	0xbe36b4fc	-0.17842478
47	0xbd466e5d	-0.048445094
48	0xbe2a4d7f	-0.16631125
49	0xbe3d653d	-0.1849565
50	0x3dc63c25	0.096794404
51	0xbe211abc	-0.15732855
52	0xbd9fd2bd	-0.07803867
53	0x3e3a27e6	0.18179283
54	0xbe6849ff	-0.22684477
55	0x3e728eaa	0.23687235
56	0x3e58f09f	0.2118554
57	0x3b481495	0.0030529846
58	0xbce48f96	-0.027900498
59	0xbd9281ec	-0.07153687
60	0xbd288cfa	-0.04115007
61	0x3d8e9656	0.06962268
62	0xbd80e640	-0.06293917
63	0x3e405cb2	0.1878536
64	0x3d6bf582	0.05760718
65	0xbe10a4d5	-0.14125378
66	0xbd204042	-0.03912378
67	0x3b88190b	0.004153376
68	0x3bea8f9a	0.007158232
69	0xbe43230f	-0.19056343
70	0x3ba5a717	0.005055319
71	0x3e1e6562	0.15468362
72	0xbd9def4b	-0.07711657
73	0x3d932335	0.071844496
74	0xbd870484	-0.06592658
75	0x3eb05ca0	0.34445667
76	0xbe9d22cf	-0.3069062
77	0xbe2874b3	-0.16450767
78	0xbd87d938	-0.06633228
79	0xbe199e04	-0.15001684
80	0xbe3ffd5e	-0.18748996
81	0xbdc6fbbe	-0.09715985
82	0x3d0b9aa4	0.034083024
83	0xbe1ff9db	-0.15622656
84	0xbd62a179	-0.055329774
85	0x3deee1bd	0.1166415
86	0xbd21569a	-0.03938923
87	0xbd83ee4e	-0.064419374
88	0xbbb680ed	-0.0055695684
89	0xbdc27b81	-0.09496213
90	0xbd68c7f4	-0.056831315
91	0xbc2af020	-0.010433227
92	0xbc2ba92e	-0.010477347
93	0xbe3ee2b3	-0.18641166
94	0xbd5209ec	-0.051278993
95	0xbccf960d	-0.025340104
96	0xbddb0199	-0.10693664
97	0x3d6f39cd	0.058404732
98	0xbe1ca81f	-0.15298508
99	0xbc43dee7	-0.0119549995
100	0x3e282397	0.16419826
101	0xbc6e34e0	-0.014538974
102	0x3d1676e4	0.036734477
103	0xbdf8f403	-0.121559165
104	0x3e6cfa8a	0.23142448
105	0xbe5f7042	-0.21820167
106	0xbe42b08c	-0.1901266
107	0x3e388afc	0.18021768
108	0xbe61c8d0	-0.2204926
109	0xbd852c7e	-0.06502627
110	0xbe6578f7	-0.22409426
111	0x3dbecadb	0.09316035
112	0xbe0d65cf	-0.13808368
113	0xbe6e1239	-0.23249139
114	0x3d20875a	0.03919158
115	0x3da88acb	0.08229598
116	0xbda2b956	-0.07945506
117	0xbe2a5022	-0.1663213
118	0xbda4f5d5	-0.08054701
119	0x3e291802	0.16513065
120	0x3d6ada50	0.057337105
121	0x3d8cd0a2	0.06875731
122	0x3e07b39c	0.1325211
123	0x3d2cb149	0.04216126
124	0x3e28dd3c	0.16490644
125	0x3ebe64b3	0.37186202
126	0x3df79315	0.120886005
127	0x3e21f7fb	0.15817253
128	0xbe6a6445	-0.22889812
129	0x3e12aad9	0.14322986
130	0x3df516a2	0.119672075
131	0xbe24ce64	-0.16094357
132	0x3e0c81b8	0.13721359
133	0xbdacb76b	-0.08433422
134	0x3e1bd928	0.15219557
135	0x3f1abdc2	0.604458
136	0xbcc9289c	-0.024555497
137	0xbd0594e1	-0.032612685
138	0xbe61359f	-0.21993111
139	0xbe808e65	-0.25108638
140	0x3e27695e	0.16348788
141	0x3d4b5712	0.049643584
142	0xbcc0c9cc	-0.023533724
143	0xbc5bf286	-0.013424521
144	0xbeb20c2a	-0.34774905
145	0xbd674db5	-0.05647059
146	0xbd9d798a	-0.07689197
147	0x3c6632d9	0.014050209
148	0x3db538cb	0.08848723
149	0x3de39d1c	0.111139506
150	0xbe43b278	-0.19111049
151	0xbe14af47	-0.14519988
152	0xbe20d545	-0.15706356
153	0xbdabe1e9	-0.08392698
154	0x3e222c97	0.15837322
155	0x3e0ac86c	0.13553017
156	0x3e44a803	0.19204716
157	0x39d13aa3	0.00039907274
158	0xbdf72da7	-0.12069254
159	0x3d8bc3b6	0.06824438
160	0xbe259184	-0.16168791
161	0x3e122d64	0.14275128
162	0xbe565785	-0.20931824
163	0x3dd9b1c8	0.10629612
164	0x3e35e845	0.17764385
165	0xbd14ecef	-0.03635877
166	0xbd29cc90	-0.04145485
167	0xbdb541b6	-0.08850424
168	0xbd649655	-0.05580743
169	0x3d2d57de	0.042320125
170	0x3e50f16a	0.20404592
171	0xbad60ede	-0.0016331335
172	0xbe8b4e0d	-0.27207986
173	0xbe19d08e	-0.15020964
174	0x3d99e31f	0.07514023
175	0xbe236ac4	-0.15958697
176	0xbd22bc84	-0.039730564
177	0x3d42e6a6	0.047583245
178	0xbe45eaf3	-0.19327907
179	0x3d99f643	0.07517674
180	0xbe56a831	-0.20962597
181	0x3e01bcf1	0.12669732
182	0xbb9f16d9	-0.0048550186
183	0xbe59a567	-0.21254502
184	0xbd8f9067	-0.070099644
185	0x3e4051b8	0.18781173
186	0x3de50c49	0.11183984
187	0xbdabe08b	-0.083924375
188	0xbe64f0c4	-0.2235747
189	0xbdc0a5c1	-0.09406615
190	0x3ca898c4	0.020580657
191	0xbd68dd91	-0.056851927
192	0xbc650e4d	-0.01398046
193	0xbe25c7b6	-0.16189465
194	0x3d6dd696	0.058065973
195	0x3e57268c	0.21010798
196	0x3e9be1df	0.30445763
197	0xbe6b5de3	-0.22985034
198	0x3db9fe43	0.090817
199	0xbdbbf930	-0.09178388
200	0x3e538541	0.20656301
201	0xbdb5f035	-0.088837065
202	0xbaaa0c75	-0.0012973683
203	0x3e5b1e27	0.21398221
204	0x3e441eb6	0.1915234
205	0xbe23df57	-0.16003166
206	0x3bb5d48f	0.0055490206
207	0x3e26a99d	0.1627564
208	0x3e7ece4f	0.24883388
209	0x3f1badff	0.6081237
210	0xbd11c6a3	-0.035589825
211	0xbdb96b9d	-0.09053729
212	0x3e237683	0.15963177
213	0x3db78464	0.089607984
214	0x3dc52d76	0.096278116
215	0x3e012f3b	0.12615673
216	0xbe4a1425	-0.19734247
217	0x3d9cc784	0.07655242
218	0xbdef26b9	-0.11677308
219	0x3e5b4e08	0.21416485
220	0xbe2d084e	-0.16897699
221	0x3d69ddff	0.057096478
222	0xbe0eea2b	-0.13956515
223	0xbe5c7bb4	-0.21531564
224	0xbeac2a43	-0.33625993
225	0xbe0feaf0	-0.14054465
226	0x3e0f018f	0.13965438
227	0xbe405cfd	-0.18785472
228	0xbe10bfbd	-0.14135642
229	0xbe808a83	-0.25105676
230	0x3d930a1b	0.07179662
231	0xbe3bc0d6	-0.1833528
232	0xbe0f7fe3	-0.14013629
233	0x3e4c597f	0.19956015
234	0xbe4feddb	-0.20305578
235	0xbc6b2c96	-0.014353892
236	0x3e127576	0.1430262
237	0xbe4c09ac	-0.19925565
238	0xbda63eaa	-0.08117421
239	0xbe21345d	-0.15742631
240	0x3dd0b925	0.101915635
241	0x3e504a24	0.20340782
242	0x3e3001ec	0.17188233
243	0xbd4851c7	-0.048906114
244	0x3e9079e7	0.28218004
245	0xbd3d6653	-0.046240162
246	0x3dbcd1d1	0.09219707
247	0xbda09560	-0.07840991
248	0x3d94d174	0.072665125
249	0xbe133bcc	-0.1437828
250	0xbe524fbf	-0.20538233
251	0xbe2c2dec	-0.16814393
252	0x3e4da05b	0.20080702
253	0xbd5d2698	-0.053991884
254	0x3e1b4f8a	0.1516706
255	0xbda26975	-0.079302706

layers.3.sequential.0.bias f4 [10]
0	0x3c99c09f	0.018768607
1	0xbd30bab9	-0.043146823
2	0x3c216aa2	0.009852083
3	0x3db69912	0.089159146
4	0x3b6ced52	0.0036152196
5	0xbbc42f94	-0.005987117
6	0xbd09d23a	-0.033647753
7	0x3bfb208d	0.0076637925
8	0x3d49cc4e	0.049267106
9	0xbd1e963d	-0.038717497
