benchmark/ablation_mnistfc_tiny/onnx/mnistfc-tiny-net-169.onnx (onnx, 156037 bytes, 6 tensors)

layers.2.sequential.0.weight f4 [46, 784]
00000000: 07a2 83bc 1c71 f2bc 6cbb 02bd eafc aebc
00000010: 9840 48bd 7b30 81bd 1c82 93bd 42a7 41bd
00000020: 9beb b5bc d408 02bd 5d74 f0bc c603 86bd
00000030: c0bb 54bd 11a0 8cbc 5bdb ebbc b6ec fdbc
00000040: 75a6 48bd 84f2 5bbd a852 11bc c763 82bc
00000050: 2f99 b8bc 7ce7 ecbc 3008 8cbd 5a20 10bc
00000060: 8516 0bbd d433 81bd 0023 e5bb a5b9 29bd
00000070: 7fcb f8bb e0e2 5ebd e2a7 53bd 3276 72bc
00000080: 3c3f 8cbc 7793 afbc c8be 53bd bfb6 2abd
00000090: d257 18bd 7b8e 73bd 3b3f 993b ed7c d9bc
000000a0: 5432 52bc 47a8 f1bc 7952 5bbd 232a 3cbd
000000b0: ee64 74bd 0fe0 88bd f158 88bc 46e8 95bd
000000c0: 635b efbb ea7c 5bbc f100 63bd 12fe 92bd
000000d0: 419a 5ebd 19ae 99bd ccc8 1cbd f04f e5bc
000000e0: 5887 03bd f1a6 06bd b6af 8bbd ebda 72bd
000000f0: cd25 77bd a294 31bd 7e54 34bd 2de7 44bd
00000100: 486a 4e3c 7f47 dd3c 30c6 9f3c ffef b3bd
00000110: 9662 f3bc f41d b63c 315d 44bd 285c 9dbd
00000120: 1129 5f3b 0a0e f7bb 5639 2ebd eaf5 38bd
00000130: 736f ddbd 2701 c5bd 71f4 b4bd c3ef 8abd
00000140: 8751 14bd 8c42 19bd fa0f 2fbd e62d 07bd
00000150: ee62 77bd dcd4 b7bc 25c2 80bd c037 1fbd
00000160: e236 6cbd b221 a0bc 25f6 2abc baed e33c
00000170: 1d9c fbba c32e 183d 057a 833d ed69 9b3c
00000180: 9b6f e03d a8b3 333e f462 103e 408b 943d
00000190: 8b00 e33d 9672 a13c f4f2 65bd 7850 063b
000001a0: 1c46 85bd a85c d8bd 6e33 01be 7d4e dabd
000001b0: eb54 aebd 04c9 04bd 4762 25bd 73b8 6fbd
000001c0: 76c5 83bd c4fc 3fbc d75b 3abd dfdb 68bd
000001d0: 9c70 a2bd afe7 d93a abf6 fdbc c333 e93b
000001e0: 1952 2a3d ab02 503d 1bd2 19bc 49ad dd3c
000001f0: 66f9 a63d f6d8 a23c 6b5d 0839 ba97 c7bb
00000200: dc0b 1bbd dd51 6dbd 331a 69bd b6ee 753b
00000210: 9429 8bbd 53b4 03be 2c14 a8bd cdf4 d3bd
00000220: e505 adbd ade6 95bd 5313 11bd a0f4 43bd
00000230: 6b90 85bd 90af f1bc 173d 91bd ea16 b4bc
00000240: 3fc8 0f3c 7a46 8f3d 8e51 103d 651c b1bb
00000250: 0418 02bd 3f35 adbc 73b6 813c d251 07bb
00000260: 83fe 86ba 3951 afbb 98e9 32b9 c9de bbbc
00000270: abb2 6fbd 2aa9 d9bd fef1 13be 261a fbbd
00000280: 31ea 6dbd d189 e0bd 1975 11bd 0bb3 39bd
00000290: f76f eebd 6271 d4bd 23b0 15bd 9766 51bd
000002a0: 49f7 4abc 2a2f 2fbd 032a 4cbd e7bf d0bc
000002b0: 2efc d53c b7bf 36bc 3e4e 943c 55c3 313d
000002c0: 008f cbbc ab96 113d 187a 0a3d 03e1 c5bb
000002d0: 90b5 6fbd 5cdf 83bd 5e88 e2bc 59e5 213c
000002e0: 2573 e2bc 5dcd 4cbd 6fe5 e6bd 753c 40be
000002f0: 1018 3bbe e166 4ebe 8ec7 22be 1867 35be
00000300: a6b9 eabd 73d7 52bd 06b7 86bd ff8a fcbc
00000310: ee6f 26bd 841b 58bd e50d 90bd 94b8 273b
00000320: dae0 b13d 4a99 383d cd8a 053d 84ac cbbc
00000330: bd32 d8bc e06c c7bd 4489 95bd c478 81bd
00000340: 671d 04be 6604 8fbd d020 3bbd 4364 563b
00000350: 3028 eabb 822e 70bd ba8c f8bd a8ef 31be
00000360: 1353 79be 6e88 6ebe a8a1 6fbe 12ff a4be
00000370: 0200 2fbe 88af 83bd 2825 0bbd 1384 80bd
00000380: 8b81 8abd 3db0 e3bc bbb9 63bd 681b 113d
00000390: 4913 a53d 2f4c 8a3d 730c 8dbc 034b c8bd
000003a0: a101 efbd 511b 1bbe ee25 98bd 1511 b9bd
000003b0: dd21 19be 89db f4bd 0459 28bc 0803 973c
000003c0: ef2a 223c f387 a6bd 1964 18be 7dfb 5ebe
000003d0: 9f16 43be 50f2 6bbe dd86 49be e242 8cbe
000003e0: b3de 18be f919 56bd 2f0d 17bd 83a8 5abc
000003f0: 8c6d 0abc b908 f7bc 153c e3bc bf20 46bd
-0.016068472 -0.02959495 -0.03191702 -0.021360833 -0.048889726 -0.06308075 -0.07202551 -0.04727865
-0.022207072 -0.0317467 -0.029352361 -0.065436885 -0.051936865 -0.01716617 -0.02879112 -0.030996662
-0.04898687 -0.053698078 -0.008869804 -0.015916718 -0.022533981 -0.028918974 -0.06837499 -0.008796776
-0.033957023 -0.063087136 -0.0069926977 -0.04143681 -0.007592618 -0.054415584 -0.051673777 -0.014798688
-0.017119996 -0.021432621 -0.051695615 -0.041678187 -0.037193127 -0.05946205 0.004676727 -0.026548827
-0.012829382 -0.029499186 -0.05354545 -0.045938622 -0.059666567 -0.06683361 -0.016643973 -0.07319693
-0.0073045953 -0.013396481 -0.05542082 -0.07177366 -0.054346327 -0.075039096 -0.038277432 -0.027992219
-0.032111496 -0.03287405 -0.068206236 -0.059290808 -0.060338784 -0.043354638 -0.04402589 -0.04807203
0.012598582 0.027011631 0.019503683 -0.0878601 -0.029710095 0.02223108 -0.047940437 -0.07683593
0.0034051577 -0.0075395154 -0.04253515 -0.045156397 -0.10812273 -0.096193604 -0.08835686 -0.06784012
-0.036210563 -0.03741698 -0.042739846 -0.033002757 -0.06039708 -0.022440366 -0.0628703 -0.038871527
-0.057669528 -0.019547317 -0.010434662 0.027823318 -0.0019196306 0.03715397 0.06419758 0.018971408
0.10958787 0.17549002 0.14100248 0.07253122 0.11084088 0.01970796 -0.0561399 0.002049474
-0.06507513 -0.10564548 -0.12617275 -0.10659502 -0.085122906 -0.032418266 -0.040376928 -0.058525514
-0.06434147 -0.011717979 -0.04549774 -0.05685031 -0.07931635 0.0016624833 -0.03100141 0.007116766
0.0415822 0.050783794 -0.009388472 0.027060168 0.08153038 0.019878846 0.00013004772 -0.0060910853
-0.037853107 -0.0579394 -0.05690975 0.0037526316 -0.0679504 -0.12861757 -0.082069725 -0.103494264
-0.0844839 -0.073193885 -0.03541882 -0.047840714 -0.06521686 -0.02950266 -0.0709173 -0.021983583
0.00877577 0.06995864 0.035234027 -0.005404996 -0.031761184 -0.021143554 0.015834069 -0.0020648134
-0.0010299239 -0.0053502587 -0.00017062423 -0.02293338 -0.05852 -0.106279686 -0.14447781 -0.12260847
-0.05808467 -0.109637864 -0.035512064 -0.045336764 -0.11642449 -0.103731886 -0.03654493 -0.051123228
-0.012388059 -0.04276959 -0.049844753 -0.025482131 0.026121225 -0.011154107 0.018103715 0.043399174
-0.024848461 0.03554408 0.033807844 -0.0060387864 -0.05852276 -0.06439087 -0.027652916 0.009881341
-0.027642796 -0.050000537 -0.1127423 -0.18773063 -0.18270898 -0.20156433 -0.15896437 -0.17715108
-0.11461191 -0.051475 -0.06577878 -0.030827997 -0.04063409 -0.052760616 -0.070339 0.0025592195
0.08685465 0.045068063 0.032603074 -0.024862535 -0.026391381 -0.09737563 -0.07301572 -0.06321862
-0.12901841 -0.06983261 -0.04568559 0.003271357 -0.007145904 -0.058638103 -0.121362165 -0.17376578
-0.24348097 -0.23294231 -0.2340151 -0.32225853 -0.17089847 -0.06429964 -0.03397098 -0.06275191
-0.067629896 -0.027793998 -0.05559705 0.035426527 0.08060319 0.06752812 -0.01721785 -0.09779932
-0.116702326 -0.15147139 -0.074291095 -0.09036461 -0.14954324 -0.119559355 -0.010275129 0.018434063
0.0098979315 -0.08131399 -0.14881934 -0.21775623 -0.19051598 -0.23041654 -0.19680353 -0.27394778
-0.14928703 -0.052270863 -0.036877807 -0.01334584 -0.00844897 -0.030155526 -0.02773861 -0.048371073

layers.2.sequential.0.bias f4 [46]
00000000: 8ac1 4e3d 3826 a7bc daf7 a83b c9c2 1a3d
00000010: 36ff 933c 7c54 3bbc ea8d d1bc 8596 873b
00000020: 231b 383d 04df 7dbd 6dff 983d 56d8 8c3d
00000030: 0f1c 89bc 830c 803d 9ba6 06bd 1d60 5db9
00000040: aff2 883d c439 513d 4afd ed3c 0015 63bc
00000050: f832 5d3d 3ad8 b8bb ebe7 583d c577 f7bb
00000060: 294a ec3a a0e6 553d e26d 873c 56d4 703c
00000070: b77e a03d 6a40 c33d a866 973d 60fe 92bb
00000080: d542 083e 25c0 35bd 3039 a13d 460d ba3d
00000090: 2ea0 873d 5fb4 2cbd d622 e83b 48db 103b
000000a0: 7ab9 543c 1193 143d 1d5c 633d 2b5d ca3c
000000b0: 6052 993a 9a44 ea3c
0.050477542 -0.020403966 0.0051564993 0.037783418 0.01806603 -0.011433717 -0.025580365 0.0041378164
0.044947755 -0.061980262 0.074705936 0.068772 -0.016737012 0.062523864 -0.03287373 -0.00021112007
0.06686913 0.05108048 0.029051442 -0.013859987 0.054003686 -0.0056410106 0.05295555 -0.0075521194
0.0018027473 0.052221894 0.016531888 0.014699062 0.07836669 0.095337704 0.07392627 -0.0044858903
0.13306744 -0.044372696 0.07872236 0.09084563 0.06622349 -0.042164203 0.007084231 0.0022103358
0.012983674 0.036273066 0.055507768 0.02470263 0.0011697523 0.028597165

layers.3.sequential.0.weight f4 [46, 46]
00000000: 15d0 033e f674 063e 9392 3ebe 17d0 69be
00000010: 3cdf 9dbb 9d9f d73d 127b 023d 23ab 38be
00000020: edd0 783e d6cf 38be 0a50 d03c bad4 3fbe
00000030: 1e87 d5bd 4bfd 1b3e e6a2 a9bd 8f05 253e
00000040: 15b3 30bd 188f 9b3d e380 5a3e fc7d ac3c
00000050: 3b28 2a3e 8073 3a3e ca7f 1f3d f81d 7ebe
00000060: 8815 f5bd 2540 593e 526a 13be 2a31 2a3e
00000070: 62e6 7d3d 5d6c 3b3e f39a 713e 1331 1ebe
00000080: f2dc b83d 1d92 b8bd 8413 453e 10fb abbd
00000090: cd6e 033d f717 e2bd 1617 f93d 44bf 523e
000000a0: 9166 343d 2018 66bd 9d91 0a3e 81f4 8dbd
000000b0: d055 ef3d f672 223e a50c 0c3e 2fb7 bc3d
000000c0: 89c8 1cbd 797f 31bd 8900 0bbe 3e70 ec3c
000000d0: 07f1 7dbe 1720 9b3c 11e1 83b9 8d4d 0dbe
000000e0: fdc8 f2bd da46 813d db63 69be dad5 e03c
000000f0: 8226 46bd 2fc0 66be 6a1b 4a3e c3d7 e6bd
00000100: f22d 3dbd a569 92be 8c12 573e bc33 33be
00000110: 006f aa3e d3f2 cf3e c7d8 f0bd 5d26 923e
00000120: 0b5f 8f3e cf34 ee3d 9ca8 19be db3a e93d
00000130: 4f3c b4bd 2c2b 54bd d7b5 1c3e d92b e83d
00000140: 67e9 f9bd 5187 893d dd8a 8bbe 3940 94bd
00000150: 63ec 1a3e 4c3c 9e3e 10cf 18be 6318 813e
00000160: 9d9e 073d 0b2c bbbd c59e 1e3e 7391 3dbe
00000170: 380d 3abd 98c0 183e ecbc 4a3e 4326 9a3e
00000180: 4239 5f3e ff4c 2abe 65e0 84bc ce09 553e
00000190: 7b23 32be d273 953d c70c 3a3e 8b5d c33d
000001a0: 50ab 423e 6b2c 26be 509f 49be e601 1bbe
000001b0: 7b6c 4bbe 022a 7a3d 13ca d7bd 71a6 003d
000001c0: 728c 903e aa28 38be f075 29be 5114 d43e
000001d0: b894 443b eac8 113a 2625 583d 119c 803e
000001e0: 4601 343e 0429 a83b ab04 923c abc3 a8bc
000001f0: 49af 1c3e 80d3 793e e52e 18be b369 30be
00000200: f36a 063e 05f4 09bb b21a 5e3e d53b fabd
00000210: 286c d63d 2206 f63c f894 9c3e ae14 dfbd
00000220: c5e1 983c 0c05 a5bc 3361 73bd 40b1 b53d
00000230: 91ca b33c 3b80 b53c efbb e0bc 35ce a7bd
00000240: ee8c 653e 6952 0bbe f10e 153d 9cc7 6d3e
00000250: 038a 993a cf0b 483d 8390 8bbd 2a88 ea3d
00000260: 32ce 4d3b d0af 36be 6c4b aebc 4d00 18be
00000270: 0142 57bd b53f 9c3d d0db 433c 648c 043e
00000280: dd4a a1be b714 0abe 826d e93d 1c8c cdbd
00000290: e52d 01be 0899 12bd fb38 6a3e 8f90 323e
000002a0: a212 bfbc 220e ef3d c5f0 4a3e 7249 413e
000002b0: 9530 a6bc 9b79 b7be 005d 12bd c46b 903d
000002c0: d0bf 5f3e 4bca 383d 70b1 52bd 5c1e dc3c
000002d0: bc23 7a3e fedf 873c 64bb 4dbd a4ec 5b3d
000002e0: 6142 603e ca70 11be d83f 82be 6f88 293e
000002f0: 4a61 533d 1952 98be e1a5 da3d 2265 093e
00000300: fcc3 033e c5bf 06be 9d5e 513d f609 013e
00000310: e21a 46be aa13 3d3e ecbb 83be 6bcb 293e
00000320: e194 373d bb88 e9bc f4b1 253e 3b75 f0bd
00000330: c7b7 943e d20b 483e 88dc 7b3e b762 a3be
00000340: 20d1 0b3e 5c2c 3d3d fd17 7ebe fff6 11bd
00000350: 4b30 203e ab0f 5f3e 85a2 103e 4daa 0ebe
00000360: ee3b 4ebd 8182 8e3d 03d8 55bc 29e5 a7bd
00000370: b873 7abb 53ce d5bd 3330 cc3d 5bd9 a4bd
00000380: 4942 9e3d 1d14 23bd 3079 863e f5d0 eebd
00000390: 1dab 023e a5a6 983d 70ea 333e a456 92bd
000003a0: 2b9b d8bd b30e 293d 15d1 403e e7e3 3ebe
000003b0: 4705 653e 145f 323e b669 fbbd c128 c33d
000003c0: 673a 08be 3f33 e03d 4338 8f3d 5a5a 6c3c
000003d0: 772d 4e3e 6a48 503e 2330 ed3c 7e75 5a3e
000003e0: 41ad 9bbe 069a b53c 3809 dfbd 482e 13be
000003f0: 9c43 9dbe b590 003e 44ab d7bc e559 84be
0.12872346 0.13130555 -0.18610601 -0.22833286 -0.0048178714 0.10528491 0.03185565 -0.18034033
0.24298449 -0.18048033 0.02542879 -0.18733492 -0.10426162 0.15233342 -0.082830235 0.16115402
-0.043139536 0.07595652 0.21338229 0.021056168 0.16616909 0.18208122 0.03894023 -0.2481612
-0.119669974 0.21215875 -0.14396027 0.16620317 0.06198729 0.18303056 0.23594265 -0.15448408
0.09026517 -0.09012244 0.19245726 -0.08397496 0.03208809 -0.11039727 0.121626064 0.20580775
0.044043127 -0.05617535 0.1353211 -0.06931401 0.11686289 0.15864167 0.13676699 0.09214627
-0.038277183 -0.043334458 -0.13574423 0.028862115 -0.24798976 0.0189362 -0.00025153955 -0.13799115
-0.11854742 0.06312342 -0.22791998 0.027445722 -0.048376568 -0.2253425 0.1973702 -0.11271622
-0.046186395 -0.28596225 0.21003169 -0.17500204 0.3328781 0.40614948 -0.11760097 0.28544894
0.280022 0.11631166 -0.15005726 0.11388179 -0.088005655 -0.051798984 0.15303741 0.11336488
-0.12202721 0.06715263 -0.27254382 -0.07238812 0.15129237 0.30905378 -0.14922738 0.25213918
0.03311025 -0.0913926 0.15490253 -0.18512516 -0.045422763 0.14917219 0.1979863 0.30107316
0.21799186 -0.16630934 -0.01622028 0.20804521 -0.17396347 0.072974816 0.18168937 0.09539326
0.19010663 -0.16227882 -0.19689679 -0.15137443 -0.19865601 0.061075218 -0.105365895 0.03140873
0.2823215 -0.17984262 -0.16548896 0.4142175 0.002999587 0.00055612496 0.052769803 0.2511907
0.17578611 0.0051318426 0.017824491 -0.020601114 0.15301241 0.24397087 -0.14861639 -0.17227821
0.13126735 -0.0021049988 0.21689871 -0.12218443 0.10469848 0.030032221 0.30582404 -0.10892616
0.018662343 -0.020144008 -0.05941887 0.088716984 0.021947177 0.022155872 -0.027433364 -0.08193628
0.22417042 -0.13605656 0.036391202 0.23220676 0.0011714104 0.048839387 -0.06814673 0.114517525
0.003140342 -0.17840505 -0.021276198 -0.14843865 -0.05255318 0.07629339 0.011954263 0.1294418
-0.3150243 -0.13484465 0.1139784 -0.10036489 -0.12615164 -0.035790473 0.22873299 0.17437957
-0.023324315 0.116726175 0.19818409 0.18875673 -0.020286838 -0.35834965 -0.035733223 0.07051805
0.21850514 0.045114797 -0.05143875 0.026869945 0.24427694 0.0165863 -0.050227538 0.053692475
0.21900322 -0.14203182 -0.25439334 0.16555952 0.051606454 -0.29750136 0.1067617 0.13417485
0.12867731 -0.13159092 0.05111562 0.12601456 -0.19346192 0.18464532 -0.2572931 0.16581504
0.044819716 -0.028507581 0.16181165 -0.1174111 0.2904646 0.19535759 0.24595845 -0.3191125
0.13653994 0.046184883 -0.24813838 -0.035635944 0.15643422 0.2178332 0.14124496 -0.13932152
-0.050350122 0.069584854 -0.0130519895 -0.08198006 -0.0038215946 -0.10439744 0.09970131 -0.0804927
0.07727487 -0.039814103 0.26264334 -0.11660949 0.12760587 0.0745366 0.175699 -0.07145432
-0.10576471 0.041273784 0.18829758 -0.18641625 0.22365294 0.17419082 -0.12276022 0.095292576
-0.13303529 0.109472744 0.06993153 0.014425838 0.20134531 0.20340124 0.028953617 0.21333882
-0.3040562 0.02216817 -0.1089043 -0.14373124 -0.30715644 0.12555201 -0.026326783 -0.25849834

layers.3.sequential.0.bias f4 [46]
00000000: cb3b 4ebd 2336 99bd f65a 63bd 8306 acbd
00000010: c220 dd3d 3140 a9bd 2233 243e 2742 12be
00000020: 5012 183e ee17 cfbc 50bf 23be cfae 63bd
00000030: 232b 04be 2061 04bd eac4 fbbb 4955 903d
00000040: 8406 23bd 4927 b4bb 100b 1d3e 8f2e 0f3e
00000050: a6d7 02be fea1 41bc 8fbb dd3c 1238 fe3d
00000060: 50ed 9d3d 6c0b b63d 0d3f 4b3d 71be 74bd
00000070: 9654 c5bb a917 1e3e 141f f6bd d427 e9bd
00000080: 097a 273c 97d3 a83d 48f0 e9bb 278c 19bd
00000090: 399b 913d 8504 1fbe 821d c43c 72f8 8cbd
000000a0: 208c 743c 579b 63bd 4671 cc3d 6185 0abd
000000b0: 9691 b73d 7944 43bd
-0.05034999 -0.07481029 -0.05550667 -0.083996795 0.10797264 -0.08264197 0.1603513 -0.14283048
0.14850736 -0.025279965 -0.15990949 -0.055586632 -0.1290708 -0.032319188 -0.007683386 0.07047517
-0.039801136 -0.005497847 0.15336251 0.13982604 -0.12777576 -0.011818407 0.027066974 0.12413038
0.077112794 0.08888897 0.049620677 -0.05975193 -0.0060220463 0.15438713 -0.120176464 -0.1138455
0.010221967 0.082434826 -0.0071392395 -0.037487175 0.071096845 -0.15529068 0.023939852 -0.06883325
0.0149259865 -0.055568065 0.09982543 -0.033818606 0.08963315 -0.047672722

layers.4.sequential.0.weight f4 [10, 46]
00000000: 3102 9d3d 7410 78be fb6d 81be 6549 05be
00000010: 3641 933c d73c ddbd 212b bdbd e6e3 05be
00000020: 4713 c23d e10b 033e 2a3e 57be 2a8f 82bc
00000030: 0048 c43d 4f9b 3abd c5d0 69be a72f e9bd
00000040: bd36 c1be 17c0 09be 891f 81be 286b 26be
00000050: 5fad 02be e861 f0bc 1295 18be ae5b 89be
00000060: b4dc 01bd dbe2 873e bb59 8cbe 866d 363d
00000070: 76b2 36be beb9 133e e22a 453e 452e 833e
00000080: 41ea 2d3e 6172 7cbd 852c 8bbd 42b1 c6bc
00000090: b9a7 de3b b227 043e 3885 9a3d 0ed2 90be
000000a0: 81d7 01bd 72ef 7dbe 4324 4e3e a81d 213e
000000b0: 119b 1bbe 947d 7e3e 9204 d63d cf88 3f3e
000000c0: 7bd1 48be 9b54 4c3e 0807 51bd c157 b7bd
000000d0: 7710 073e 760c 023e 9fb6 0bbe c4db 003d
000000e0: 6161 8dbd cb4a c83e 942d 88be f86c 51ba
000000f0: 8ca4 c13d 70b7 0b3e f1e0 673e aa3c abbd
00000100: 3076 0a3e 829d 803e 2f53 43bd f2ea 9b3e
00000110: c79c 40bd ecb6 1fbe ffcc 993c 9856 8cbe
00000120: 2ba9 65be d9d8 323d 8d6d 65be ecf3 d0bd
00000130: 7bd1 4fbe c94f 52be 0ef6 413d 9142 02be
00000140: 914b efbd 1f22 a43e 7ee6 4b3c 409b 7e3e
00000150: f9f2 ed3d 3de8 443e 27aa 173e b4ca 193d
00000160: 3ea9 0d3e e65c 50be 4521 523e 935b a7be
00000170: a637 503e 9480 9d3e 9d5c 053b c043 d6bd
00000180: a984 a9bd 4725 0fbe 9f50 323e de84 b73c
00000190: 28ba 63be a017 2fbd 2f37 76be 244d 9abc
000001a0: a5b6 f0bc d9ee 433e a876 5b3e b99e 50be
000001b0: 8cb2 81be 3ed9 1b3e 79cf 483e dd75 2fbe
000001c0: 419e 2f3e c613 76bd 2c8c ad3e 22fe 293c
000001d0: 9ffe d83c 394d a03e 8b68 73be e608 f43c
000001e0: c32b bb3d 9bc3 07bc 0739 31be 9e5a c63d
000001f0: e4e1 3f3e 8825 c53d 2d58 03be 2536 65be
00000200: f102 be3d 4dc8 e83b c469 b5be 0636 be3e
00000210: 6c5a c83d c858 313e 3fc0 053d d020 88bd
00000220: 5827 9f3d f422 5fbe 060e a53d 1ec1 2dbd
00000230: 2239 073e d5f1 963d 4665 423e 23bf 613e
00000240: 8ad9 883e a7de a33d dd94 cc3d d4dc d5bd
00000250: 7e2c ef3e 670a 80be 4200 343d aa1b 493e
00000260: b165 9a3d 4c21 71be c4fd bbbc c6ae ffbd
00000270: 0ddf f83d 5572 803e 8a2b e23d 3109 18bc
00000280: feb0 d1bd 327f 8a3b 530c 1fbd bc54 613d
00000290: b091 1ebe 5205 ccbd d0d3 b73d 8bf7 e53d
000002a0: b9e6 73bd b48f 48be 8d83 8f3d f0b2 183e
000002b0: 38c9 ab3d 256e 49be 831c 43bd 165c bdbe
000002c0: 5243 89bc a2d6 9abe f88c 7a3e ca6d e0bd
000002d0: 2a81 29be 34e4 1e3e 79cb 79bd 3139 82be
000002e0: 135c 87be 4689 7ebe 88e4 6abd 404c 2a3e
000002f0: 112c 8fbe 390e 993e c90c 3dbe a621 b03d
00000300: 72dd 24bd 29bd babd 6f27 cfbd 664a 883e
00000310: 8e19 abbd 8ab3 e4bd 0203 3dbd 3b22 883e
00000320: c540 3ebe 521d 60bd c1a9 e73d 557d 983d
00000330: 003a 193e aaa6 3cbe 94ea 053e ef2a d33d
00000340: c500 143b 63f8 f9bc 3038 8b3e 218a a5bd
00000350: 9bcf 65bd 9a62 c93d a8e2 b6bd 8e63 94bc
00000360: a566 29be 5b6e 2dbe 152a a23d f1a6 0b3e
00000370: 2855 31bc 6268 bb3e 8e95 01be 758a 123d
00000380: 2415 173d 2b9f 6f3e 588a e03d d979 74be
00000390: 2a48 283e 223d fa3d 5059 95bd fa45 7f3d
000003a0: a849 69bb 1803 a3bd b34c d8bd b837 c7bd
000003b0: ce8c fdbd 7e84 01be fe5a b3bd eed5 d9bd
000003c0: eb2e d139 00d0 263d b1f5 893d c9e6 883d
000003d0: dc29 dabd e7d7 0bbd 2ce7 12bd 14dc c33d
000003e0: ab65 a6bd a10d acbb 5e1e a2bd 7432 b5bd
000003f0: f873 74bb 5d48 d53d 84f3 7fbd a0d2 bcbc
0.076664336 -0.24225026 -0.2527922 -0.13016279 0.017975431 -0.1080262 -0.09236742 -0.13075218
0.09476333 0.127975 -0.21019807 -0.015937407 0.095840454 -0.04555827 -0.22833546 -0.11386042
-0.37737074 -0.13452183 -0.25219372 -0.16251814 -0.12761448 -0.02934356 -0.14900616 -0.2682776
-0.03170462 0.26540264 -0.2741221 0.044538043 -0.17841515 0.14426324 0.1925464 0.25621238
0.16983892 -0.061632518 -0.06795601 -0.024254445 0.0067948964 0.12905768 0.07544941 -0.2828526
-0.03169966 -0.24798372 0.2013102 0.15733969 -0.15195872 0.24852592 0.104500905 0.18704532
-0.1961116 0.1995415 -0.051032096 -0.089522846 0.13189875 0.12700066 -0.13643883 0.031459585
-0.06903339 0.39119563 -0.26597273 -0.0007988955 0.09455213 0.13644195 0.22644402 -0.0836118
0.13521647 0.2512017 -0.047686752 0.30452687 -0.047024515 -0.15597123 0.018774508 -0.27409816
-0.22427814 0.043663833 -0.22405072 -0.102027744 -0.20294754 -0.20538248 0.047353797 -0.12720706
-0.11684335 0.32057282 0.01244509 0.2486391 0.11618609 0.19229217 0.14811002 0.03754683
0.13834092 -0.20347938 0.20520504 -0.32687053 0.20333728 0.3076216 0.0020349391 -0.10462141
-0.08277256 -0.13979064 0.17413567 0.022402223 -0.22238982 -0.04274714 -0.24044488 -0.018835612
-0.029383967 0.19134082 0.21431983 -0.20373048 -0.25331533 0.1521959 0.19610395 -0.17134805
0.17150213 -0.06007745 0.33896005 0.010375531 0.0264886 0.31308916 -0.23770349 0.0297894
0.09139206 -0.008286382 -0.1730691 0.096852526 0.18738514 0.09626299 -0.12826605 -0.22383936
0.09277905 0.007103956 -0.35432255 0.37150592 0.097828716 0.17319024 0.032654043 -0.066468835
0.07771176 -0.21790677 0.080593154 -0.0424205 0.13205388 0.073703445 0.18983945 0.22045569
0.2672847 0.08001452 0.09989331 -0.1044251 0.46713632 -0.25007936 0.04394556 0.19639459
0.07538927 -0.23547858 -0.022948153 -0.12484507 0.121519186 0.25087228 0.11043461 -0.009279535
-0.10238837 0.0042265886 -0.038830113 0.05501245 -0.15485263 -0.09961952 0.08975947 0.11228856
-0.059546206 -0.19586068 0.07007513 0.14912009 0.08387989 -0.19670923 -0.047634613 -0.36984318
-0.016755734 -0.30241877 0.24467838 -0.109584406 -0.16553178 0.1551674 -0.060985062 -0.2543426
-0.26437435 -0.24857053 -0.05734685 0.1663065 -0.27963307 0.29893664 -0.18461908 0.08600168
-0.04025025 -0.09118111 -0.10114943 0.26619262 -0.083544835 -0.11167057 -0.046145447 0.26588616
-0.18579395 -0.054715462 0.11311675 0.0744578 0.14963531 -0.18422952 0.13077766 0.10310923
0.0022583466 -0.030513948 0.27191305 -0.080829866 -0.05610619 0.0983326 -0.0892995 -0.018113878
-0.16543062 -0.16936629 0.07918183 0.13637902 -0.0108235255 0.36603075 -0.12654707 0.035776574
0.036885396 0.23400562 0.10963887 -0.23874606 0.16433778 0.122186914 -0.07292426 0.062322594
-0.003559688 -0.079595745 -0.10561504 -0.097274244 -0.12380372 -0.12648198 -0.0875759 -0.10636507
0.00039898543 0.040725708 0.06736315 0.06684644 -0.10652515 -0.034141447 -0.035864994 0.09563461
-0.081248604 -0.005250648 -0.07915948 -0.08847514 -0.0037300568 0.10414193 -0.062488094 -0.023049653

layers.4.sequential.0.bias f4 [10]
00000000: 46a9 77bc c7c7 c1bd d058 0abd f29b ba3d
00000010: 4543 7dbd 89a8 03be 97d3 093e 327a d2bd
00000020: bff7 f63d bfcf 483d
-0.0151160415 -0.09461933 -0.033776104 0.091117755 -0.06183173 -0.1285726 0.13459621 -0.10277213
0.120589726 0.049026247
