benchmark/ablation_mnistfc_tiny/onnx/mnistfc-tiny-net-177.onnx (onnx, 254859 bytes, 6 tensors)

layers.2.sequential.0.weight f4 [73, 784]
0	0xbd17a7e3	-0.037025344
1	0xbcfc1a87	-0.030774368
2	0xbc1328af	-0.008981868
3	0xbbe723b8	-0.0070538186
4	0x3b180740	0.002319768
5	0xbc0bf56d	-0.008542401
6	0xbd0d692a	-0.03452412
7	0x3caa8c41	0.020818831
8	0xbce5a47f	-0.02803254
9	0x3c90ed2c	0.017691217
10	0x3adaa93e	0.0016682518
11	0xbcb85c60	-0.022504985
12	0x3a727647	0.0009249192
13	0x3cfc5dc4	0.03080643
14	0xbd048279	-0.03235099
15	0x3c536cd3	0.012904364
16	0xbcb566fc	-0.022143833
17	0x3ce4d5eb	0.027934035
18	0x3c4c4290	0.012467042
19	0xbbdb37db	-0.006690008
20	0xbd0a0b07	-0.033701923
21	0x3ceb17ce	0.028697874
22	0xbbd1318e	-0.006384081
23	0x3ce9f163	0.028557485
24	0x3d04ca02	0.032419212
25	0x3d00fb15	0.03148945
26	0x3ce79ab5	0.028272012
27	0xbd030c4c	-0.03199415
28	0x3c75e5ce	0.015008403
29	0x3c245d3c	0.010031994
30	0xbd08328e	-0.033251338
31	0x3c7b9e07	0.015357501
32	0x3c0727c9	0.008249232
33	0xbc8f500d	-0.017494226
34	0xbd07cb50	-0.03315288
35	0xbd0a1c50	-0.033718407
36	0xbce2ee4d	-0.027701521
37	0x3cb3e2cf	0.021958737
38	0x3c5c8580	0.013459563
39	0xbc9ebef4	-0.019378163
40	0x3c6ae56d	0.014336926
41	0x3bc68b10	0.006059058
42	0x3c9c8bc8	0.019109622
43	0xbd1ecf3f	-0.038771864
44	0x3cce52ab	0.025185904
45	0x398128fd	0.00024635336
46	0xbc985a36	-0.018597703
47	0xbca4e167	-0.020127011
48	0x3c2bdeef	0.010490163
49	0xbbddc6c7	-0.006768081
50	0x3c8872ac	0.016656242
51	0xbc7afb64	-0.015318725
52	0xbcd9a7a7	-0.0265692
53	0xbbb28ebb	-0.0054491437
54	0x3cede0d3	0.029037869
55	0x3c8b9b1f	0.017041741
56	0xbd0029d8	-0.031289905
57	0xbcaee2fd	-0.02134847
58	0x3c72fb93	0.014830488
59	0xbcb87b44	-0.022519715
60	0xbaac484b	-0.0013144104
61	0xbcda3082	-0.026634458
62	0x3b3968a8	0.002829114
63	0xb9f9ffa9	-0.00047683463
64	0xbd1f952f	-0.038960632
65	0xbbcb0e32	-0.0061967606
66	0xbd2d0f23	-0.042250764
67	0xbc523716	-0.012830516
68	0xbd981479	-0.0742578
69	0xbd8c7256	-0.06857745
70	0xbcf2edff	-0.029654501
71	0xbcea1a04	-0.028576858
72	0x3cca6e58	0.02471082
73	0x3d138fbf	0.03602576
74	0x3c02bd47	0.007979698
75	0x3ce4fc75	0.027952412
76	0xbd178728	-0.03699413
77	0x3ca75598	0.020426556
78	0x3b5aaa00	0.0033365488
79	0x3ba7374a	0.0051030265
80	0x3c042ed9	0.00806781
81	0x3c72b813	0.0148143945
82	0xbc089611	-0.00833656
83	0xbd1988d6	-0.037484013
84	0xbb84e51a	-0.0040556313
85	0x3b8ab0a7	0.0042324844
86	0xbd09668f	-0.033545073
87	0x3bb8e906	0.005643013
88	0x3b6c8967	0.003609264
89	0xbd0da789	-0.034583602
90	0x3c250059	0.010070884
91	0x3b909c3d	0.0044131563
92	0xbc90ec04	-0.017690666
93	0xbd9c76a3	-0.07639816
94	0xbd86c097	-0.06579702
95	0xbdede6a0	-0.11616254
96	0xbe18645b	-0.14882033
97	0xbdc2d148	-0.095125735
98	0xbdaa324c	-0.083103746
99	0xbd970764	-0.073744565
100	0xbc0fc5db	-0.0087752
101	0xbc2b3a9a	-0.010450983
102	0x3c2083d1	0.0097970525
103	0x3bf67a76	0.0075219227
104	0xbcc139b6	-0.023587089
105	0xbc3d6b8e	-0.011561288
106	0xbd1a52af	-0.03767651
107	0xbd05c9f9	-0.03266332
108	0xbba72722	-0.0051011005
109	0x3c37ec22	0.011225732
110	0xbd0c1116	-0.034195982
111	0x3c24da7d	0.010061857
112	0x3c3dc892	0.011583464
113	0xbc8c488c	-0.017124437
114	0xbcf1058b	-0.029421588
115	0xbc3b8f19	-0.011447691
116	0xbce57a14	-0.028012313
117	0x3c496a56	0.012293419
118	0xbd1c48c3	-0.03815533
119	0xbca84304	-0.020539768
120	0xbc61ad46	-0.013774222
121	0xbcf079e8	-0.029355004
122	0x3cd71331	0.026254268
123	0x3d389b75	0.04507013
124	0x3da4a0f4	0.08038512
125	0x3ca03d30	0.019560426
126	0xbd465a33	-0.048425864
127	0xbd527d39	-0.051388953
128	0x3cb077c5	0.021541486
129	0xbd124b9c	-0.035716638
130	0x3d9203b7	0.07129615
131	0x3d4da16a	0.050202765
132	0x3d365541	0.0445149
133	0x3d1b9d63	0.037991893
134	0x3c0e3d06	0.008681541
135	0xbcab8ca8	-0.020941094
136	0xbcb3a134	-0.021927454
137	0x3c68eb65	0.014216279
138	0xbcbc2673	-0.022967553
139	0x3ab4b601	0.0013787152
140	0xbccf7312	-0.025323424
141	0xbc192fa5	-0.009349738
142	0x3cb9c32f	0.022676079
143	0xbc0de8bd	-0.008661446
144	0xbc5ee37c	-0.013604041
145	0x3c879baf	0.016553728
146	0x3c310932	0.010805415
147	0xbd230a54	-0.03980477
148	0xbd0413d0	-0.032245457
149	0xbd39e735	-0.04538651
150	0x3c181372	0.00928198
151	0xbd53fa0d	-0.05175214
152	0xbdec6e34	-0.11544457
153	0xbd909c9b	-0.0706112
154	0xbd685ec1	-0.05673099
155	0xbd4e2d64	-0.050336257
156	0xbda80c4f	-0.08205473
157	0x3bdcf1f6	0.006742711
158	0x3e1b231a	0.15150109
159	0x3dd0547d	0.10172365
160	0x3e22f3b8	0.15913284
161	0x3da386ee	0.0798472
162	0x3d96052d	0.07325206
163	0x3d55e310	0.052218497
164	0xbca5c6b8	-0.020236358
165	0xbc51578a	-0.012777219
166	0xbc214b83	-0.009844664
167	0xbd0e28b4	-0.034706786
168	0xbc3cbee0	-0.0115201175
169	0x3ca5276c	0.0201604
170	0xbca35ba8	-0.019941166
171	0xbc2a60d2	-0.01039906
172	0xbcd8ca47	-0.02646364
173	0xbd0b8e43	-0.03407122
174	0xbdae5d7a	-0.08513923
175	0xbb2f9c3a	-0.0026796
176	0xbd21cd7e	-0.039502613
177	0xbdb98aa9	-0.090596505
178	0xbd5cb6a6	-0.053885125
179	0xbdb2cd18	-0.08730525
180	0xbb4874e1	-0.0030587243
181	0xbc3d8ad8	-0.011568747
182	0x3d19afb6	0.037521087
183	0x3c64e5df	0.013970821
184	0x3ce6cf34	0.028174974
185	0x3d9cce3b	0.07656523
186	0x3dfcea13	0.123493336
187	0x3dc19933	0.094530486
188	0x3d73f8d2	0.059563465
189	0x3dbaa93d	0.09114311
190	0x3d58ac20	0.052898526
191	0x3cc612f7	0.024178965
192	0xbd00bba3	-0.031428944
193	0xbd18c10f	-0.03729349
194	0xbc66d64a	-0.014089176
195	0xbc0f6346	-0.008751696
196	0xbc962499	-0.018327998
197	0xbcd5de03	-0.02610684
198	0x3cddfba7	0.027097536
199	0xbad85794	-0.0016505593
200	0xbd1272bc	-0.03575395
201	0xbd8b9288	-0.06815058
202	0xbdcde703	-0.100538276
203	0xbcc0a20b	-0.023514768
204	0xbcc4da76	-0.024029952
205	0xbdad8d33	-0.08474197
206	0xbba2198e	-0.004946894
207	0x3c6bb1b2	0.014385628
208	0x3dbee68c	0.09321317
209	0x3e041bf0	0.12901282
210	0x3d90ab9e	0.070639834
211	0x3d32aad8	0.04361996
212	0x3d565fe0	0.052337527
213	0x3d78e93a	0.060769297
214	0x3d2073cd	0.039172936
215	0x3dbe3a46	0.092884585
216	0x3cfbc97b	0.030735722
217	0x3d364a16	0.044504248
218	0x3e074a84	0.13212019
219	0x3d8f8d72	0.070094004
220	0x3cd53bf5	0.026029566
221	0xbbbf669a	-0.0058410885
222	0xbcf3dff0	-0.029769868
223	0xbc1f3cd9	-0.009719097
224	0xbcd960fb	-0.026535502
225	0xbcf480a1	-0.029846491
226	0x3c79d1b4	0.015247751
227	0x3cd1158b	0.025522968
228	0xbd7a60d0	-0.061127484
229	0xbd0ef957	-0.034905758
230	0x3c9b43d7	0.018953247
231	0x3d42259a	0.04739914
232	0x3de94ac9	0.11391217
233	0x3e045aea	0.12925306
234	0x3e208c1c	0.15678447
235	0x3e3515fc	0.17684168
236	0x3e0e2818	0.13882482
237	0x3db4512b	0.08804544
238	0xba437f03	-0.0007457586
239	0xbc821105	-0.015877256
240	0xbcd3916f	-0.025826184
241	0xbcab6941	-0.020924212
242	0x3d7cddaf	0.06173485
243	0x3d1a4ca4	0.037670746
244	0x3cf7c3a2	0.030244652
245	0x3d46c214	0.04852493
246	0x3e2f021b	0.17090647
247	0x3d96cee4	0.0736368
248	0xbbee96e3	-0.0072811707
249	0xbd410d39	-0.04713175
250	0xbc184e18	-0.009295963
251	0xbc00b151	-0.0078547755
252	0x3d086db1	0.033307735
253	0x3c09aa54	0.008402426
254	0x3c90cf01	0.017676832
255	0xbc9cf0dc	-0.01915782

layers.2.sequential.0.bias f4 [73]
0	0x3d1b7645	0.037954587
1	0x3cb7c9f0	0.022435158
2	0x3d14e45e	0.0363506
3	0x3ba4cf1d	0.0050295726
4	0x3d24b810	0.0402146
5	0x3c715c23	0.01473144
6	0x3cccdd87	0.025007976
7	0x3d052eee	0.03251546
8	0xbc09d43e	-0.008412419
9	0xbcafa187	-0.021439327
10	0x3d22209c	0.03958188
11	0x3d91bfd0	0.071166635
12	0x3d2fe531	0.042943183
13	0x3ca8b90a	0.020596046
14	0x3b67afec	0.003535266
15	0xbb77d843	-0.003781811
16	0x3d29a0fd	0.041413296
17	0x3cb8cf3e	0.022559758
18	0x3cdf3d7d	0.027251
19	0xbc9340eb	-0.017975291
20	0x3d013035	0.031540114
21	0xbc9bd9ae	-0.019024696
22	0x3c3cc7e7	0.01152227
23	0x3cb0adbd	0.02156722
24	0x3d50c662	0.050970443
25	0x3d1d0ef3	0.038344335
26	0x3bd3e627	0.0064666453
27	0x3c0e3c12	0.008681314
28	0x3d91571b	0.07096692
29	0xbc76d619	-0.015065693
30	0x3b4f2d5c	0.003161273
31	0xbc96a3da	-0.018388677
32	0xbcc09cb7	-0.023512227
33	0x3d2ebee1	0.042662505
34	0xbd103014	-0.0352021
35	0x3d53473e	0.051581614
36	0x3d7fc239	0.062441085
37	0xbc85b7b8	-0.016322955
38	0xbb9949e3	-0.0046779974
39	0x3d297b8f	0.0413776
40	0x3d48ef98	0.04905662
41	0x3c85a68f	0.016314773
42	0x3d120171	0.035645906
43	0x3c4ca50e	0.012490524
44	0x3d112adb	0.03544126
45	0x3b026fd5	0.0019903083
46	0xba13d89c	-0.00056398823
47	0xbc0012af	-0.0078169545
48	0x3d4639ae	0.04839485
49	0x3846de10	4.741369e-05
50	0x3d585004	0.052810684
51	0xbd01d266	-0.031694792
52	0x3c1bea9b	0.0095163835
53	0xbc4e1ab2	-0.012579607
54	0x3c91bc67	0.017790033
55	0x3d1574cb	0.036488336
56	0xbcdeccc1	-0.027197244
57	0x3cf91e28	0.030409887
58	0x3d3404ee	0.043950014
59	0x3d294223	0.04132284
60	0x3bc6e9be	0.0060703447
61	0xbd22e2bf	-0.039767023
62	0xbd08c784	-0.033393398
63	0xbb7baab4	-0.0038401308
64	0x3cc0572f	0.023479072
65	0x3c83965a	0.016062904
66	0x3cdb37a9	0.02675994
67	0x3c1ca0f1	0.009559856
68	0x3cd90309	0.026490705
69	0x3c9c0bbc	0.019048564
70	0xb9ef9b3a	-0.00045701285
71	0x3d9b56cc	0.075849146
72	0xbbd485d2	-0.006485679

layers.3.sequential.0.weight f4 [73, 73]
0	0xbd10e49e	-0.035374276
1	0x3dcf87b2	0.10133304
2	0x3e49ca14	0.19705993
3	0x3e1f159e	0.1553559
4	0xbde47517	-0.111551456
5	0xbdc7a52c	-0.09748301
6	0x3df89ef6	0.121396944
7	0x3dd94681	0.10609151
8	0x3da0d66e	0.07853399
9	0x3dfdaa94	0.12386051
10	0xbd273adf	-0.04082763
11	0xbe22d9fe	-0.1590347
12	0x3d95bcdc	0.07311413
13	0x3e64fcc3	0.22362046
14	0x3d1ad7ce	0.037803464
15	0xbe6227ba	-0.22085467
16	0x3d8d7ced	0.06908593
17	0xbdabc1bd	-0.08386562
18	0xbeaf5c0c	-0.34249914
19	0x3e2ad5e9	0.16683163
20	0x3d781d62	0.060574897
21	0xbedc1308	-0.4298327
22	0xbe5b5543	-0.21419244
23	0xbded1869	-0.115769215
24	0xbd43a93f	-0.047768828
25	0x3d87b322	0.06625964
26	0x3e031402	0.12800601
27	0x3e3dd930	0.18539882
28	0xbc26e958	-0.010187469
29	0x3e008296	0.12549815
30	0xbeb2928b	-0.34877428
31	0x3d139ac7	0.03603628
32	0x3d6d7c87	0.057980087
33	0x3dccf0b5	0.10006849
34	0xbe2b0f17	-0.16704975
35	0xbe1fff28	-0.15624678
36	0xbe1b07d6	-0.15139708
37	0xbccc4135	-0.024933437
38	0x3e78b15a	0.24286404
39	0x3e116dc0	0.14202023
40	0xbceb037b	-0.028688183
41	0x3db9ee37	0.09078639
42	0x3e352d5f	0.17693089
43	0x3db9eaee	0.090780124
44	0x3e93a8dc	0.28839767
45	0xbe60de02	-0.2195969
46	0x3d76633d	0.060153235
47	0x3e53ad0b	0.2067148
48	0xbbd23a18	-0.0064156167
49	0x3df59ab4	0.11992398
50	0x3e6f8944	0.23392206
51	0x3dfc6941	0.12324763
52	0xbd6d8991	-0.05799252
53	0x3dc30cb4	0.09523907
54	0x3e26f950	0.16306043
55	0xbd68f925	-0.056878228
56	0x3e34109b	0.1758446
57	0x3dcb3e52	0.09923996
58	0xbea2943a	-0.31753713
59	0xbd9ee831	-0.07759131
60	0xbdbec329	-0.093145676
61	0xbd0a8d25	-0.033826012
62	0xbe24547a	-0.1604785
63	0x3e04505f	0.12921284
64	0xbd10d385	-0.03535797
65	0x3c4f0c91	0.012637273
66	0x3c36e8ae	0.011163874
67	0xbd3f4b79	-0.046702836
68	0xbda2c432	-0.079475775
69	0xbdbc9e6b	-0.09209903
70	0xbdf6c907	-0.12050062
71	0xbc50359a	-0.012708092
72	0xbcb04507	-0.02151729
73	0x3d87b9ab	0.0662721
74	0x3d1d82d1	0.038454834
75	0x3c3ae430	0.011406943
76	0x3d17b569	0.03703824
77	0xbde42e36	-0.111416265
78	0xbde6ca93	-0.11269107
79	0x3df93e01	0.121700294
80	0x3de9e6c6	0.1142097
81	0xbd2c8847	-0.04212215
82	0x3e2f8d73	0.17143802
83	0x3d6a4131	0.057191078
84	0xbdcf3181	-0.10116864
85	0xbc961688	-0.01832129
86	0x3dc32bd7	0.09529846
87	0x3e24949f	0.1607232
88	0x3c5bb029	0.013408699
89	0x3db22302	0.086980835
90	0xbdcaeb11	-0.099081166
91	0xbe343cd0	-0.17601323
92	0x3de63f56	0.11242549
93	0xbd95588f	-0.07292282
94	0xbdd0c194	-0.10193172
95	0xbde38fbf	-0.11111402
96	0xbd638720	-0.055548787
97	0xbd630bb4	-0.055431083
98	0xbd5975d4	-0.053090885
99	0x3db1bf4e	0.086790666
100	0xbd022de8	-0.03178206
101	0x3c91c05e	0.017791923
102	0x3dbc4a33	0.0919384
103	0xbe10cefd	-0.1414146
104	0x3b754a8a	0.0037428462
105	0x3e300398	0.17188871
106	0xbc36cbe1	-0.011157007
107	0x3d183c49	0.037166867
108	0x3c724e1e	0.014789132
109	0x3d92a94c	0.07161197
110	0x3d801dc5	0.06255678
111	0x3c031c6a	0.00800238
112	0xbd87b197	-0.066256694
113	0x3ddd9dc5	0.10821108
114	0x3de03c34	0.10948983
115	0x3d879142	0.066195026
116	0x3e009921	0.12558414
117	0x3e14c365	0.14527662
118	0xbe3f7e57	-0.18700539
119	0x3db88d48	0.09011322
120	0xbd290c5b	-0.04127155
121	0xbcad0f97	-0.021125598
122	0x3d960d69	0.073267765
123	0x3e3cfb10	0.18455148
124	0x3db481c2	0.08813812
125	0x3d32f9be	0.043695204
126	0x3d80a1e6	0.0628088
127	0xbd0fd8eb	-0.03511898
128	0xbd39cf03	-0.045363437
129	0x3d64e35b	0.055880886
130	0x3bad6050	0.0052910224
131	0xbe587d37	-0.21141516
132	0xbdfae582	-0.122508064
133	0xbac73ddb	-0.001520093
134	0xbdc0cba3	-0.094138406
135	0xbdcd6490	-0.100289464
136	0x3d714a71	0.058908883
137	0xbdfe3e82	-0.12414266
138	0xbc9b8c70	-0.018987864
139	0x3da4e9dc	0.08052418
140	0xbc243145	-0.010021512
141	0xbe199acb	-0.15000455
142	0xbd13520b	-0.035966914
143	0xbd669194	-0.056291178
144	0xbe08c009	-0.13354506
145	0x3c192c83	0.009348991
146	0xbc15b30f	-0.009136929
147	0xbe01436f	-0.1262338
148	0xbdb59d2c	-0.08867869
149	0xbe818001	-0.25292972
150	0x3d94de03	0.07268908
151	0x3e17aa99	0.14811172
152	0xbdc742df	-0.097295515
153	0x3e0b6d71	0.13615967
154	0xbdd115b6	-0.10209219
155	0xbb252883	-0.0025201149
156	0xbdb36cb0	-0.08760965
157	0x3e16da42	0.14731696
158	0x3e69883b	0.22805874
159	0x3e90fb37	0.28316662
160	0x3d613af0	0.054987848
161	0x3e1065c2	0.14101318
162	0x3e5008a5	0.20315798
163	0xbe6aeb35	-0.22941287
164	0xbea105eb	-0.31449828
165	0x3dd2fbe9	0.10301954
166	0xbe931b39	-0.28731707
167	0x3ebb01b1	0.36524728
168	0xbe438f25	-0.19097574
169	0xbc9cb7c5	-0.019130597
170	0x3dea49d3	0.11439862
171	0x3e1c79b6	0.15280804
172	0xbe66d137	-0.22540747
173	0x3ba1142e	0.0049157357
174	0x3e31bdf5	0.17357619
175	0xbd522ad7	-0.051310387
176	0xbd902c60	-0.07039714
177	0x3d92cdc7	0.07168155
178	0xbe9b4e10	-0.30332994
179	0xbe21fd5d	-0.15819307
180	0x3e780fad	0.2422473
181	0xbd9ef109	-0.077608176
182	0x3def2ca4	0.116784364
183	0xbdd08b83	-0.1018286
184	0xbd5d757b	-0.054067116
185	0x3e20735a	0.15669003
186	0x3e452f2a	0.19256273
187	0x3dce8d68	0.10085565
188	0x3e2c30a8	0.16815436
189	0x3d9e9745	0.07743696
190	0x3da935a7	0.082621865
191	0xbe8890bc	-0.26672924
192	0xbd895d4a	-0.067072466
193	0xbe889653	-0.26677188
194	0xbe8d47be	-0.27593797
195	0x3d850593	0.06495204
196	0x3d00c39e	0.031436555
197	0xbe76458a	-0.24049965
198	0x3ddd1110	0.1079427
199	0x3dcb84f5	0.09937469
200	0x3e298c8d	0.16557522
201	0xbe5a0375	-0.21290381
202	0xbe2f5df5	-0.17125686
203	0xbe09caab	-0.13456218
204	0x3c62b6c1	0.013837517
205	0xbd10840b	-0.035282176
206	0x3dd74a4c	0.10512218
207	0x3dbf3d21	0.09337831
208	0x3ea5945d	0.32339755
209	0xbd8dd68a	-0.06925686
210	0x3dc9830e	0.0983945
211	0x3eab945b	0.33511624
212	0x3e15e598	0.14638364
213	0xbd51131e	-0.051043622
214	0xbe6f2e45	-0.23357494
215	0xbdde60b1	-0.10858286
216	0x3e116bed	0.14201327
217	0x3d8797ba	0.066207364
218	0xbc6d0655	-0.014466842
219	0x3c748178	0.014923446
220	0xbc8af986	-0.016964685
221	0xbddea452	-0.10871185
222	0xbd984165	-0.07434348
223	0xbca36750	-0.019946724
224	0x3d6deb53	0.05808575
225	0x3d9a09f7	0.07521432
226	0xbdac85bc	-0.08423945
227	0xbd89cfe3	-0.06729104
228	0x3dc02cec	0.09383568
229	0xbd5f101f	-0.054458734
230	0xbd11909a	-0.035538293
231	0xbd5dea71	-0.05417866
232	0xbdc2134f	-0.09476339
233	0xbdab042f	-0.08350407
234	0xbdb9acd5	-0.09066168
235	0xbdae5a5a	-0.08513327
236	0xbd2c0c31	-0.042003814
237	0xbdc9e323	-0.09857776
238	0xbcc04073	-0.023468232
239	0x3d022e34	0.031782344
240	0xbdb2d497	-0.087319545
241	0xbdfb394e	-0.122667894
242	0xbd983e2b	-0.074337326
243	0x3dc1f4d1	0.09470523
244	0xbd4306d6	-0.04761394
245	0xbce3356e	-0.027735438
246	0x3d368ce5	0.04456796
247	0xbd4d7031	-0.050155822
248	0x3c8974e9	0.01677938
249	0xbca887bb	-0.020572534
250	0x3d01d52d	0.03169744
251	0xbdc07a3c	-0.09398314
252	0x3dadd79d	0.084883906
253	0x3b6a7af6	0.0035778857
254	0xbcd6a8ef	-0.0262036
255	0xbd3a7bb0	-0.045528114

layers.3.sequential.0.bias f4 [73]
0	0x3c7207e4	0.014772389
1	0xbd63c33e	-0.05560612
2	0xbd9e76eb	-0.077375256
3	0x3d0ca31c	0.03433524
4	0xbda969a2	-0.08272101
5	0xbd91baa2	-0.071156755
6	0x3e3928d9	0.18081988
7	0xbbad8bad	-0.0052961917
8	0x3e11f4a2	0.14253476
9	0x3c862346	0.016374242
10	0x3df0e759	0.11762876
11	0xbcc4bec0	-0.024016738
12	0xbcf60e0b	-0.030035993
13	0xbcd014d8	-0.025400564
14	0x3cac4ac1	0.02103174
15	0x3c683172	0.014171945
16	0xbd1b3da2	-0.037900575
17	0x3d5f1074	0.05445905
18	0xbda86265	-0.08221892
19	0xbb9aa5fd	-0.0047194944
20	0xbd3d7f2c	-0.04626386
21	0x3dc09e13	0.0940515
22	0x3e1a464f	0.15065883
23	0xbd6ce86e	-0.05783885
24	0x3d4fca13	0.050729822
25	0x3d74589d	0.05965482
26	0x3d1e96e8	0.038718134
27	0x3dcb42d4	0.09924856
28	0x3e07910f	0.13238929
29	0x3e01d9b4	0.12680703
30	0x3d4bfa89	0.049799476
31	0x3d653f3d	0.05596851
32	0x3c46624a	0.012108395
33	0xbcc7874f	-0.024356512
34	0xbda22d5e	-0.07918809
35	0xbd6125bc	-0.054967627
36	0xbcd3a769	-0.025836663
37	0x3cafba58	0.02145116
38	0xbe003be2	-0.12522843
39	0xbd66db13	-0.05636127
40	0xbc2fe640	-0.010736048
41	0xbd3394b8	-0.043843
42	0x3da7e4a9	0.0819791
43	0xbc21cdb1	-0.009875701
44	0xbdc437fd	-0.095809914
45	0x3da818b0	0.08207834
46	0x3b7809aa	0.0037847557
47	0x3dbc7ca8	0.09203464
48	0xbdc41604	-0.09574512
49	0x3e0eec02	0.13957217
50	0x3e0a66ee	0.13515827
51	0x3d94c5bb	0.072642766
52	0x3db2ff99	0.08740158
53	0x3dc8277f	0.09773158
54	0x3d0c0453	0.03418381
55	0x3dafc4d2	0.08582462
56	0x3d90ecb2	0.07076396
57	0x3df20475	0.11817256
58	0x3db8f963	0.09031942
59	0x3cffe490	0.031236917
60	0xbdec3d9b	-0.11535188
61	0xbdeae7f0	-0.1147002
62	0x3de7139c	0.11283037
63	0x3d2687bb	0.040656786
64	0x3db20bd0	0.08693659
65	0xbdb89988	-0.09013659
66	0x3c7ae123	0.015312466
67	0x3d3dea6f	0.04636615
68	0xbd3b1694	-0.04567583
69	0xbc2b62b7	-0.010460547
70	0x3cc8a653	0.024493372
71	0x3d8989a6	0.067157075
72	0x3d825539	0.06363911

layers.4.sequential.0.weight f4 [10, 73]
0	0x3e139f97	0.14416347
1	0x3d8888a3	0.066666864
2	0xbe1ff538	-0.15620887
3	0x3c4b309c	0.012401726
4	0x3c619244	0.013767783
5	0xbcb70814	-0.02234272
6	0xbc3eb79a	-0.011640454
7	0xbdda0a21	-0.10646463
8	0xbe1e206b	-0.15442054
9	0xbd843bc9	-0.064567156
10	0x3e646516	0.22304186
11	0xbd0815fa	-0.033224083
12	0x3e28b272	0.16474321
13	0x3e106649	0.14101519
14	0xbc3becb9	-0.011470013
15	0xbd9cc1e5	-0.0765417
16	0x3dfd6678	0.1237306
17	0xbe149b9f	-0.1451249
18	0xbe1ac553	-0.15114336
19	0xbdde4f8c	-0.10855016
20	0xbd44dfef	-0.048065122
21	0xbe18da27	-0.14926969
22	0xbe6b1bf4	-0.22959882
23	0x3dfc419f	0.12317204
24	0x3d3e21cc	0.04641895
25	0xbe364f2c	-0.17803639
26	0xbdac00dc	-0.083986014
27	0x3c9797f0	0.018505067
28	0x3d6dff37	0.05810472
29	0xbe72904b	-0.23687856
30	0x3e3c3cd4	0.18382579
31	0x3d6b7915	0.05748852
32	0x3df237fb	0.11827084
33	0x3e0b38ad	0.13595839
34	0xbce8a927	-0.02840097
35	0x3de3dfe8	0.11126691
36	0xbec5d6ba	-0.38640386
37	0x3bdee33e	0.0068019917
38	0xbe4aadcc	-0.19792861
39	0x3dd6d7f2	0.10490407
40	0x3e198bf7	0.14994799
41	0x3b5c0a59	0.0033575504
42	0xbe385b53	-0.18003587
43	0xbd19f309	-0.037585292
44	0x3e5b0e4d	0.21392174
45	0x3e811c21	0.25216773
46	0x3c894df6	0.016760807
47	0xbe4a945c	-0.19783157
48	0xbd2aba37	-0.041681495
49	0x3dfa32e0	0.12216735
50	0x3e3b5b17	0.18296467
51	0xbe627d80	-0.22118187
52	0x3e2c711a	0.1684002
53	0xbe8287c0	-0.25494194
54	0xbdebec28	-0.115196526
55	0x3dbee855	0.093216576
56	0xbe6c807e	-0.23095891
57	0xbcec2bc1	-0.028829457
58	0xbdd41160	-0.103548765
59	0x3d835e6a	0.064144924
60	0x3e83cbe0	0.25741482
61	0xbe7a30be	-0.24432656
62	0xbe25449e	-0.16139457
63	0x3e36b160	0.178411
64	0x3a9ce5de	0.0011970361
65	0x3e98023f	0.29689214
66	0xbd90f4bb	-0.07077929
67	0xbe38ae5f	-0.18035267
68	0x3e160bc2	0.14652923
69	0x3aacb536	0.0013176564
70	0xbd6306eb	-0.05542652
71	0x3d87bd6d	0.06627927
72	0xbe596dbc	-0.21233267
73	0xbd9ac890	-0.075577855
74	0xbd39c712	-0.045355864
75	0x3e0fefad	0.14056273
76	0xbd28cfa5	-0.04121365
77	0x3df6613b	0.12030264
78	0x3e3006de	0.1719012
79	0xbe621c84	-0.2208119
80	0x3e1b2820	0.15152025
81	0xbe293bfc	-0.16526788
82	0x3e5dea6a	0.21671453
83	0xbe0cc4c8	-0.13746941
84	0xbded047f	-0.11573123
85	0x3d63073a	0.055426814
86	0xbdbbf4f5	-0.09177581
87	0x3e2831a5	0.16425188
88	0xbdb46dcf	-0.08810007
89	0x3d490e69	0.04908601
90	0xbdee7c4e	-0.11644803
91	0x3c3fd1c2	0.011707725
92	0x3d728d81	0.05921698
93	0x3e536396	0.20643458
94	0x3e5006e8	0.20315135
95	0x3e5cc1db	0.21558325
96	0x3e02e909	0.12784208
97	0x3d9757f6	0.07389824
98	0xbd4b0dfe	-0.04957389
99	0xbdb3cb42	-0.08779003
100	0xbe3b47e1	-0.18289138
101	0xbe200284	-0.1562596
102	0x3d507a41	0.05089784
103	0xbe0ad9aa	-0.13559595
104	0x3f1ec02d	0.62011987
105	0xbdb596e3	-0.0886667
106	0x3c92f5aa	0.017939407
107	0xbe3f7cca	-0.18699947
108	0xbcae41b4	-0.021271564
109	0x3d9f4983	0.07777693
110	0xbdd56d37	-0.10421222
111	0x3db57e99	0.08862037
112	0xbe5547c8	-0.20828164
113	0xbdc8a460	-0.09796977
114	0xbe1b5335	-0.1516846
115	0x3e5c8215	0.21533997
116	0x3dbbbdce	0.09167062
117	0xbe1efa05	-0.15525062
118	0x3ebd36c0	0.36955833
119	0x3c56e5e3	0.013116333
120	0xbe52c0da	-0.2058138
121	0x3e568bbb	0.2095174
122	0x3e3a7b2b	0.18211047
123	0xbe5f69f8	-0.21817768
124	0x3df70dcb	0.12063178
125	0xbe333cc4	-0.17503649
126	0x3d9de3a2	0.07709433
127	0xbce20146	-0.027588498
128	0x3e6fa1e9	0.23401608
129	0x3e2323ee	0.15931675
130	0x3df0564e	0.11735211
131	0xbdf7c38f	-0.12097847
132	0xbbd81797	-0.006594609
133	0xbe3ab1d3	-0.18231897
134	0xbe8fe0eb	-0.28101286
135	0xbdbcf4cd	-0.092263795
136	0xbd1878ee	-0.037224703
137	0xbd4755ca	-0.0486658
138	0xbe233ecd	-0.15941925
139	0xbe0370a7	-0.12835942
140	0x3cc7ea96	0.024403851
141	0x3d6402fb	0.055666905
142	0xbe49646b	-0.19667213
143	0x3ea1a931	0.31574395
144	0x3d93e0d2	0.072206154
145	0x3e58fd63	0.2119041
146	0xbe308978	-0.1723994
147	0x3e12f66d	0.14351816
148	0xbe4180f2	-0.18896845
149	0xbb5dbf4b	-0.0033835943
150	0xbe087ef2	-0.13329676
151	0x3dc5004b	0.096191965
152	0x3e04b0e8	0.1295811
153	0x3ddafa62	0.10692288
154	0xbe221987	-0.1583005
155	0x3e97d4a2	0.29654413
156	0xbbac9614	-0.005266914
157	0xbdc4266a	-0.095776394
158	0x3e49c780	0.1970501
159	0xbde3bb00	-0.11119652
160	0xbe2720ea	-0.1632115
161	0xbe319382	-0.17341426
162	0x3e6a4f20	0.22881746
163	0x3dc5d06f	0.09658896
164	0xbd40adb4	-0.047040656
165	0xbd5665bd	-0.05234312
166	0xbdcff74f	-0.10154592
167	0x3cf78020	0.030212462
168	0xbe00d5df	-0.12581585
169	0xb7ccd69e	-2.4418634e-05
170	0x3d02abfe	0.031902306
171	0xbcc5a25a	-0.024125267
172	0x3da32c73	0.079674624
173	0xbd9911a7	-0.0747407
174	0x3d6ed617	0.05830964
175	0x3e03b5d8	0.12862337
176	0x3e920e9f	0.2852678
177	0xbd0abdda	-0.033872463
178	0x3e1b80ec	0.15185899
179	0x3e02a2c5	0.12757404
180	0xbd6f081f	-0.058357354
181	0xbd311bcb	-0.043239396
182	0x3e961eee	0.29320472
183	0xbd2dad24	-0.042401448
184	0x3d743d64	0.05962886
185	0xbdcf0509	-0.10108382
186	0x3e12a845	0.14322002
187	0x3e29b686	0.16573533
188	0x3cd3413a	0.025787938
189	0x3dbcf288	0.09225947
190	0xbe41209f	-0.188601
191	0xbd4c1ffa	-0.049835183
192	0x3d807d76	0.0627393
193	0xbd1313d7	-0.035907593
194	0xbd8f0fe9	-0.069854565
195	0xbe22585d	-0.1585402
196	0xbe323226	-0.17401943
197	0xbe3319b2	-0.1749027
198	0x3e17a952	0.14810684
199	0xbdfb5a78	-0.12273115
200	0xbd932e03	-0.071865104
201	0x3e9a395a	0.3012188
202	0x3e8b8c1c	0.27255332
203	0x3e889bcf	0.26681373
204	0x3e0870d7	0.13324295
205	0xbe0227a1	-0.1271043
206	0xbee9d900	-0.4567337
207	0x3d69b68b	0.057058852
208	0x3dc76e2a	0.09737809
209	0x3ded7fff	0.11596679
210	0x3bf2b495	0.007406781
211	0xbe2cf3fa	-0.16889945
212	0xbde68bbc	-0.11257121
213	0x3da33ead	0.07970939
214	0x3e2752df	0.16340207
215	0xbe00e7a8	-0.1258837
216	0xbdb2e26e	-0.08734594
217	0x3db1c69e	0.08680461
218	0x3e0467b9	0.12930192
219	0xbe7654e2	-0.24055818
220	0xbd9d9838	-0.07695049
221	0x3e934578	0.28763938
222	0x3d3982e8	0.045290858
223	0xbeaf9a6b	-0.342975
224	0x3dbaed00	0.091272354
225	0x3d1ae5d8	0.037816852
226	0xbd71eadc	-0.05906187
227	0x3e39f546	0.1815997
228	0xbd0bd879	-0.03414199
229	0x3e415be9	0.18882717
230	0xbcd781b9	-0.026306974
231	0x3e0974c0	0.13423443
232	0x3e2d808e	0.16943571
233	0xbe15ef6d	-0.14642115
234	0xbdb4c936	-0.088274404
235	0xbe05dbeb	-0.13072173
236	0x3d4f6719	0.05063543
237	0x3e45feae	0.19335434
238	0x3c6994f2	0.014256703
239	0xbe350e7d	-0.17681308
240	0xbd9776a3	-0.07395675
241	0xbe19fbdb	-0.15037481
242	0xbe48d64b	-0.19612996
243	0x3de7d703	0.11320307
244	0x3e17d4d3	0.1482728
245	0x3e7686e7	0.24074899
246	0xbb041a9b	-0.002015746
247	0x3f1ee1c7	0.6206326
248	0x3e24b6f7	0.1608542
249	0x3d143732	0.03618545
250	0xbe928084	-0.28613675
251	0x3b6a4913	0.0035749122
252	0x3da1edba	0.07906671
253	0xbd9ff221	-0.07809854
254	0x3d23d4d5	0.039997894
255	0x3daf31fa	0.08554454

layers.4.sequential.0.bias f4 [10]
0	0x3d8bfbe5	0.068351544
1	0x3d1a87a9	0.03772703
2	0x3cad66f0	0.021167248
3	0x3cc10332	0.023561094
4	0x3de9396b	0.11387905
5	0x3c8583ed	0.016298259
6	0x3ddd9fde	0.10821508
7	0xbd898d4e	-0.06716405
8	0x3d81b596	0.06333463
9	0x3e03d691	0.1287482
