benchmark/ablation_mnistfc_tiny/onnx/mnistfc-tiny-net-187.onnx (onnx, 210703 bytes, 4 tensors)

layers.2.sequential.0.weight f4 [66, 784]
-0.046253223 -0.026053071 -0.026187573 -0.00030708368 -0.032456454 0.014933905 0.019476874 -0.030707372
-0.0017204476 -0.037976526 -0.015078638 -0.044157576 -0.02352564 -0.0029276488 -0.00884351 0.013099723
-0.0073955823 -0.04850067 -0.0027708402 -0.01185889 -0.019836577 -0.01070697 -0.013287065 -0.034539174
-0.033297263 -0.016626846 -0.0014904394 0.0045540165 -0.021803096 -0.007103023 -0.046325866 -0.015346052
0.01825487 0.01664167 -0.040062148 0.013819905 -0.02460822 -0.045774743 -0.027001016 -0.007066026
-0.0033752732 -0.045050055 -0.040245738 -0.037736036 -0.019063678 -0.03969918 -0.008878705 -0.041395657
0.007860705 -0.033510115 -0.044722624 -0.033181135 0.008710226 0.020521713 -0.040383574 0.00046333027
-0.049667038 -0.0071313865 -0.04965474 -0.03262477 -0.010992673 -0.030612798 -0.020373559 -0.04119301
-0.005224338 -0.07513146 -0.050959848 -0.10106914 -0.077652685 -0.055842187 -0.098744206 -0.06761674
-0.10273515 -0.026863035 -0.033203043 -0.03329297 -0.02257936 0.007856269 -0.011296547 0.008625234
-0.010206643 0.0045578987 -0.04550012 0.015136488 0.016952028 -0.034303613 -0.00023212834 0.009897394
0.001586915 0.008426445 0.0018998561 -0.010619249 -0.026218712 -0.05562292 -0.096523814 -0.14349855
-0.16684599 -0.18276192 -0.14289482 -0.1312498 -0.11817666 -0.07925734 -0.08388354 -0.07559944
-0.08393295 -0.045232177 -0.047707874 -0.01829556 -0.010879145 0.003937324 0.0021486983 -0.047553513
-0.049920104 -0.019122666 -0.013028023 -0.03981952 -0.045216065 -0.027493939 0.016217176 -0.000108693246
-0.051373266 -0.11852553 -0.15401603 -0.14861691 -0.22226761 -0.17898335 -0.1770938 -0.17765667
-0.14255187 -0.07804252 -0.062456302 -0.07571652 -0.06961087 -0.037428863 -0.054618634 0.006907815
-0.02314436 -0.03445658 -0.03147414 -0.005210963 -0.03595851 -0.026466055 -0.04794081 0.015884297
-0.01771375 -0.0017387251 0.01553987 0.035722114 0.013437149 -0.039490238 -0.023692872 -0.051420327
-0.12864798 -0.09969875 -0.04086855 -0.034603138 -0.0636066 -0.10537688 -0.070954174 -0.1147441
-0.113072805 -0.03303376 0.008704875 0.033221908 -0.06263598 -0.050008897 -0.0058469726 0.018437851
0.0020361817 0.0033457915 -0.012365704 -0.015332262 0.0057231956 0.0034455538 0.050929 0.09254838
0.037641164 0.07882315 0.034877557 -0.0020033102 0.012310692 0.033065014 0.007585989 0.0037794646
-0.0017952406 0.019675989 -0.03140116 -0.15561327 -0.24662802 -0.14505967 -0.04762783 -0.037345998
-0.04395249 -0.01710492 0.0033723293 0.017881826 -0.0034297511 0.0066084214 -0.032809194 0.023640966
-0.01568353 0.02610134 0.06098965 0.040255778 0.027478619 0.100311495 0.05501063 0.06547836
0.12876761 0.07359523 0.036791973 0.022369912 0.036456116 0.041603554 0.04276119 -0.039475575
-0.077835515 -0.16547717 -0.0732598 -0.040985137 -0.07342558 -0.014272923 -0.011525941 -0.01729537
-0.025867373 -0.0088660335 -0.011303692 -0.026582526 0.0038275684 0.08487803 0.12396631 0.124717005
0.12393579 0.12838183 0.080044895 0.10742876 0.10486717 0.026659105 0.035690606 0.0038523965
0.06888883 0.08229231 0.0607653 0.047945593 0.029434567 -0.040599316 -0.0019366437 -0.07530102
-0.12654544 -0.03416687 -0.022039492 0.012621368 -0.02428928 -0.006971309 -0.030800028 0.014665076
00000000: 0574 3dbd 406d d5bc 5287 d6bc 1300 a1b9
00000010: 0ff1 04bd 56ad 743c f78d 9f3c 078e fbbc
00000020: a480 e1ba 468d 1bbd 640c 77bc 93de 34bd
00000030: d8b8 c0bc ccdd 3fbb 5fe4 10bc 38a0 563c
00000040: a456 f2bb a3a8 46bd fc96 35bb ca4b 42bc
00000050: 5180 a2bc 496c 2fbc fdb1 59bc f378 0dbd
00000060: b662 08bd 0635 88bc d95a c3ba dc39 953b
00000070: 689c b2bc 7ac0 e8bb 31c0 3dbd 026e 7bbc
00000080: 3d8b 953c 1d54 883c 3518 24bd e26c 623c
00000090: 2e97 c9bc 4c7e 3bbd 3c31 ddbc 1f8a e7bb
000000a0: b033 5dbb 6886 38bd b7d8 24bd 1a91 1abd
000000b0: 6e2b 9cbc 9b9b 22bd fd77 11bc 7e8e 29bd
000000c0: 30ca 003c e741 09bd 122f 37bd f1e8 07bd
000000d0: 56b5 0e3c 271d a83c 3f69 25bd 23eb f239
000000e0: aa6f 4bbd 68ae e9bb c562 4bbd 8da1 05bd
000000f0: 9d1a 34bc b1c7 fabc 73e6 a6bc 00ba 28bd
00000100: ec30 abbb 86de 99bd 46bb 50bd 56fd cebd
00000110: 5f08 9fbd c7ba 64bd 673a cabd a57a 8abd
00000120: ce66 d2bd de0f dcbc eaff 07bd 365e 08bd
00000130: 5af8 b8bc 95b7 003c 2715 39bc da50 0d3c
00000140: c339 27bc 6d5a 953b 555e 3abd 08ff 773c
00000150: fbde 8a3c f281 0cbd 7a67 73b9 ae28 223c
00000160: 0800 d03a 120f 0a3c 9804 f93a 5cfc 2dbc
00000170: a0c8 d6bc dcd4 63bd 47ae c5bd 49f1 12be
00000180: add9 2abe f125 3bbe 0553 12be 5966 06be
00000190: 9b06 f2bd ac51 a2bd 22cb abbd e1d3 9abd
000001a0: 0ae5 abbd 6045 39bd 5569 43bd 92e0 95bc
000001b0: 713e 32bc ab04 813b 2dd1 0c3b 79c7 42bd
000001c0: 0679 4cbd 23a7 9cbc 7d73 55bc cb19 23bd
000001d0: 7b34 39bd f83a e1bc e2d9 843c 3ef2 e3b8
000001e0: c66c 52bd 83bd f2bd 61b6 1dbe 082f 18be
000001f0: 1f9a 63be 6947 37be 1458 35be a1eb 35be
00000200: 1ef9 11be c2d4 9fbd 2ed2 7fbd 4311 9bbd
00000210: 2590 8ebd 024f 19bd cab7 5fbd f45a e23b
00000220: 3e99 bdbc 5822 0dbd 07eb 00bd bac0 aabb
00000230: 3b49 13bd 57cf d8bc 955d 44bd c91f 823c
00000240: 6d1c 91bc efe5 e3ba f09a 7e3c 5a51 123d
00000250: 7d27 5c3c 84c0 21bd 8e17 c2bc 1f9e 52bd
00000260: 4cbc 03be dc2e ccbd c865 27bd 05bc 0dbd
00000270: 2d44 82bd d5cf d7bd 6c50 91bd f4fe eabd
00000280: b792 e7bd 684e 07bd e49e 0e3c b213 083d
00000290: 4b47 80bd 21d6 4cbd f697 bfbb fa0a 973c
000002a0: 7671 053b 1145 5b3b 8699 4abc 2b34 7bbc
000002b0: a589 bb3b cdce 613b ed9a 503d 018a bd3d
000002c0: 9f2d 1a3d 086e a13d c5db 0e3d f849 03bb
000002d0: c9b2 493c 2e6f 073d e393 f83b e5b0 773b
000002e0: 474e ebba 8a2f a13c 819e 00bd 1659 1fbe
000002f0: 0e8c 7cbe 868a 14be 6615 43bd 1ef8 18bd
00000300: 8707 34bd 9e1f 8cbc 4c02 5d3b e87c 923c
00000310: adc5 60bb 758b d83b ef62 06bd b3aa c13c
00000320: bf7a 80bc 7ad2 d53c 49d0 793d 3ee3 243d
00000330: d71a e13c 1d70 cd3d d452 613d 8519 863d
00000340: a8db 033e 19b9 963d 2eb3 163d 1b41 b73c
00000350: 0253 153d 7d68 2a3d 5c26 2f3d 24b1 21bd
00000360: 3a68 9fbd d972 29be 3c09 96bd 08e0 27bd
00000370: 2760 96bd fad8 69bc 4dd7 3cbc 05af 8dbc
00000380: d0e7 d3bc d742 11bc 1f33 39bc 99c3 d9bc
00000390: f1d7 7a3b 88d4 ad3d 0ce2 fd3d a16b ff3d
000003a0: 0cd2 fd3d 8776 033e 94ee a33d 9c03 dc3d
000003b0: 99c4 d63d 3264 da3c 5030 123d 7d78 7c3b
000003c0: 9615 8d3d df88 a83d 09e5 783d 9962 443d
000003d0: c320 f13c 784b 26bd fbd6 fdba 6c37 9abd
000003e0: 2195 01be 8ff2 0bbd 2a8c b4bc dbc9 4e3c
000003f0: 50fa c6bc 946f e4bb 5750 fcbc c945 703c

layers.2.sequential.0.bias f4 [66]
0.0139850015 0.06646503 -0.012157215 -0.0020286283 -0.002130118 0.0025756974 0.010188589 0.002293183
-0.013842632 0.025021905 -0.011125161 0.040366508 0.048531987 -0.007354753 0.01131092 -0.01317509
0.020622462 0.021949288 -0.024518419 0.052653022 0.082046844 -0.021481255 0.049200594 0.037216444
0.06418994 0.017626038 0.006855478 0.026768327 0.013087945 0.060951088 -0.033426136 0.018555503
-0.018800816 0.011793526 0.009909965 -0.029526003 0.00011608554 0.03988508 -0.029311234 -0.03851399
-0.0056773755 -0.031179115 -0.04036212 0.056108322 0.048586566 0.007844539 -0.0064832643 -0.031071084
0.0076723094 0.0044841175 0.022916906 0.021599831 0.008914053 -0.014641363 -0.020064684 -0.025068289
0.025894854 0.060571007 0.029998431 -0.0064890357 0.064428374 0.021259535 0.01999088 0.041608095
0.010603972 0.044419225
00000000: 5921 653c d11e 883d 0e2f 47bc bcf2 04bb
00000010: 7399 0bbb 08cd 283b 0aee 263c 3a49 163b
00000020: 35cc 62bc bdfa cc3c 4f46 36bc 5a57 253d
00000030: 7ac9 463d 2400 f1bb 7051 393c 55dc 57bc
00000040: 70f0 a83c fece b33c dada c8bc b2aa 573d
00000050: 2d08 a83d 75f9 afbc 9086 493d 4570 183d
00000060: 0476 833d 7b64 903c eba3 e03b 4049 db3c
00000070: d26e 563c d9a7 793d d8e9 08bd b601 983c
00000080: 2b04 9abc a239 413c 685d 223c 84e0 f1bc
00000090: f372 f338 8a5e 233d 1d1e f0bc d8c0 1dbd
000000a0: 4709 babb 586b ffbc c052 25bd d7d1 653d
000000b0: b502 473d 6286 003c 9071 d4bb c988 febc
000000c0: ff67 fb3b 81ef 923b 3cbc bb3c 21f2 b03c
000000d0: 400c 123c 54e2 6fbc b15e a4bc 035c cdbc
000000e0: 7221 d43c 4e19 783d 45bf f53c faa1 d4bb
000000f0: 06f3 833d 7a28 ae3c eac3 a33c 406d 2a3d
00000100: 48bc 2d3c eff0 353d

layers.3.sequential.0.weight f4 [10, 66]
-0.013536334 0.25585636 -0.038825776 -0.23504129 -0.006947783 -0.3764681 -0.17899516 0.033183217
-0.048960965 -0.20692354 0.039366823 0.066948146 -0.14569129 -0.05906543 0.12749296 -0.08751662
-0.39059073 0.12715198 -0.11571889 0.16210946 -0.10923425 -0.03333343 -0.23454304 -0.17876524
-0.41804388 -0.0077333585 -0.008289539 0.19489352 -0.32642567 -0.33890745 0.25044438 -0.05239414
0.106188476 -0.09541753 -0.12938252 -0.1010508 -0.30632743 0.31936294 0.08013605 0.10336118
0.006028433 -0.025826916 -0.030142866 0.13390961 0.2941453 -0.19706607 -0.1961467 -0.20878349
-0.07581937 -0.032230314 -0.2919567 -0.13087066 0.17551778 -0.017315302 0.16759373 -0.115858994
-0.29643396 -0.3262961 0.25290686 0.2504348 -0.34291002 0.01657015 0.12501544 -0.04732209
0.0916596 0.24811415 -0.23654687 -0.25289834 -0.2081272 0.2286786 -0.081995696 -0.18366961
0.028852614 -0.004819131 0.00051703025 -0.19111384 -0.18726096 -0.08742602 -0.021219552 -0.061644856
0.002956787 0.12862313 0.066129744 -0.13571091 0.1367812 -0.2565932 -0.010591775 0.04576407
-0.07756049 0.17347483 0.27591735 -0.3120848 0.2404659 0.05998993 0.28459576 -0.054326076
0.16715167 0.08258088 -0.26732403 0.112484075 0.33114466 -0.109809265 -0.015356882 0.050043065
0.016106106 0.0128883105 -0.11694976 -0.19195321 0.083584614 0.22478709 -0.29265246 0.034685742
0.055836827 0.13013233 0.08524268 -0.119198516 0.15659341 0.11441977 -0.17045829 -0.047755577
-0.07284391 -0.15973842 -0.13742228 -0.0069769104 -0.016890647 -0.055870768 0.31460655 -0.021011682
-0.3661515 0.25526312 0.052971818 0.17388706 -0.04136221 0.04163864 0.101746984 -0.0030739242
-0.24586162 -0.20834799 0.3549015 0.33744493 -0.08335052 -0.097721644 -0.32055825 0.15088756
0.16304217 -0.036144946 -0.013779105 -0.032654792 0.40938303 0.10918844 -0.44597647 -0.1831163
-0.07052272 0.11096856 -0.16690575 0.19604145 0.041046977 -0.068135545 -0.20913304 0.27275738
0.40240544 0.01961518 0.18576841 -0.078384645 0.25285274 -0.036085464 0.14583087 -0.076851405
0.31567407 0.20991258 -0.06848381 0.018830758 -0.029427134 -0.15174277 -0.10961579 0.22826391
-0.19355123 0.13491976 0.2695279 -0.13065869 -0.19246307 -0.07827086 -0.20396721 0.11092741
0.047123734 -0.102430336 -0.011251455 0.007636892 -0.25853047 0.1522622 -0.29639262 -0.06298158
-0.01169402 -0.08954955 0.1771057 0.24916348 -0.4130135 0.18324079 0.121047355 0.19492932
0.015270592 -0.26209486 0.05047795 0.45023713 -0.13098986 0.11552859 -0.10079172 -0.1348651
0.16022375 0.23550011 -0.10107335 -0.037927084 -0.060926862 -0.025199603 -0.22884457 0.057171777
0.13324307 -0.22497642 0.18629697 -0.027907273 0.06492145 -0.3339066 0.29451552 0.2904269
0.012257509 -0.14481176 -0.07187073 0.09015907 -0.19739385 -0.028613977 -0.28519034 -0.031932563
0.07013408 0.040952276 0.46783283 0.10637774 -0.016926594 -0.10368345 0.018304532 -0.08122177
0.036855556 0.13688579 0.04662756 0.31391218 0.07171395 -0.2818822 -0.18946347 0.08521054
0.15703331 0.17785381 0.20210177 -0.0877954 -0.41000924 0.24091989 -0.22343512 0.075922094
00000000: 80c7 5dbc 9bff 823e c707 1fbd aaae 70be
00000010: 3aaa e3bb 6dc0 c0be 824a 37be 20eb 073d
00000020: 4b8b 48bd c4e3 53be 1b3f 213d 1c1c 893d
00000030: 1930 15be 98ee 71bd 848d 023e ea3b b3bd
00000040: 82fb c7be 2134 023e 07fe ecbd 0600 263e
00000050: 35b6 dfbd a288 08bd 0d2c 70be 3c0e 37be
00000060: d909 d6be 1d68 fdbb d9d0 07bc 2b92 473e
00000070: 4421 a7be 4785 adbe 3f3a 803e 3d9b 56bd
00000080: 5879 d93d 446a c3bd da7c 04be b9f3 cebd
00000090: f3d6 9cbe 8a83 a33e 5f1e a43d 07af d33d
000000a0: 298a c53b f892 d3bc 2cee f6bc 9a1f 093e
000000b0: 369a 963e b0cb 49be aeda 48be 57cb 55be
000000c0: 3047 9bbd ef03 04bd 597b 95be f502 06be
000000d0: efba 333e d2d8 8dbc b19d 2b3e 7b47 edbd
000000e0: 31c6 97be 4810 a7be 027d 813e fd38 803e
000000f0: e791 afbe 20be 873c 0c04 003e cfd4 41bd
00000100: 07b8 bb3d a311 7e3e 5839 72be e47b 81be
00000110: 4c1f 55be b92a 6a3e 5ced a7bd e313 3cbe
00000120: 515c ec3c cde9 9dbb 5089 073a 59b3 43be
00000130: 56c1 3fbe 6a0c b3bd a0d4 adbc 517f 7cbd
00000140: a7c6 413b c8b5 033e 086f 873d cdf7 0abe
00000150: 5f10 0c3e 2f60 83be 2089 2dbc 1b73 3b3d
00000160: 09d8 9ebd 63a3 313e 0a45 8d3e 94c9 9fbe
00000170: b13c 763e 00b8 753d 89b6 913e 0585 5ebd
00000180: cf29 2b3e 2a20 a93d b2de 88be 0d5e e63d
00000190: cb8b a93e aee3 e0bd 6e9b 7bbc f5f9 4c3d
000001a0: f4f0 833c 7e29 533c 5b83 efbd 628f 44be
000001b0: 692e ab3d 962e 663e 8bd6 95be a312 0e3d
000001c0: 28b5 643d 6941 053e b793 ae3d 5a1e f4bd
000001d0: 065a 203e ea54 ea3d 9e8c 2ebe 5a9b 43bd
000001e0: 302f 95bd 7892 23be 6db8 0cbe 919e e4bb
000001f0: 415e 8abc bfd8 64bd 1c14 a13e b120 acbc
00000200: 3678 bbbe d9b1 823e faf8 583d 730f 323e
00000210: 6c6b 29bd 478d 2a3d b960 d03d e473 49bb
00000220: 26c3 7bbe 2d59 55be a6b5 b53e 95c5 ac3e
00000230: adb3 aabd 4922 c8bd 3620 a4be 4582 1a3e
00000240: 87f4 263e b90c 14bd c1c1 61bc 08c1 05bd
00000250: a79a d13e 309e df3d 0757 e4be d782 3bbe
00000260: 376e 90bd 7c43 e33d 57e9 2abe 17bf 483e
00000270: e020 283d a68a 8bbd f926 56be dba6 8b3e
00000280: 1608 ce3e 04b0 a03c 133a 3e3e 2188 a0bd
00000290: ea75 813e 5ace 13bd b054 153e 4564 9dbd
000002a0: 08a0 a13e 53f3 563e 3d41 8cbd f642 9a3c
000002b0: 2c11 f1bc 7562 1bbe 3e7e e0bd 04be 693e
000002c0: 4b32 46be 6828 0a3e 90ff 893e 64cb 05be
000002d0: 0a15 45be 794c a0bd c8dc 50be e92d e33d
000002e0: d104 413d ffc6 d1bd 0658 38bc e53e fa3b
000002f0: 1b5e 84be 9fea 1b3e c6c0 97be 7dfc 80bd
00000300: 4698 3fbc c165 b7bd 325b 353e b624 7f3e
00000310: 8176 d3be 79a3 3b3e ade7 f73d 8d9b 473e
00000320: 8131 7a3c 4c31 86be f8c1 4e3d 7b85 e63e
00000330: 3522 06be 419a ec3d e46b cebd 141a 0abe
00000340: b211 243e f126 713e 8bff cebd 6e59 1bbd
00000350: 728e 79bd 666f cebc 3b56 6abe f42c 6a3d
00000360: df70 083e 3860 66be a2c4 3e3e cb9d e4bc
00000370: 8af5 843d cef5 aabe bdca 963e d6b2 943e
00000380: b8d3 483c 8949 14be f630 93bd 52a5 b83d
00000390: 9d21 4abe dc67 eabc 7804 92be b8cb 02bd
000003a0: 75a2 8f3d 93bd 273d c987 ef3e 93dc d93d
000003b0: a4a9 8abc fd57 d4bd 63f3 953c 9957 a6bd
000003c0: daf5 163d ca2b 0c3e 8afc 3e3d 19b9 a03e
000003d0: c3de 923d dd52 90be b602 42be dd82 ae3d
000003e0: 57cd 203e 4f1f 363e c4f3 4e3e 13ce b3bd
000003f0: bbec d1be b4b3 763e 2dcc 64be 0b7d 9b3d

layers.3.sequential.0.bias f4 [10]
-0.08540566 -0.011849059 -0.057757534 -0.10548582 -0.05394768 -0.07494178 -0.039588224 0.015053711
-0.07325058 0.10766839
00000000: 2ae9 aebd 8e22 42bc 2a93 6cbd f308 d8bd
00000010: 3ef8 5cbd 137b 99bd 4327 22bd d7a3 763c
00000020: 6604 96bd 3f81 dc3d
