benchmark/ablation_mnistfc_tiny/onnx/mnistfc-tiny-net-248.onnx (onnx, 636828 bytes, 4 tensors)

layers.2.sequential.0.weight f4 [200, 784]
0	0xbd427070	-0.04747051
1	0xbc9a2bb6	-0.018819671
2	0x3c45eeae	0.012080831
3	0xbcf0c5a5	-0.02939112
4	0xbceb020c	-0.0286875
5	0xbcea7a2c	-0.02862271
6	0xbcb654eb	-0.022257289
7	0x3c2b0385	0.010437851
8	0x3c70e382	0.01470268
9	0x38e63323	0.000109767796
10	0x3c6f066d	0.014588934
11	0xbd3cf854	-0.04613526
12	0x3bf95271	0.0076087047
13	0xbd5b523e	-0.05354523
14	0xbc9a5b22	-0.018842284
15	0xbb7cace3	-0.0038555197
16	0xbce0c831	-0.027439209
17	0xbd27b674	-0.040945485
18	0xbb3f530b	-0.0029193785
19	0xbbb071a8	-0.0053846426
20	0xbbc270f6	-0.005933876
21	0x3c483b66	0.012221193
22	0xbcf9a6e5	-0.03047509
23	0x3c381eb7	0.011237792
24	0xbc62542e	-0.013814015
25	0xbb9e30a7	-0.004827577
26	0xbc883765	-0.016627977
27	0xbd05758a	-0.032582797
28	0xbd54e11b	-0.05197249
29	0xbcb77b86	-0.022397768
30	0xbc893d12	-0.016752753
31	0x3a074fb8	0.00051617203
32	0xb9a3a0c1	-0.00031209554
33	0xbd4883d4	-0.048953846
34	0x3c461914	0.01209094
35	0xbc946cd1	-0.018118294
36	0xbd4831b7	-0.048875537
37	0x3bba72f3	0.0056899725
38	0x3ba40a47	0.005006108
39	0xbd171791	-0.03688771
40	0xbc95c2a7	-0.018281294
41	0x3c3586d7	0.011079512
42	0xbd479b25	-0.04873194
43	0x3a886543	0.0010406155
44	0xbc7b0556	-0.015321096
45	0xbd3171c8	-0.0433214
46	0xbc899a14	-0.016797103
47	0xbc46b9f0	-0.012129292
48	0xbd1161f4	-0.035493806
49	0xbcd0b371	-0.02547619
50	0xbd4c9e4c	-0.04995565
51	0xbd47fbcf	-0.048824128
52	0x3b81a9f7	0.003957029
53	0x3bed9fbd	0.0072517083
54	0x3c435c26	0.011923825
55	0xbd137b9e	-0.036006562
56	0xbb9b69de	-0.004742845
57	0xbc9a5f7f	-0.018844364
58	0xbc08709a	-0.008327628
59	0xbbf7e373	-0.007564956
60	0xbb7b0eba	-0.0038308338
61	0xbd1df11a	-0.03856001
62	0xb8a238ba	-7.735328e-05
63	0xbb54ba0e	-0.003245953
64	0xbccc9bcb	-0.024976632
65	0xbc223e12	-0.009902494
66	0xbd76afa2	-0.06022609
67	0xbce3fd8e	-0.027830865
68	0xbd6ff832	-0.058586307
69	0xbd27b81e	-0.040947072
70	0xbd7aa4e0	-0.061192393
71	0xbd386b0d	-0.045023967
72	0xbc4db755	-0.012555917
73	0xbd3fb289	-0.046801124
74	0xbd6b909b	-0.057510953
75	0xbcae8d84	-0.021307714
76	0xbd1850dc	-0.03718649
77	0xbd4a968f	-0.04945999
78	0xbcf041f1	-0.029328318
79	0xbd34f4b0	-0.044178665
80	0xbd35da59	-0.044397686
81	0xbb8a5ee1	-0.004222736
82	0x3c26795a	0.010160768
83	0x3c58e39d	0.013237861
84	0xbd395cfa	-0.045254685
85	0xbc212f24	-0.009837899
86	0xba9e8ba1	-0.0012096056
87	0xbd362d1f	-0.044476625
88	0xbd2eb1e9	-0.042650137
89	0x3bba24a8	0.0056806393
90	0x3b890558	0.004181545
91	0xbd7bded7	-0.061491814
92	0xbd1a6874	-0.03769727
93	0xbd8f288a	-0.06990154
94	0xbd293b7f	-0.041316506
95	0xbdb4dc40	-0.08831072
96	0xbdcebf75	-0.10095111
97	0xbd98c340	-0.07459116
98	0xbda070a3	-0.07833984
99	0xbd5eb8d9	-0.054375503
100	0xbd556caa	-0.052105583
101	0xbd3da37b	-0.046298485
102	0xbd943d12	-0.07238211
103	0xbc1879e2	-0.009306403
104	0xbd3f5b78	-0.04671809
105	0xbd3f3972	-0.046685643
106	0xbc2c5884	-0.010519151
107	0xbd1b04ef	-0.037846502
108	0xbb33824c	-0.0027390895
109	0x3b2030b2	0.0024443087
110	0xbc1242f2	-0.008927094
111	0xbd41a3de	-0.047275417
112	0xbc9b312b	-0.018944344
113	0xbd00f4a6	-0.031483315
114	0x3c87971f	0.016551552
115	0xbcc4e579	-0.024035202
116	0xbd605a07	-0.054773357
117	0xbd0492b0	-0.032366455
118	0x3b92d141	0.0044805114
119	0xbd8da0cf	-0.069154374
120	0xbd8a07c0	-0.067397594
121	0xbdda1a69	-0.106495686
122	0xbdb9f3c5	-0.090796985
123	0xbd8ce2a4	-0.06879166
124	0xbe404843	-0.18777566
125	0xbe185da6	-0.14879474
126	0xbda46230	-0.0802654
127	0xbdedcbd4	-0.11611143
128	0xbd670830	-0.056404293
129	0xbcfdb2ca	-0.030969042
130	0xbd0a7f57	-0.033812847
131	0xbd8cf2cc	-0.06882247
132	0xbd0f9305	-0.035052318
133	0xbd81d5b4	-0.06339589
134	0xbc45318f	-0.0120357415
135	0xbc8ca5e3	-0.017168945
136	0xbb145bbb	-0.0022637683
137	0x3c8debf1	0.01732442
138	0xb9a0972a	-0.00030630204
139	0xbccdd67f	-0.025126694
140	0xbcad27c1	-0.02113712
141	0x3b39b26b	0.0028335105
142	0xbd204f9a	-0.039138414
143	0xbc0304ba	-0.007996732
144	0xbcde6767	-0.027148915
145	0xbd29cd38	-0.041455477
146	0xbceffc45	-0.029295096
147	0xbdc0f9ef	-0.09422671
148	0xbdb3afe0	-0.0877378
149	0xbe04b857	-0.12960945
150	0xbd955d60	-0.072932005
151	0xbbcd6bb2	-0.006268942
152	0xbd988520	-0.074472666
153	0xbdf3253a	-0.11872335
154	0xbda4c28e	-0.08044921
155	0xbd59b977	-0.05315539
156	0xbe04ddf4	-0.12975293
157	0xbdd26425	-0.10273007
158	0xbd2201fe	-0.03955268
159	0xbd9c400d	-0.07629404
160	0xbda3dfab	-0.08001646
161	0xbd2d8fca	-0.042373456
162	0xbd11ffd4	-0.035644367
163	0xbb337beb	-0.0027387093
164	0xbd83619e	-0.064151034
165	0x3c85ef5e	0.01634949
166	0xbc03b2d2	-0.00803824
167	0xbccf8215	-0.025330583
168	0xbcfbee1c	-0.030753188
169	0x3c03da0d	0.008047593
170	0x3c505c6b	0.012717347
171	0x3c5995df	0.013280361
172	0x3a45eb78	0.0007550041
173	0xbcf14f05	-0.029456625
174	0xbdada214	-0.084781796
175	0xbdc4a301	-0.09601403
176	0xbbf277e9	-0.0073995483
177	0x3d0a0596	0.033696733
178	0x3cee5a13	0.029095685
179	0xbd077087	-0.0330663
180	0x3cee2670	0.029071063
181	0x3cfe4442	0.031038407
182	0xbb14bac1	-0.0022694322
183	0xbd2a0d10	-0.041516364
184	0x3bec4d53	0.007211366
185	0x3c641715	0.013921519
186	0xbcdf3e65	-0.027251432
187	0xbd823406	-0.06357579
188	0xbd99d004	-0.07510379
189	0xbd942aea	-0.07234748
190	0xbd11f3e1	-0.03563297
191	0xbb4ccf64	-0.0031251544
192	0xba37626d	-0.00069955626
193	0xbcfeba82	-0.031094793
194	0xbd0adcdf	-0.033902045
195	0xbd29b0f3	-0.041428518
196	0xbcc51885	-0.024059543
197	0xbd189da5	-0.037259717
198	0xbaed6643	-0.0018112141
199	0x3c02d113	0.0079844175
200	0xbd8b332a	-0.06796868
201	0xbd1ac91a	-0.03778944
202	0xbd7536ab	-0.05986659
203	0xbd8b9309	-0.06815154
204	0x3d30da5b	0.04317699
205	0x3c832d2b	0.016012749
206	0x3d8f8938	0.07008594
207	0x3d6f3307	0.058398273
208	0x3d95a7dd	0.07307408
209	0x3d881760	0.066450834
210	0x3d9cfed5	0.07665793
211	0x3d191a3a	0.037378527
212	0x3dddc8b5	0.108292975
213	0x3db2205e	0.0869758
214	0x3c363415	0.011120816
215	0xbd7f77ff	-0.062370297
216	0xbd675e55	-0.056486446
217	0xbc6b0b67	-0.01434598
218	0x3d76581e	0.06014263
219	0x3cc767b7	0.024341447
220	0x3d495b3d	0.049159277
221	0x3d00a264	0.031404868
222	0x3c8b5b4a	0.017011303
223	0xbd0b045f	-0.033939715
224	0x3c78d8b8	0.0151883885
225	0xbcef2442	-0.029192094
226	0xbcce2870	-0.025165766
227	0xbd2e98e1	-0.042626265
228	0xbd1c6938	-0.038186282
229	0xbc0c410e	-0.008560432
230	0xbd190f25	-0.03736796
231	0x3ca9ff4d	0.02075162
232	0x3dc11355	0.094275154
233	0x3d4f8d1c	0.05067168
234	0x3d625055	0.05525239
235	0x3ccee8ee	0.025257554
236	0x3d2969ba	0.041360594
237	0x3d72dba5	0.0592915
238	0xb8b61a01	-8.68328e-05
239	0x3c0e535d	0.008686868
240	0x3dc3ffef	0.095703
241	0x3cb93a58	0.022610828
242	0x3d16d557	0.03682455
243	0xbbdc449f	-0.0067220475
244	0xbd18ef12	-0.03733737
245	0x3bb80165	0.0056154006
246	0x3e0b2d24	0.13591439
247	0x3d692aaf	0.056925472
248	0x3b9b4a7a	0.004739103
249	0x3c06d998	0.008230589
250	0x3c29d939	0.010366731
251	0xbd444d74	-0.047925428
252	0xbcc13423	-0.023584431
253	0x3b4a5ff0	0.0030879937
254	0xbcaef240	-0.021355748
255	0xbcc96ca1	-0.024587931

layers.2.sequential.0.bias f4 [200]
0	0xbc526db1	-0.012843535
1	0x3c6ec84a	0.01457412
2	0xb9ffc125	-0.00048781294
3	0xbc2dea9e	-0.010615019
4	0x3d038951	0.032113377
5	0xbc6e00cb	-0.014526556
6	0xbd370435	-0.044681747
7	0xbc1bafed	-0.009502393
8	0x3d2c10ee	0.042008333
9	0xbc654c9e	-0.013995318
10	0xbcb8feea	-0.02258249
11	0x3b8f0d04	0.0043655653
12	0x3cda8ed9	0.026679443
13	0x3c9e382d	0.019313896
14	0xbcb55068	-0.022133067
15	0xbc00757a	-0.007840509
16	0xbae5bfbf	-0.0017528458
17	0xbca1dd1f	-0.019758759
18	0x3c00496a	0.007830003
19	0x3c154ca7	0.009112514
20	0xbd0df7e2	-0.034660228
21	0xbc273afb	-0.010206933
22	0x3bcf365f	0.00632362
23	0xbcbca561	-0.023028078
24	0x3a2b29a7	0.0006529339
25	0xbc4f6260	-0.012657732
26	0xbd2bc694	-0.041937426
27	0xbc72545e	-0.0147906225
28	0x3ce75f0f	0.02824357
29	0x3c9c70c0	0.019096732
30	0x3d073de2	0.033018
31	0xbcfdb95a	-0.030972172
32	0x3db7c34d	0.089727975
33	0xbc3a8727	-0.011384762
34	0x3d1f54f0	0.038899362
35	0xbc112b07	-0.008860356
36	0xbd243424	-0.040088788
37	0x3cb8d85b	0.022564104
38	0xbc4b3120	-0.012401849
39	0x3c23897e	0.009981511
40	0xbccae93f	-0.024769424
41	0x3c92774f	0.017879156
42	0xbc60ce11	-0.013721005
43	0xbbc998f9	-0.006152269
44	0x3ccb6996	0.02483062
45	0xbcc37585	-0.023859749
46	0xbd077562	-0.03307093
47	0xba921044	-0.0011143764
48	0x3d547d8c	0.051877543
49	0xbd529fe8	-0.05142203
50	0xbc81e742	-0.015857343
51	0x3dd394e1	0.10331131
52	0x3b585492	0.0033009392
53	0x3a949964	0.0011337218
54	0x3d83bf51	0.06432975
55	0x3d27c6b8	0.040960997
56	0xbc393cb4	-0.011305977
57	0x3c12cbc0	0.008959711
58	0xbcae1d00	-0.021254063
59	0xbd05687d	-0.03257035
60	0xbc0837ee	-0.008314116
61	0x3d006513	0.031346392
62	0xbbe2f2d9	-0.0069259224
63	0xbc23ab06	-0.009989506
64	0xbce6bbd8	-0.028165743
65	0xbc6b4be1	-0.014361353
66	0xbd0582b1	-0.03259534
67	0xb8042720	-3.150769e-05
68	0x3d157817	0.03649148
69	0xbc981582	-0.018564943
70	0x3c87dc8f	0.016584663
71	0x3c94d7b5	0.018169263
72	0xbd0d44d2	-0.03448946
73	0x3cab6f37	0.020927055
74	0xbd203f88	-0.039123088
75	0x3ca95270	0.020669192
76	0xbccca416	-0.024980586
77	0xbcdd2e64	-0.02699966
78	0xbb481b7d	-0.0030533962
79	0xbbe90268	-0.0071108826
80	0xbc2bf449	-0.010495254
81	0x3b5c28af	0.0033593585
82	0x3c82e059	0.015976118
83	0xbbd252a9	-0.0064185453
84	0xbc2915f6	-0.010320177
85	0xbd5ccaf6	-0.053904496
86	0xbbfc1db0	-0.0076939687
87	0x3c978b01	0.0184989
88	0x3c8e61d9	0.017380642
89	0x3a39a840	0.0007082261
90	0xbbe17af1	-0.006881111
91	0xbcb818cc	-0.022472762
92	0xbd20a12a	-0.039216198
93	0x3c7df0a6	0.01549927
94	0x3b895fb0	0.004192315
95	0x3c9c0cd7	0.019049091
96	0x3cfe82d8	0.03106825
97	0x3cb01409	0.021493929
98	0x3cb56191	0.02214125
99	0xbcb38e78	-0.02191852
100	0x3d4b501e	0.049636953
101	0xbcd7cb21	-0.026341977
102	0x3cdf49ad	0.027256811
103	0xbd100877	-0.035164323
104	0xbcbd9457	-0.023142023
105	0xbb06abc7	-0.0020549165
106	0xbd049fb4	-0.032378867
107	0x3cac8258	0.021058246
108	0x3c91cb04	0.017797
109	0x3b71ae43	0.003687755
110	0xbc90044f	-0.01758018
111	0x3d265c8d	0.040615607
112	0x3b8198d7	0.0039549875
113	0xbd79e354	-0.061007813
114	0x3c0b7ebc	0.008514103
115	0x3be28bdc	0.006913645
116	0xbcd715a1	-0.02625543
117	0xbd1279b8	-0.03576061
118	0xbcd84b0d	-0.026402975
119	0xbd174f42	-0.03694082
120	0xbd283301	-0.041064266
121	0x3d18dc22	0.03731931
122	0x3d91729e	0.071019396
123	0xbc2fcbab	-0.010729711
124	0xbd0d040e	-0.034427695
125	0x3c9b733b	0.018975845
126	0x3cfb5045	0.030677924
127	0x3c8a6941	0.016895892
128	0x3c8c8b52	0.017156277
129	0x3c0dd2cd	0.008656216
130	0x3cb149b1	0.021641584
131	0x3c3267b9	0.010888987
132	0xbc9bbd66	-0.01901121
133	0xbc3a0da1	-0.011355788
134	0xbd076c73	-0.03306241
135	0xbcbfa3e3	-0.023393577
136	0xbcd4e682	-0.025988821
137	0x3cf386f6	0.02972744
138	0xbcfef215	-0.031121293
139	0xbcb7ccd7	-0.022436542
140	0xbcaee1ff	-0.021347998
141	0x3d104720	0.03522408
142	0xbbe3320f	-0.0069334577
143	0x3cf88a0e	0.030339267
144	0x3d0bf75c	0.034171447
145	0xbc4e2481	-0.012581945
146	0x3cc1f217	0.023675008
147	0x3c98d506	0.018656265
148	0x3cebe2ed	0.02879473
149	0xbd125034	-0.03572102
150	0x3c938e4f	0.018012194
151	0x3ca7c9d7	0.020481987
152	0x3cc81931	0.024426075
153	0xbd0c0d4f	-0.03419238
154	0xbbd475d8	-0.0064837746
155	0x3d147d50	0.03625232
156	0x3d46326b	0.048387926
157	0xbbfdd634	-0.0077464823
158	0xbc28dcca	-0.010306546
159	0x3d38c1e7	0.045106795
160	0xbc451283	-0.012028339
161	0xbb6fe178	-0.0036602896
162	0xbcece23d	-0.028916473
163	0x3d873d93	0.06603541
164	0xbc8e372f	-0.017360298
165	0xbc4b2ed7	-0.012401304
166	0x3ba5a644	0.005055221
167	0x3d1286c3	0.03577305
168	0x3cf35399	0.029702948
169	0x3ce54ec9	0.02799167
170	0x3ba53b3f	0.005042463
171	0x3d299f2f	0.041411575
172	0x3cfa2e7f	0.03053975
173	0x3b029b0e	0.0019928846
174	0x3cb0dac0	0.021588683
175	0x3b54d554	0.0032475786
176	0xbc428338	-0.011872105
177	0xbc080b23	-0.008303436
178	0x39b0f101	0.00033748898
179	0x3d06d4b2	0.032917686
180	0xbb732340	-0.0037099868
181	0xbc61aa71	-0.013773547
182	0xbcca92e9	-0.024728255
183	0x3be9279d	0.007115318
184	0xbc324cd7	-0.010882578
185	0xbb7779be	-0.0037761773
186	0x3cf46e45	0.029837737
187	0x3cc41f65	0.023940751
188	0xbc64ce5c	-0.0139652155
189	0x3d01bfbf	0.031677004
190	0xbbf0514c	-0.00733391
191	0x3c45a996	0.012064358
192	0xbcb004d0	-0.02148667
193	0xbcd3f28c	-0.025872491
194	0x3c065c0a	0.008200655
195	0x3bb7f9b3	0.0056144833
196	0xbc06467a	-0.008195514
197	0xbc878c38	-0.016546354
198	0x3d01ff2b	0.031737488
199	0xbd0ea5db	-0.03482614

layers.3.sequential.0.weight f4 [10, 200]
0	0xbd36324d	-0.044481564
1	0xbcc3654b	-0.023852011
2	0x3b03565c	0.0020040488
3	0xbcb66c7b	-0.022268524
4	0xbdf7c929	-0.12098915
5	0x3daa3dce	0.083125696
6	0x3c90b6d9	0.017665314
7	0xbdf12b4d	-0.11775837
8	0xbe233f48	-0.15942109
9	0xbea551e2	-0.32289034
10	0xbe2c96a5	-0.16854341
11	0x3d1104cd	0.03540497
12	0x3e4036ab	0.18770854
13	0xbe199347	-0.14997588
14	0xbcaba68f	-0.020953445
15	0x3e0a9221	0.13532306
16	0x3c01c475	0.007920374
17	0xbd0dd4ae	-0.034626655
18	0xbe060039	-0.13086022
19	0xbdb41832	-0.087936774
20	0xbdd6eda4	-0.10494545
21	0xbd73b7de	-0.05950152
22	0xbe2b3b16	-0.16721758
23	0xbd247b38	-0.040156573
24	0xbdf840c8	-0.12121731
25	0x3d03e340	0.032199144
26	0x3e34372c	0.17599171
27	0xbdae240e	-0.08502971
28	0x3b6a8c43	0.003578917
29	0x3db2e1ad	0.087344505
30	0x3e0c4b5c	0.13700622
31	0x3d2f1cee	0.0427522
32	0x3dd99ad4	0.10625234
33	0xbe33d531	-0.17561795
34	0xbd690c86	-0.05689671
35	0xbe1237ef	-0.1427915
36	0xbd6d8f61	-0.057998065
37	0x39c32b3b	0.00037225508
38	0xbdd1a6fb	-0.10236927
39	0xbd68fc69	-0.056881342
40	0xbce6d429	-0.028177338
41	0xbd72f699	-0.059317205
42	0xbda35475	-0.07975093
43	0x3cfdddda	0.030989576
44	0xbe59364f	-0.21212123
45	0x3da99543	0.082804225
46	0xbc3cb219	-0.011517071
47	0x3dd6b13c	0.104830235
48	0xbe0437e8	-0.12911952
49	0xbd72a630	-0.05924052
50	0xba6983ee	-0.00089079037
51	0xbe5a6f0e	-0.21331427
52	0xbe120e98	-0.1426338
53	0x3db0ecc1	0.08638907
54	0x3c5e5125	0.013569151
55	0xbdf25640	-0.11832857
56	0xbd60f547	-0.054921415
57	0xbe2e6524	-0.1703077
58	0xbd40e4ed	-0.04709332
59	0xbd56fe66	-0.052488707
60	0x3d5ca853	0.053871464
61	0xbe0daa00	-0.13834381
62	0xbdc1d79a	-0.09464951
63	0x3d9a530f	0.075353734
64	0xbae9bf7e	-0.0017833558
65	0xbd55523f	-0.05208039
66	0xbd1ab9f2	-0.037774988
67	0xbd233d85	-0.03985359
68	0xbd01417d	-0.031556595
69	0x3e3760fa	0.17908087
70	0xbdf157b6	-0.11784308
71	0xbd080d6a	-0.033215918
72	0xbd551182	-0.05201865
73	0xbe5a6b85	-0.21330078
74	0x3d086e35	0.033308227
75	0xbc96df4c	-0.018417023
76	0x3e093441	0.1339884
77	0x3d5bf799	0.053702924
78	0x3de9c095	0.11413685
79	0xbe2594be	-0.16170022
80	0x3d1c5ae5	0.03817262
81	0xbe2b5df7	-0.16735063
82	0x3dd032aa	0.101659134
83	0xbd2f44f6	-0.042790376
84	0x3e9f7987	0.31147406
85	0xbd41fe1a	-0.04736147
86	0xbd7c2a3a	-0.061563708
87	0x3d2c343f	0.042042013
88	0xbdce9cc1	-0.10088492
89	0xbe27fb3b	-0.1640443
90	0x3dfdcd2b	0.12392648
91	0x3df76bc1	0.12081099
92	0xbebe6882	-0.37189108
93	0x3da09201	0.07840348
94	0x3b03b985	0.0020099592
95	0x3cdb0a09	0.026738184
96	0xbc974961	-0.018467607
97	0xbc3a8633	-0.011384535
98	0xbe42bf19	-0.1901821
99	0xbd77d1ed	-0.060502935
100	0x3da4faaf	0.080556266
101	0xbde6ec34	-0.11275521
102	0x3dc408a1	0.09571958
103	0x3d846fdb	0.06466647
104	0x3e1540cc	0.145755
105	0xbc817b3d	-0.015805835
106	0x3e30950f	0.17244361
107	0xbe193493	-0.14961462
108	0x3e0f701d	0.14007612
109	0x3e4bbe4c	0.19896811
110	0x3d966b57	0.07344692
111	0x3e035bc1	0.1282797
112	0xbd6d23aa	-0.05789534
113	0x3e52a3e2	0.20570329
114	0xbd53fe68	-0.051756293
115	0x3ca12b1f	0.019673882
116	0xbdac1209	-0.084018774
117	0xbe83211c	-0.25611198
118	0xbb80b35d	-0.003927632
119	0xbdd59ca4	-0.104302675
120	0xbbd3c1f2	-0.006462329
121	0x3e48f7d4	0.19625789
122	0xbe1c4dcf	-0.15264057
123	0xbdff3d34	-0.124628454
124	0xbdc04e90	-0.093899846
125	0xbe189565	-0.1490074
126	0xbd5f8b41	-0.054576162
127	0x3d848b19	0.06471843
128	0x3d24223b	0.040071707
129	0xbee36332	-0.44411618
130	0xbdb680bf	-0.08911275
131	0x3d3186a2	0.043341286
132	0x3e7daf6c	0.2477395
133	0xbda1ca35	-0.07899896
134	0x3cf3355f	0.029688535
135	0xbdc3a51a	-0.09552975
136	0xbe2d3c79	-0.169176
137	0x3dea7a37	0.11449092
138	0xbe1c63d2	-0.15272453
139	0x3e296590	0.1654265
140	0xbcdd1bcf	-0.0269908
141	0x3dd9e7b1	0.10639895
142	0x3e2fa7d4	0.17153865
143	0xbdeaa8ce	-0.11457978
144	0x3de9e012	0.11419691
145	0xbd2c2765	-0.042029757
146	0x3d2a9840	0.041649103
147	0x3dcf70b4	0.10128918
148	0xbdb74b2d	-0.089498855
149	0x3d6cf3c8	0.057849675
150	0xbd18ecc4	-0.037335172
151	0x3df24255	0.11829058
152	0xbd33e77a	-0.043921925
153	0xbb132626	-0.0022453158
154	0x3e3c3ab7	0.18381773
155	0xbe6582cc	-0.22413176
156	0x3dc2748a	0.09494884
157	0xbc413f5a	-0.011794889
158	0x3db5b2c3	0.08871987
159	0xbd379c38	-0.044826716
160	0xbe09d85f	-0.13461445
161	0xbd2173b1	-0.039416973
162	0x3d4d408a	0.050110377
163	0x3de4eb63	0.11177709
164	0x3ddb803b	0.107178174
165	0xbcefe9cb	-0.029286286
166	0xbd22ca28	-0.039743572
167	0xbdc35347	-0.09537368
168	0x3c5a82f4	0.013336886
169	0xbdd1a30b	-0.10236176
170	0xbe0d1124	-0.1377607
171	0xbded4450	-0.11585295
172	0xbdfeab9d	-0.124350764
173	0x3db64b1e	0.08901046
174	0x3e290a3e	0.16507813
175	0x3de88f9f	0.113555185
176	0xbca88a11	-0.020573648
177	0xbd20447a	-0.039127804
178	0xbe18095b	-0.14847319
179	0xbd9017ed	-0.070358135
180	0x3e46f923	0.19430976
181	0xbdb4b842	-0.08824207
182	0xbe11f41b	-0.14253275
183	0xbe4a3b19	-0.19749106
184	0x3e1fe33b	0.15614025
185	0xbd198f75	-0.037490327
186	0xbd191ea8	-0.03738275
187	0x3e09d25f	0.13459156
188	0x3d3d2a8b	0.04618315
189	0x3e3ebe60	0.1862731
190	0xbd90aac4	-0.07063821
191	0xbe6e1ef1	-0.2325399
192	0xbe0931d9	-0.13397922
193	0xbde80154	-0.11328378
194	0x3bdfc2dd	0.0068286494
195	0x3d63d709	0.055624995
196	0xbd453270	-0.048143804
197	0xbdb67b30	-0.08910215
198	0xbaa07e24	-0.0012244624
199	0xbd1fee05	-0.039045352
200	0xbe1ac8f9	-0.15115727
201	0xbd1f3931	-0.0388729
202	0x3d3f6583	0.04672767
203	0xbe604bfa	-0.21903983
204	0x3dece096	0.11566274
205	0x3e3f31cd	0.18671341
206	0x3cd3054a	0.025759358
207	0x3d86436e	0.0655583
208	0x3db66fcf	0.089080445
209	0x3e9a334c	0.3011726
210	0x3e0924f4	0.13393003
211	0xbddce4ff	-0.10785865
212	0x3e18f1ac	0.1493594
213	0x3d56f811	0.05248267
214	0x3de4d5d2	0.111735955
215	0x3ef236fd	0.47307578
216	0xbc91d71e	-0.017802771
217	0x3dc05fac	0.09393248
218	0xbda34d5f	-0.07973742
219	0x3e07196e	0.13193294
220	0xbc13cb7a	-0.009020681
221	0x3dd9c1ac	0.10632643
222	0x3d0c4000	0.034240723
223	0xbde8d9b4	-0.113696486
224	0xbd419a89	-0.047266517
225	0xbcd1e50b	-0.025621912
226	0xbde4db4f	-0.11174642
227	0x3dd34610	0.10316098
228	0xbd1f0878	-0.038826436
229	0x3e0b3694	0.13595039
230	0xbe08b262	-0.13349298
231	0x3da81595	0.082072414
232	0xbd04c3ae	-0.032413177
233	0x3db50a0f	0.08839809
234	0xbded79f7	-0.115955286
235	0xbe0453ee	-0.12922642
236	0xbccffa39	-0.02538787
237	0x3daf40bb	0.08557268
238	0xbe0d82f3	-0.13819484
239	0x3d412447	0.047153737
240	0x3ca18c82	0.01972032
241	0x3e138c70	0.14409041
242	0xbe183eda	-0.14867726
243	0xbe04f695	-0.12984689
244	0xbcaf56d3	-0.021403706
245	0x3dc28a33	0.09499016
246	0x3e1cd5bc	0.15315908
247	0xbd7b662c	-0.061376736
248	0xbac9d656	-0.001539896
249	0x3df6a7ac	0.120436996
250	0xbd0a50fa	-0.03376863
251	0xbe0863b9	-0.13319291
252	0x3da21bc5	0.07915453
253	0xbe43fdd7	-0.19139801
254	0xbbe95411	-0.007120617
255	0x3ddcce94	0.10781589

layers.3.sequential.0.bias f4 [10]
0	0xbd83fb32	-0.06444396
1	0x3b551e50	0.0032519288
2	0xbd18b84a	-0.037285127
3	0x3da9712e	0.082735404
4	0x3bc099bf	0.005877703
5	0x3c849a87	0.016186966
6	0x3c6affdc	0.014343228
7	0xbcd9dba1	-0.026593985
8	0xbcc1b8ca	-0.023647685
9	0xbd17109b	-0.03688107
