benchmark/ablation_mnistfc_tiny/onnx/mnistfc-tiny-net-264.onnx (onnx, 382423 bytes, 4 tensors)

layers.2.sequential.0.weight f4 [120, 784]
0.0069431984 -0.015899466 -0.03995839 -0.04526496 -0.000288435 -0.036114525 -0.011950517 -0.014418406
-0.026799714 0.010239396 0.004901714 0.011630108 -0.004032445 -0.015857514 -0.0026891723 -0.030288933
0.013646514 -0.023368541 -0.02803925 8.932917e-05 -0.046674166 -0.020621877 0.0089858165 -0.04241062
-0.012733899 -0.0061970428 0.004571181 -0.008560633 -0.04635829 -0.0037133435 -0.025615755 -0.043958575
-0.04496077 -0.027437782 -0.039811097 -0.009948618 0.0055096317 -0.034347836 -0.0063824244 -0.03807145
0.01584866 0.021505656 -0.021890981 -0.04365795 0.011103089 -0.04665806 -0.0086847255 -0.0023593279
-0.0015352846 -0.026687857 0.010383514 0.006085735 0.012734672 -0.009940052 0.004696984 -0.00047479916
0.012070399 -0.028281212 0.0014798475 -0.0048727565 -0.01558155 0.0038665768 -0.048063863 -0.022043075
-0.011450393 0.024553126 -0.024086421 -0.059925314 -0.0442709 -0.051199242 -0.08635525 -0.09858856
-0.017525908 0.04232996 0.06122244 -0.010507382 -0.019872162 -0.048620168 -0.05414523 -0.004376501
-0.03527331 -0.032463524 -0.022715317 -0.003667515 -0.04176524 -0.032785267 -0.037276145 0.014195484
-0.03765151 -0.05211888 0.004446341 0.00567575 0.05028237 0.081541836 0.13311021 0.09240178
0.11906476 0.09572172 0.05804106 0.034428444 0.053099968 0.024006141 0.026247198 0.0103093255
-0.01989467 -0.0321425 -0.06324969 -0.03581637 -0.026261216 -0.008251055 -0.037820987 -0.012086472
-0.025585368 -0.009098985 -0.045096323 -0.008819736 0.0025020505 -0.032092117 -0.009204019 0.05126152
0.07676121 0.114721626 0.0948335 0.11975263 0.057621684 0.051875155 0.022271914 0.1134092
0.12645249 0.10429003 0.21606065 0.22651736 0.18695876 0.10695554 0.07769298 0.022433778
-0.004033043 -0.020841787 -0.035031583 -0.03854573 0.01732829 -0.047296632 -0.02833327 -0.019205566
-0.011330735 -0.009406624 -0.0030039602 0.025846083 0.059377987 0.0038327866 0.0071767615 0.020491699
0.056504678 0.05766614 0.024494903 0.01895886 0.06752988 0.14478686 0.17119132 0.225403
0.2483024 0.17915487 0.20347115 0.103512906 0.06563061 0.041641857 -0.013413831 -0.010340843
-0.024201041 -0.026004104 -0.0032680721 0.03423959 0.023862232 0.00046844044 0.031518437 0.025104811
0.047648177 0.024234183 0.058890067 0.05776889 0.08781103 0.13866797 0.1419943 0.16689195
0.1116177 0.14331216 0.17375235 0.18501495 0.25768366 0.16282117 0.16104463 0.13894452
0.104505986 0.041850805 0.024520446 -0.04837984 8.084957e-06 0.012323541 0.008795293 0.027289707
0.053676076 -0.0039088256 0.012994939 0.015612999 0.05799178 -0.024494875 0.1231784 0.20040181
0.13848412 0.1579559 0.15311922 0.22827815 0.13321073 0.12328621 0.20542967 0.15212753
0.07820041 0.07737558 0.090463184 -0.013530756 0.0011961769 0.058872122 0.02550543 -0.04582722
-0.03928257 -0.016714897 0.009606123 0.06970787 0.0059238514 0.00033591728 -0.006692492 0.015954921
0.055622637 0.091355726 0.13065676 0.19739461 0.18715577 0.10329226 0.114614934 -0.023516418
-0.08423554 -0.10911774 -0.085479386 -0.108478576 -0.20396197 -0.14945258 -0.09518715 -0.040534027
-0.0014601818 0.009106592 0.0016074331 0.019866975 -0.03719513 -0.0038901372 0.016712712 0.0075235036
00000000: c583 e33b 993f 82bc 69ab 23bd c067 39bd
00000010: 1739 97b9 d3ec 13bd 1acc 43bc 2e3b 6cbc
00000020: 138b dbbc 24c3 273c 8f9e a03b 358c 3e3c
00000030: 9a22 84bb 9ee7 81bc d33c 30bb 7f20 f8bc
00000040: a195 5f3c 626f bfbc 92b2 e5bc 3c56 bb38
00000050: 692d 3fbd 36ef a8bc 3f39 133c c2b6 2dbd
00000060: d8a1 50bc 9010 cbbb d8c9 953b e641 0cbc
00000070: 31e2 3dbd 915b 73bb 22d8 d1bc e80d 34bd
00000080: c928 38bd 33c5 e0bc f610 23bd 87ff 22bc
00000090: 248a b43b 51b0 0cbd a823 d1bb cff0 1bbd
000000a0: 0dd5 813c a12c b03c b754 b3bc aed2 32bd
000000b0: bbe9 353c 861c 3fbd 614a 0ebc f49e 1abb
000000c0: 9a3b c9ba 7ea0 dabc 9d1f 2a3c d86a c73b
000000d0: 16a5 503c 9adb 22bc 28e9 993b 77ee f8b9
000000e0: ecc2 453c 00ae e7bc 71f7 c13a a5ab 9fbb
000000f0: c249 7fbc 6566 7d3b 9dde 44bd ae93 b4bc
00000100: 6e9a 3bbc a323 c93c e350 c5bc 3f74 75bd
00000110: 6755 35bd 4cb6 51bd 05db b0bd cde8 c9bd
00000120: 7e92 8fbc 2e62 2d3d 62c4 7a3d 2827 2cbc
00000130: f2ca a2bc f125 47bd 64c7 5dbd c068 8fbb
00000140: bf7a 10bd 79f8 04bd 7915 babc b15a 70bb
00000150: 0712 2bbd d849 06bd dfae 18bd 2d94 683c
00000160: 7838 1abd 9b7a 55bd 9db2 913b a4fb b93b
00000170: e3f4 4d3d 68ff a63d 0b4e 083e 253d bd3d
00000180: 3ad8 f33d c009 c43d 76bc 6d3d d704 0d3d
00000190: 5a7f 593d 87a8 c43c 5d04 d73c 72e8 283c
000001a0: 26fa a2bc dba7 03bd 0e89 81bd 30b4 12bd
000001b0: c321 d7bc 6f2f 07bc 2eea 1abd 5606 46bc
000001c0: 6898 d1bc e913 15bc ecb6 38bd a780 10bc
000001d0: 71f9 233b 0673 03bd 74cc 16bc 99f7 513d
000001e0: fb34 9d3d 2cf3 ea3d 1138 c23d de40 f53d
000001f0: b704 6c3d 0b7b 543d 9773 b63c 1543 e83d
00000200: c37c 013e 0396 d53d 013f 5d3e 2bf4 673e
00000210: 1e72 3f3e 820b db3d 7f1d 9f3d 0bc7 b73c
00000220: 9e27 84bb 65bc aabc 477d 0fbd 21e2 1dbd
00000230: 0ff4 8d3c 1dba 41bd 2d1b e8bc fe54 9dbc
00000240: 8ca4 39bc 3e1e 1abc 17de 44bb 2abb d33c
00000250: 5536 733d 7d2f 7b3b 0a2b eb3b 35de a73c
00000260: 7371 673d 5533 6c3d 89a9 c83c 9c4f 9b3c
00000270: 1b4d 8a3d 0243 143e c74c 2f3e 0bd0 663e
00000280: fc42 7e3e 6074 373e be5a 503e 93fe d33d
00000290: 5769 863d a790 2a3d afc5 5bbc a46c 29bc
000002a0: 4341 c6bc 8f06 d5bc 272d 56bb d03e 0c3d
000002b0: ba7a c33c 0399 f539 7a19 013d 9ba8 cd3c
000002c0: bc2a 433d c486 c63c b636 713d 129f 6c3d
000002d0: 45d6 b33d fafe 0d3e f466 113e b9e5 2a3e
000002e0: d297 e43d 6cc0 123e 23ec 313e 8f74 3d3e
000002f0: 1def 833e 98ba 263e e2e8 243e 7947 0e3e
00000300: 3c07 d63d c06b 2b3d 1adf c83c f029 46bd
00000310: a0a4 0737 ade8 493c 221a 103c aa8e df3c
00000320: 72db 5b3d 9b15 80bb bae8 543c aacd 7f3c
00000330: ca88 6d3d 7aa9 c8bc f544 fc3d 2236 4d3e
00000340: c8ce 0d3e 31bf 213e 49cb 1c3e bfc1 693e
00000350: 6568 083e 7b7d fc3d 285c 523e 52c7 1b3e
00000360: 8927 a03d 1777 9e3d c344 b93d 1bb0 5dbc
00000370: 09c9 9c3a e523 713d c3f0 d03c 53b5 3bbd
00000380: c3e6 20bd aeed 88bc 0063 1d3c 00c3 8e3d
00000390: de1c c23b 0e1e b039 b14c dbbb e5b3 823c
000003a0: 90d4 633d b618 bb3d e3ca 053e d021 4a3e
000003b0: c3a5 3f3e e48a d33d 3cbb ea3d 81a5 c0bc
000003c0: af83 acbd 1f79 dfbd d10f afbd 042a debd
000003d0: 68db 50be 190a 19be 7bf1 c2bd 0207 26bd
000003e0: 9263 bfba d133 153c 81b0 d23a 11c0 a23c
000003f0: ec59 18bd acf1 7ebb 19e9 883c b987 f63b

layers.2.sequential.0.bias f4 [120]
-0.002089777 0.028485563 0.06790895 -0.03457727 -0.005843182 0.0060686357 0.03421862 -0.024355097
0.015635861 0.09522059 -0.0034858894 0.028942993 -0.0055768527 0.023737213 0.0030075382 -0.013347121
0.034920026 0.00919695 0.0025451402 0.009768961 -0.0064961566 -0.03158349 0.03252523 0.039441418
-0.026132284 -0.014975567 -0.015316681 -0.030044958 -0.022846458 -0.016058989 0.0066968272 -0.018122267
-0.04470996 0.018009437 0.04112779 0.023014694 0.041693226 -0.014881867 0.011359972 0.026121268
0.025990566 -0.025605353 -0.0017613405 0.086591326 0.0054468275 0.04840435 0.021754852 0.012407141
-0.03467881 -0.023538752 0.03285133 0.029078757 0.023100412 -0.0031445767 -0.032793578 0.0100614745
0.029372606 0.05370886 -0.02251854 0.043935392 0.0435697 -0.01769795 -0.050121654 0.016700555
0.02099859 -0.026695076 -0.021053396 0.0014545822 0.05289408 0.047960058 0.023197284 -0.017698895
-0.020068929 0.029319305 0.087262504 -0.04142223 -0.014387465 0.0006705302 0.020788725 -0.010003573
0.045787368 -0.007888899 0.0037168248 0.020191528 -0.005328905 0.025045369 0.04117933 -0.011802009
-0.019404521 0.03854975 0.033849917 -0.009001754 0.00811036 -0.041607074 0.017596768 0.01188167
0.03774914 -0.047089357 -0.00077425735 -0.032635015 0.02981731 -0.023074728 0.0039995406 -0.009132348
-0.04654559 -0.003763818 -0.037904203 0.002026584 -0.03142744 0.0251759 -0.016246285 -0.013867176
-0.020091916 -0.036966678 -0.011979604 -0.019705947 0.044846423 0.036481265 0.023052888 -0.031519867
00000000: a4f4 08bb 8e5a e93c d913 8b3d e5a0 0dbd
00000010: 2a78 bfbb 68db c63b d328 0c3d 5784 c7bc
00000020: c716 803c 0303 c33d 8573 64bb db19 ed3c
00000030: 08be b6bb 8b74 c23c 1e1a 453b e2ad 5abc
00000040: 4d08 0f3d ceae 163c 5ecc 263b fe0d 203c
00000050: b6dd d4bb b15d 01bd 2d39 053d 538d 213d
00000060: 5f13 d6bc 155c 75bc d1f2 7abc d820 f6bc
00000070: 7f28 bbbc 248e 83bc 0f71 db3b 2675 94bc
00000080: cb21 37bd 8788 933c 9d75 283d 5089 bc3c
00000090: 84c6 2a3d 13d3 73bc 2d1f 3a3c 45fc d53c
000000a0: 2bea d43c 51c2 d1bc c8dc e6ba cb56 b13d
000000b0: 4d7b b23b a443 463d 3b37 b23c 5247 4b3c
000000c0: 5e0b 0ebd 57d4 c0bc 1e8f 063d 9336 ee3c
000000d0: 133d bd3c 3e15 4ebb 8f52 06bd e2d8 243c
000000e0: d29e f03c d2fd 5b3d cd78 b8bc 99f5 333d
000000f0: 2476 323d 4bfb 90bc 5d4c 4dbd 9acf 883c
00000100: 3c05 ac3c a2af dabc 2c78 acbc aea7 be3a
00000110: 76a7 583d c471 443d 3b08 be3c 46fd 90bc
00000120: 9867 a4bc 0a2f f03c afb6 b23d 5baa 29bd
00000130: 67b9 6bbc 85c6 2f3a 1e4d aa3c 07e6 23bc
00000140: 898b 3b3d 7140 01bc f995 733b b468 a53c
00000150: 189e aebb f22b cd3c a8ab 283d 375d 41bc
00000160: 3bf6 9ebc 58e6 1d3d 36a6 0a3d 187c 13bc
00000170: 51e1 043c 2e6c 2abd 1927 903c 56ab 423c
00000180: d89e 1a3d c5e0 40bd 88f7 4aba 4bac 05bd
00000190: 6e43 f43c 3607 bdbc 940e 833b d89f 15bc
000001a0: 97a6 3ebd 63aa 76bb 7041 1bbd 70d0 043b
000001b0: 0fba 00bd b03d ce3c ee16 85bc 2733 63bc
000001c0: cd97 a4bc 5f6a 17bd 1a46 44bc 5e6e a1bc
000001d0: e2b0 373d 616d 153d 69d9 bc3c fa1a 01bd

layers.3.sequential.0.weight f4 [10, 120]
-0.25086567 -0.13763173 -0.04006836 -0.010504529 0.20509018 -0.14891109 -0.09404542 -0.06646708
0.1523297 -0.31119975 -0.10070243 0.21385084 0.09082073 0.104352675 -0.19145067 -0.07226573
0.016075786 -0.039878547 0.08962775 0.20287415 0.01397342 0.02047526 -0.21115623 -0.32936677
0.025487201 -0.18027012 -0.09301058 -0.05845899 -0.06196316 -0.006804562 -0.08113935 0.12000687
0.1000689 0.008325166 0.15729326 0.3529332 -0.17842948 0.0763609 -0.05692218 0.031858187
0.039568145 -0.10994579 -0.17746529 -0.04518294 -0.11006629 0.16481994 -0.2105964 -0.05824894
-0.016717633 -0.16928697 -0.115960866 0.068721846 -0.25667116 0.14676712 -0.108833075 -0.026076186
-0.24823312 0.08846129 -0.14746666 -0.046213828 0.12284651 -0.12266122 -0.049432803 -0.04657554
-0.0028528133 0.040328637 -0.12447023 0.15916213 -0.21641679 0.15059827 0.07582461 0.029228816
0.15743145 -0.16890764 -0.25770763 0.034208722 -0.0013835236 0.17725722 0.27192184 0.17083825
0.06407588 0.108193524 -0.041011542 0.030763095 -0.06447154 0.092836484 -0.21478003 -0.11637347
0.00084767793 0.08861844 0.005075797 0.030941542 -0.092988685 0.079381265 0.13552031 0.10847629
-0.021032885 0.045628194 0.20870143 0.24208412 -0.14214197 -0.090728305 -0.05529692 -0.36559048
0.03602198 -0.1593561 0.019615177 -0.0973255 -0.18716078 -0.15330397 -0.10258118 -0.1281964
0.070217736 0.008734191 -0.12373027 0.10773781 -0.22048597 -0.02164078 0.018562036 -0.022917857
0.14928424 0.031128487 0.15180539 -0.0032046924 0.19112298 -0.042072292 -0.13454951 0.21035188
-0.00089252566 0.09910224 0.024599543 -0.091620624 0.03881221 -0.06219443 -0.2342161 0.24498506
-0.22040696 -0.07996384 -0.23780727 -0.0041648294 -0.09700011 -0.06682023 -0.22575298 0.21757273
0.08224127 0.014242485 0.037592907 0.45327044 -0.24002014 -0.10252501 0.16481818 -0.22078726
-0.21514522 0.1597863 -0.14226584 0.43000868 0.19256607 -0.018532146 0.19349642 -0.19276893
-0.0233748 0.20792615 0.29613522 -0.05731449 0.16735744 -0.071630605 -0.26026094 -0.13798146
0.11137902 0.13801806 0.01984832 0.049652826 0.14445305 -0.076527625 0.21024312 0.055858098
0.16877465 -0.14585929 0.052998044 0.21325539 -0.19747896 -0.20098987 0.20253123 0.22835511
0.33229876 -0.18217316 0.1259031 -0.043305926 -0.1984953 -0.1443174 -0.07681342 0.062387966
-0.1453737 -0.07833034 -0.15358578 -0.023377318 -0.2152439 -0.107014894 -0.24161293 -0.060562506
-0.15701182 0.15519916 -0.13346207 0.09719767 0.0717953 0.036554158 -0.18665598 0.109241605
-0.058078192 -0.23222396 0.12027129 0.20411323 -0.0035416044 0.00727413 -0.07177816 -0.1207872
-0.31442523 -0.1317838 -0.25200966 -0.122106664 0.0034639686 0.061203297 0.11086642 -0.31585157
-0.09598226 -0.09271388 0.05467558 -0.16621202 -0.15130405 0.16335462 0.03452275 0.1712065
-0.23597142 -0.1805692 0.14647548 0.071439855 0.13069603 0.12692542 0.38702402 0.03262072
0.17877911 -0.1325286 -0.08224309 -0.04881905 0.034789376 0.07616365 0.06300537 0.29872608
-0.32563046 -0.13435951 -0.15538831 -0.10911869 0.11479006 -0.19865218 0.062237527 -0.05370363
00000000: 7771 80be 55ef 0cbe b81e 24bd 301b 2cbc
00000010: 2903 523e 267c 18be e39a c0bd e41f 88bd
00000020: 51fc 1b3e 9355 9fbe 133d cebd b7fb 5a3e
00000030: 3800 ba3d dbb6 d53d a50b 44be 0e00 94bd
00000040: 5eb1 833c b057 23bd c18e b73d 3ebe 4f3e
00000050: c5f0 643c bcbb a73c 5739 58be c3a2 a8be
00000060: 89ca d03c bb98 38be 557c bebd b272 6fbd
00000070: 15cd 7dbd cef8 debb 632c a6bd 29c6 f53d
00000080: ecf0 cc3d 4766 083c 7c11 213e a9b3 b43e
00000090: 38b6 36be 1b63 9c3d 3b27 69bd bb7d 023d
000000a0: 3512 223d 422b e1bd 76b9 35be bf11 39bd
000000b0: 6f6a e1bd 8fc6 283e 95a6 57be 7196 6ebd
000000c0: 6bf3 88bc 9059 2dbe e47c edbd 0abe 8c3d
000000d0: 676a 83be 1f4a 163e e0e3 debd ba9d d5bc
000000e0: d330 7ebe 312b b53d 8001 17be b64a 3dbd
000000f0: f396 fb3d ce35 fbbd 0d7a 4abd fec5 3ebd
00000100: 44f6 3abb a42f 253d 3fea febd 66fb 223e
00000110: 5d9c 5dbe 6f36 1a3e ef49 9b3d 4571 ef3c
00000120: b635 213e 20f6 2cbe 41f2 83be 721e 0c3d
00000130: 5957 b5ba eb82 353e 5739 8b3e 39f0 2e3e
00000140: 373a 833d 9194 dd3d b8fb 27bd e302 fc3c
00000150: a809 84bd 0e21 be3d 4cef 5bbe 3755 eebd
00000160: b436 5e3a 967d b53d df52 a63b 1e79 fd3c
00000170: da70 bebd a592 a23d d6c5 0a3e d128 de3d
00000180: 284d acbc a1e4 3a3d d4b5 553e e6e4 773e
00000190: aa8d 11be c3cf b9bd 067f 62bd ad2e bbbe
000001a0: c98b 133d 3f2e 23be 02b0 a03c 9752 c7bd
000001b0: 13a7 3fbe b7fb 1cbe 1516 d2bd eb45 03be
000001c0: 51ce 8f3d da19 0f3c 4c66 fdbd a4a5 dc3d
000001d0: 13c7 61be 0148 b1bc 690f 983c 3bbe bbbc
000001e0: f8dd 183e 2b01 ff3c df72 1b3e d105 52bb
000001f0: beb5 433e ff53 2cbd 59c7 09be 7c66 573e
00000200: 62f8 69ba 1df6 ca3d fb84 c93c 98a3 bbbd
00000210: 8df9 1e3d 96bf 7ebd 58d6 6fbe 5ddd 7a3e
00000220: 5db2 61be 15c4 a3bd c083 73be 1f79 88bb
00000230: fea7 c6bd 0bd9 88bd ca2b 67be 63cb 5e3e
00000240: 1c6e a83d 5059 693c 05fb 193d 1013 e83e
00000250: d7c7 75be a2f8 d1bd 19c6 283e 0e16 62be
00000260: 074f 5cbe 059f 233e 23ae 11be 192a dc3e
00000270: 0a30 453e bad0 97bc ed23 463e 3865 45be
00000280: 827c bfbc 98ea 543e 099f 973e 99c2 6abd
00000290: c05f 2b3e 11b3 92bd ec40 85be 034b 0dbe
000002a0: af1a e43d 9b54 0d3e f298 a23c c360 4b3d
000002b0: 80eb 133e 84ba 9cbd f949 573e 76cb 643d
000002c0: 43d3 2c3e 235c 15be 7a14 593d 9f5f 5a3e
000002d0: ed37 4abe 4ad0 4dbe 5964 4f3e ecd5 693e
000002e0: 1023 aa3e 9a8b 3abe beec 003e 8e61 31bd
000002f0: 5a42 4bbe f1c7 13be 5b50 9dbd 868a 7f3d
00000300: d8dc 14be a86b a0bd 9745 1dbe ca81 bfbc
00000310: e668 5cbe a02a dbbd 6169 77be 6410 78bd
00000320: b5c7 20be 87ec 1e3e 48aa 08be 920f c73d
00000330: 6a09 933d d0b9 153d bf22 3fbe 10ba df3d
00000340: 66e3 6dbd 1ecc 6dbe cb50 f63d 0f03 513e
00000350: 431a 68bb d35b ee3b 6e00 93bd 485f f7bd
00000360: 58fc a0be 55f2 06be 6907 81be 0f13 fabd
00000370: c003 633b 4fb0 7a3d ef0d e33d 4cb7 a1be
00000380: 5992 c4bd c6e0 bdbd 80f3 5f3d 7c33 2abe
00000390: 73ef 1abe 6f46 273e ba67 0d3d c250 2f3e
000003a0: 7ea2 71be 22e7 38be abfd 153e 0f4f 923d
000003b0: 2ed5 053e bdf8 013e 0328 c63e 4e9d 053d
000003c0: df11 373e 94b5 07be 116f a8bd 7cf6 47bd
000003d0: 4e7f 0e3d b0fb 9b3d f608 813d a0f2 983e
000003e0: 09b9 a6be 8a95 09be 1d1e 1fbe 9f79 dfbd
000003f0: 0d17 eb3d 7a6b 4bbe c7ec 7e3d 56f8 5bbd

layers.3.sequential.0.bias f4 [10]
0.03201692 -0.006612895 -0.07021935 -0.06839497 -0.047633547 0.06557438 0.09291507 0.011613447
-0.015861908 0.030329762
00000000: 2d24 033d fcb0 d8bb 2acf 8fbd a912 8cbd
00000010: 651b 43bd dc4b 863d 424a be3d 5446 3e3c
00000020: d5f0 81bc 1f76 f83c
