benchmark/ablation_mnistfc_tiny/onnx/mnistfc-tiny-net-268.onnx (onnx, 550968 bytes, 4 tensors)

layers.2.sequential.0.weight f4 [173, 784]
-0.030955229 -0.003389434 -0.006375842 -0.0229483 0.028102156 0.031205477 -0.027660144 -0.027515676
-0.0037760742 -0.008567231 -0.00079389533 -0.034410395 -0.008161293 0.027935881 -0.03624661 -0.020791678
-0.023248011 0.025437467 -0.008460592 -0.01655216 -0.01584374 0.013088609 0.032735903 -0.028610226
-0.017413596 0.024219524 -0.004472115 -0.023201656 0.015398422 -0.006191669 0.005794108 -0.0028392356
0.0052395496 0.032540694 0.007816243 0.02510498 0.0017654587 0.02215438 0.013221387 0.019746898
-0.028420307 -0.011524654 -0.030221391 -0.019220592 -0.04235308 0.0031224135 0.009147886 0.021026216
0.027151247 -0.0036760569 -0.0068621626 0.021460105 -0.002736357 0.018593052 0.025187643 0.019241236
-0.034356087 0.018161671 0.016447082 -0.009457992 -0.022265354 -0.0006603714 -0.031860158 -0.03151487
0.021933297 0.035463482 -0.0015779801 -0.031492636 0.00892286 -0.021635206 -0.01979425 0.004828693
-0.036117654 -0.019752517 0.015919397 0.0023804745 0.013003025 -0.008926231 -0.019157406 0.018697299
0.016705995 0.01162838 -0.026527053 0.024288274 -0.014458415 -0.0076822266 -0.03528314 0.030877287
0.024189027 0.008180586 -0.030264745 0.023168905 0.0029225845 -0.023835573 -0.020751812 -0.01004868
0.021773947 0.048056237 0.05226048 0.10583701 0.10347967 0.010064865 0.031106515 0.023234416
0.03829087 0.027974958 -4.610952e-05 -0.015840903 -0.010553469 -0.006748152 -0.015030226 -0.022777447
-0.03752321 0.0021349639 -0.009756695 0.02995929 0.015481408 -0.018456217 0.027617505 0.015952813
0.027954271 -0.0036002316 -0.0036550888 0.053897634 0.071513996 0.054174326 -0.00033929598 0.044794757
-0.010716717 0.022653375 0.09296572 0.003421857 -0.024583444 -0.020191986 -0.036964744 0.028125286
-0.023404263 -0.02883451 -0.022387492 -0.026420059 0.0047064507 -0.0152162155 0.01670301 -0.017158084
-0.02343062 0.026042374 0.03303888 0.0044584274 0.04254311 -0.008502879 -0.051129438 0.04133035
-0.04585355 -0.049436618 -0.033392645 -0.049477372 -0.06268856 -0.014554384 0.04009061 0.037399583
-0.03143195 -0.02684358 -0.0018894261 0.055014245 -0.008653207 -0.0399782 -0.00741473 -0.028042221
0.0024030819 0.0059714 0.0049952925 0.020642973 -0.019015683 0.007059982 -0.05058086 0.012016092
-0.05161522 -0.06726239 -0.07125626 -0.07774925 -0.082342096 -0.08992689 -0.054616787 0.028324671
-0.031457126 0.008955442 -0.0422096 -6.4903434e-05 -0.016582416 -0.078020714 -0.06877322 -0.030012244
-0.021148885 -0.021007339 0.016095204 0.017025795 0.0034303057 -0.02010106 -0.022698067 -0.0312325
-0.03349883 -0.06919167 -0.06537832 -0.14197522 -0.19203861 -0.15147181 -0.10304374 -0.0018870982
-0.0043324674 -0.013945909 0.047410827 0.046163615 0.045783155 0.028900573 -0.036392603 -0.02817802
-0.018598996 -0.07691967 -0.11195322 -0.08982036 -0.08806338 -0.008782645 -0.036606334 0.00046418756
0.007161363 0.015692983 -0.0008877858 -0.04618448 -0.054409403 -0.076269135 -0.078729555 -0.17609116
-0.17300908 -0.10423032 -0.054634795 -0.044798024 -0.011934407 -0.008246996 0.036965404 0.08551432
-0.0183417 -0.0419959 -0.039248183 -0.005880124 -0.009084962 -0.041633368 -0.076470904 -0.1430456
-0.124378644 -0.038409617 0.00021795552 -0.024662724 -0.02382371 -0.015192793 -0.026711885 -0.053988643
00000000: d295 fdbc 4421 5ebb 70ec d0bb 13fe bbbc
00000010: 7e36 e63c a1a2 ff3c 8797 e2bc 8e68 e1bc
00000020: 0378 77bb 925d 0cbc 6a1d 50ba eaf1 0cbd
00000030: f2b6 05bc cad9 e43c 5377 14bd 4f53 aabc
00000040: 9d72 bebc 3c62 d03c 4b9e 0abc 6598 87bc
00000050: bbca 81bc 9b71 563c 1516 063d fe5f eabc
00000060: f5a6 8ebc 0668 c63c d28a 92bb 6611 bebc
00000070: aa49 7c3c 7ce3 cabb 80dc bd3b 7812 3abb
00000080: 87b0 ab3b 6449 053d b30f 003c f6a8 cd3c
00000090: f766 e73a 1a7d b53c 849e 583c 3fc4 a13c
000000a0: b4d1 e8bc e7d1 3cbc da92 f7bc 8174 9dbc
000000b0: 6c7a 2dbd 68a1 4c3b 04e1 153c 2c3f ac3c
000000c0: 4b6c de3c 00ea 70bb fedb e0bb 1acd af3c
000000d0: 7454 33bb 7550 983c 5156 ce3c cc9f 9d3c
000000e0: f8b8 0cbd c9c7 943c 08bc 863c b2f5 1abc
000000f0: d565 b6bc c61c 2dba cc7f 02bd bc15 01bd
00000100: 75ad b33c 2842 113d 3ad4 ceba 6cfe 00bd
00000110: 3031 123c 513c b1bc 8d27 a2bc 033a 9e3b
00000120: 1bf0 13bd 08d0 a1bc 6569 823c bc01 1c3b
00000130: a40a 553c 543f 12bc feef 9cbc 142b 993c
00000140: 03db 883c f684 3e3c 434f d9bc 34f8 c63c
00000150: fde2 6cbc 30bb fbbb 0e85 10bd 5df2 fc3c
00000160: 1128 c63c dd07 063c c5ed f7bc b7cc bd3c
00000170: d588 3f3b d242 c3bc b4ff a9bc 38a3 24bc
00000180: 475f b23c 9ed6 443d 160f 563d 13c1 d83d
00000190: 26ed d33d 1be7 243c 17d3 fe3c 1a56 be3c
000001a0: e3d6 1c3d bd2b e53c b865 41b8 c8c4 81bc
000001b0: 75e8 2cbc 9a1f ddbb 5641 76bc c597 babc
000001c0: f0b1 19bd c0ea 0b3b 8bda 1fbc 2f6d f53c
000001d0: bba5 7d3c 7e31 97bc 1b3e e23c 79af 823c
000001e0: 5b00 e53c ddf1 6bbb 378a 6fbb c4c3 5c3d
000001f0: ee75 923d e6e5 5d3d 89e3 b1b9 b57a 373d
00000200: 2b95 2fbc 9293 b93c d064 be3d 3c41 603b
00000210: 3863 c9bc aa69 a5bc 5868 17bd 0067 e63c
00000220: 4cba bfbc 5a36 ecbc f965 b7bc e16e d8bc
00000230: 9238 9a3b 6f4d 79bc c0d4 883c 1c8f 8cbc
00000240: 92f1 bfbc d156 d53c c753 073d 0018 923b
00000250: af41 2e3d a94f 0bbc 1a6d 51bd 034a 293d
00000260: efd0 3bbd 0d7e 4abd bac6 08bd c9a8 4abd
00000270: dc62 80bd 8375 6ebc 0d36 243d 4e30 193d
00000280: cabe 00bd 11e7 dbbc 9fa6 f7ba 9e56 613d
00000290: 2ec6 0dbc 2ec0 23bd 43f7 f2bb cdb8 e5bc
000002a0: 067d 1d3b bcab c33b 8daf a33b 741b a93c
000002b0: c7c6 9bbc 6c57 e73b e02d 4fbd 25df 443c
000002c0: 7b6a 53bd ddc0 89bd cdee 91bd 003b 9fbd
000002d0: f9a2 a8bd 972b b8bd dab5 5fbd 2409 e83c
000002e0: 30d9 00bd d9b9 123c f9e3 2cbd c41c 88b8
000002f0: d9d7 87bc 53c9 9fbd f9d8 8cbd 3ddc f5bc
00000300: 6d40 adbc 9517 acbc 17da 833c ae79 8b3c
00000310: fbce 603b faaa a4bc 4cf1 b9bc 4ddb ffbc
00000320: 1236 09bd 5db4 8dbd 12e5 85bd f461 11be
00000330: c5a5 44be 6d1b 1bbe 9908 d3bd 8258 f7ba
00000340: 5ff7 8dbb 627d 64bc db31 423d 0f16 3d3d
00000350: 1e87 3b3d e5c0 ec3c 6910 15bd 97d5 e6bc
00000360: ec5c 98bc 0f88 9dbd bb47 e5bd bdf3 b7bd
00000370: 935a b4bd 15e5 0fbc 86f0 15bd 335e f339
00000380: dea9 ea3b 928e 803c 4cba 68ba f02b 3dbd
00000390: 65dc 5ebd fe32 9cbd f63c a1bd 3e51 34be
000003a0: 4b29 31be b576 d5bd bcc8 5fbd 227e 37bd
000003b0: 8888 43bc 691e 07bc 0969 173d 2222 af3d
000003c0: 5541 96bc e503 2cbd b4c2 20bd 0eae c0bb
000003d0: 18d9 14bc c087 2abd c79c 9cbd 8c7a 12be
000003e0: 3bba febd 6753 1dbd fd8a 6439 7b09 cabc
000003f0: f129 c3bc 31eb 78bc e2d2 dabc 3223 5dbd

layers.2.sequential.0.bias f4 [173]
-0.004229348 -0.008680141 0.0042668036 -0.003360541 0.07717962 0.014936807 -0.016016502 -0.011567403
0.019339874 0.010233192 -0.0218222 -0.0048036096 0.011089169 0.015107335 0.06639457 0.02982032
-0.03322089 -0.005179252 0.0039349133 -0.053582285 0.0064962 0.026126064 -0.009402839 0.033301014
-0.031472415 0.028820427 0.016403792 -0.034622207 0.08935336 0.023707291 0.078084044 0.023209265
0.01801822 0.014727912 0.024084317 0.010882274 -0.007310943 -0.025722496 0.0628823 0.007298606
-0.05907063 -0.030867696 -0.062153943 -0.025124265 -0.008309305 -0.001953957 0.020138154 0.08115185
0.04115879 -0.013651272 0.0152532775 0.011494234 -0.01758123 1.00389525e-05 0.008345869 -0.007689639
0.04290277 0.0010353756 -0.03511674 -0.038328808 0.04130674 -0.009868005 -0.03237026 -0.034613628
0.02651954 -0.018153818 0.0132488515 -0.00910866 -0.014461735 -0.0064471476 -0.025291262 0.017628796
-0.01677718 -0.021442283 -0.053794783 -0.01939204 0.04412493 0.014310084 0.0021880502 0.010987843
0.04598576 -0.032447185 -0.013525503 0.008783363 -0.04000725 0.003702084 -0.038747117 -0.03576128
0.018033313 -0.008061766 0.03465727 -0.009950977 -0.012279747 -0.026238987 0.019446848 0.035171002
0.011466943 -0.007749788 -0.0073705944 -0.013022142 0.013943017 -0.017251134 -0.011319545 -0.025017595
-0.0035505246 0.008237895 -0.021775194 -0.064057246 -0.054108396 -0.009470043 0.012890924 -0.016265005
-0.014892872 -0.001945988 -0.0069963923 -0.034577224 0.029783042 0.03329058 -0.010114756 0.037474785
0.04283165 -0.03217058 0.0057956376 0.020614527 -0.010669093 0.030523824 -0.010618539 -0.023569996
-0.0027089159 -0.017172817 0.009928152 -0.0091727385 0.018852074 0.037671488 -0.024333797 0.044788413
0.0213509 0.0061696265 0.010836938 -0.025865074 0.023901038 0.02548315 0.012780281 -0.015391851
-0.021104317 -0.021387769 -0.027859867 0.020768946 0.018678177 -0.042597067 0.061904777 0.010087735
-0.009035335 0.043497108 0.010187302 0.040312793 0.014096132 0.0055801836 -0.026434176 -0.012540158
-0.006939628 -0.023111142 -0.008887847 -0.015605834 0.02199278 -0.03137389 0.010993591 -0.056504216
0.009074175 0.05840527 -0.006682725 -0.0025381797 -0.037418827
00000000: 5896 8abb 2637 0ebc 8bd0 8b3b 863c 5cbb
00000010: 5910 9e3d 82b9 743c 0a35 83bc 3485 3dbc
00000020: a86e 9e3c 1ea9 273c 78c4 b2bc 9967 9dbb
00000030: 59af 353c c184 773c e0f9 873d be49 f43c
00000040: a112 08bd b7b6 a9bb 72f0 803b 1979 5bbd
00000050: 13de d43b 5406 d63c 5d0e 1abc a566 083d
00000060: 38e9 00bd d118 ec3c 3f61 863c 04d0 0dbd
00000070: e5fe b63d cb35 c23c 87ea 9f3d 5b21 be3c
00000080: f29a 933c 574d 713c 794c c53c 914b 323c
00000090: a390 efbb fcb7 d2bc 6fc8 803d 2529 ef3b
000000a0: 0cf4 71bd 40de fcbc 2295 7ebd 67d1 cdbc
000000b0: c023 08bc f50d 00bb c5f8 a43c f132 a63d
000000c0: 1f96 283d 96a9 5fbc e2e8 793c 5052 3c3c
000000d0: 8306 90bc f96c 2837 1dbd 083c 5ef9 fbbb
000000e0: d1ba 2f3d 71b5 873a 92d6 0fbd abfe 1cbd
000000f0: 4231 293d 6aad 21bc ae96 04bd 05c7 0dbd
00000100: 823f d93c 51b7 94bc b611 593c 7d3c 15bc
00000110: eaf0 6cbc 9842 d3bb 9f2f cfbc 446a 903c
00000120: 4c70 89bc baa7 afbc eb57 5cbd 0edc 9ebc
00000130: 58bc 343d d874 6a3c 6465 0f3b 5b06 343c
00000140: 905b 3c3d 57e7 04bd 129a 5dbc 18e8 0f3c
00000150: a4de 23bd aa9e 723b 4cb5 1ebd 6c7a 12bd
00000160: 99ba 933c 7f15 04bc c8f4 0d3d 6c09 23bc
00000170: fe30 49bc 25f3 d6bc ff4e 9f3c 780f 103d
00000180: d8df 3b3c eff1 fdbb 0785 f1bb d35a 55bc
00000190: 4171 643c 4052 8dbc 9d75 39bc b3f1 ccbc
000001a0: ebaf 68bb 3cf8 063c e461 b2bc 7230 83bd
000001b0: c4a0 5dbd 3d28 1bbc 7434 533c 303e 85bc
000001c0: 3c01 74bc 8610 ffba fe41 e5bb d9a0 0dbd
000001d0: 91fb f33c b45b 083d 5db8 25bc 297f 193d
000001e0: 3d70 2f3d 4cc5 03bd 55e9 bd3b ccdf a83c
000001f0: 6bcd 2ebc 190d fa3c 61f9 2dbc dd15 c1bc
00000200: 1188 31bb 02ae 8cbc b0a9 223c 4149 16bc
00000210: aa6f 9a3c 6b4d 1a3d ac57 c7bc 0e74 373d
00000220: 15e8 ae3c 942a ca3b 6a8d 313c fee2 d3bc
00000230: 1ccc c33c 0ac2 d03c 6264 513c 1a2e 7cbc
00000240: f6e2 acbc 6735 afbc 603a e4bc a323 aa3c
00000250: fa02 993c 437a 2ebd dd8f 7d3d 0747 253c
00000260: f108 14bc 062a 323d a4e8 263c 071f 253d
00000270: 76f3 663c f9d9 b63b 7c8c d8bc 3c75 4dbc
00000280: d265 e3bb 9453 bdbc 559e 11bc 9daf 7fbc
00000290: 342a b43c e881 00bd 761e 343c f770 67bd
000002a0: d9ab 143c 5d3a 6f3d c3fa dabb 9757 26bb
000002b0: 7c44 19bd

layers.3.sequential.0.weight f4 [10, 173]
0.01805804 -0.1435726 -0.06392741 -0.12739399 -0.18402809 -0.05262667 -0.18778022 -0.11252723
0.100018226 0.094767176 0.042686325 0.104347095 -0.16628118 0.030925212 -0.05467624 -0.12324291
-0.03331289 -0.044670872 -0.0961573 0.21109103 0.10627644 -0.25516474 -0.09260889 -0.02807959
-0.05086044 0.12146024 -0.2730794 0.122490294 -0.25980628 0.1402248 -0.023089841 0.04897499
-0.12732482 -0.094218716 0.15276724 -0.04213606 -0.064821586 -0.11007665 -0.21597396 -0.092876956
-0.12030449 -0.024064366 0.025229229 -0.15708217 0.034004416 0.13537091 -0.0054435483 -0.23566177
0.19813852 0.08792702 0.13129647 -0.14735013 0.12636578 -0.06311262 -0.06662644 -0.0011979176
0.034361515 -0.16174805 -0.062688954 -0.052750316 0.38093552 0.07615451 0.16951458 -0.13796477
-0.07066282 0.030829271 -0.16632648 -0.03011478 -0.10914132 -0.040543385 0.11862982 0.04412435
-0.07487414 -0.21178973 -0.07981252 0.19810002 0.13247092 0.06803 -0.03320286 -0.061210666
-0.16316184 -0.30957896 -0.08124209 -0.054557167 0.18896271 0.089131385 0.07019674 0.11522664
-0.09978586 0.066119194 0.112212166 -0.037481956 0.019513 0.025678754 -0.119238645 -0.11795043
-0.011330218 0.16197722 -0.06349691 0.16573124 0.13937144 0.10051712 -0.021830475 -0.09835691
-0.07710451 -0.022718465 -0.036813263 -0.0746965 -0.11381983 0.101195365 0.16944401 -0.17390722
-0.11282748 0.115079775 0.024323113 -0.15143496 0.16087821 -0.0094764605 -0.0662287 0.057968356
-0.16519536 -0.11950656 -0.028441995 0.08012631 0.03555721 -0.11687547 -0.044925395 -0.09952475
0.02981302 -0.017989831 0.082553744 0.02882544 0.07197203 -0.0066481703 -0.05929865 -0.1633921
0.09984309 -0.019490266 -0.021701315 0.090532415 -0.15717708 -0.1515006 -0.14441548 -0.17818974
-0.025592817 -0.11768621 0.06441558 -0.02184893 -0.12766574 -0.0233797 -0.17076352 -0.02446872
-0.03246625 -0.09644079 0.021565411 -0.38764563 -0.22070505 -0.08467699 0.10393689 0.110942006
0.26755577 -0.094148636 0.08710627 0.03852434 -0.068938725 0.021310054 -0.19278865 -0.14244166
-0.28296226 0.25878572 0.0071866727 -0.024776626 -0.054117322 -0.08821404 0.16426705 -0.10849959
0.005325396 -0.021356186 -0.04076795 -0.1273764 0.12459572 0.038289793 -0.1365055 0.22441676
0.008464659 0.046153534 -0.058338758 -0.115753174 -0.17223096 -0.20150483 -0.021777242 0.22878236
0.11309625 -0.14037302 0.07098248 0.102647915 -0.11864755 -0.050473414 -0.13015594 0.15377274
-0.011613624 -0.063136645 -0.11811469 -0.17373036 -0.17818275 -0.012591558 0.10432345 -0.14851739
-0.07059727 0.040455863 0.055836476 0.06423659 0.1419254 0.28056192 -0.05712773 0.27732998
-0.10212609 -0.11952084 -0.17535023 -0.090178385 0.102902815 -0.45351723 -0.09877199 -0.018290441
-0.058801025 -0.1551126 -0.061721694 -0.04121364 -0.028259449 -0.18556438 0.1162116 -0.045650497
0.040294353 -0.22125646 0.23164667 -0.116713114 -0.1057093 0.10863274 -0.011293907 -0.03779646
0.14269696 0.09343963 0.011999565 -0.08648981 -0.030067652 0.24036977 -0.01107871 -0.21188939
0.023490686 -0.19195887 -0.15645504 0.21988332 -0.08847327 -0.20144947 0.05334833 -0.18941239
00000000: 74ee 933c b204 13be 60ec 82bd 9273 02be
00000010: dc71 3cbe 108f 57bd 7549 40be ad74 e6bd
00000020: 5bd6 cc3d 4b15 c23d dbd7 2e3d eeb3 d53d
00000030: 9d45 2abe df56 fd3c 31f4 5fbd c766 fcbd
00000040: 1973 08bd cef8 36bd 1eee c4bd 3f28 583e
00000050: 76a7 d93d f4a4 82be bba9 bdbd 2b07 e6bc
00000060: 0953 50bd 25c0 f83d 10d1 8bbe 31dc fa3d
00000070: 5405 85be 1797 0f3e e826 bdbc 009a 483d
00000080: 7061 02be bef5 c0bd 046f 1c3e dc96 2cbd
00000090: 2ec1 84bd de6f e1bd 4728 5dbe 4636 bebd
000000a0: 3362 f6bd a222 c5bc 87ad ce3c 26da 20be
000000b0: 3748 0b3d ac9e 0a3e cb5f b2bb 5251 71be
000000c0: d3e4 4a3e 1513 b43d 9572 063e f4e2 16be
000000d0: 0866 013e 3041 81bd 7173 88bd 7203 9dba
000000e0: a9be 0c3d 48a1 25be 1163 80bd b710 58bd
000000f0: fb09 c33e e5f6 9b3d 3b95 2d3e a346 0dbe
00000100: abb7 90bd ab8d fc3c 7d51 2abe 45b3 f6bc
00000110: 7c85 dfbd d210 26bd 31f4 f23d bcbb 343d
00000120: 9d57 99bd 68df 58be bf74 a3bd bbda 4a3e
00000130: 75a6 073e 5053 8b3d b9ff 07bd 09b8 7abd
00000140: e613 27be 2281 9ebe 4162 a6bd 5677 5fbd
00000150: 717f 413e 848a b63d 4fc3 8f3d f2fb eb3d
00000160: 875c ccbd 8069 873d 7ecf e53d ae86 19bd
00000170: bad9 9f3c 405c d23c 6433 f4bd ff8f f1bd
00000180: 61a2 39bc 5bdd 253e ab0a 82bd 73b5 293e
00000190: 63b7 0e3e ebdb cd3d d3d5 b2bc 596f c9bd
000001a0: f8e8 9dbd 131c babc 81c9 16bd 7bfa 98bd
000001b0: 5f1a e9bd 843f cf3d bb82 2d3e bc14 32be
000001c0: 1812 e7bd f2ae eb3d 4441 c73c c411 1bbe
000001d0: 42bd 243e 2843 1bbc eaa2 87bd 3a70 6d3d
000001e0: f928 29be dbbf f4bd 30ff e8bc 4319 a43d
000001f0: 70a4 113d 685c efbd b103 38bd a2d3 cbbd
00000200: 6f3a f43c 695f 93bc f011 a93d 5423 ec3c
00000210: 1266 933d e5d8 d9bb 24e3 72bd 4250 27be
00000220: 897a cc3d 0daa 9fbc f5c6 b1bc 0f69 b93d
00000230: 07f3 20be f922 1bbe a7e1 13be 5f77 36be
00000240: 07a8 d1bc 7805 f1bd 51ec 833d 87fc b2bc
00000250: cfba 02be c986 bfbc a2dc 2ebe a072 c8bc
00000260: 55fb 04bd c082 c5bd f2a9 b03c 7d79 c6be
00000270: 8100 62be 216b adbd dddc d43d 9035 e33d
00000280: 12fd 883e 00d1 c0bd c664 b23d b3cb 1d3d
00000290: bf2f 8dbd 6c92 ae3c 636a 45be 3adc 11be
000002a0: 6ee0 90be 907f 843e 2e7e eb3b 5af8 cabc
000002b0: 20aa 5dbd 90a9 b4bd 9f35 283e 0835 debd
000002c0: a980 ae3b 2bf3 aebc 4bfc 26bd f66e 02be
000002d0: 0a2c ff3d c2d5 1c3d 19c8 0bbe 82cd 653e
000002e0: 5aaf 0a3c 7d0b 3d3d 9ff4 6ebd 0010 edbd
000002f0: 505d 30be 4857 4ebe 3066 b2bc ec45 6a3e
00000300: 029f e73d f2bd 0fbe 435f 913d 1239 d23d
00000310: 7dfd f2bd 36bd 4ebd 9947 05be 9a76 1d3e
00000320: 1247 3ebc c94d 81bd 1de6 f1bd 5fe6 31be
00000330: 8a75 36be d24c 4ebc 88a7 d53d f114 18be
00000340: 4d95 90bd 0cb5 253d cab4 643d 798e 833d
00000350: e454 113e d0a5 8f3e c4fe 69bd 32fe 8d3e
00000360: 7c27 d1bd 58c7 f4bd 038f 33be 72af b8bd
00000370: b6be d23d 6933 e8be f848 cabd d6d5 95bc
00000380: 58d9 70bd d6d5 1ebe e3cf 7cbd a2cf 28bd
00000390: 5c80 e7bc 9704 3ebe 5900 ee3d 04fc 3abd
000003a0: b10b 253d 0e91 62be c934 6d3e 4907 efbd
000003b0: 1e7e d8bd d87a de3d 140a 39bc 76d0 1abd
000003c0: 271f 123e 475d bf3d d399 443c 9221 b1bd
000003d0: 7050 f6bc 7e23 763e 7a83 35bc 88f9 58be
000003e0: 8a6f c03c de90 44be c035 20be 1829 613e
000003f0: 7931 b5bd c548 4ebe c783 5a3d 52f5 41be

layers.3.sequential.0.bias f4 [10]
-0.048256684 -0.061899524 0.0057046018 0.004092573 -0.0351938 0.039311696 -0.03791355 0.06924313
0.024841007 -0.036525007
00000000: cda8 45bd 5b8a 7dbd abed ba3b fe1a 863b
00000010: 6027 10bd 4d05 213d 3d4b 1bbd 58cf 8d3d
00000020: 5e7f cb3c 3f9b 15bd
