benchmark/ablation_mnistfc_tiny/onnx/mnistfc-tiny-net-250.onnx (onnx, 550968 bytes, 4 tensors)

layers.2.sequential.0.weight f4 [173, 784]
0	0x3c1d265d	0.009591666
1	0xbcf4daf2	-0.029889558
2	0xbd26bc69	-0.040707026
3	0x3bf42e4b	0.0074518076
4	0x3caf2906	0.021381866
5	0xbd12a033	-0.03579731
6	0xbce569f5	-0.028004626
7	0xbc8936b1	-0.016749712
8	0x3b740b0c	0.003723803
9	0x3caf44f0	0.021395177
10	0xbd06ea2d	-0.03293817
11	0xbbc5a24a	-0.0060313093
12	0xbcc18189	-0.023621337
13	0xbcd6b6dd	-0.026210243
14	0xbccb97dc	-0.024852686
15	0x3cb664ef	0.022264926
16	0x3c29f73c	0.010373887
17	0xbd105f2d	-0.035247017
18	0xbd219035	-0.039444167
19	0x3c283581	0.010266663
20	0x3ba4982a	0.005023022
21	0x3bc2e693	0.0059478967
22	0x3cb5e411	0.022203477
23	0x3c85cf0d	0.016334081
24	0xbd0a67bf	-0.033790346
25	0xbcbae968	-0.022816375
26	0xbc118532	-0.008881854
27	0xbd1e3725	-0.03862681
28	0x3c92aba4	0.01790411
29	0xbc3785b1	-0.011201308
30	0xbd21ef62	-0.039534934
31	0xbcc4d95d	-0.024029428
32	0x3c43344f	0.011914327
33	0x3cc862e8	0.024461225
34	0x3c0c2922	0.008554729
35	0xbcc355f1	-0.023844691
36	0xbcb7dc77	-0.022443993
37	0x3c87079e	0.016483124
38	0xbcbd8747	-0.023135794
39	0xbd084475	-0.03326841
40	0x3c8472f7	0.0161681
41	0x3c339f83	0.0109633235
42	0xbd00a830	-0.031410396
43	0xbd209197	-0.039201345
44	0xbcbd02ae	-0.023072567
45	0x3b9c7137	0.0047742384
46	0xbcb1b2c6	-0.021691691
47	0xbbfc68bc	-0.007702915
48	0xbd2c0ffa	-0.042007424
49	0x3cbbf578	0.022944197
50	0xbcb2fcbd	-0.02184903
51	0xbc4d3104	-0.012523893
52	0xbbfd86c3	-0.007737012
53	0x3c18772f	0.009305759
54	0xbd10a316	-0.03531178
55	0x3ca57e7e	0.020201918
56	0xbccab3c1	-0.024743916
57	0x3cbc9c3b	0.023023715
58	0xbc48851b	-0.012238766
59	0x3c21215b	0.009834613
60	0x3c1d3784	0.0095957555
61	0x3c15924f	0.009129121
62	0x3c606038	0.013694815
63	0xbc58a682	-0.013223292
64	0xba385191	-0.00070311973
65	0x3d034730	0.03205031
66	0x3c8d37a0	0.017238438
67	0x3c91e8f3	0.017811274
68	0x3d4f0dd9	0.050550316
69	0xbc0a85aa	-0.00845472
70	0x3d747382	0.05968047
71	0x3cca853d	0.024721736
72	0x3d76bae1	0.060236815
73	0x3ca9257f	0.020647762
74	0x3d2eda1e	0.04268848
75	0xbc50194c	-0.012701344
76	0xbb9f5d13	-0.0048633902
77	0xbcdc7c67	-0.026914788
78	0xbc0d7f40	-0.008636296
79	0x3c08b41e	0.0083437245
80	0x3b519d3a	0.0031984583
81	0x3c1d604a	0.009605477
82	0xbcd3aed1	-0.025840195
83	0x3c80fb55	0.015744844
84	0x3c47a62c	0.012185615
85	0xbd290e5c	-0.04127346
86	0x3cd867e4	0.026416726
87	0x3c327fa3	0.010894689
88	0xbcda522e	-0.026650514
89	0xbc76d74b	-0.015065978
90	0xbd14f475	-0.036365945
91	0x3c8f0626	0.017458986
92	0x3c9b31e1	0.018944683
93	0x3b2d14cd	0.0026410103
94	0x3cb6d8f6	0.022320252
95	0x3c7a1198	0.015262984
96	0x3d983e3d	0.07433746
97	0x3da5df26	0.08099203
98	0x3d269c64	0.04067649
99	0x3d1a242c	0.037632152
100	0x3d215970	0.039391935
101	0x3d36f4ce	0.044667058
102	0x3e122753	0.14272813
103	0x3de2bb96	0.110709354
104	0x3d3c013a	0.045899607
105	0x3bc99513	0.0061518042
106	0xbce03d4a	-0.027372975
107	0xbc02c82e	-0.007982297
108	0xbc2343aa	-0.009964863
109	0xbcec8a91	-0.028874667
110	0xbcd2abda	-0.02571671
111	0xbd2a36dd	-0.041556228
112	0x3be269f9	0.0069096056
113	0x3cc500f2	0.024048302
114	0xbc1ed2ea	-0.0096938405
115	0xbc30c5e2	-0.010789366
116	0xbcd18697	-0.025576873
117	0xbd06b367	-0.032885935
118	0x3c5a41d0	0.013321355
119	0x3d0ed91a	0.034875013
120	0x3cec895e	0.028874096
121	0x3d865e3c	0.065609425
122	0x3de041fd	0.10950086
123	0x3d8f9c9d	0.070122935
124	0x3bc9e319	0.0061611054
125	0xbdbd525b	-0.09244224
126	0xbe04bdce	-0.1296303
127	0xbdd50898	-0.1040203
128	0xba474cbd	-0.00076026825
129	0xbc6dfb53	-0.014525252
130	0x3d26508d	0.040604163
131	0x3a858f5d	0.001018982
132	0xbd641e7b	-0.05569313
133	0xbcdbbbba	-0.026822913
134	0xbd00af47	-0.031417158
135	0xbd0ed3ac	-0.034869835
136	0x3cd74a39	0.02628051
137	0xbbc97b66	-0.0061487434
138	0xbcfc4474	-0.03079436
139	0x3b02375c	0.0019869423
140	0x3c647e58	0.013946138
141	0xbcb31afa	-0.02186345
142	0xbbf55a9c	-0.007487608
143	0x3d07bae0	0.033137202
144	0xbc92de1e	-0.01792818
145	0x3d9aca16	0.07558076
146	0xbc980002	-0.018554691
147	0x3d2713ae	0.040790252
148	0x3d85127c	0.06497666
149	0x3cd9b911	0.026577504
150	0x3cd590fb	0.026070109
151	0x3d5eb3e2	0.05437077
152	0x3c7a7201	0.01528597
153	0xbd919db1	-0.071101554
154	0xbe188406	-0.14894113
155	0xbe8e5c89	-0.27804974
156	0xbe5d0a3a	-0.21585932
157	0xbe01c286	-0.12671861
158	0xbd5b7929	-0.053582344
159	0xbdcee65a	-0.1010253
160	0xbda44c0a	-0.08022316
161	0xbdba3f87	-0.09094148
162	0xbd849fcc	-0.06475791
163	0xbcc81653	-0.024424708
164	0x3b0f9be5	0.0021912989
165	0x3cdc8084	0.02691675
166	0x3d2708ac	0.040779755
167	0xbd25bf85	-0.04046585
168	0x3c998d23	0.018744057
169	0x3c1d2092	0.009590285
170	0x3b279305	0.0025569808
171	0x3d74c121	0.059754495
172	0x3cb4a760	0.022052467
173	0x3d809938	0.06279224
174	0xbcb1ca0e	-0.021702792
175	0xbcf2f949	-0.029659884
176	0x3c89052e	0.016726103
177	0xbc432ce9	-0.011912563
178	0x3c0c6ea7	0.008571303
179	0xbcfaba2b	-0.03060635
180	0x3c447b43	0.0119922785
181	0x3dccb66d	0.099957325
182	0x3dd05e8a	0.10174282
183	0x3dfcc057	0.123413734
184	0x3dcb956e	0.09940611
185	0x3e044e4e	0.12920496
186	0x3dca0c6e	0.09865652
187	0xbc49029f	-0.012268691
188	0xbd86972b	-0.06571802
189	0xbd846604	-0.064647704
190	0xbe100aee	-0.1406667
191	0xbd6850da	-0.05671773
192	0x3cb984db	0.022646358
193	0x3d84691d	0.06465361
194	0xbca040aa	-0.019562084
195	0xbcedbcb1	-0.02902064
196	0xbbce9420	-0.006304279
197	0x3c86ecf5	0.016470412
198	0x3aad7051	0.0013232325
199	0x3c9fcd0c	0.019506954
200	0xbd1ac0d2	-0.037781544
201	0x3d1fa6a2	0.038977273
202	0xbb74f5f5	-0.0037378047
203	0x3d39c6b4	0.045355514
204	0x3d82eb74	0.06392565
205	0x3cc1c97f	0.023655651
206	0x3cd8538c	0.026407026
207	0x3cb7c2fe	0.022431847
208	0x3dfb0c62	0.12258221
209	0x3e037a97	0.12839733
210	0x3e4adec1	0.19811536
211	0x3e60c0a3	0.21948485
212	0x3e3d8e4f	0.18511318
213	0x3e1afc44	0.15135294
214	0x3e3127a4	0.17300278
215	0x3df087bf	0.117446415
216	0x3e2d2751	0.1690953
217	0x3e0756b7	0.13216673
218	0x3d6e144d	0.05812483
219	0x3d835c49	0.06414086
220	0x3dd4865b	0.10377189
221	0x3e2118af	0.15732072
222	0x3cbbca1e	0.022923525
223	0x3cfa1079	0.030525433
224	0xbbbbd174	-0.005731756
225	0xbd2281c7	-0.039674547
226	0xbc79d096	-0.015247485
227	0x3be195bf	0.006884306
228	0xbb0a6cfd	-0.002112209
229	0x3da643fa	0.08118434
230	0x3d98ddff	0.074642174
231	0x3d164c72	0.036693998
232	0x3d8d237f	0.06891536
233	0x3d47c9c3	0.0487764
234	0x3d99afa4	0.07504204
235	0x3de3b337	0.11118167
236	0x3df81331	0.121130355
237	0x3e16713a	0.1469163
238	0x3e93faaa	0.2890218
239	0x3e89b481	0.26895526
240	0x3e767f9c	0.24072117
241	0x3e2e9d38	0.17052162
242	0x3e510dcc	0.2041542
243	0x3dbe9d76	0.09307377
244	0x3e0ae376	0.13563332
245	0x3dfbc8b2	0.12294139
246	0x3e1456fd	0.14486308
247	0x3d022f82	0.03178359
248	0x3d26b6c1	0.04070163
249	0x3dc00a90	0.09377015
250	0x3bdecf13	0.0067995875
251	0x3c31efa4	0.010860357
252	0xbc0363f4	-0.008019436
253	0xbc127a73	-0.008940327
254	0xbc7f1fd4	-0.015571553
255	0x3c625acc	0.013815593

layers.2.sequential.0.bias f4 [173]
0	0xbb9375c7	-0.004500124
1	0xbc6d32de	-0.01447746
2	0xbc1f62f5	-0.009728183
3	0x3d27fedf	0.04101455
4	0x3d78fe92	0.060789652
5	0x3cc4c696	0.024020474
6	0x3c3bf82c	0.011472743
7	0x3bd64a02	0.006539584
8	0xbd2e0e78	-0.042494267
9	0xbcdaa5fd	-0.026690478
10	0x3ab9be0b	0.0014171017
11	0x3be41597	0.0069605815
12	0xbb87577d	-0.0041303025
13	0x3b520e9e	0.003205217
14	0xbc6f6347	-0.014611072
15	0x3cebb9ea	0.028775174
16	0x3cf48fab	0.029853662
17	0xbd27cb0e	-0.040965132
18	0x3bcd4c4b	0.0062651983
19	0x3c3af609	0.011411198
20	0xbd13e4f5	-0.036107022
21	0x3d468eb1	0.048475925
22	0x3c9195ab	0.017771563
23	0x3d1493b0	0.03627366
24	0xba7294f2	-0.0009253762
25	0x3d0086eb	0.031378668
26	0xbd1d3797	-0.038383093
27	0x3c4f12da	0.012638772
28	0xbc8a23d6	-0.016862791
29	0xbc2290ad	-0.009922189
30	0x3c9d62a0	0.019212067
31	0xbc3b5637	-0.011434129
32	0x3c9deaa7	0.01927693
33	0xbc143aa7	-0.009047187
34	0xbd87663e	-0.06611298
35	0xbb34dcef	-0.0027597507
36	0x3d6fa684	0.05850841
37	0x3d0d5977	0.03450915
38	0x3cf25855	0.029583136
39	0x3c9151d2	0.01773921
40	0xbd1d622a	-0.038423695
41	0xbbeaa1c2	-0.0071603963
42	0xbcc58fef	-0.024116484
43	0xbdb4ee3d	-0.08834503
44	0x3d433f6a	0.0476679
45	0xbc87f508	-0.016596332
46	0xbceccb37	-0.028905494
47	0xba16c09e	-0.0005750748
48	0x3c6c2ffc	0.014415737
49	0x3d3cfb1d	0.046137918
50	0xbd180fe5	-0.037124533
51	0xbc892961	-0.016743364
52	0x3d28ed23	0.041241776
53	0xbcf1088e	-0.029423025
54	0xbc48f116	-0.012264511
55	0xbcad98a9	-0.021190958
56	0x3bce0298	0.0062869303
57	0xbd65d535	-0.056111533
58	0x3d35712a	0.044297375
59	0x3c2a2865	0.010385607
60	0xba551e3e	-0.00081298116
61	0x3bb70a61	0.005585954
62	0x3d238582	0.039922245
63	0xbced98a5	-0.02900345
64	0x3cafbeaa	0.02145322
65	0x3d36dd8c	0.044644877
66	0x3cef0e1c	0.029181533
67	0xbd1c11a2	-0.038102753
68	0x3b163378	0.0022918861
69	0xbd1303f9	-0.03589246
70	0xbc659bdf	-0.014014213
71	0x3cb95e3c	0.022627942
72	0x3cc48991	0.023991378
73	0xbc980639	-0.018557655
74	0x3cb5365f	0.022120653
75	0xbcfff480	-0.031244516
76	0x3d484bb3	0.048900317
77	0xbd1885f2	-0.037237115
78	0x3c2c4564	0.010514591
79	0x3d8033ff	0.062599175
80	0x3c88a852	0.016681824
81	0x3d0d5bd4	0.034511402
82	0x3d2aae75	0.04167028
83	0xbc598631	-0.013276623
84	0xbc8efc51	-0.017454298
85	0x3b92f6a2	0.0044849673
86	0xbbc7fb0c	-0.006102925
87	0xbc0612b7	-0.008183173
88	0x3d77d203	0.060503017
89	0xbccf84c3	-0.02533186
90	0x3b392feb	0.002825732
91	0x3bf5be6b	0.007499506
92	0xba390213	-0.0007057499
93	0xbca4310a	-0.020042915
94	0xbd1c5941	-0.038171057
95	0xbcb3dfa4	-0.021957226
96	0xbc1f97aa	-0.009740749
97	0xba806bbc	-0.0009797732
98	0xbcec2cea	-0.02883001
99	0xbd476f32	-0.04869003
100	0xbcef074a	-0.02917828
101	0x3d1a11f9	0.037614796
102	0x3cfcb4b5	0.030847887
103	0x3c1b4c84	0.009478692
104	0x3b3008f9	0.0026860817
105	0x3d499baf	0.049220737
106	0x3c5122bf	0.012764632
107	0x3ab8b81b	0.0014092954
108	0x3ce5132a	0.02796324
109	0xbd0d4b6c	-0.034495756
110	0x3d7c057a	0.06152866
111	0xbcb90d8e	-0.022589471
112	0xbd3140da	-0.043274738
113	0xbca6dae6	-0.02036805
114	0x3a1c5e4e	0.000596498
115	0x3ca3b89a	0.019985486
116	0x3bfc9c75	0.007709081
117	0xbd35cfdf	-0.044387694
118	0xbc8b5531	-0.017008396
119	0xbd52a4b0	-0.05142659
120	0xbcb9dffc	-0.022689812
121	0xbc4e9d07	-0.01261068
122	0xbb1a3e69	-0.0023535735
123	0x3c24c5ec	0.010056954
124	0xbdbe731f	-0.09299301
125	0x3cfcf9cb	0.03088083
126	0xbca50155	-0.020142237
127	0x3c9f6127	0.019455506
128	0xbd3dfd00	-0.046383858
129	0x3c20b954	0.009809811
130	0x3c834370	0.016023368
131	0x3c7ea636	0.015542557
132	0x3b17322e	0.002307068
133	0x3d5ac0d4	0.05340655
134	0x3b968c88	0.0045943893
135	0x3c0bc3a2	0.008530529
136	0xbcc6559d	-0.024210745
137	0xbcd86726	-0.026416373
138	0xbcbd2a81	-0.023091557
139	0x3d260bf5	0.040538747
140	0xbb14c5a4	-0.002270081
141	0x3c9b6b18	0.018971965
142	0xbc3c57e4	-0.011495564
143	0x3d17b967	0.037042048
144	0xbb4bc518	-0.0031092819
145	0xbc355d31	-0.011069582
146	0x3cfc0322	0.030763213
147	0x3b432e4b	0.0029782231
148	0x3d4c0775	0.0498118
149	0x3a91b29a	0.001111585
150	0xbcb3555c	-0.021891288
151	0x3c68c2a8	0.014206566
152	0xbcc87130	-0.024468035
153	0x3cc9d042	0.024635438
154	0xbd2f44f1	-0.042790357
155	0xbc314660	-0.010820001
156	0xbd1e6aac	-0.03867595
157	0xbc5b91e5	-0.013401483
158	0x3d745503	0.059651386
159	0xbc9f909a	-0.019478131
160	0x3c3cc681	0.011521936
161	0x3d4bd013	0.049758982
162	0xbb116269	-0.0022183901
163	0xbd223047	-0.039596822
164	0xbd00ac86	-0.03141453
165	0xbc9cd9cb	-0.01914682
166	0xbc03b0b7	-0.008037738
167	0xbcc98abe	-0.02460229
168	0x3da4a683	0.08039572
169	0xbc29712a	-0.010341922
170	0x3dfcdd5e	0.1234691
171	0xbc206879	-0.009790533
172	0x3b9032ee	0.0044006025

layers.3.sequential.0.weight f4 [10, 173]
0	0xbe466509	-0.1937448
1	0x3e203583	0.15645413
2	0xbd32f8c4	-0.043694273
3	0x3de754ea	0.11295493
4	0x3d97867f	0.073987
5	0xbdb714e3	-0.08939531
6	0xbdf9b044	-0.12191823
7	0xbe1bfb1a	-0.15232506
8	0xbc664828	-0.014055289
9	0x3e475af5	0.19468291
10	0x3d520550	0.051274598
11	0xbe05d384	-0.13068968
12	0xbce41900	-0.027843952
13	0xbe01b9e9	-0.12668575
14	0x3d9b9c14	0.07598129
15	0xbdc6c007	-0.09704595
16	0x3d93d76b	0.07218822
17	0x3cc6e667	0.024279786
18	0xbe8bfc1f	-0.2734079
19	0x3e2cd791	0.16879107
20	0x3caba253	0.020951426
21	0x3e060971	0.13089539
22	0xbd8a29b9	-0.06746239
23	0xbe47028b	-0.19434564
24	0x3d897d7f	0.067133896
25	0xbe218c49	-0.15776171
26	0xbd2b6f37	-0.04185411
27	0xbd3a6449	-0.045505796
28	0x3e27a78f	0.16372512
29	0xbe1c36ff	-0.15255354
30	0xbc16f327	-0.0092132455
31	0x3dc96b20	0.098348856
32	0xbe6656a6	-0.22493991
33	0x3b47f165	0.0030508873
34	0xbc37dea0	-0.0112225115
35	0x3e32b40d	0.17451496
36	0xbd8bd046	-0.068268344
37	0xbdce023f	-0.10059022
38	0x3e102b52	0.14079025
39	0xbdfbfb5b	-0.123038016
40	0xbdd69a46	-0.10478644
41	0xbe2d98d5	-0.16952832
42	0xbe02cab2	-0.12772635
43	0xbdd84b35	-0.105612196
44	0x3e201106	0.15631494
45	0x3d17a1ee	0.037019663
46	0xbc9c4479	-0.019075619
47	0x3decfdc6	0.11571841
48	0xbd6c20fa	-0.057648636
49	0xbe7cde08	-0.24694073
50	0x3de7df58	0.11321896
51	0xbe07d05b	-0.13263075
52	0x3c8ea680	0.017413378
53	0xbe1fb663	-0.15596919
54	0xbe52a310	-0.20570016
55	0xbdd7722c	-0.105198234
56	0xbd4dab91	-0.050212447
57	0xbe02bb92	-0.12766865
58	0x3e1e1650	0.15438199
59	0xbc2f2dc7	-0.0106920665
60	0x3e2a13e7	0.16609155
61	0xbd3d33a3	-0.046191823
62	0x3d855381	0.06510068
63	0xbc818021	-0.015808167
64	0xbe0660e4	-0.13122898
65	0xbe05b460	-0.13057089
66	0x3e0cc3f9	0.13746633
67	0x3dd565a5	0.10419778
68	0x3d61bc77	0.055111375
69	0xbe44c19d	-0.19214483
70	0xbd6d21c6	-0.057893537
71	0x3e31367d	0.17305942
72	0xbe79499e	-0.24344489
73	0xbdc1fdaf	-0.094722144
74	0xbd8205e5	-0.063487805
75	0x3e01d997	0.1268066
76	0x3b48b9e6	0.0030628382
77	0xbd85483c	-0.06507918
78	0xbdcce7fb	-0.10005184
79	0x3cf50d82	0.029913668
80	0x3e0a1c82	0.13487437
81	0xbe10f511	-0.14155985
82	0x3e16ae57	0.14714943
83	0xbdc97fd9	-0.09838838
84	0xbd8a0163	-0.06738546
85	0x3dc3e21d	0.09564612
86	0xbc8baf86	-0.01705147
87	0x3da11c2f	0.07866704
88	0xbe4e61fe	-0.20154569
89	0xbccf5a86	-0.02531172
90	0x3ce5bb98	0.028043553
91	0x3e5820ff	0.21106337
92	0xbdfd13d1	-0.12357295
93	0xbc24b3f2	-0.010052668
94	0x3d3ca106	0.046052
95	0x3d8f98aa	0.0701154
96	0x3d81c7cc	0.06336936
97	0xbe7889c2	-0.242713
98	0xbddf8023	-0.10913112
99	0xbdb85f63	-0.090025686
100	0xbc85f451	-0.01635185
101	0xbe76bc5f	-0.24095295
102	0xbe121aef	-0.14268087
103	0xbd05e50f	-0.03268915
104	0xbcdb7e89	-0.026793735
105	0xbe0abf4d	-0.13549538
106	0x3ddf1599	0.10892791
107	0x3b017311	0.0019752423
108	0xbbb6e7d2	-0.0055818344
109	0xbc8e9f0c	-0.017409824
110	0xbe57d995	-0.21079095
111	0x3c9b4bcc	0.018957041
112	0xbd93b38a	-0.07211979
113	0x3d5608b2	0.052254386
114	0xbe1fb4f5	-0.15596373
115	0xbd293c7c	-0.041317448
116	0x3d91dc96	0.071221516
117	0x3ba7762a	0.005110522
118	0xbd8df64e	-0.069317445
119	0x3dc2a84c	0.09504756
120	0x3e31a52b	0.17348163
121	0xbe2ff88f	-0.17184661
122	0x3c322c24	0.010874782
123	0xbccfd2b2	-0.025369022
124	0xbcdea4c5	-0.027178178
125	0x3dfebe29	0.12438614
126	0xbdc68890	-0.09694016
127	0xbd0e27c0	-0.034705877
128	0x3e908702	0.28228003
129	0xbd5a90e8	-0.05336085
130	0xbd2f5da0	-0.042813897
131	0x3bbc3de4	0.0057446826
132	0xbdc4c969	-0.096087284
133	0xbe8bced5	-0.27306238
134	0xbdfe4b2e	-0.12416683
135	0xbdea3991	-0.11436761
136	0xbd40d0ce	-0.04707413
137	0x3e1c0c3f	0.15239047
138	0xbdb7f42f	-0.08982121
139	0x3dec5f7e	0.11541651
140	0xbd0a7add	-0.033808578
141	0x3d32f27e	0.04368829
142	0x39a93894	0.00032276346
143	0x3e090aef	0.13383077
144	0x3e106238	0.14099967
145	0x3d022fed	0.031783987
146	0xbe4f7b4e	-0.20261881
147	0x3e4f63d6	0.20252928
148	0x3e912210	0.283463
149	0xbc41fa2f	-0.011839434
150	0xbd7f103e	-0.06227135
151	0x3e0b63c6	0.1361228
152	0xbbb614b0	-0.0055566654
153	0x3dff2c1e	0.124595866
154	0xbd3d29c3	-0.046182405
155	0xbc85a197	-0.016312404
156	0xbd39a82d	-0.0453264
157	0xbb3fdff0	-0.0029277764
158	0xbe0cbf30	-0.13744807
159	0x3c996974	0.018727042
160	0xbdcc951a	-0.09989376
161	0xbe01d00f	-0.12677024
162	0xbcc30f8b	-0.023811122
163	0xbe4b78d3	-0.1987031
164	0x3df51c20	0.11968255
165	0xbdb256a4	-0.08707932
166	0xbdb1d4bf	-0.08683156
167	0x3d4a9854	0.049461678
168	0xbceeb0bc	-0.029137008
169	0x3e00784c	0.1254589
170	0xbe5c2309	-0.2149774
171	0xbd0cff82	-0.03442336
172	0xbd0afdc2	-0.03393341
173	0xbe19a212	-0.15003231
174	0xbdf6f965	-0.12059287
175	0xbe54e7ff	-0.20791624
176	0x3d4ff5f8	0.050771683
177	0xbe09f325	-0.13471659
178	0x3dc6d741	0.09709025
179	0x3cc91ec6	0.024550807
180	0x3e0ee804	0.13955694
181	0xbd134d55	-0.03596242
182	0xbe9d1af3	-0.30684623
183	0x3d29ba21	0.041437272
184	0xbd22ef20	-0.03977883
185	0xbc8af9b8	-0.016964778
186	0x3d654cfd	0.055981625
187	0x3d65750f	0.05601984
188	0x3e2940b5	0.1652859
189	0xbd0265db	-0.03183542
190	0xbd2d220f	-0.04226881
191	0x3e03a0a7	0.12854253
192	0xbdd122ea	-0.102117375
193	0xbc759ed4	-0.014991481
194	0xbdd368f3	-0.10322752
195	0xbd83508d	-0.06411848
196	0xbd9825d2	-0.07429089
197	0x3e8f80b9	0.28027895
198	0xbcbf8e7e	-0.023383375
199	0x3dff63f9	0.1247024
200	0xbcea61aa	-0.028611023
201	0x3e2cb4f2	0.168659
202	0xbe7a3ef3	-0.24438076
203	0xbde9c5b3	-0.11414661
204	0x3d34f458	0.044178337
205	0xbe041a27	-0.12900601
206	0xbd07a381	-0.033114914
207	0x3e03cb69	0.12870564
208	0xbdb4d43a	-0.088295415
209	0xbdb6182e	-0.08891331
210	0x3c139c4b	0.009009431
211	0xbe4ab7f7	-0.1979674
212	0xbe1299a9	-0.14316429
213	0x3ddf164b	0.10892924
214	0x3dd14f9e	0.10220264
215	0xbe1f2371	-0.15540864
216	0x3e63259d	0.22182317
217	0xbdd05fc8	-0.10174519
218	0x3eb9eab0	0.36311865
219	0xbd80ad4e	-0.06283055
220	0xbe358238	-0.17725456
221	0xbe02c653	-0.12770967
222	0xbdbf926b	-0.09354099
223	0xbebeacac	-0.37241113
224	0xbe2c1a74	-0.16806966
225	0xbbc89cce	-0.006122208
226	0x3da90554	0.082529694
227	0xbd8ad2c4	-0.067784816
228	0xbde0aca3	-0.10970428
229	0xbd7d45ae	-0.06183403
230	0xbe1d202d	-0.15344305
231	0xbe14b695	-0.14522775
232	0xbc9a7b91	-0.01885775
233	0x3e2b6f2f	0.16741632
234	0x3e448a4a	0.19193378
235	0xbde57d18	-0.112055
236	0x3dd285a2	0.10279395
237	0x3d757f5e	0.05993592
238	0xbdf88de2	-0.12136437
239	0xbe0d4ddf	-0.13799237
240	0xbdf94770	-0.12171829
241	0x3e09289a	0.13394395
242	0x3e2fc099	0.17163314
243	0xbe04b9ad	-0.12961455
244	0x3d193087	0.037399795
245	0x3deacba7	0.11464625
246	0xbe2ed745	-0.17074306
247	0x3bed04a5	0.0072332197
248	0xbd4d8033	-0.05017109
249	0xbde986e7	-0.11402684
250	0xbcbefdde	-0.023314413
251	0x3dbe978b	0.09306248
252	0x3d3f6520	0.0467273
253	0xbe00564b	-0.12532918
254	0x3ce5cb79	0.028051125
255	0xbe49164c	-0.19637412

layers.3.sequential.0.bias f4 [10]
0	0x3ce0f61e	0.027461108
1	0xbbc6c344	-0.006065758
2	0x3bcf4a46	0.0063259928
3	0xbd6ab67d	-0.05730294
4	0x3bd77978	0.0065757595
5	0x3d7f0590	0.062261164
6	0xbd63d4f1	-0.055623
7	0x3de4272e	0.111402854
8	0xbd4ec49e	-0.050480478
9	0x3d02eadd	0.031962264
