benchmark/ablation_mnistfc_tiny/onnx/mnistfc-tiny-net-15.onnx (onnx, 108235 bytes, 10 tensors)

layers.2.sequential.0.weight f4 [30, 784]
-0.0782575 -0.04774045 -0.0425282 -0.048359018 -0.026810683 -0.053499214 -0.0721668 -0.07270896
-0.0744237 -0.052408528 -0.038149156 -0.03062832 -0.08225262 -0.08058998 -0.044739842 -0.06696414
-0.06560518 -0.045871213 -0.03214669 -0.09487658 -0.0767011 -0.049757052 -0.052947976 -0.08777422
-0.027252216 -0.044658925 -0.088812366 -0.09702483 -0.07936023 -0.07041344 -0.051833525 -0.09499746
-0.03723743 -0.06623906 -0.0807534 -0.052757535 -0.06927415 -0.04339603 -0.051139724 -0.06904835
-0.010752061 -0.027534373 -0.044967454 -0.0645583 -0.027214386 -0.080371656 -0.073841885 -0.020026708
-0.08639886 -0.021484336 -0.034789287 -0.06276585 -0.065611236 -0.032314178 -0.042570174 -0.035438426
-0.04503455 -0.06571874 -0.08482005 -0.032460216 -0.07061788 -0.056841876 -0.07913936 -0.033707507
-0.02311638 0.031033233 -0.010859469 0.03922525 0.010830505 0.059180666 0.04432846 -0.021916678
-0.019645149 0.06968216 0.031222736 0.037683252 0.03894505 -0.02489882 -0.0488357 -0.07694504
-0.05976944 -0.08421632 -0.081035405 -0.035793643 -0.09540738 -0.026761811 -0.060266037 -0.04299263
-0.037624273 -0.043460496 0.0076602404 -0.0060064723 0.0907744 0.08997145 0.1380893 0.18112135
0.26868024 0.29917473 0.2706688 0.28087127 0.1971993 0.16152805 0.2541535 0.2663142
0.22790316 0.1142011 0.1026878 0.039624386 -0.059718486 -0.025111357 -0.05419245 -0.044284537
-0.09653861 -0.05673583 -0.06461824 -0.07483316 -0.06912855 -0.03047778 0.032486573 0.09714793
0.2131608 0.23446567 0.19148631 0.23820704 0.21928245 0.09564658 0.021219458 -0.0141023565
-0.008231946 0.043979976 0.07756403 0.020279761 -0.006361449 -0.025511986 0.0068065017 -0.018976972
-0.03059426 -0.018341267 -0.04373518 -0.044468682 -0.0772147 -0.044515442 -0.06031649 -0.043136384
-0.032443613 0.05900741 0.15448739 0.1624948 0.15531364 0.21121585 0.10689436 0.05017099
-0.021855205 -0.07572395 -0.02629301 -0.021312475 0.078584656 0.070319936 0.057872567 0.021927036
-0.028463377 -0.14111643 -0.04293621 -0.042899355 -0.12591746 -0.08170776 -0.03662631 -0.08865138
-0.08305829 -0.09615068 -0.03479253 -0.057166275 0.029800959 0.07385757 0.09800209 0.009646987
-0.065980844 -0.08512396 -0.09898664 -0.2290285 -0.1523415 -0.089664474 -0.024513042 0.036810115
0.08717541 0.037198607 -0.081220984 -0.14688168 -0.12812 -0.11198427 -0.07712193 -0.056457546
-0.079414755 -0.08648656 -0.04429936 -0.047608268 -0.056689613 -0.08655122 -0.078810304 -0.01998191
0.010088349 -0.05802764 -0.14475453 -0.26565453 -0.26219365 -0.28811705 -0.21035914 -0.22562413
-0.09649582 -0.024891632 0.03313218 0.07467945 0.058306206 0.004747261 -0.16266003 -0.16354395
-0.16350448 -0.17277172 -0.13599114 -0.13703926 -0.14373271 -0.10849715 -0.033875894 -0.07424313
-0.06548225 -0.03850613 -0.1011116 -0.094159044 -0.07780791 -0.051090315 -0.1419722 -0.27172777
-0.21622291 -0.18152615 -0.028897049 -0.084683314 -0.111526184 -0.07512618 -0.01579786 -0.020793006
-0.06062303 -0.08402048 -0.17661305 -0.14948067 -0.12129349 -0.035095997 -0.099707276 -0.24396716
-0.2804267 -0.1710297 -0.0336731 -0.0284907 -0.069761984 -0.050246626 -0.13525663 -0.1605148
00000000: 7845 a0bd 7d8b 43bd 0d32 2ebd 1b14 46bd
00000010: 14a2 dbbc fe21 5bbd 30cc 93bd 6fe8 94bd
00000020: 746b 98bd 53aa 56bd 4a42 1cbd 3ee8 fabc
00000030: 1074 a8bd 5c0c a5bd 2041 37bd 7f24 89bd
00000040: 025c 86bd 74e3 3bbd 3fac 03bd a74e c2bd
00000050: 7715 9dbd 0dce 4bbd fadf 58bd f8c2 b3bd
00000060: 0a40 dfbc 47ec 36bd 42e3 b5bd f4b4 c6bd
00000070: 9e87 a2bd ec34 90bd 644f 54bd 078e c2bd
00000080: 4786 18bd 58a8 87bd 0a62 a5bd 4918 58bd
00000090: 9bdf 8dbd 09c0 31bd e377 51bd 3969 8dbd
000000a0: 6a29 30bc c48f e1bc cb2f 38bd 2437 84bd
000000b0: b4f0 debc e599 a4bd 6a3a 97bd 0d0f a4bc
000000c0: e3f1 b0bd ebff afbc 367f 0ebd 628b 80bd
000000d0: 2f5f 86bd df5b 04bd 105e 2ebd e227 11bd
000000e0: 2676 38bd 8c97 86bd 22b6 adbd 01f5 04bd
000000f0: 1ba0 90bd 07d3 68bd d113 a2bd e210 0abd
00000100: 905e bdbc 6839 fe3c eaeb 31bc a8aa 203d
00000110: 6e72 313c 6d67 723d c291 353d 9b8a b3bc
00000120: ddee a0bc 85b5 8e3d d3c6 ff3c c159 1a3d
00000130: d884 1f3d 9cf8 cbbc f107 48bd 5c95 9dbd
00000140: cdd0 74bd 9b79 acbd e4f5 a5bd 5b9c 12bd
00000150: f264 c3bd 963b dbbc 85d9 76bd 0a19 30bd
00000160: e91b 1abd a203 32bd c102 fb3b f1d1 c4bb
00000170: eee7 b93d f442 b83d 4867 0d3e e077 393e
00000180: 7590 893e 6e2d 993e 1a95 8a3e 5cce 8f3e
00000190: 9dee 493e 9c67 253e 6820 823e 565a 883e
000001a0: 725f 693e 44e2 e93d fb4d d23d 2e4d 223d
000001b0: 5f9b 74bd 55b6 cdbc e7f8 5dbd b463 35bd
000001c0: 09b6 c5bd d463 68bd 9156 84bd 2142 99bd
000001d0: 4593 8dbd 8aac f9bc a410 053d 7ef5 c63d
000001e0: d346 5a3e c517 703e fd14 443e 8cec 733e
000001f0: 948b 603e 5be2 c33d 6ed4 ad3c 920d 67bc
00000200: 49df 06bc 5924 343d e4d9 9e3d be21 a63c
00000210: b473 d0bb 83fe d0bc 1309 df3b 9875 9bbc
00000220: d0a0 fabc 6d40 96bc a923 33bd cb24 36bd
00000230: be22 9ebd d355 36bd 6c0e 77bd c7af 30bd
00000240: 98e3 04bd c1b1 713d f131 1e3e 0965 263e
00000250: 8a0a 1f3e f848 583e 6eeb da3d 1980 4d3d
00000260: b009 b3bc 2915 9bbd 7064 d7bc 8097 aebc
00000270: fef0 a03d e603 903d c90b 6d3d 54a0 b33c
00000280: 072c e9bc d380 10be e1dd 2fbd 3cb7 2fbd
00000290: 82f0 00be 6656 a7bd 7805 16bd db8e b5bd
000002a0: 771a aabd a6ea c4bd 9d82 0ebd 2f27 6abd
000002b0: 2421 f43c a342 973d 52b5 c83d 650e 1e3c
000002c0: f720 87bd 7955 aebd 82b9 cabd 7286 6abe
000002d0: 69ff 1bbe 02a2 b7bd 93cf c8bc 34c6 163d
000002e0: 0589 b23d 915d 183d 3057 a6bd 2768 16be
000002f0: e431 03be 0258 e5bd 1af2 9dbd 0740 67bd
00000300: 34a4 a2bd de1f b1bd 3f73 35bd e300 43bd
00000310: 5e33 68bd c441 b1bd 4c67 a1bd 1ab1 a3bc
00000320: 9a49 253c 64ae 6dbd 883a 14be df03 88be
00000330: 3f3e 86be 1484 93be 6368 57be 030a 67be
00000340: 9a9f c5bd 89e9 cbbc 9cb5 073d 8af1 983d
00000350: 7dd2 6e3d e98e 9b3b 5a90 26be 1178 27be
00000360: b86d 27be 12eb 30be 4341 0bbe 0554 0cbe
00000370: ab2e 13be c133 debd 73c1 0abd c80c 98bd
00000380: 8f1b 86bd 9bb8 1dbd 9913 cfbd 75d6 c0bd
00000390: c159 9fbd 1444 51bd 2961 11be e71f 8bbe
000003a0: 8a69 5dbe fee1 39be 81b9 ecbc 726e adbd
000003b0: d767 e4bd c1db 99bd 846a 81bc 1856 aabc
000003c0: db4f 78bd ee12 acbd 0dda 34be 7611 19be
000003d0: b968 f8bd d2c0 0fbd 5433 ccbd 87d2 79be
000003e0: 1794 8fbe 6922 2fbe ceec 09bd 5465 e9bc
000003f0: 5fdf 8ebd 68cf 4dbd b780 0abe fe5d 24be

layers.2.sequential.0.bias f4 [30]
0.09685266 -0.043801647 0.10984047 0.008053087 -0.013150215 0.04830862 -0.026435114 0.00364932
0.123556264 0.0087886 0.035861757 0.009501464 0.0051126764 0.04964221 0.004397377 0.011839739
0.0040926696 0.077461 0.013786507 0.03498859 0.023318714 0.017470112 -0.005707984 0.012779361
0.09540155 0.061084826 -0.020329576 0.058124077 0.03944647 0.008416387
00000000: b05a c63d 5b69 33bd 0af4 e03d 18f1 033c
00000010: 0074 57bc 42df 453d 748e d8bc 6e29 6f3b
00000020: 110b fd3d 0ffe 0f3c c7e3 123d 07ac 1b3c
00000030: 3d88 a73b a155 4b3d df17 903b 77fb 413c
00000040: cd1b 863b dfa3 9e3d cde0 613c 3250 0f3d
00000050: e306 bf3c 7b1d 8f3c 0a0a bbbb 8660 513c
00000060: e361 c33d 1534 7a3d 368a a6bc 8313 6e3d
00000070: 9f92 213d e3e4 093c

layers.3.sequential.0.weight f4 [30, 30]
0.20058405 0.28637144 0.05891949 -0.023751767 -0.17698267 0.28115094 0.39009297 -0.02552749
0.29617384 -0.09788862 0.095060416 0.02282802 -0.059721943 -0.008888595 0.08597486 -0.10251834
0.2217993 -0.1585684 -0.25371498 -0.2544004 0.1358947 -0.08093752 -0.014360614 -0.106817774
-0.15998496 0.13395895 -0.0066201664 -0.19469896 0.04565036 -0.004595974 -0.024902148 0.3182727
-0.042039484 0.100758955 0.4168188 0.25768661 -0.29958597 0.033613537 0.19151177 0.23009838
-0.1448458 0.04283112 -0.050375648 -0.10279735 0.06714587 0.09338835 -0.34299833 -0.14358902
-0.09782636 0.20615803 0.11462835 -0.3624575 0.088636875 0.17200284 -0.32559976 -0.31931093
0.13781083 0.002522474 0.2688081 0.17259438 0.007070559 -0.33613965 0.2621729 -0.028908119
-0.013444717 -0.103299275 0.13726191 -0.17879078 0.26829714 0.13329546 -0.057355333 0.0819462
-0.14934385 -0.16569072 0.09326876 0.0038458498 0.15843762 0.028438333 0.28793794 -0.04373237
-0.30178267 0.021927852 -0.032124978 -0.17555271 0.25121784 -0.0059658512 -0.07842202 0.25378716
0.11080349 -0.13045312 -0.040186677 0.2270755 -0.18379132 0.16287404 0.15311767 0.3866747
0.16779095 0.03710389 0.041970562 -0.15864986 0.13550325 -0.046103876 -0.0036794832 0.21078461
-0.021020608 0.03882512 0.035833705 -0.071697034 -0.35626823 -0.28096378 0.29124138 0.18181847
0.04839751 0.10213236 -0.2342635 -0.08848153 -0.037460223 -0.116242014 0.18944483 0.10255568
0.22379476 0.0025882463 -0.42672026 0.04605677 0.37213776 -0.009894546 -0.36142242 -0.1169004
0.10137324 0.12092278 -0.33795527 -0.13077937 -0.1705494 0.3033105 0.044109304 -0.03863523
0.07357388 -0.05703779 0.42659083 -0.021690222 -0.047670823 0.2675146 -0.071677856 -0.15598209
-0.04227874 -0.10274157 -0.02781927 0.2350137 0.13232933 0.048276227 0.06932657 0.22120331
0.08732959 0.07689547 -0.13505477 -0.012132112 -0.31935355 0.11116852 -0.11181691 0.045710627
0.2506871 -0.072242334 0.042796303 0.09203289 -0.072710276 -0.14510128 0.26372153 0.2118755
0.19944967 0.2792083 0.10579365 0.35486388 0.03506294 -0.0029771046 -0.18054385 0.23020089
-0.09433345 -0.08524294 0.07195603 -0.13508517 -0.01383577 0.3301893 -0.18948862 -0.14188688
0.41802743 0.28344628 -0.2780893 -0.10844081 -0.18589605 0.2995948 -0.1381469 -0.11655338
-0.0075861756 0.28637362 0.032041997 0.0057839104 -0.1289245 0.14242035 -0.010778312 -0.0823713
0.26701477 0.020721871 -0.17379403 0.06459582 -0.09683002 0.2032849 0.09421958 -0.107897446
0.091840245 -0.124769874 0.13924044 -0.29992536 0.22650939 -0.14717512 -0.1533015 -0.1631012
-0.41462693 0.17859162 0.22342888 0.05784603 -0.23109835 0.11715314 0.019044634 -0.105760746
0.013585989 -0.014418738 0.018570775 0.2536052 0.40952936 0.12031462 -0.12977168 0.0996809
-0.018495008 0.073844165 0.17392433 -0.0312299 0.0274618 0.28022552 0.34285533 -0.065533884
-0.06704512 -0.11337929 0.21555792 -0.0110510625 0.20330516 -0.04414333 -0.39396015 -0.12745106
-0.14128971 0.23125164 0.30153653 0.13596044 0.055501338 0.13086222 -0.0107917 -0.091002375
00000000: e865 4d3e 479f 923e 9055 713d 1193 c2bc
00000010: f23a 35be 04f3 8f3e 44ba c73e 071f d1bc
00000020: 19a4 973e d479 c8bd 09af c23d d401 bb3c
00000030: ff9e 74bd 78a1 11bc 9613 b03d 23f5 d1bd
00000040: 5b1f 633e c15f 22be eee6 81be c540 82be
00000050: fb27 0b3e 92c2 a5bd c848 6bbc 47c3 dabd
00000060: 19d3 23be 892c 093e fbed d8bb 2a5f 47be
00000070: dffb 3a3d d399 96bb 97ff cbbc a4f4 a23e
00000080: 9831 2cbd b65a ce3d 4669 d53e 80ef 833e
00000090: 5563 99be 59ae 093d a91b 443e e99e 6b3e
000000a0: 7552 14be af6f 2f3d b256 4ebd 6b87 d2bd
000000b0: c683 893d 6442 bf3d 7a9d afbe 0009 13be
000000c0: 3059 c8bd 171b 533e 45c2 ea3d 0894 b9be
000000d0: 4087 b53d 8321 303e 03b5 a6be b97c a3be
000000e0: 481e 0d3e 1750 253b 37a1 893e 95bc 303e
000000f0: 26b0 e73b 7f1a acbe 873b 863e b8d0 ecbc
00000100: 3b47 5cbc 928e d3bd 638e 0c3e ee14 37be
00000110: 3e5e 893e 9b7e 083e 6ded 6abd 69d3 a73d
00000120: 98ed 18be d4aa 29be b103 bf3d a70a 7c3b
00000130: 793d 223e 82f7 e83c 9a6c 933e b720 33bd
00000140: 4283 9abe 0aa2 b33c 7b95 03bd 17c4 33be
00000150: a09f 803e 307d c3bb b99b a0bd 64f0 813e
00000160: f1ec e23d 8195 05be c99a 24bd 7b86 683e
00000170: cb33 3cbe 74c8 263e e1ca 1c3e 3afa c53e
00000180: 64d1 2b3e 40fa 173d 53e9 2b3d 1c75 22be
00000190: 5dc1 0a3e 6bd7 3cbd 7c23 71bb ecd7 573e
000001a0: 6933 acbc 1707 1f3d 5dc6 123d e5d5 92bd
000001b0: ca68 b6be 7cda 8fbe 971d 953e 9f2e 3a3e
000001c0: 783c 463d c52a d13d c5e2 6fbe ce35 b5bd
000001d0: e46f 19bd 4b10 eebd d3fd 413e b608 d23d
000001e0: 742a 653e 919f 293b 147b dabe 06a6 3c3d
000001f0: d788 be3e bc1c 22bc 5c0c b9be 7a69 efbd
00000200: c69c cf3d 5da6 f73d 7908 adbe 07eb 05be
00000210: 80a4 2ebe 844b 9b3e f5ab 343d fa3f 1ebd
00000220: e7ad 963d 75a0 69bd 1d6a da3e b1af b1bc
00000230: 7b42 43bd acf7 883e d7cb 92bd c5b9 1fbe
00000240: 792c 2dbd 2c6a d2bd 3de5 e3bc 6ea7 703e
00000250: 5781 073e 4bbd 453d 17fb 8d3d 1f83 623e
00000260: dbd9 b23d 5f7b 9d3d cc4b 0abe c4c5 46bc
00000270: 4f82 a3be 52ac e33d 4400 e5bd 113b 3b3d
00000280: 0f5a 803e caf3 93bd 2d4b 2f3d bd7b bc3d
00000290: 20e9 94bd 6e95 14be 8206 873e e4f5 583e
000002a0: 893c 4c3e 64f4 8e3e 57aa d83d b8b0 b53e
000002b0: 289e 0f3d 871b 43bb 7de0 38be c8b9 6b3e
000002c0: e531 c1bd da93 aebd af5d 933d c453 0abe
000002d0: 6daf 62bc 920e a93e 4e09 42be cb4a 11be
000002e0: b107 d63e df1f 913e b961 8ebe 3716 debd
000002f0: 895b 3ebe 7d64 993e 6276 0dbe 8ab3 eebd
00000300: 7495 f8bb 909f 923e 783e 033d f586 bd3b
00000310: c904 04be a4d6 113e 8497 30bc 49b2 a8bd
00000320: 29b6 883e eac0 a93c 10f7 31be d04a 843d
00000330: d14e c6bd eb29 503e 32f6 c03d 56f9 dcbd
00000340: bd16 bc3d 5987 ffbd 0c95 0e3e d18f 99be
00000350: 14f2 673e 13b5 16be 12fb 1cbe 0004 27be
00000360: fb49 d4be b9e0 363e 8aca 643e f5ef 6c3d
00000370: 0ca5 6cbe fced ef3d 7e03 9c3c 1799 d8bd
00000380: c597 5e3c 923c 6cbc bd21 983c 8ad8 813e
00000390: d5ad d13e 8367 f63d dee2 04be 8025 cc3d
000003a0: d882 97bc 9c3b 973d 3819 323e d9d5 ffbc
000003b0: 92f7 e03c b879 8f3e bc8a af3e a136 86bd
000003c0: f44e 89bd 6733 e8bd 37bb 5c3e 840f 35bc
000003d0: 3a2f 503e a3cf 34bd 25b5 c9be 8882 02be
000003e0: 40ae 10be 3bcd 6c3e ff62 9a3e 3739 0b3e
000003f0: 5f55 633d bf00 063e accf 30bc 745f babd

layers.3.sequential.0.bias f4 [30]
-0.020350646 -0.030458434 0.13917519 0.16361772 -0.15316734 0.11702101 -0.076409936 0.09700527
-0.085948706 0.09713619 0.1653655 0.20144251 0.079523295 0.14045472 -0.09095844 0.0073154545
0.14121121 -0.07828379 0.03544895 0.048546437 0.21023385 0.10189779 0.22398315 0.088575825
-0.077142715 -0.062002115 0.24392338 -0.119906075 -0.07779326 0.1753526
00000000: 66b6 a6bc f783 f9bc f183 0e3e 678b 273e
00000010: e6d7 1cbe b6a8 ef3d d07c 9cbd b3aa c63d
00000020: e005 b0bd 57ef c63d 9355 293e f246 4e3e
00000030: 1cdd a23d 5dd3 0f3e 6b48 babd 7bb6 ef3b
00000040: ac99 103e 4053 a0bd eb32 113d a1d8 463d
00000050: 8b47 573e caaf d03d d75b 653e 3e67 b53d
00000060: 00fd 9dbd eef5 7dbd 0dc7 793e 5191 f5bd
00000070: 1352 9fbd a28f 333e

layers.4.sequential.0.weight f4 [30, 30]
0.12831321 -0.017055541 -0.1522143 -0.056830328 -0.06586314 -0.10919327 0.097668156 -0.18282431
0.0022876952 0.07100498 0.0647107 -0.14227168 -0.08572631 -0.21032366 -0.15199806 0.09163383
-0.16337003 0.10171554 -0.12126777 0.0582794 0.037593823 -0.14276014 0.14563125 -0.09101193
-0.0585945 -0.070255734 0.051194593 -0.046915784 -0.0060253046 -0.17512903 0.0070214267 0.09096202
-0.14989294 0.038608737 0.14326122 -0.12731081 -0.05530072 0.11760127 -0.024194831 -0.17032361
0.014426199 0.08679449 -0.01382827 -0.0154527025 -0.18394624 -0.03580949 -0.17661549 -0.13478568
-0.12380888 0.032509353 -0.18001765 0.12269464 0.06335643 -0.028647494 -0.124062344 0.18395254
0.15707754 -0.029091625 -0.05202066 -0.019324588 -0.08308749 -0.020405935 0.23818925 -0.38344753
0.091156706 0.06536539 -0.060551755 0.2947466 0.10507202 0.045128588 -0.13796614 -0.51803654
-0.001157612 0.07234611 0.15140648 0.028547287 -0.029136982 -0.08426208 -0.02120684 0.18654087
0.2761356 -0.12766872 0.15967984 0.25934464 0.018440785 -0.13972671 0.19230784 0.14809978
0.23517194 0.0021885568 -0.22441965 0.0636626 -0.054035347 0.07419255 -0.07367032 0.16593802
0.27783275 0.27968183 0.3039921 -0.035780173 -0.046898607 0.32806745 -0.18921745 0.19880846
-0.3041617 0.10834594 -0.06502732 0.18683401 -0.0017399344 0.13284141 0.15001957 0.2496213
0.008855206 -0.09420055 0.13496716 0.15443088 0.24629197 -0.016494192 0.0572536 0.25809702
0.15604086 0.1673154 -0.16343354 0.2969351 0.095687434 0.18983997 0.27546936 -0.27107778
0.1727005 0.14553991 0.1135681 0.31520456 0.03887478 -0.07364411 0.10256527 0.2442834
0.1405712 0.121220596 0.2428981 -0.26231974 -0.30947745 -0.014161151 0.09390307 -0.1003022
0.21722221 -0.054931287 -0.1318991 0.03534434 0.20167577 0.055075802 -0.031241424 -0.046930656
0.09492668 0.1513476 -0.17488481 -0.15499799 0.078520395 0.09123705 -0.12524527 -0.034897696
0.0042302613 -0.13927548 0.12009065 -0.070289314 -0.098577514 0.07669545 -0.07632356 -0.049029026
0.11493783 -0.15004702 0.17231588 -0.12705238 -0.115859255 -0.1337383 0.1568995 0.039261352
-0.045946263 -0.09573189 -0.09577629 0.12606618 -0.24545655 -0.11828402 0.1776425 -0.36944112
0.29059598 0.011510054 0.08057764 0.2612242 0.16477697 0.17158215 -0.1274581 -0.326898
-0.11829019 0.034539297 -0.122493505 -0.040005803 -0.09768901 0.10405167 -0.3852915 0.13151982
0.25517842 0.24486616 0.18071964 0.096875206 0.0713699 0.09347342 0.0370305 -0.06520706
-0.30376083 0.29233187 0.09049513 -0.11679037 0.067491785 0.3286687 0.22616705 0.16676857
0.035099346 -0.030217191 0.14555342 -0.14847437 0.15345353 -0.095013626 -0.074681975 0.06093214
-0.19630037 0.212034 0.18623675 0.26970157 0.3178303 -0.25453857 -0.26387647 -0.028150886
-0.011025072 -0.024639545 0.004053957 0.02330519 0.04110875 0.16703163 0.001676833 -0.09102043
0.06233335 0.14742823 0.1601645 -0.22498207 -0.24125569 0.27372226 0.042543776 0.08834557
0.25341892 -0.16074726 0.14654166 0.4116609 -0.26089296 0.039492354 -0.17373133 -0.10611839
00000000: 8a64 033e 10b8 8bbc 11de 1bbe ebc6 68bd
00000010: 41e3 86bd b9a0 dfbd 3e06 c83d 4c36 3bbe
00000020: 28ed 153b 0f6b 913d 0b87 843d abaf 11be
00000030: 4791 afbd 165f 57be 61a5 1bbe 84aa bb3d
00000040: 794a 27be 3d50 d03d 3d5b f8bd 61b6 6e3d
00000050: fbfb 193d b72f 12be 5c20 153e 7664 babd
00000060: c900 70bd 3de2 8fbd 6cb1 513d c42a 40bd
00000070: eb6f c5bb 0655 33be ff13 e63b 4c4a ba3d
00000080: 897d 19be 3224 1e3d 12b3 123e c45d 02be
00000090: 0283 62bd efd8 f03d 3d34 c6bc 5069 2ebe
000000a0: dd5b 6c3c 4fc1 b13d f88f 62bc 552d 7dbc
000000b0: 675c 3cbe f9ac 12bd b1da 34be 4205 0abe
000000c0: 838f fdbd 8728 053d 8c56 38be 5447 fb3d
000000d0: 04c1 813d 26ae eabc 6614 febd 0e5e 3c3e
000000e0: efd8 203e 8f51 eebc 9e13 55bd 994e 9ebc
000000f0: c629 aabd 592a a7bc e2e7 733e 3c53 c4be
00000100: 5eb0 ba3d 4ade 853d 1e05 78bd 07e9 963e
00000110: 0030 d73d c1d8 383d ff46 0dbe 0b9e 04bf
00000120: 03bb 97ba 332a 943d 4d0a 1b3e 00dc e93c
00000130: aeb0 eebc 9991 acbd f8b9 adbc 9204 3f3e
00000140: a561 8d3e 97bb 02be 1d83 233e d2c8 843e
00000150: 2111 973c 8514 0fbe 59ec 443e 78a7 173e
00000160: ead0 703e e46d 0f3b 44ce 65be 8a61 823d
00000170: 2b54 5dbd 43f2 973d 77e0 96bd a8eb 293e
00000180: 1840 8e3e 7532 8f3e daa4 9b3e 3b8e 12bd
00000190: c118 40bd 75f8 a73e 38c2 41be 7294 4b3e
000001a0: 15bb 9bbe 7ae4 dd3d 0b2d 85bd 6a51 3f3e
000001b0: 830e e4ba 9407 083e bb9e 193e ba9c 7f3e
000001c0: 6d15 113c 38ec c0bd d534 0a3e 2123 1e3e
000001d0: f633 7c3e d41e 87bc c082 6a3d 4b25 843e
000001e0: 2dc9 1f3e ba54 2b3e 1f5b 27be e107 983e
000001f0: c6f7 c33d 6965 423e 520a 8d3e b5ca 8abe
00000200: 66d8 303e 6a08 153e 6496 e83d 7e62 a13e
00000210: 293b 1f3d b9d2 96bd be0d d23d 6d25 7a3e
00000220: e6f1 0f3e 8142 f83d 48ba 783e c64e 86be
00000230: d473 9ebe 2c04 68bc 4150 c03d 3d6b cdbd
00000240: 806f 5e3e a1ff 60bd 8f10 07be 3ac5 103d
00000250: 1884 4e3e 2a97 613d 04ee ffbc 5c3a 40bd
00000260: eb68 c23d defa 1a3e 0115 33be cbb7 1ebe
00000270: 4dcf a03d 7eda ba3d 4c40 00be e3f0 0ebd
00000280: 019e 8a3b 3b9e 0ebe 16f2 f53d d8f3 8fbd
00000290: 02e3 c9bd 8112 9d3d 874f 9cbd a9d2 48bd
000002a0: 8664 eb3d eda5 19be 9373 303e 051a 02be
000002b0: 9e47 edbd b1f2 08be 43aa 203e 83d0 203d
000002c0: 2632 3cbd 150f c4bd 5c26 c4bd 7e17 013e
000002d0: f658 7bbe e43e f2bd eae7 353e 6327 bdbe
000002e0: ffc8 943e aa94 3c3c e405 a53d 2ebf 853e
000002f0: 4bbb 283e 3bb3 2f3e 6084 02be 2d5f a7be
00000300: 2142 f2bd 1479 0d3d e0dd fabd 20dd 23bd
00000310: 2d11 c8bd 0b19 d53d ed44 c5be 22ad 063e
00000320: bfa6 823e 32be 7a3e 920e 393e 8266 c63d
00000330: 622a 923d fe6e bf3d 4bad 173d 478b 85bd
00000340: 8a86 9bbe 86ac 953e 8355 b93d ca2f efbd
00000350: 2239 8a3d 4447 a83e 5698 673e 61c5 2a3e
00000360: 55c4 0f3d 0b8a f7bc f50b 153e aa09 18be
00000370: ec22 1d3e 8196 c2bd ddf2 98bd fb93 793d
00000380: f702 49be 711f 593e d9b4 3e3e 5316 8a3e
00000390: a7ba a23e e152 82be d11a 87be b09c e6bc
000003a0: 81a2 34bc dfd8 c9bc 0ed7 843b 87ea be3c
000003b0: a661 283d 570a 2b3e 2ec9 db3a eb68 babd
000003c0: 4151 7f3d 6df7 163e 2a02 243e b361 66be
000003d0: bb0b 77be 5325 8c3e 6242 2e3d 86ee b43d
000003e0: 20c0 813e ee9a 24be 040f 163e 38c5 d23e
000003f0: c393 85be bcc2 213d a0e6 31be 9954 d9bd

layers.4.sequential.0.bias f4 [30]
-0.21213457 0.026852876 -0.0034504782 0.16094922 -0.13226505 -0.08849697 0.088929355 -0.024379566
0.15058127 -0.035060044 0.077917986 0.16711468 0.0137488805 -0.0862511 -0.14587274 0.052084073
0.07268082 -0.07551531 0.100419596 0.07893919 -0.037100967 -0.11564387 -0.034567356 0.12792441
-0.12226542 -0.0169874 0.18757528 -0.12828407 -0.023076784 -0.070768945
00000000: ce39 59be 90fa db3c 6b21 62bb dfcf 243e
00000010: 7d70 07be e63d b5bd 9820 b63d a8b7 c7bc
00000020: fa31 1a3e 1f9b 0fbd 7793 9f3d 1c20 2b3e
00000030: fc42 613c 6ba4 b0bd aa5f 15be 1c56 553d
00000040: afd9 943d c5a7 9abd caa8 cd3d dfaa a13d
00000050: 2ff7 17bd b1d6 ecbd 8096 0dbd 9efe 023e
00000060: 4b66 fabd 2929 8bbc bc13 403e e65c 03be
00000070: 860b bdbc 4fef 90bd

layers.5.sequential.0.weight f4 [30, 30]
0.10559712 -0.09916979 0.26817834 0.13980202 -0.23287773 -0.14147373 0.1996914 -0.06988083
0.21616112 -0.089338474 -0.38330397 -0.17747073 -0.010726226 -0.18057917 0.11723739 0.11535072
0.030970173 0.26368606 -0.018916262 0.17666943 -0.16368815 0.22243954 -0.044638578 0.2931398
0.033824924 0.065227725 -0.22593953 0.25345978 0.24423748 -0.046920575 -0.18565184 0.1663799
0.18257047 -0.08232464 0.26739022 -0.107150145 -0.08036857 -0.051670436 0.06437869 0.20124461
-0.2715697 0.033972275 0.24323133 0.09228135 0.10868212 -0.056528855 -0.11621587 0.20153785
0.2832609 0.115173034 -0.027110292 -0.032521747 0.3881979 -0.24387798 0.21993503 0.2384004
-0.17707197 0.19287844 0.4639021 0.1994821 0.049752336 0.122244395 -0.11251971 -0.111437395
0.20755294 0.07901024 -0.080625705 0.14507173 -0.29570487 0.035867944 0.7638364 -0.252081
-0.009899664 0.129877 0.049121674 -0.3014438 -0.022020554 0.3982055 0.25488916 0.20055115
0.018243717 0.25524345 0.29320458 -0.14163563 -0.0021162804 0.27877414 0.27270725 0.04933354
-0.13820505 0.01832459 0.03545553 -0.13320322 0.021018984 0.15495217 0.005262773 0.16419528
0.31093735 0.14025106 0.31755024 0.124911554 0.1264091 0.1693435 -0.024908315 -0.041509632
0.07180184 0.18789907 -0.15695952 -0.10768917 -0.2585253 -0.24138096 0.13938828 0.24070019
-0.18231316 -0.026554795 -0.18205465 -0.28280365 -0.07390985 -0.042077664 -0.024803683 0.1445018
0.05922359 -0.15216613 -0.06569093 0.26174897 0.19746949 -0.08396474 0.29107207 0.03633018
-0.1751798 0.26307642 -0.42231104 0.0972228 0.16252543 0.26090083 -0.06347881 0.21220614
0.12889266 -0.32617766 -0.110821895 0.08311498 -0.07885891 -0.043011557 -0.13423549 -0.043164592
0.005850995 0.124474935 0.11013283 -0.05484118 -0.2860067 0.15853617 0.030894373 -0.14144051
-0.10968642 -0.056249004 0.13997047 0.033470713 -0.02581562 -0.09950466 0.008426876 -0.17738819
-0.10442235 -0.14974438 -0.09700662 -0.017673172 0.024245614 0.031031298 0.14094889 -0.059033327
-0.16171263 -0.092560604 0.13868454 0.0845466 0.13772006 0.04913511 -0.03223175 -0.16973059
-0.055285014 -0.07599016 0.062244244 -0.02986194 -0.012499344 -0.101647615 -0.41346544 0.16147725
0.31346515 -0.09093733 -0.03146637 0.02383437 -0.016365916 0.26762366 -0.6071751 0.10918698
-0.21307564 -0.24069807 0.12627068 0.09366433 -0.07342336 0.6257589 0.116310805 -0.121721484
-0.11555797 0.17577964 0.23886015 -0.16373153 -0.3195343 0.033245407 0.033005062 -0.29088804
0.41046646 0.2088419 0.14520808 -0.15904617 -0.39136314 0.102428354 0.28010342 -0.016666252
-0.101859175 -0.14694178 0.11094859 0.249605 0.49897406 0.16874275 -0.102584496 0.021081049
0.13300525 -0.10415387 0.049329076 0.5405256 -0.35500833 -0.09160212 0.08355492 0.0407593
0.06916124 0.063790746 -0.04701921 -0.14701426 0.07066261 -0.20471868 0.3500386 0.10876237
0.05189199 -0.034213956 -0.08172638 0.05282602 0.09232595 0.07241863 0.16078456 0.11067965
-0.028008921 0.06556989 -0.5856312 0.11134961 0.086857095 -0.09274673 0.044747002 0.2867122
00000000: 4e43 d83d 8819 cbbd ac4e 893e 4328 0f3e
00000010: 8077 6ebe 7dde 10be e77b 4c3e ae1d 8fbd
00000020: 5759 5d3e 17f7 b6bd 6b40 c4be e3ba 35be
00000030: 0dbd 2fbc bfe9 38be 281a f03d 003d ec3d
00000040: 29b5 fd3c dc01 873e 47f6 9abc d5e8 343e
00000050: de9d 27be 31c7 633e f1d6 36bd 6b16 963e
00000060: 018c 0a3d 1d96 853d b15c 67be 7bc5 813e
00000070: 6419 7a3e ca2f 40bd 841b 3ebe 7e5f 2a3e
00000080: c1f3 3a3e d299 a8bd 5fe7 883e 8971 dbbd
00000090: 4798 a4bd 61a4 53bd fad8 833d 1113 4e3e
000000a0: 2f0b 8bbe 8326 0b3d a211 793e 01fe bc3d
000000b0: bb94 de3d cd8a 67bd 9602 eebd f05f 4e3e
000000c0: 9307 913e d7df eb3d 6716 debc 8635 05bd
000000d0: e0c1 c63e 26bb 79be a636 613e 3c1f 743e
000000e0: 5b52 35be ed81 453e 9384 ed3e 0945 4c3e
000000f0: 1bc9 4b3d 455b fa3d bc70 e6bd 4a39 e4bd
00000100: c288 543e 1fd0 a13d 171f a5bd af8d 143e
00000110: a166 97be 44ea 123d c88a 433f c310 81be
00000120: 3332 22bc 7afe 043e cf33 493d d756 9abe
00000130: 7364 b4bc 97e1 cb3e d580 823e 485d 4d3e
00000140: d973 953c 45af 823e e91e 963e ee08 11be
00000150: 4bb1 0abb 7cbb 8e3e 49a0 8b3e f711 4a3d
00000160: a085 0dbe 731d 963c d139 113d 6d66 08be
00000170: 0130 ac3c c8ab 1e3e 5773 ac3b cf22 283e
00000180: 2e33 9f3e f99d 0f3e f295 a23e a1d1 ff3d
00000190: 6371 013e 6268 2d3e 860c ccbc 0106 2abd
000001a0: d80c 933d 9d68 403e ffb9 20be 248c dcbd
000001b0: 6e5d 84be 922c 77be cdbb 0e3e 1c7a 763e
000001c0: 4db0 3abe 7189 d9bc 896c 3abe a4cb 90be
000001d0: 0c5e 97bd a159 2cbd 1831 cbbc 48f8 133e
000001e0: 6f94 723d 70d1 1bbe f788 86bd f603 863e
000001f0: 7135 4a3e b5f5 abbd 6607 953e f4ce 143d
00000200: 5562 33be f4b1 863e 2739 d8be bf1c c73d
00000210: 116d 263e cb94 853e 2e01 82bd 914c 593e
00000220: 70fc 033e c200 a7be 97f6 e2bd 3038 aa3d
00000230: c880 a1bd e32c 30bd 0775 09be 5bcd 30bd
00000240: b4b9 bf3b b7ec fe3d 528d e13d 25a1 60bd
00000250: 786f 92be 4e57 223e 3216 fd3c c8d5 10be
00000260: 46a3 e0bd 5b65 66bd 6b54 0f3e 9618 093d
00000270: 477b d3bc 19c9 cbbd e110 0a3c 40a5 35be
00000280: 63db d5bd 9756 19be 68ab c6bd 54c7 90bc
00000290: bd9e c63c 5935 fe3c e854 103e eecc 71bd
000002a0: ff97 25be 6a90 bdbd 5203 0e3e c526 ad3d
000002b0: 7d06 0d3e e641 493d 7105 04bd dbcd 2dbe
000002c0: 8a72 62bd bba0 9bbd d2f3 7e3d 07a1 f4bc
000002d0: 0cca 4cbc a02c d0bd beb1 d3be 4b5a 253e
000002e0: 817e a03e 5a3d babd e1e2 00bd 4c40 c33c
000002f0: d011 86bc f805 893e d46f 1bbf 6c9d df3d
00000300: 8030 5abe 8e79 76be 1a4d 013e 16d3 bf3d
00000310: fd5e 96bd bc31 203f 5c34 ee3d 1d49 f9bd
00000320: a8a9 ecbd 94ff 333e c197 743e 3da9 27be
00000330: 009a a3be 562c 083d 5130 073d 47ef 94be
00000340: a928 d23e a7da 553e 6db1 143e 00dd 22be
00000350: c060 c8be f5c5 d13d b769 8f3e aa87 88bc
00000360: 8b9b d0bd e877 16be 0439 e33d 7498 7f3e
00000370: 8779 ff3e e6ca 2c3e d217 d2bd 2ab2 ac3c
00000380: 8732 083e a04e d5bd 490d 4a3d e35f 0a3f
00000390: a7c3 b5be e499 bbbd d81e ab3d 39f3 263d
000003a0: 68a4 8d3d b9a4 823d 3797 40bd e88a 16be
000003b0: 8fb7 903d c6a1 51be 4238 b33e cebe de3d
000003c0: b28c 543d ef23 0cbd 2960 a7bd 1960 583d
000003d0: 6315 bd3d 3850 943d b5a4 243e 03ac e23d
000003e0: f772 e5bc 8249 863d edeb 15bf 440b e43d
000003f0: 22e2 b13d fff1 bdbd a248 373d f1cb 923e

layers.5.sequential.0.bias f4 [30]
-0.06851619 -0.047805727 -0.15973075 0.15573078 0.07527924 0.10939795 0.073748074 0.06177157
-0.17377178 -0.13698168 0.18446012 -0.059561595 -0.016558168 -0.1529543 -0.030114431 0.21994954
-0.08505931 -0.06763374 -0.116856515 0.14246322 0.12438325 0.24992307 0.12802449 0.15268958
-0.03648864 -0.20017438 0.0098566385 0.04966166 0.09866089 0.009984944
00000000: 3752 8cbd f0cf 43bd 7590 23be e477 1f3e
00000010: 012c 9a3d 080c e03d 3b09 973d 3004 7d3d
00000020: 3bf1 31be ed44 0cbe 1de3 3c3e dcf6 73bd
00000030: ffa4 87bc 0da0 1cbe 8ab2 f6bc 743a 613e
00000040: 9333 aebd 8f83 8abd 7852 efbd e1e1 113e
00000050: a5bc fe3d d5eb 7f3e da18 033e a85a 1c3e
00000060: 1d75 15bd 83fa 4cbe bd7d 213c 066a 4b3d
00000070: b80e ca3d e497 233c

layers.6.sequential.0.weight f4 [10, 30]
0.24636574 -0.21147878 -0.16020747 0.035353687 0.010282561 -0.16060832 0.13005365 -0.2494317
0.20884207 -0.16020966 -0.16815408 -0.51661783 -0.050126683 -0.08774429 0.10823748 -0.19247247
0.09764945 0.16668919 -0.30177322 0.10753479 -0.20141467 0.24266931 -0.13900387 0.018896155
0.26162693 -0.20643444 -0.015781311 0.21010715 -0.05917207 -0.14322893 0.008455549 -0.13905044
0.08694181 -0.09454745 0.21730654 0.004895404 0.44370896 0.2383108 -0.3334812 0.16840437
0.12297718 0.1483844 -0.18463972 -0.03708077 0.08354022 -0.067386284 0.2583239 -0.3836783
0.049809888 -0.01255023 0.2379583 -0.31957573 0.008436052 -0.08967793 -0.18775937 -0.11357274
-0.25391036 -0.042861044 -0.16654466 0.18221961 0.13723102 -0.28311598 0.110009484 0.17187281
-0.16784683 -0.07263228 -0.22448465 -0.12987694 -0.14710285 0.01664465 0.14515413 0.18033965
-0.21562397 -0.08589125 -0.047001634 -0.34728888 0.15764226 0.2879491 0.0982915 0.028656827
0.2084761 -0.29139507 -0.124901146 -0.09403879 0.27073798 0.24545895 -0.03976669 0.20675491
0.027280733 0.14346738 -0.36460486 -0.256468 0.080489025 -0.007128401 0.21284993 -0.12762542
-0.20302999 -0.21257375 0.07268802 0.12535875 0.22350742 0.10070153 0.14944561 0.0073328647
0.28805462 -0.03990915 -0.14944078 -0.02720916 0.20625667 -0.094944574 -0.00455546 -0.32683295
0.20494759 -0.08816076 -0.18721381 -0.11095169 0.07089658 0.03071414 0.2371862 -0.17588769
-0.09647457 0.04194707 -0.038188446 0.3590763 -0.028065503 -0.078387596 0.037190765 -0.043802954
-0.04557516 -0.13768226 0.08007123 0.11946204 -0.42545596 0.123212665 -0.17694968 -0.004389956
0.14668266 0.33945486 -0.0058470676 0.19689584 -0.17815098 0.18207161 -0.084782586 -0.10755577
-0.20446894 0.19317172 -0.01741161 -0.2090751 -0.043215938 0.28576788 0.018135145 -0.17361674
-0.098539114 0.043420386 0.16619177 0.16781203 -0.06887989 0.0606259 -0.064484015 -0.05566086
0.07875979 -0.10628214 0.053546667 0.08266938 -0.33864602 0.23674154 -0.28317404 -0.19884564
0.17128171 0.34703943 0.055117834 0.029813927 0.31337342 -0.0124348765 0.03057768 -0.03197999
0.2226941 0.22908308 0.17139395 0.03062221 0.15065856 0.13119365 0.20076326 0.56642807
-0.28028846 -0.0839162 0.120060615 0.27857384 -0.2857355 0.16485626 -0.10558424 -0.2929637
-0.11930002 -0.0046155406 -0.039140146 -0.3075294 -0.017478675 -0.14656213 0.25158584 0.04622839
-0.2901764 0.04281701 0.23094617 0.18404508 0.08302635 -0.4669959 0.25811553 0.2532907
-0.08007392 -0.0012997173 -0.26906192 -0.104413405 0.11661895 -0.08394842 -0.042459264 -0.06386175
-0.14013635 0.20847903 -0.06289637 0.070237234 0.2038122 0.02530928 0.07716144 -0.025009554
0.0324858 0.16283913 0.17331988 0.1761845 -0.18118554 -0.035988715 0.012218733 0.21138315
-0.2440818 0.04353978 0.28087062 0.006111289 -0.015832042 -0.24896744 -0.06849436 -0.09677868
0.14215724 0.21602067 -0.4069093 0.03454164 -0.06589981 0.088675454 -0.13313545 -0.23919344
0.17313029 0.042394776 0.15917727 -0.07814247 0.12352809 -0.028801318 -0.15174885 0.009827166
00000000: 4d47 7c3e e58d 58be 6d0d 24be 07cf 103d
00000010: 3078 283c 8276 24be c92c 053e 066b 7fbe
00000020: b2da 553e 000e 24be 9530 2cbe 1141 04bf
00000030: a351 4dbd 47b3 b3bd 9dab dd3d 8117 45be
00000040: 6ffc c73d 92b0 2a3e 0582 9abe 333b dc3d
00000050: a63f 4ebe 4e7e 783e 0857 0ebe 1ccc 9a3c
00000060: f7f3 853e 8d63 53be cf47 81bc 5426 573e
00000070: 6a5e 72bd 9baa 12be 2589 0a3c 3d63 0ebe
00000080: 8c0e b23d 18a2 c1bd 9b85 5e3e a069 a03b
00000090: d22d e33e bf07 743e 0cbe aabe 3272 2c3e
000000a0: 76db fb3d 15f2 173e 3212 3dbe 01e2 17bd
000000b0: 2317 ab3d d201 8abd 0843 843e 7b71 c4be
000000c0: 7405 4c3d 7b9f 4dbc 57ab 733e 6e9f a3be
000000d0: 5e37 0a3c 10a9 b7bd fe43 40be d398 e8bd
000000e0: 8a00 82be 108f 2fbd af8a 2abe c797 3a3e
000000f0: 4a86 0c3e 94f4 90be a74c e13d 6dff 2f3e
00000100: 0ae0 2bbe 3cc0 94bd 4edf 65be 76fe 04be
00000110: 21a2 16be 5c5a 883c 49a3 143e f5aa 383e
00000120: 88cc 5cbe c0e7 afbd c984 40bd d9cf b1be
00000130: f96c 213e 106e 933e 0e4d c93d b9c1 ea3c
00000140: c27a 553e bc31 95be 2ccc ffbd 6997 c0bd
00000150: 2b9e 8a3e 9759 7b3e 66e2 22bd 8fb7 533e
00000160: d87b df3c 1de9 123e 7dad babe c64f 83be
00000170: 6ed7 a43d 5d95 e9bb 55f5 593e 3db0 02be
00000180: 18e7 4fbe efac 59be 75dd 943d 0b5e 003e
00000190: 21df 643e 9b3c ce3d 4508 193e 8748 f03b
000001a0: e57b 933e c777 23bd 0107 19be bfe5 debc
000001b0: f334 533e 4d72 c2bd f845 95bb a656 a7be
000001c0: c8dd 513e a18d b4bd fab4 3fbe a43a e3bd
000001d0: 3a32 913d 389c fb3c f0e0 723e e71b 34be
000001e0: 7694 c5bd b1d0 2b3d 7d6b 1cbd d9d8 b73e
000001f0: a0e9 e5bc ad89 a0bd 5855 183d ba6a 33bd
00000200: 05ad 3abd 94fc 0cbe 63fc a33d 84a8 f43d
00000210: 5dd5 d9be ec56 fc3d 4c32 35be 9fd9 8fbb
00000220: fb33 163e 07cd ad3e c298 bfbb 109f 493e
00000230: 366d 36be fb70 3a3e 7ea2 adbd 3346 dcbd
00000240: 4e60 51be cfce 453e cba2 8ebc c817 56be
00000250: 3203 31bd 2b50 923e 2890 943c 96c8 31be
00000260: e0ce c9bd 93d9 313d 2d2e 2a3e ebd6 2b3e
00000270: e610 8dbd dd52 783d 3210 84bd a4fc 63bd
00000280: d04c a13d 73aa d9bd c053 5b3d 904e a93d
00000290: 0363 adbe 606c 723e 30fc 90be 319e 4bbe
000002a0: 7964 2f3e 27af b13e 3dc3 613d 563c f43c
000002b0: 7b72 a03e a7bb 4bbc 0b7e fa3c 73fd 02bd
000002c0: ec09 643e c194 6a3e e581 2f3e 6edb fa3c
000002d0: 3d46 1a3e a157 063e e294 4d3e 6e01 113f
000002e0: f881 8fbe 42dc abbd 57e2 f53d 3ba1 8e3e
000002f0: ec4b 92be 14d0 283e 8d3c d8bd 57ff 95be
00000300: 9253 f4bd f63d 97bb 6b51 20bd 7e74 9dbe
00000310: 702f 8fbc 6214 16be dccf 803e fb59 3d3d
00000320: 0092 94be e460 2f3d 277d 6c3e 5076 3c3e
00000330: b809 aa3d 161a efbe b827 843e 52af 813e
00000340: ccfd a3bd 475b aaba 7cc2 89be b2d6 d5bd
00000350: ebd5 ee3d 26ed abbd c4e9 2dbd f3c9 82bd
00000360: e77f 0fbe 877b 553e d0cf 80bd 8ad8 8f3d
00000370: 25b4 503e 6855 cf3c d106 9e3d d6e0 ccbc
00000380: d50f 053d 4dbf 263e c47a 313e b669 343e
00000390: b488 39be e768 13bd 1531 483c d374 583e
000003a0: 94f0 79be c556 323d 46ce 8f3e 3541 c83b
000003b0: 33b2 81bc 52f1 7ebe c546 8cbd e733 c6bd
000003c0: ab91 113e 8634 5d3e 6a56 d0be 897b 0d3d
000003d0: 7bf6 86bd 7a9b b53d a954 08be 20ef 74be
000003e0: 1149 313e 25a6 2d3d 5eff 223e 2909 a0bd
000003f0: 4cfc fc3d bef0 ebbc 0d64 1bbe 1f02 213c

layers.6.sequential.0.bias f4 [10]
0.19885597 0.04631315 -0.11217467 0.056228265 -0.08399331 0.21840549 -0.033748884 -0.008743465
-0.11768958 -0.07686866
00000000: e6a0 4b3e dcb2 3d3d d5bb e5bd 9c4f 663d
00000010: af04 acbd b0a5 5f3e 453c 0abd c040 0fbc
00000020: 3c07 f1bd 516d 9dbd
