benchmark/ablation_mnistfc_tiny/onnx/mnistfc-tiny-net-63.onnx (onnx, 382423 bytes, 4 tensors)

layers.2.sequential.0.weight f4 [120, 784]
000000 0a 63 bb 3c 5e 4e 29 bd 35 33 2f bd e5 33 81 3c
       0.022874374 -0.041334502 -0.042773444 0.015771816
000010 06 c4 75 bc 82 1f a4 bc e1 36 93 3c 2c f7 43 3b
       -0.015000349 -0.020034555 0.017970504 0.0029901965
000020 42 a4 90 3b d6 e5 cb bc 47 5d 18 bd 47 bc e0 bc
       0.0044141123 -0.024889868 -0.03719833 -0.027433528
000030 6e 05 a6 bc c0 56 c1 bc 2f f3 42 bc 75 3d 85 3c
       -0.020266261 -0.023600936 -0.0118988 0.016264657
000040 91 24 2a bd a1 83 3f bd cc 97 02 bd 39 dd 35 bd
       -0.04153878 -0.04675639 -0.031883046 -0.044400427
000050 c7 dd 08 3a bf c0 5d 3c 42 b6 c5 3b ee e8 43 3c
       0.00052210357 0.013534724 0.0060336897 0.01195739
000060 97 23 15 bc fa 29 0c bd 63 07 eb bc c2 5b 68 3c
       -0.009102724 -0.03421972 -0.028690046 0.014182033
000070 ea 39 d0 bc 8b 2b 8b 3c ae 8c 8c 3c f8 24 8d bb
       -0.02541824 0.016988536 0.017156925 -0.0043073855
000080 8d 28 39 bd f6 e9 83 bc 6d 66 b4 3c 8e 98 a9 3c
       -0.045204688 -0.016102772 0.022021497 0.020702627
000090 b8 12 61 3c 74 8e ba bc 18 9e c3 bc f1 8b 06 bd
       0.013737373 -0.022773005 -0.023879096 -0.032848302
0000a0 39 80 5d bc 7a cc eb 3b ab 34 51 bc 65 a0 94 3c
       -0.01351934 0.0071960064 -0.012768905 0.018142888
0000b0 fd b8 1c 3c e5 f6 9e 3c 96 ba a9 3c fe 9c 1d bd
       0.009565589 0.019404838 0.020718854 -0.038479798
0000c0 2b b0 bd bc 63 d6 19 bd 6e b1 ac bc e7 9c 89 bc
       -0.023155292 -0.03755797 -0.021080699 -0.01679845
0000d0 b9 59 42 bc aa 3e 05 bd a8 72 95 bc 96 85 3a 3c
       -0.011862212 -0.032530464 -0.018243149 0.011384388
0000e0 fd 89 b0 b8 f5 ba e4 bc b0 71 1d bd 7a 09 ed bc
       -8.418036e-05 -0.02792118 -0.0384385 -0.028935183
0000f0 0b ed d1 bc 55 0f 2a bc 3b ee c6 bb 47 ee 4e bc
       -0.025625726 -0.010379632 -0.0060708798 -0.012630052
000100 f5 09 52 3b 33 2e fd bc 2c e8 60 bd 07 33 07 bd
       0.0032049392 -0.030905819 -0.054908916 -0.033007648
000110 60 82 df ba 4a f9 69 bd a8 1f 1c bd 9a fd c1 bc
       -0.0017052405 -0.057122506 -0.038116127 -0.023680497
000120 fd a6 1e bd 30 fd 11 bd ef ed 0b bc 12 da 1b 3c
       -0.03873347 -0.03564185 -0.0085406145 0.009512441
000130 76 b3 5f bd fb 55 fe 3a 8a 1d 62 3c 8c 12 05 bd
       -0.054614507 0.0019404286 0.013800988 -0.03248839
000140 de 6e 9e 3b d6 ca fc bc bf 7d 2b 3c 11 fe 3f 3c
       0.0048349937 -0.030858438 0.010466992 0.011718289
000150 c7 95 f4 bc 83 66 21 bc 82 b2 b5 3c 1c e9 e5 bc
       -0.029856576 -0.009851101 0.022179846 -0.028065257
000160 bb b4 04 bd dc f4 af 3c b2 7e d4 bc 7e 9a df 3c
       -0.03239892 0.021479063 -0.02593932 0.027295347
000170 e0 63 07 bd 09 1b 47 bc eb 8b a2 bc 8f 11 a8 bc
       -0.033054233 -0.012152442 -0.019842109 -0.020516185
000180 24 33 03 bc cc c5 f1 bc 44 18 67 bc ea a1 e5 bc
       -0.008007798 -0.029513262 -0.0141049065 -0.028031308
000190 d3 9a df bc 3a 82 5b bd a7 35 b3 bd 8a c9 78 bd
       -0.027295506 -0.05359099 -0.08750468 -0.060739078
0001a0 f5 ff ad bd f9 a7 85 bd dd 3d 6b bd 00 da cf bb
       -0.084960856 -0.06526179 -0.057432044 -0.0063431263
0001b0 37 b0 3d bb bb 9b 0f 3c 7a 53 09 bd 08 61 18 bd
       -0.0028944144 0.008765156 -0.033526875 -0.03720191
0001c0 b9 fd 0f 3c 2a 5b 75 bc 58 39 2c bd b1 fe 81 3b
       0.00878852 -0.0149753485 -0.042046875 0.003967129
0001d0 db 52 da bc be 13 0c 3c b6 70 ce 3c ef 7c 17 3d
       -0.026650837 0.008549629 0.02520023 0.03698438
0001e0 0d a2 77 3d a6 ab 87 3d 59 60 77 3d ab 5d c3 3d
       0.060457278 0.06624536 0.06039462 0.0953935
0001f0 8d b5 e9 3d 85 d5 f8 3d a0 f3 97 3d ec fd ff 3c
       0.11411581 0.121501006 0.07419515 0.03124901
000200 d2 b8 be 3c 65 6a 02 3d b9 02 02 3c 1f d1 ff bc
       0.023281489 0.031839747 0.007935219 -0.031227646
000210 b2 86 8e bd fb b2 8f bd 06 27 1c 3c b1 52 cb 3a
       -0.06959285 -0.0701656 0.009530788 0.0015512315
000220 c2 58 4b bb 7d b2 18 bd 51 38 18 bd 1a 5b 67 bc
       -0.0031028246 -0.037279595 -0.037163083 -0.014120841
000230 f9 24 b3 bc 89 31 97 3a b0 18 b4 3c 48 03 b0 3c
       -0.021868216 0.0011535148 0.021984428 0.02148594
000240 94 de 4f 3b 9d f4 13 3d b3 a7 5a 3d 27 2f 29 3d
       0.003171836 0.036121953 0.053382587 0.041304734
000250 4e c4 bb 3d 05 cf 02 3e 8d da 2f 3e 9e 5d fd 3d
       0.091683015 0.12774284 0.17173214 0.12371372
000260 66 99 23 3c 6d 34 3b 3d 02 ee 8f 3c 7e 7e 93 3c
       0.0099853035 0.045704294 0.017569546 0.018004652
000270 39 df 91 bc 18 09 cd bc 46 5c 4b bc f1 6b 05 bd
       -0.017806636 -0.02502875 -0.012412136 -0.032573644
000280 c7 0b 5e bd d4 32 07 bd 40 b8 3c bd 87 93 81 bc
       -0.05421045 -0.033007458 -0.046074152 -0.015817417
000290 34 d1 e1 bc ae fc 54 bd b0 b5 15 3c 8c 81 11 bd
       -0.027565576 -0.051998787 0.009137556 -0.035523936
0002a0 ff 62 e9 bc d9 cc 06 bd 3d b5 18 bc 88 cf d6 3c
       -0.028489588 -0.0329102 -0.009320554 0.026222005
0002b0 01 cd 0b bc 39 14 ce 3c d7 e4 7d 3d 65 5e 59 3d
       -0.008532763 0.025156127 0.061985817 0.053068537
0002c0 88 fa e7 3d 7a b2 6e 3d f5 1c 9b 3d 6c cf 89 3c
       0.11327082 0.058275677 0.075738825 0.01682254
0002d0 d6 c2 d1 ba 96 31 80 bc 66 96 41 bb d5 72 27 3d
       -0.00160035 -0.015648644 -0.0029539107 0.040880997
0002e0 44 c8 9c 3c e5 a3 68 3d ab 9d c2 3d 79 84 ce 3b
       0.019138463 0.056796927 0.09502729 0.006302413
0002f0 81 d2 09 bd cc c5 30 bd d4 74 ea bd d9 ea c4 bd
       -0.033648018 -0.043157384 -0.114480644 -0.09615106
000300 62 6b 1c bd 38 7c c0 bc 26 11 20 bc be 5b 03 bb
       -0.038188346 -0.023496732 -0.0097697135 -0.0020043696
000310 eb 4b ae ba 0d 46 ef bc eb 75 f7 bc f5 64 38 3c
       -0.0013297772 -0.029208208 -0.030207595 0.011254539
000320 f0 e2 a4 3c 26 7a c2 b9 95 1c e4 bb b9 87 2b bd
       0.020127743 -0.0003709357 -0.006961415 -0.041877482
000330 2d a6 7d bb 73 27 23 3d 23 47 17 bd bf 97 96 bd
       -0.0038703785 0.039832544 -0.036933076 -0.07353162
000340 8a 6d f0 bc 9c 48 a6 3c 32 c3 50 3d 64 71 f5 3c
       -0.029349107 0.020298295 0.050967403 0.029961295
000350 34 e4 96 3d 08 6a 8a 3d 92 bd 34 3d 34 8d 8b 3d
       0.07367745 0.06758505 0.0441261 0.06814042
000360 84 dc b1 3d 73 3f a9 bd 4a dc a3 bd a4 73 ee bd
       0.08684638 -0.08264055 -0.08001001 -0.116431504
000370 b7 04 ab bd af cb 13 bd 07 f5 08 bd 74 28 96 bc
       -0.08350509 -0.03608292 -0.0334368 -0.018329836
000380 ea 1b 6d bc ac 4b cf bc da a2 c5 bc 46 39 bf 3c
       -0.014471987 -0.025304638 -0.024125505 0.02334274
000390 bf a8 14 bd 3c 71 0b bc 90 11 07 3c 8b a2 fa bb
       -0.03629374 -0.008510884 0.008243933 -0.007648771
0003a0 a4 b7 4d 3b 70 65 3c 3d 36 b7 ae bc 5d 29 73 3a
       0.0031389976 0.045995176 -0.021327596 0.0009275878
0003b0 86 0c fc bc 71 bb b0 bc 04 d4 6a 3d dc a4 97 3d
       -0.03076769 -0.021573754 0.0573311 0.07404491
0003c0 de 4b a9 3d 88 33 cc 3c 25 68 76 3d da ed 31 3c
       0.08266424 0.024926916 0.060157914 0.010859931
0003d0 13 b9 d1 3b d1 aa f0 bc ef 22 44 bd 1c e7 5f bd
       0.0064002364 -0.029378327 -0.047884878 -0.054663762
0003e0 8a cf a1 bd 9f f5 55 bc e5 5e 26 bd e0 32 f6 bc
       -0.07900913 -0.013059049 -0.040617842 -0.030053556
0003f0 c7 50 ef bc 01 b0 0f 3b 35 6f 8d 3c 2b ea 0c bd
       -0.029213322 0.0021924975 0.017264942 -0.034403007

layers.2.sequential.0.bias f4 [120]
000000 f8 3b 0a 3c 4d 5e 60 3c 38 9f 6a 3c c1 32 e7 3c
       0.008437149 0.013694358 0.014320187 0.028222444
000010 c2 a0 53 3d a9 5e c5 bc 32 ea 98 bb d9 a6 06 bd
       0.051666982 -0.024092989 -0.00466659 -0.032873962
000020 b9 4b c3 39 f9 02 d6 bb 69 3e 10 3d c0 d5 b6 3c
       0.00037249716 -0.006531116 0.03521577 0.02231872
000030 d0 18 d2 3b 49 18 82 bc 68 db 68 3d 14 0c de bb
       0.0064116493 -0.01588072 0.056849867 -0.006776342
000040 aa 03 02 3d 37 a5 1d 3d c7 15 c0 bb bb 64 87 bc
       0.031741776 0.03848764 -0.005861971 -0.016527524
000050 75 71 c0 3c 77 43 83 3d 08 f4 64 3d b9 4a c5 3c
       0.0234916 0.06409352 0.05589679 0.024083482
000060 5f 90 82 3c da d3 7d 3c 3f 4e 0c 3c 58 d6 ba bc
       0.015937982 0.015492404 0.008563577 -0.022807285
000070 ae 84 57 bc 90 33 1b bd e3 34 a1 3c 2b 2a c2 3c
       -0.013154192 -0.03789097 0.019678539 0.023701748
000080 c6 b6 55 bd 6e ad b7 bb 15 86 03 3d 0b 2d 23 3d
       -0.05217626 -0.005605391 0.032110292 0.03983788
000090 c9 40 f3 bc 66 c3 df 3b ec 35 25 bd 39 e5 41 ba
       -0.029693978 0.006828713 -0.040334627 -0.00073965226
0000a0 fb c6 0d 3d 23 f9 5a bc c8 21 0f bb 2c e0 aa 3c
       0.03461359 -0.013365063 -0.0021840204 0.020858847
0000b0 46 9f 19 bd d0 31 71 3d 4a b3 0f bd a0 2f b2 3c
       -0.03750541 0.058885396 -0.035083093 0.021751225
0000c0 bd ba dd 3d 90 78 37 3c 20 bb 70 b9 10 94 e7 3c
       0.10826633 0.011198178 -0.00022957893 0.028268844
0000d0 b4 24 82 bc 64 ac f6 3c 01 c9 95 bc c1 78 4d 3d
       -0.015886642 0.0301115 -0.018284323 0.050163988
0000e0 24 68 c4 3b 33 d6 95 3b bd 7e 91 bd 92 97 7d bc
       0.00599386 0.0045726537 -0.071042515 -0.015478032
0000f0 72 ac 2a bc 5e a9 d3 3c d7 86 56 bc df 25 ec b9
       -0.010417091 0.025837597 -0.013093672 -0.00045041644
000100 3f f7 3a 3c 66 e9 f1 3c bb 4b ee 3c 0f f2 94 bc
       0.011411487 0.029530238 0.029088845 -0.018181829
000110 88 43 a0 3c fc a5 4e 3b 2a 86 a9 3c 21 ab 6f 3c
       0.019563451 0.003153204 0.020693857 0.014628203
000120 e1 26 0c bd 23 91 2e bc 68 a8 e4 3c b8 5c e1 3c
       -0.034216765 -0.0106547205 0.027912334 0.027510032
000130 1c 72 2c 3c 2f 79 8c bc 29 8f 8a bb a0 47 03 bd
       0.010525253 -0.017147629 -0.004228492 -0.03205073
000140 4c 98 b7 3d 09 99 9f bc be 38 ca bb b4 69 91 bd
       0.08964595 -0.019482153 -0.006171315 -0.071002394
000150 fb c1 c4 3c 83 f2 1d 3c 0d b8 f7 bc 4f 0f 49 3c
       0.024018278 0.009640339 -0.03023913 0.012271716
000160 fb ae 03 3d c7 45 35 3b 76 5b d8 3c c4 de 71 bb
       0.032149296 0.0027659999 0.0264108 -0.003690646
000170 d2 19 c8 3b a9 5c d4 3c 54 f6 eb 3c 13 f2 9f 3d
       0.0061065936 0.02592309 0.028803982 0.07809844
000180 f4 a5 c4 3b 2a 9a dd bc 27 6c d4 bc 56 2e d0 3c
       0.0060012285 -0.02705105 -0.025930477 0.02541272
000190 85 b8 07 bd d3 c9 0e bc 74 e7 99 3c 5c 54 c5 bc
       -0.033134956 -0.008715111 0.018787123 -0.024088077
0001a0 d3 3f e7 bc 2f d3 12 bd d9 c4 c7 bc 37 fd 0a 3d
       -0.028228676 -0.03584593 -0.024385856 0.03393289
0001b0 38 60 03 3d 87 bc 92 3b dc 03 24 bc f6 e2 62 3c
       0.032074183 0.0044780406 -0.010010686 0.013848057
0001c0 0b 1a e2 bc e9 49 2a 3d c3 e7 19 3d 83 f3 3b bb
       -0.027600309 0.041574392 0.03757454 -0.002867908
0001d0 c5 4b 3b bb 4a b4 15 3d a5 38 bf b9 f0 ef 0b bc
       -0.0028579098 0.03654889 -0.00036472562 -0.008541092

layers.3.sequential.0.weight f4 [10, 120]
000000 83 e8 80 3d 9f d7 8c 3d 58 27 3b bd dd fe f3 bc
       0.06294348 0.06877064 -0.045691818 -0.029784614
000010 92 0a 46 bd 76 ce 14 3d 9f 4d b2 bc 8d 31 49 bd
       -0.048349924 0.03632971 -0.021765528 -0.04911952
000020 3a ca a6 bd 5f 7d 0e 3d cd 00 8b 3d 18 e5 b2 bd
       -0.081440404 0.034787532 0.06787262 -0.087351024
000030 c8 d3 2f bd b8 9a d3 bd 30 8e 45 bd 7d 0c c3 bd
       -0.04292658 -0.10332245 -0.048231304 -0.09523866
000040 62 1a ad 3a 81 f3 53 bd 45 bc 82 bd b5 a3 1c 3d
       0.0013206715 -0.051745895 -0.06383566 0.03824206
000050 6d df b7 3b 6c 14 b2 bd e8 a6 13 3d a0 03 42 bd
       0.005611351 -0.086953014 0.036047846 -0.04736674
000060 b5 0e 53 3d 05 9c 5c bd 8a ce c6 3c bf 1c 0f bd
       0.051527698 -0.05385973 0.024268407 -0.034939524
000070 b0 68 3a bd 1e 27 ae bd 08 1c ae 3a b7 f2 4a bd
       -0.045509994 -0.08503555 0.00132835 -0.049547877
000080 64 4a dd bc d0 9f 3b bd 0a 4b a1 bc 02 82 09 39
       -0.027013011 -0.045806706 -0.019689102 0.0001311377
000090 2e 1e 08 bd 8e 8e ec 3c dd 7a 8b bd 92 c0 a5 bd
       -0.033231907 0.02887657 -0.06810544 -0.080933705
0000a0 b0 12 3d bc 7b e0 26 3d 8e 68 0e bd 00 81 6e bd
       -0.0115401 0.040741425 -0.03476768 -0.058228493
0000b0 68 30 ae 3d 8c 91 aa 3c 9b 74 44 bd 7a 33 57 bd
       0.085053265 0.020821355 -0.047962766 -0.052539326
0000c0 ae 4d d8 3b 1b ea 95 bd 1d cd e3 bd 89 2f 77 bc
       0.006601057 -0.07320043 -0.11123107 -0.015087017
0000d0 ac 5c bb bd ac 72 95 bd e9 dd 0f bd 21 d3 a4 bc
       -0.09148535 -0.072972625 -0.03512374 -0.020120205
0000e0 2a 09 c3 3c 2e 04 fb 3c 76 f2 7f 3d ae e9 a1 bd
       0.02380808 0.030641641 0.06248709 -0.07905899
0000f0 62 d3 16 3d 09 7f a4 3d 5b 7f 81 3d 29 ff df 3c
       0.036822684 0.080320425 0.06323119 0.02734335
000100 80 4b 29 3d a7 30 5a 3c 27 46 75 bd 13 80 8a 3d
       0.041331768 0.013317264 -0.059881356 0.067627095
000110 48 18 6d ba b8 d9 8c bd f9 78 88 3d b6 29 f3 bc
       -0.00090444507 -0.06877464 0.06663699 -0.029682975
000120 e9 cd 64 bd 0e 63 8b 3c 91 3b 8c bd 32 01 02 3d
       -0.055860434 0.017015006 -0.06847299 0.03173942
000130 a4 56 23 bc 61 32 05 bd 45 e7 99 bc 27 b0 46 bd
       -0.009969387 -0.03251875 -0.018787036 -0.048507836
000140 2a 1e 39 bd d3 9a 86 3d 23 01 88 bd 8c 72 52 bc
       -0.045194782 0.06572499 -0.06640842 -0.012844693
000150 7d 8f 11 bd c9 1c 7e 3d 67 75 5f 3d 55 d5 c6 3c
       -0.03553723 0.06203917 0.054555323 0.024271647
000160 28 5a d3 3c f6 0f af bc 02 20 a7 3d 17 00 fc bc
       0.025799826 -0.021369915 0.08160402 -0.030761762
000170 ed 17 92 3d 5d 37 33 3d 63 68 a7 bd 2c f9 37 3d
       0.0713347 0.04375397 -0.08174207 0.044915363
000180 02 ab b2 3c 6c 89 8c 3d 53 2d 7b 3c d9 06 07 3c
       0.021810059 0.06862149 0.01533063 0.008241379
000190 22 dd 9e 3d 59 8f 64 bd 1a 38 27 bc a1 03 90 bd
       0.077570215 -0.05580077 -0.010206247 -0.07031942
0001a0 92 98 a2 bd 59 89 03 3d 64 c0 c9 bd 81 52 49 bd
       -0.07939257 0.032113407 -0.09851149 -0.049150947
0001b0 b4 a0 5d bd 66 86 ac bd 10 c0 a4 bd d1 76 b4 bd
       -0.054108337 -0.08424072 -0.080444455 -0.08811725
0001c0 16 cb 50 bd 3d b0 a7 bd 96 81 99 3c 10 e9 63 bd
       -0.050974928 -0.08187912 0.01873855 -0.055642188
0001d0 05 2f eb bd 8d c1 94 bd 53 25 04 bd 03 84 36 bd
       -0.11483578 -0.072634794 -0.032262158 -0.04455949
0001e0 c5 19 ff 3d 85 88 4c bd 58 54 1d be 11 c5 5c be
       0.12456087 -0.049934883 -0.15364206 -0.2155955
0001f0 bf 0e b7 3d 9e c0 8c 3e c3 50 f1 be fc dd 8c 3e
       0.089383595 0.27490705 -0.4713193 0.2751311
000200 0d 9f 81 3d 9f 0e 5c be 39 5f 05 bd 0a d8 3a 3e
       0.06329165 -0.21489953 -0.032561515 0.18246475
000210 89 22 1c bc 11 3c 23 be ce 29 c0 be 7e e5 45 3e
       -0.009529718 -0.15940882 -0.37531894 0.19325826
000220 2a ad b8 bc 09 1c 44 be 1e 5a 3d be 6b 40 4d 3e
       -0.022543509 -0.1915132 -0.18491408 0.20044105
000230 54 78 9c 3e 2f 43 7f 3d 29 e0 8e 3d 84 bb a8 3d
       0.30560553 0.06231993 0.06976349 0.08238891
000240 f2 1e 80 3e 6c 0c c6 bd 6b 5e 07 be 2d d8 01 3e
       0.2502361 -0.09670338 -0.13219611 0.12680121
000250 29 03 be bd ba da 30 3d 26 1d 0d bd 7f 98 97 bd
       -0.092779465 0.043177344 -0.034451626 -0.07402133
000260 d9 bc 37 3e 73 ea 51 be 78 3b 39 be 4d 10 48 be
       0.17943133 -0.20499592 -0.18089092 -0.19537468
000270 c3 5f 6c be 59 5c 61 be 8b 61 e3 bd 89 af 17 3e
       -0.23083405 -0.22007884 -0.11102589 0.14813055
000280 57 f0 5e be db b9 a6 3d f4 5e fb 3d 21 37 0c 3d
       -0.2177137 0.08140918 0.1227397 0.034232263
000290 99 cf 64 bc fe 35 08 3e 30 04 2a 3e 5b dd 9e 3c
       -0.013965511 0.13301846 0.1660316 0.01939266
0002a0 09 b7 24 be f7 fb 85 bd d7 ce 1e 3e 6b 35 a2 3e
       -0.16085447 -0.06542199 0.1550859 0.3168138
0002b0 86 4c 23 3e 90 27 e9 bd 35 0f 5e be 04 7b fd 3d
       0.1594716 -0.11384499 -0.21685489 0.12376979
0002c0 2d b0 da bb 7c 9a 2a be 1b 3b 67 3e a0 e2 f2 bd
       -0.006673834 -0.16660494 0.2258114 -0.118596315
0002d0 ac 19 5f 3e e8 3d a4 3d 40 df e8 3b dd 69 84 3c
       0.21787137 0.0801962 0.0071066916 0.01616376
0002e0 86 13 fd 3e b2 59 27 3e 0b 5b 82 bc ab 95 1e 3e
       0.49428958 0.1634281 -0.015912553 0.15486781
0002f0 ce 77 2a 3e 64 fa 9f bd 58 0a c5 3c bb 99 aa bc
       0.16647264 -0.0781143 0.024052784 -0.020825258
000300 8e 43 2e 3e 0e e2 58 3e 9e fb 33 3e 81 c0 42 be
       0.17017958 0.21179983 0.17576453 -0.19018747
000310 9d e7 34 be a8 be e3 3d 7b f0 4e be df 09 32 3e
       -0.17666478 0.11120349 -0.20208924 0.17386578
000320 39 d0 6d be 1a df 94 3e e0 ae 99 bc 74 3c e8 bd
       -0.23223962 0.29076463 -0.018760145 -0.113396555
000330 5d 49 14 be a2 bd 4d be f2 d0 ce 3d f7 33 fd 3d
       -0.14481111 -0.2009187 0.10098447 0.12363427
000340 64 85 28 be c2 3b 2b 3e 12 27 72 3e f3 e8 4c 3d
       -0.16457134 0.16722015 0.23647717 0.050026845
000350 d1 fb 0c bd 3e 5f dd 3d c3 c2 bb be 2c 64 35 be
       -0.03441984 0.10809182 -0.3667203 -0.17713994
000360 cb 0a f8 bd 97 04 7d bd 13 72 1d 3e 0d 0c 52 3e
       -0.121114336 -0.061771955 0.15375547 0.2051241
000370 b4 ce 7c be 18 71 3c be a4 50 84 3d 57 16 42 3e
       -0.24688226 -0.18402517 0.064606935 0.18953834
000380 ae 00 50 3e dc 62 38 3e 3b 5e 85 3e 0a ae 49 be
       0.2031276 0.18006462 0.26048455 -0.19695297
000390 4c 17 00 be f9 01 a5 bd a1 68 ab 3e 25 0a 17 be
       -0.12508887 -0.08057017 0.33478263 -0.14749964
0003a0 1c 8c 11 3e ba 79 20 3e 39 94 1f be 4a 91 b5 bd
       0.14213604 0.15671435 -0.15583886 -0.08865602
0003b0 f8 18 27 be c4 21 02 3e c2 31 a0 bd 2a 7c 26 be
       -0.16318119 0.12708193 -0.078219905 -0.16258302
0003c0 b7 39 43 3c 57 d5 92 3d 89 ed 91 3d ad 2b 3c 3e
       0.011915616 0.071695976 0.07125384 0.18376036
0003d0 39 9f 1e 3e 40 93 4d be 61 07 88 bd 46 8e 0e be
       0.15490426 -0.20075703 -0.066420324 -0.1392146
0003e0 26 d3 30 3d c5 54 13 be 78 38 30 be a4 3b fb 3d
       0.043170117 -0.14387806 -0.17209041 0.12267235
0003f0 fd 1f cb 3d 48 6e 2c be 76 8e ec be b5 ec 86 3e
       0.09918211 -0.16838944 -0.4620244 0.26352468

layers.3.sequential.0.bias f4 [10]
000000 19 94 0b 3d 94 d5 20 3d ad 94 c7 3d 47 c3 0b 3d
       0.034076784 0.039266184 0.097451545 0.034121778
000010 55 d2 13 bd 10 d8 db 3a d0 a0 f4 bc 7f b0 89 3b
       -0.03608926 0.0016772766 -0.029861838 0.004201948
000020 6e 84 88 3d 90 5d cd bc
       0.06665884 -0.025069028
