src/example/random_fc_2_3.onnx (onnx, 578 bytes, 4 tensors)

linear1.weight f4 [4, 2]
0	0xbddae231	-0.10687674
1	0x3f2f3d68	0.68453074
2	0xbe9a68f3	-0.30158195
3	0xbf324112	-0.6963054
4	0x3ebde13a	0.37085897
5	0xbdd1fb95	-0.102530636
6	0xbef16d85	-0.4715387
7	0x3ef154f2	0.4713512

linear1.bias f4 [4]
0	0x3f19d05b	0.6008355
1	0xbe180cc5	-0.14848621
2	0x3e5d6f6d	0.21624537
3	0xbf32add9	-0.6979652

linear2.weight f4 [3, 4]
0	0x3e865b12	0.26241356
1	0x3e7509f4	0.23929578
2	0xbe40dfe0	-0.18835402
3	0xbe3ca970	-0.1842401
4	0xbe7415cc	-0.2383644
5	0xbd617a30	-0.055048168
6	0x3e485664	0.19564205
7	0x3eeea280	0.46608353
8	0x3e167930	0.14694667
9	0x3a913200	0.0011077523
10	0xbb8fb180	-0.0043851733
11	0xbe542b04	-0.20719534

linear2.bias f4 [3]
0	0xbefa9f1e	-0.48949522
1	0x3c325840	0.010885298
2	0xbefa5948	-0.4889624
