neuralsat-pt201/example/motivation_example_155.onnx (onnx, 985 bytes, 6 tensors)

layers.0.weight f4 [2, 2]
0	0x3f000000	0.5
1	0xbf4ccccd	-0.8
2	0xbf000000	-0.5
3	0xbf000000	-0.5

layers.0.bias f4 [2]
0	0xbecccccd	-0.4
1	0x3f666666	0.9

layers.2.weight f4 [2, 2]
0	0x3f666666	0.9
1	0x3f19999a	0.6
2	0xbe99999a	-0.3
3	0xbe4ccccd	-0.2

layers.2.bias f4 [2]
0	0xbe99999a	-0.3
1	0x3e4ccccd	0.2

layers.4.weight f4 [2, 2]
0	0xbecccccd	-0.4
1	0x3f19999a	0.6
2	0x3f333333	0.7
3	0x3dcccccd	0.1

layers.4.bias f4 [2]
0	0x3f333333	0.7
1	0xbf333333	-0.7
